LARA/data/result/d_110.pt (torch, 94638 bytes, 7 tensors)

D_attr_matrix.weight f4 [36, 5]
0	0x3c1c3b5a	0.009535635
1	0xbf0c99b4	-0.5492203
2	0xbe5a77b7	-0.2133473
3	0x3dab5524	0.08365849
4	0x3db63bbc	0.08898112
5	0xbd0df01e	-0.03465282
6	0xbef6d92c	-0.48212564
7	0x3d8a09a0	0.06740117
8	0xbe6a00ff	-0.22851942
9	0x3e8d9031	0.27649072
10	0x3e9040c7	0.2817442
11	0xbb83e0e6	-0.0040246127
12	0x3d35a6af	0.044348415
13	0x3d861a67	0.065480046
14	0xbe20a94f	-0.15689586
15	0xbd50cfee	-0.050979547
16	0xbe9b52b6	-0.3033654
17	0x3d3515d5	0.044210274
18	0x3e37ff28	0.17968428
19	0xbe9d20cc	-0.30689085
20	0x3daad95b	0.083422385
21	0xbe82cb1f	-0.25545594
22	0x3d95c33e	0.0731263
23	0x3e914c8d	0.28378716
24	0x3e8f6968	0.28010106
25	0xbe48753a	-0.19575968
26	0xbf60a4d7	-0.87751526
27	0xbcbd2e49	-0.02309336
28	0x3f285914	0.6576092
29	0xbe012581	-0.12611963
30	0xbdc962da	-0.098333076
31	0xbe13b352	-0.14423874
32	0xbe3fd3bf	-0.18733118
33	0x3f1147e8	0.56750345
34	0x3d8a3fed	0.06750474
35	0x3ebc2cb9	0.3675287
36	0xbe741ebd	-0.2383985
37	0x3e6e1382	0.23249629
38	0xbddd4853	-0.108048104
39	0xbe8846cd	-0.26616517
40	0xbeed3b8c	-0.46334493
41	0x3e5dfcf3	0.21678524
42	0x3dad9455	0.08475558
43	0xbeb76350	-0.35817957
44	0x3d3d2db9	0.046186183
45	0xbe8e5b3b	-0.27803978
46	0x3e51d04f	0.2048962
47	0xbda3f33e	-0.08005379
48	0xbe52c526	-0.20583019
49	0x3e1be2aa	0.15223184
50	0x3e897e72	0.26854283
51	0x3e443723	0.19161658
52	0x3def8908	0.116960585
53	0xbda03a84	-0.07823661
54	0x3dfb985b	0.12284919
55	0x3e12e0b3	0.14343528
56	0x3eafe116	0.34351414
57	0x3caf55bf	0.021403192
58	0xbe0f9bb3	-0.14024238
59	0xbd5d3359	-0.054004047
60	0xbe2dca86	-0.16971788
61	0x3db7ca34	0.08974114
62	0xbda55790	-0.08073342
63	0x3dcdbd23	0.100458406
64	0xbd9b404d	-0.07580624
65	0xbe54d10d	-0.20782872
66	0x3ed62119	0.41822127
67	0x3dd4c2a8	0.1038869
68	0x3f007ff9	0.5019527
69	0x3ef89800	0.48553467
70	0x3e5b1adb	0.21396963
71	0x3ea8e582	0.329876
72	0x3da4aa6c	0.08040318
73	0xbd970ab1	-0.07375086
74	0xbeeb4ba9	-0.45956162
75	0xbdfefb98	-0.124503314
76	0x3e70b95b	0.23508207
77	0x3e5e572f	0.21712945
78	0x3ca6b9cd	0.020352269
79	0x3e60a902	0.21939471
80	0x3e02d004	0.12774664
81	0xbd5513ac	-0.052020714
82	0x3d8d3897	0.06895559
83	0x3e56152a	0.20906511
84	0xbdb67c6f	-0.089104526
85	0xbde7116a	-0.11282618
86	0xbe898144	-0.26856434
87	0x3e726fce	0.23675463
88	0x3eda58b7	0.4264581
89	0xbd5b59b7	-0.053552356
90	0x3d478b05	0.048716564
91	0x3e02ad47	0.12761413
92	0x3dedefd7	0.116180114
93	0xbdb5597d	-0.08854959
94	0xbe183455	-0.14863713
95	0xbecc285e	-0.39874548
96	0xbdf33253	-0.11874833
97	0x3e8339ba	0.2562998
98	0x3e980287	0.29689428
99	0xbf0aa3ee	-0.54156387
100	0xbd986c25	-0.07442502
101	0xbd029f3c	-0.03189014
102	0xbc767b82	-0.015044095
103	0x3e7903ec	0.24317902
104	0xbe9e6a00	-0.30940247
105	0x3e214bd3	0.15751581
106	0x3de13651	0.10996688
107	0x3e865a4f	0.26240775
108	0x3e27d832	0.16391066
109	0x3dfccbd3	0.12343564
110	0xbed80217	-0.42189094
111	0x3e82d641	0.25554088
112	0xbd5adaca	-0.05343131
113	0x3e0151f9	0.12628926
114	0xbda22fdc	-0.07919285
115	0xbe05b7f3	-0.13058452
116	0x3eed88bb	0.4639338
117	0xbdf000ae	-0.1171888
118	0x3dcd0821	0.10011316
119	0x3ed55e67	0.41673586
120	0xbea31eef	-0.31859538
121	0xbe6ad7ed	-0.22933932
122	0xbdc589c7	-0.096454196
123	0xbeda27c0	-0.42608452
124	0x3d855d79	0.06511969
125	0xbd522508	-0.051304847
126	0xbe0fba50	-0.14035916
127	0xbe0af27c	-0.13569063
128	0xbe8394f8	-0.25699592
129	0x3e442e54	0.19158298
130	0x3e18aa4f	0.14908718
131	0x3d040cd8	0.03223881
132	0xbe4c9669	-0.19979252
133	0xbd26c24f	-0.04071265
134	0xbd73e438	-0.05954382
135	0xbca85cf9	-0.020552145
136	0xbe0de7a5	-0.13857897
137	0xbd8e9343	-0.06961682
138	0x3e85b6b1	0.26115945
139	0xbccf2d6a	-0.02529021
140	0x3d377ae1	0.04479492
141	0x3e1150ae	0.14190933
142	0x3d889420	0.066688776
143	0xbd8448e6	-0.06459217
144	0x3d93b264	0.0721176
145	0xbe929f0f	-0.28636977
146	0xbdf47ff3	-0.11938467
147	0x3db05d78	0.08611578
148	0x3ea9392c	0.3305143
149	0xbe4a105c	-0.19732803
150	0x3d88fd77	0.066889696
151	0x3e4ff8ec	0.203098
152	0xbd101b33	-0.03518219
153	0x3d59bfa1	0.053161267
154	0xbe3fcf89	-0.18731512
155	0x3eb71a4e	0.35762256
156	0x3e2a1ccc	0.16612548
157	0xbe04f229	-0.12983002
158	0xbc52137c	-0.012822028
159	0xbc90f1d3	-0.017693436
160	0x3e5ab0f4	0.21356565
161	0xbe173cf3	-0.14769344
162	0x3e4ee041	0.20202734
163	0x3e7995e6	0.24373588
164	0xbab588c0	-0.0013849959
165	0x3ddcef1f	0.10787796
166	0xbe1667b1	-0.14687993
167	0xbec5aee7	-0.38610002
168	0x3cc8c6c4	0.024508841
169	0x3daec437	0.08533519
170	0xbd9c480b	-0.076309286
171	0x3ea03430	0.31289816
172	0x3db3304f	0.087494485
173	0xbe8e6c2e	-0.2781691
174	0xbe82bc15	-0.2553412
175	0xbef452eb	-0.4771951
176	0x3e68f87f	0.22751044
177	0x3ec2211e	0.3791589
178	0xbeac1819	-0.33612135
179	0xbe8ffc6e	-0.28122276

l1.weight f4 [100, 108]
0	0xbd868f1a	-0.06570263
1	0x3de8a3d4	0.11359373
2	0xbc67a089	-0.014137396
3	0x3e11f1a9	0.14252342
4	0x3deb1cc9	0.114801
5	0xbdc24447	-0.09485679
6	0x3d79c116	0.060975157
7	0x3da3664c	0.07978496
8	0x3de333c1	0.11093856
9	0xbb608fc7	-0.0034265385
10	0xbe1d0f35	-0.15337832
11	0xbd74be5f	-0.059751865
12	0xbd55cc10	-0.052196562
13	0x3eb4d11b	0.35315785
14	0x3e290362	0.16505197
15	0xbe00c0ad	-0.125735
16	0x3d9db2ea	0.07700141
17	0x3e279281	0.1636448
18	0x3d276991	0.04087216
19	0x3d649ff8	0.05581662
20	0xbd687d13	-0.056759905
21	0x3c7b06fd	0.01532149
22	0xbca6523a	-0.02030288
23	0x3c6ee11d	0.014580038
24	0xbd28bedd	-0.041197646
25	0xbda2e944	-0.07954648
26	0xbd332c80	-0.04374361
27	0x3c7da4e5	0.015481208
28	0x3df49a22	0.11943461
29	0x3e473ed4	0.19457561
30	0x3e6b0c7f	0.22953986
31	0xbd9e6c06	-0.077354476
32	0x3e4b025d	0.1982512
33	0x3d0f0ac0	0.03492236
34	0xbd0d8d64	-0.03455867
35	0x3d359b10	0.044337332
36	0xbe1aa2f9	-0.15101232
37	0x3e049e7d	0.12951083
38	0x3d774e3d	0.06037735
39	0x3e22a681	0.15883829
40	0xbdcb7b59	-0.09935636
41	0xbcff2266	-0.031144332
42	0x3cb94336	0.022615056
43	0x3d0b5bfc	0.03402327
44	0xbdd70b80	-0.1050024
45	0xbe309320	-0.17243624
46	0x3caf510a	0.021400947
47	0x3e4be396	0.19911036
48	0xbd3cf971	-0.046136323
49	0x3d91c767	0.07118111
50	0xbdebf10f	-0.11520588
51	0xbdbb9403	-0.0915909
52	0xbdb40a83	-0.087910675
53	0xbdcc1a47	-0.099659495
54	0xbcdebcb9	-0.0271896
55	0x3e5d3ed5	0.21606
56	0x3dc99019	0.098419376
57	0xb7f24122	-2.8878978e-05
58	0x3c6d204c	0.014473032
59	0xbd46b565	-0.048512835
60	0x3e221390	0.15827775
61	0x3daf26ff	0.0855236
62	0xbe4cc32a	-0.19996324
63	0x3d15b8c8	0.036553174
64	0x3c2b3fb2	0.010452198
65	0xbe0df470	-0.13862777
66	0xbe435253	-0.19074373
67	0x3cd088ac	0.025455795
68	0xbd8b8a01	-0.068134315
69	0x3db73fde	0.089477286
70	0xb81fc25c	-3.8089565e-05
71	0xbe03dfba	-0.12878314
72	0x3d67b567	0.056569483
73	0xbd41afcc	-0.047286794
74	0xbdaef155	-0.08542124
75	0xbe3731a0	-0.17890024
76	0xbe3bb3f3	-0.18330364
77	0xbe35764d	-0.1772091
78	0x3b9bcb2e	0.0047544455
79	0x3b02ee5f	0.0019978506
80	0x3e1449ff	0.14481352
81	0xbe5a8cc0	-0.21342754
82	0x3d0a286a	0.033729948
83	0xbdfa8a5e	-0.12233423
84	0x3dbeb661	0.0931213
85	0xbdcf43cc	-0.10120353
86	0xbc1b9c59	-0.009497725
87	0xbde48822	-0.11158778
88	0xbceb03cd	-0.028688336
89	0x3d3cb74c	0.046073243
90	0xbd468d37	-0.048474517
91	0xbeb7495f	-0.35798165
92	0x3e9a940e	0.30191082
93	0x3c4c5720	0.012471944
94	0x3d7850ff	0.06062412
95	0x3e5c4966	0.21512374
96	0xbe395d3e	-0.18101975
97	0xbd4c448f	-0.04987007
98	0x3ee2996c	0.44257677
99	0x3ef6c82f	0.48199603
100	0xbdf188d7	-0.11793678
101	0xbd148948	-0.036263734
102	0x3e9dacb2	0.3079582
103	0xbd2a8077	-0.04162642
104	0x3eab748e	0.33487362
105	0xbd463ec7	-0.048399713
106	0x3e9d3ad6	0.3070895
107	0xbe453c5b	-0.19261305
108	0xbe359c78	-0.1773547
109	0xbe069107	-0.13141261
110	0x3daf2ab1	0.085530646
111	0xbe7c0ffc	-0.24615473
112	0xbcf76f40	-0.030204415
113	0xbd833412	-0.06406416
114	0xbedc7c3b	-0.4306353
115	0x3dd19e86	0.10235314
116	0x3e77e746	0.24209318
117	0xbde57a4e	-0.112049684
118	0xbb3229b8	-0.002718551
119	0xbe42641e	-0.18983504
120	0x3ddd72d0	0.10812914
121	0xbd30e2c2	-0.043185003
122	0x3da4a9f2	0.08040227
123	0xbe04f0cf	-0.12982486
124	0xbda334ce	-0.07969056
125	0xbe292a38	-0.16520011
126	0x3e052c69	0.13005222
127	0x3e5cf56e	0.21577999
128	0xbe628d4b	-0.22124211
129	0xbdbea2b8	-0.0930838
130	0xbc710706	-0.014711147
131	0xbd50e538	-0.05099985
132	0x3d960355	0.07324854
133	0x3e2ff971	0.17184998
134	0xbe0a69fe	-0.13516995
135	0x3e4fec9c	0.20305103
136	0x3d5ca397	0.05386695
137	0x3d52c0e7	0.051453497
138	0xbcb25bd5	-0.021772305
139	0x3d37a07d	0.044830788
140	0xbe27adf5	-0.16374953
141	0xbd2a2491	-0.04153878
142	0xbe55d0f3	-0.20880489
143	0x3e7efacb	0.24900357
144	0xbe04ab4d	-0.12955971
145	0xbdb6a46d	-0.089180805
146	0xbebda25b	-0.3703793
147	0xbe988b32	-0.29793698
148	0x3db6896b	0.08912929
149	0xbda55bbb	-0.08074137
150	0x3d60d628	0.054891735
151	0x3e09478d	0.134062
152	0xbe14bfb9	-0.14526261
153	0x3e9b3751	0.3031564
154	0x3dcfd18d	0.101473905
155	0x3da02cbb	0.07821032
156	0xbe3410cd	-0.17584534
157	0xbdadfb15	-0.08495156
158	0x3cba57ff	0.022747038
159	0x3d960fab	0.07327207
160	0x3e8621ec	0.26197755
161	0x3d2f6102	0.042817123
162	0xbd65faa0	-0.056147218
163	0xbddb8b21	-0.10719896
164	0x3dc84b73	0.09780016
165	0x3e7e70ec	0.24847764
166	0x3c1d704b	0.009609292
167	0xbe37b8ed	-0.17941637
168	0xbb0d3dfe	-0.0021551843
169	0xbd381631	-0.04494304
170	0xbe6d9190	-0.23200059
171	0xbd9a1dce	-0.07525216
172	0x3da33020	0.079681635
173	0xbd8afd52	-0.06786598
174	0xbe8804b7	-0.26566097
175	0x3dfce381	0.123480804
176	0x3ed364c3	0.41287813
177	0xbe0364d8	-0.12831438
178	0x3d46e91b	0.04856215
179	0x3e220bb4	0.15824777
180	0x3d8de7b5	0.0692896
181	0x3d77bd4a	0.060483254
182	0xbc9c34b0	-0.019068092
183	0x3b52ae39	0.0032147302
184	0xbd806e50	-0.062710404
185	0xbde9d36c	-0.11417279
186	0xbcf03582	-0.02932239
187	0xbc1886c2	-0.0093094725
188	0x3d956933	0.07295456
189	0xbdc776cc	-0.097394556
190	0x3f05cc22	0.52264607
191	0x3dcfde42	0.10149814
192	0x3d0a6c71	0.033794824
193	0xbd2c6ccb	-0.04209594
194	0x3e132668	0.1437012
195	0x3e3f667b	0.18691437
196	0xbdc9b3b9	-0.098487325
197	0xbe54b34f	-0.20771526
198	0xbda48d93	-0.08034816
199	0x3d18321c	0.037157163
200	0xbe7fa87d	-0.24966617
201	0x3c9b5ae2	0.018964235
202	0xbd88efd2	-0.06686367
203	0xbda2acda	-0.07943125
204	0x3e10b99d	0.14133306
205	0xbbd077c3	-0.006361933
206	0x3d993ee0	0.074826956
207	0x3b106218	0.0022031125
208	0x3c83d169	0.016091065
209	0x3d2ca774	0.042151883
210	0x3d225947	0.039635923
211	0xbc997710	-0.018733531
212	0x3cd2e090	0.025741845
213	0x3dc7622b	0.09735521
214	0xbdd82e4c	-0.105557054
215	0x3ddbbda5	0.10729531
216	0x3e05bb8f	0.13059829
217	0xbcd0cf80	-0.025489569
218	0xbe2190b5	-0.15777858
219	0x3bc7867f	0.006089031
220	0xbce2478e	-0.02762201
221	0xbe377ef7	-0.17919527
222	0x3cb7a297	0.022416396
223	0x3e7adb21	0.24497654
224	0x3d0a3352	0.03374035
225	0xbd31384e	-0.043266587
226	0xbd8032ed	-0.06259713
227	0xbcaf3042	-0.021385316
228	0xbd5ecbb4	-0.054393485
229	0x3d9d87e1	0.076919325
230	0xbd0bb986	-0.034112476
231	0xbdd1d5ff	-0.10245895
232	0xbe1a657f	-0.1507778
233	0x3bd6ee81	0.0065591936
234	0xbd8ddd87	-0.069270186
235	0x3e9b9730	0.30388784
236	0x3d27e97b	0.04099415
237	0xbd07a535	-0.033116538
238	0xbd591bad	-0.05300491
239	0x3d74ee6d	0.059797693
240	0x3d7487f3	0.059699964
241	0x3d9953b1	0.07486666
242	0x3d3b9746	0.045798562
243	0xbe22e2b1	-0.15906788
244	0x3c0b3e48	0.008498736
245	0x3dff3570	0.12461364
246	0x3c548026	0.012970006
247	0xbca89ab2	-0.020581577
248	0x3e1aa88d	0.1510336
249	0x3e07f56e	0.13277218
250	0x3dcc4090	0.09973252
251	0xbe292b92	-0.16520527
252	0xbd657774	-0.056022123
253	0x3d4fff75	0.050780732
254	0x3db70bc0	0.08937788
255	0xbaf63ad3	-0.0018785842

l1.bias f4 [100]
0	0xbd9d0fca	-0.07669027
1	0xbbcc7e9f	-0.0062406803
2	0x3e8372ea	0.2567361
3	0xbdfaa1de	-0.12237905
4	0xbd967c45	-0.07347921
5	0xbddf45a3	-0.10901954
6	0x3c9afb40	0.018918633
7	0x3de8fcc4	0.11376336
8	0xbcbf4c5e	-0.023351844
9	0xbe1814a2	-0.14851621
10	0x3e4261ba	0.18982592
11	0xbde4056b	-0.11133846
12	0x3d0f2127	0.034943726
13	0x3e82f44e	0.25577015
14	0xbc981da5	-0.018568823
15	0xbd872c6f	-0.06600272
16	0x3d186b79	0.03721187
17	0x3bc48287	0.0059970054
18	0xbe63d51b	-0.22249262
19	0x3e0bed53	0.13664751
20	0xbe60ff2a	-0.21972337
21	0xbe24483d	-0.16043182
22	0xbdb0a203	-0.08624651
23	0x3e9570ae	0.2918753
24	0xbc063e56	-0.008193573
25	0xbd55b7da	-0.052177288
26	0xbe2176c5	-0.15767963
27	0xbd4be89b	-0.049782377
28	0x3e0d52d0	0.13801122
29	0x3e030ab8	0.12797058
30	0x3cc73f01	0.024322035
31	0xbdc2b500	-0.09507179
32	0xbe0b0cd6	-0.13579115
33	0x3d3626a7	0.044470455
34	0xbe8c07a8	-0.2734959
35	0x3d8db40e	0.06919108
36	0xbe67c75f	-0.22634648
37	0x3dc3ec5f	0.095665686
38	0xbdddfc31	-0.10839117
39	0xbda2b51b	-0.079446994
40	0x3d63e5b2	0.055638976
41	0x3e14279f	0.14468239
42	0x3d5bddca	0.05367831
43	0x3e9a032f	0.30080554
44	0x3d902d03	0.07039835
45	0x3df860b4	0.1212782
46	0xbc8f9bd9	-0.017530369
47	0x3e136e8a	0.14397636
48	0x3d9ec82d	0.07753024
49	0xbddf5cd3	-0.10906377
50	0xbe276e8b	-0.16350763
51	0xbdb5b987	-0.08873277
52	0x3d4f1484	0.050556675
53	0xbe22fb62	-0.15916207
54	0x3d4f6e12	0.05064208
55	0x3ea99ffe	0.33129877
56	0x3cd08cfb	0.02545785
57	0x3d830a52	0.06398453
58	0x3cf6938b	0.03009965
59	0x3e62e497	0.22157513
60	0x3e7ec114	0.24878341
61	0xbc60636a	-0.013695577
62	0xbd2953ed	-0.041339803
63	0xbe0f8339	-0.14014901
64	0x3e0367a2	0.12832502
65	0xbe7e8f1f	-0.24859284
66	0xbd8383d7	-0.06421631
67	0x3ea2ce28	0.3179791
68	0xbd83c04e	-0.064331636
69	0x3e57b603	0.21065526
70	0xbc3c59fd	-0.011496064
71	0x3d96ae87	0.07357507
72	0xbe1f6538	-0.15565956
73	0xbe1c73ed	-0.15278597
74	0x3e35cda8	0.17754233
75	0xbc418282	-0.011810901
76	0x3d57466d	0.052557398
77	0x3e0df977	0.13864695
78	0xbe11b7ae	-0.14230224
79	0x3e94775b	0.2899731
80	0xbe376c47	-0.17912398
81	0xbd8abe82	-0.06774618
82	0x3df08fbf	0.117461674
83	0xbdd8eb79	-0.10591788
84	0xbce46b74	-0.027883269
85	0x3e836d7c	0.25669467
86	0x3d4454be	0.04793238
87	0xbd8ab11e	-0.06772064
88	0x3cae9657	0.021311922
89	0x3e4f9eda	0.20275441
90	0x3e1f32c8	0.15546715
91	0x3e2fed92	0.1718047
92	0x3a743cd6	0.00093169266
93	0x3cbe971b	0.023265412
94	0xbe2b7b60	-0.16746283
95	0x3b1a1096	0.002350842
96	0x3e6f0c4f	0.23344539
97	0xbcafbb28	-0.021451548
98	0xbd54d334	-0.05195923
99	0xbcec8a16	-0.028874438

l2.weight f4 [100, 100]
0	0xbcd45633	-0.02592001
1	0xbe71abb6	-0.23600659
2	0xbe32254e	-0.17397043
3	0xbd800ad0	-0.06252062
4	0x3e72db1e	0.23716399
5	0xbd3198c0	-0.043358564
6	0xbd3873ff	-0.045032497
7	0xbcf3cd36	-0.029760938
8	0xbd7877d3	-0.06066115
9	0x3df95ae9	0.12175543
10	0xbcd28195	-0.025696555
11	0x3e93e30c	0.2888416
12	0xbda17bc7	-0.07884937
13	0xbc3d2a6a	-0.011545757
14	0x3e2e7199	0.17035522
15	0x3e71395a	0.23557034
16	0xbd96920f	-0.07352077
17	0xbe6c34c4	-0.23067003
18	0x3c7a7c2f	0.015288397
19	0xbda30bbd	-0.07961223
20	0x3e6ada58	0.22934854
21	0x3e0f895c	0.14017242
22	0x3e05dcf3	0.13072567
23	0xbdd6ace7	-0.10482197
24	0x3c93b27b	0.018029442
25	0x3da55239	0.08072323
26	0xbd277e19	-0.04089174
27	0x3e01bf97	0.12670742
28	0x3bb31ca6	0.0054660616
29	0xbe3d6c04	-0.18498236
30	0xbc905648	-0.017619267
31	0xbc3853fd	-0.011250493
32	0x3e40d205	0.18830116
33	0x3c563725	0.013074671
34	0xbd90cf09	-0.07070739
35	0xbd223918	-0.03960523
36	0x3cac4be8	0.021032289
37	0x3b18bb0b	0.0023304846
38	0x3e15b917	0.14621387
39	0xbdcfc1ce	-0.10144387
40	0xbd3276c4	-0.043570295
41	0xbd8dda7a	-0.06926437
42	0xbe6ef70b	-0.23336427
43	0xbe37f3b6	-0.17964062
44	0x3c96260c	0.018328689
45	0x3d81d8e9	0.063402005
46	0xbcd8b9f5	-0.026455859
47	0x3c9cb29a	0.019128133
48	0xbcf73be5	-0.030179927
49	0xbe0075b0	-0.12544894
50	0x3e12d817	0.14340244
51	0x3c1ad3b9	0.009449893
52	0xbcbbcad8	-0.022923872
53	0xbc35cb1f	-0.011095791
54	0xbdfff0f0	-0.12497127
55	0x3df210fa	0.11819644
56	0x3e9a4bd0	0.30135965
57	0xbe6a1c8c	-0.22862452
58	0xbe3d7071	-0.18499924
59	0x3d9cc112	0.07654013
60	0x3e3422bc	0.17591375
61	0xbdfea041	-0.1243291
62	0x3d45a283	0.048250686
63	0xbe18b661	-0.14913322
64	0xbd0ca47d	-0.034336556
65	0x3e46872f	0.19387506
66	0xbe23c147	-0.15991698
67	0xbe37888b	-0.17923181
68	0xbd944775	-0.07240192
69	0xbe0e9bca	-0.13926616
70	0xbe5c01d3	-0.21485071
71	0xbe10dbd3	-0.14146356
72	0xbd448639	-0.047979567
73	0x3cc88f14	0.024482287
74	0xbe395bd1	-0.18101431
75	0xbc753e57	-0.014968476
76	0x3dc32103	0.09527781
77	0xbeeaa826	-0.45831412
78	0x3ca2c8c7	0.019871129
79	0xbeacf72d	-0.3378233
80	0x3d3b8572	0.04578156
81	0x3e53a9e6	0.2067028
82	0x3dc9a3b1	0.09845675
83	0x3e2192ae	0.1577861
84	0x3e3da7b2	0.18521002
85	0x3d4644c9	0.048405442
86	0x3dc97ea4	0.09838608
87	0x3c94ba8b	0.018155357
88	0x3e07a76c	0.1324746
89	0xbe15ff14	-0.14648086
90	0x3cd1709f	0.025566397
91	0xbe23cef7	-0.1599692
92	0xbdeae966	-0.114702985
93	0x3ce7ad67	0.028280927
94	0xbd890dad	-0.066920616
95	0x3e041c7d	0.12901492
96	0xbe1c108e	-0.1524069
97	0x3dae0805	0.08497623
98	0x3dd1bd8f	0.102412336
99	0x3ddb19b5	0.106982626
100	0x3da934d7	0.082620315
101	0x3e8582aa	0.2607625
102	0x3d6e2cc9	0.05814818
103	0xbe3cb4b1	-0.18428303
104	0xbe1027b7	-0.1407765
105	0x3d1cd48f	0.03828865
106	0xbd9f1e40	-0.077694416
107	0xbd7ea790	-0.06217152
108	0xbe51f7e1	-0.20504715
109	0xbd0cd401	-0.03438187
110	0x3d9d911e	0.076936945
111	0x3d957388	0.072974265
112	0xbd5851ee	-0.05281251
113	0x3db73601	0.08945847
114	0xbe218586	-0.15773591
115	0xbdfcf32d	-0.123510696
116	0xbe14affb	-0.14520256
117	0x3dc60a88	0.096699774
118	0xbdcf7a26	-0.1013072
119	0x3c38aadc	0.011271205
120	0xbdcf8abd	-0.10133884
121	0xbd63d2f4	-0.055621102
122	0x3e312642	0.1729975
123	0x3bb19ba8	0.005420167
124	0xbd83b8b0	-0.06431711
125	0x3d351cea	0.044217028
126	0xbe06cbf6	-0.13163742
127	0xbe532e0a	-0.20623031
128	0x3c1ac052	0.009445267
129	0xbd75a746	-0.059973978
130	0x3e080c26	0.13285884
131	0x3d817170	0.063204646
132	0xbddd3b21	-0.108022936
133	0x3d46421c	0.04840289
134	0x3d773d5a	0.060361244
135	0x3e26c9c9	0.16287912
136	0x3e477f68	0.19482195
137	0xbd241192	-0.04005582
138	0xbc4b5be4	-0.012412045
139	0x3e14c9a4	0.14530045
140	0xbd8f3a5d	-0.06993554
141	0xbc12cc25	-0.008959805
142	0x3de06bbe	0.1095805
143	0xbe50a60a	-0.20375839
144	0x3db2a42c	0.087227196
145	0x3e2cbc82	0.16868785
146	0x3dc9a992	0.09846796
147	0x3e057d91	0.13036181
148	0x3da65169	0.081209965
149	0xbe38cdf6	-0.18047318
150	0xbd1bfc5a	-0.038082458
151	0x3d6c2124	0.057648793
152	0xbd93264f	-0.07185041
153	0x3dd2038e	0.10254584
154	0xbbcdc64e	-0.0062797433
155	0x3d05bb53	0.03264935
156	0xbd192e42	-0.03739763
157	0x3e581de5	0.21105154
158	0x3d05f7d6	0.032707058
159	0xbdf896e7	-0.12138157
160	0x3c926200	0.017868996
161	0x3d89fc15	0.06737534
162	0x3e58c90b	0.21170442
163	0xbdf3f555	-0.11912028
164	0x3eb9551d	0.3619775
165	0x3b9a42f9	0.004707691
166	0x3e93988c	0.28827322
167	0x3e18d5e6	0.14925346
168	0xbd7f4bf0	-0.06232828
169	0xbd384bb4	-0.04499407
170	0x3cf0e55d	0.029406244
171	0xbd54b6ff	-0.05193233
172	0xbe1b0888	-0.15139973
173	0x3d5af9b9	0.05346081
174	0xbc8c10b5	-0.01709781
175	0xbd34994a	-0.0440915
176	0xbd9d5b2c	-0.07683405
177	0xbe05ea69	-0.13077702
178	0x3e12ac42	0.14323524
179	0x3e678faf	0.22613405
180	0xbc83eef0	-0.016105145
181	0x3d3933c3	0.04521538
182	0xbcbc4028	-0.02297981
183	0x3d8b0791	0.067885526
184	0x3cfbc1bd	0.03073203
185	0x3dbd1f56	0.092344925
186	0xbe04c032	-0.12963942
187	0x3e386a04	0.18009192
188	0x3d77cf64	0.060500517
189	0x3e8abdff	0.2709808
190	0x3d67c014	0.056579664
191	0x3d160bca	0.036632337
192	0x3e1e1868	0.15438998
193	0x3d1c8149	0.038209233
194	0xbcb603f3	-0.02221868
195	0x3d37993d	0.044823874
196	0x3dfdf8a4	0.1240094
197	0xbdb01aca	-0.085988596
198	0xbdaa03c0	-0.083014965
199	0x3dc62a86	0.096760795
200	0x3eb7088f	0.35748717
201	0xbbbbe7d7	-0.0057344246
202	0xbee8e901	-0.45490268
203	0x3da86a82	0.0822344
204	0xbe66f16f	-0.22553037
205	0x3e6f0a99	0.23343886
206	0xbee41453	-0.44546756
207	0xbd688be6	-0.056774043
208	0x3e6717b0	0.2256763
209	0x3d15b9d7	0.036554184
210	0xbe822757	-0.2542064
211	0xbc593967	-0.013258315
212	0xbe76b026	-0.24090633
213	0xbf0ad14e	-0.54225624
214	0xbe965f30	-0.29369497
215	0x3e1e957f	0.15486716
216	0xbeac7f25	-0.33690754
217	0xbebb211d	-0.365487
218	0xbde452a9	-0.11148579
219	0xbddf79bb	-0.1091189
220	0xbe08cc14	-0.133591
221	0x3e72460b	0.23659532
222	0x3e60b9d7	0.21945892
223	0x3e1a89b1	0.15091588
224	0xbf217e2b	-0.6308314
225	0x3dc92500	0.0982151
226	0x3ddb1146	0.10696654
227	0x3e23886d	0.15970011
228	0x3e29e038	0.16589439
229	0xbf0460ec	-0.5171039
230	0x3f18450a	0.59480345
231	0xbe0d2050	-0.13781857
232	0x3f2cc61a	0.6748978
233	0x3c844b7e	0.016149279
234	0x3e0f7d3d	0.14012618
235	0xbc28e392	-0.010308163
236	0xbda4ee79	-0.080532975
237	0x3d56c98b	0.0524383
238	0x3b2cc2ef	0.0026361307
239	0xbd565f0c	-0.052336738
240	0x3e70faf4	0.23533231
241	0x3e1dd556	0.15413412
242	0x3d838361	0.06421543
243	0xbe77a0ce	-0.24182436
244	0xbe2778c8	-0.16354668
245	0x3e9cc1da	0.30616647
246	0xbeaa5192	-0.33265358
247	0xbd02e1ef	-0.03195375
248	0x3ea2bd8d	0.3178524
249	0x3eae042b	0.33987555
250	0xbe5d0a0e	-0.21585867
251	0xbc7523d9	-0.01496216
252	0x3f00b688	0.5027852
253	0xbe914e71	-0.2838016
254	0x3ead9401	0.3390198
255	0x3edcab69	0.43099526

l2.bias f4 [100]
0	0xbe96cb37	-0.29451916
1	0x3e9f5ea5	0.31126896
2	0x3e1ba3cd	0.15199204
3	0xbe44ecb8	-0.19230926
4	0x3cee3fee	0.029083218
5	0x3e21d0e1	0.15802337
6	0xbd9b8bb7	-0.07595008
7	0x3da45739	0.08024449
8	0xbc8cdaf8	-0.017194256
9	0x3d843816	0.0645601
10	0x3d27e864	0.04099311
11	0x3eb8d4a2	0.36099726
12	0x3ec253f5	0.3795468
13	0xbe8bc3ba	-0.27297765
14	0x3e889a4c	0.2668022
15	0x3cbf2b3e	0.02333605
16	0x3ea8b95e	0.32953924
17	0x3d93eb14	0.07222572
18	0xbdab12b6	-0.08353178
19	0x3b80aef7	0.0039271074
20	0x3db95959	0.09050245
21	0x3e7cf8e3	0.24704318
22	0x3e8d0c7f	0.27548596
23	0x3e02b23c	0.12763304
24	0x3e07ca76	0.13260826
25	0xbe457603	-0.19283299
26	0x3e48b25c	0.19599289
27	0xbeca7725	-0.39544025
28	0xbc003434	-0.007824946
29	0xbcb5fe6d	-0.022216046
30	0x3d646a51	0.055765454
31	0xbe10deee	-0.14147541
32	0x3e8b4ee7	0.27208635
33	0x3d024bab	0.031810444
34	0xbd80dd06	-0.06292157
35	0xbe44041a	-0.1914219
36	0xbd7a3c5f	-0.06109273
37	0x3c1c510b	0.0095408065
38	0x3c7a7c71	0.015288458
39	0xbd170c3a	-0.036876895
40	0xbe800267	-0.25001833
41	0x3db91ce1	0.09038711
42	0xbb6515ba	-0.0034955577
43	0xbe289fa6	-0.16467151
44	0x3e10f72e	0.14156792
45	0xbd0d88ff	-0.034554478
46	0x3e9bcc60	0.30429363
47	0x3d0007d8	0.03125748
48	0xbe0c6049	-0.13708605
49	0xbd5ad0fc	-0.05342196
50	0xbeb04151	-0.34424832
51	0x3e05b73b	0.13058178
52	0xbe4ae9cf	-0.19815753
53	0xbcc823ad	-0.024431074
54	0x3e890515	0.2676169
55	0xbd192bbb	-0.03739522
56	0x3eb707ff	0.35748288
57	0xbe8b9b98	-0.27267146
58	0x3eb7bc50	0.3588586
59	0x3e850672	0.2598148
60	0x3e0c7775	0.13717444
61	0xbd1d3d42	-0.038388498
62	0xbc1e07d9	-0.009645426
63	0xbdf2ccf7	-0.118555
64	0xbe84f6b5	-0.25969473
65	0xbe7188f3	-0.23587398
66	0x3d0ed0ef	0.034867223
67	0xbdbe8aca	-0.09303816
68	0x3da6460c	0.08118829
69	0xbd6c0d30	-0.057629764
70	0xbd8969b2	-0.06709613
71	0x3cc0db91	0.023542197
72	0xbcdc70fe	-0.026909348
73	0xbe295053	-0.16534548
74	0x3d9e117d	0.077181794
75	0xbbe81dd6	-0.007083635
76	0x3ece2837	0.40265056
77	0xbcdd6851	-0.027027281
78	0xbe2f9eed	-0.17150469
79	0xbe03a1fb	-0.1285476
80	0xbe4b2afa	-0.19840613
81	0xbbc1b1fb	-0.0059111095
82	0x3d3d4fc6	0.046218656
83	0x3d58c341	0.052920584
84	0xbdf3cc13	-0.119041584
85	0xbeefa0ce	-0.46802372
86	0x3e52f73d	0.20602126
87	0x3dec9502	0.115518585
88	0xbd0b77ce	-0.0340498
89	0xbe3b3abe	-0.18284127
90	0xbe1bb8ec	-0.15207261
91	0xbc21b105	-0.009868865
92	0x3d89b107	0.067232184
93	0x3d56ea52	0.05246956
94	0x3e3b1363	0.18269114
95	0x3e5e1a52	0.21689728
96	0xbd3fab3c	-0.04679416
97	0x3e48266e	0.1954591
98	0x3ea65cc3	0.32492647
99	0xbdd73498	-0.10508078

l3.weight f4 [18, 100]
0	0xbe071db7	-0.13194929
1	0xbe6ce154	-0.23132831
2	0xbee76bd4	-0.45199454
3	0x3e467d8b	0.19383828
4	0x3e86aaf6	0.26302308
5	0xbe6a1a3d	-0.22861572
6	0x3dd40c62	0.10353924
7	0xbe1df613	-0.15425901
8	0x3ce73719	0.028224515
9	0xbe495442	-0.19661048
10	0xbd67ce25	-0.05659308
11	0xbea164cb	-0.3152221
12	0xbe0ecb17	-0.1394466
13	0x3eb6075c	0.3555249
14	0xbc86ce79	-0.016455876
15	0xbe012a12	-0.12613705
16	0xbe393625	-0.18087061
17	0xbd8ccaba	-0.068746045
18	0xbdb46b69	-0.08809549
19	0x3eff2a78	0.4983709
20	0xbe7dd705	-0.24789055
21	0xbd7ca25b	-0.06167827
22	0xbd1ab0a1	-0.037766103
23	0xbd627152	-0.055283852
24	0xbe780cbd	-0.2422361
25	0x3e6c4bee	0.2307584
26	0xbe85a5cf	-0.26103064
27	0x3e63a5ba	0.22231188
28	0xbe79419d	-0.24341436
29	0x3e822412	0.25418144
30	0xbe8b9d02	-0.27268225
31	0x3e47107b	0.1943988
32	0xbe4198ef	-0.18905996
33	0x3eaefe2e	0.341783
34	0x3e821935	0.25409856
35	0x3e81aaeb	0.25325713
36	0x3deec118	0.116579235
37	0xbd57a580	-0.052648067
38	0x3d12ff17	0.035887804
39	0xbdcf1b66	-0.10112648
40	0x3ea7b944	0.32758534
41	0xbe0f3933	-0.13986664
42	0x3d1fbde1	0.038999442
43	0x3d95ddfa	0.07317729
44	0xbe86b4cf	-0.2630982
45	0x3e9968b3	0.29962692
46	0x3e4e4828	0.20144713
47	0x3d850ef2	0.06496991
48	0x3e8f39d2	0.279738
49	0x3e2f47ac	0.17117184
50	0x3e2b59f0	0.16733527
51	0xbe0622a6	-0.13099155
52	0x3e59f7d5	0.21285947
53	0xbf0e7842	-0.5565225
54	0xbe548872	-0.20755175
55	0x3ea891fc	0.32923877
56	0xbe3de2cd	-0.18543549
57	0x3d32d90a	0.043664016
58	0xbe410acf	-0.1885178
59	0xbd909bfc	-0.07061002
60	0x3d8da9fb	0.06917187
61	0xbea43deb	-0.3207849
62	0x3e97e405	0.29666153
63	0x3e7080a2	0.2348657
64	0x3eab3a29	0.3344281
65	0x3ea3ee99	0.32017973
66	0xbea52558	-0.32255054
67	0x3e209b3b	0.15684216
68	0xbea42db8	-0.3206613
69	0xbe948a83	-0.29011926
70	0x3e424209	0.18970503
71	0xbe0d6faf	-0.13812135
72	0x3ddaedbe	0.10689877
73	0x3da24129	0.079225846
74	0xbe818bdd	-0.2530202
75	0xbd77e393	-0.060519766
76	0xbdfb5eb7	-0.12273925
77	0x3e1e2c0c	0.1544649
78	0xbdc708b4	-0.09718457
79	0x3e55eb18	0.20890462
80	0x3eb8ab39	0.36068133
81	0x3de93309	0.11386687
82	0xbeea32a8	-0.45741773
83	0xbe7ff6ba	-0.24996462
84	0x3de58163	0.11206319
85	0x3e0ddd5a	0.1385397
86	0xbd988fb2	-0.07449283
87	0xbed80991	-0.421948
88	0x3abbaa7d	0.0014317777
89	0x3d9d1bda	0.07671328
90	0x3da5b5de	0.08091329
91	0x3d8380cd	0.06421051
92	0x3ddbdccd	0.10735474
93	0xbdd8ef36	-0.10592501
94	0xbe2b905d	-0.16754289
95	0xbdc91cce	-0.09819947
96	0x3c744574	0.014909137
97	0x3e00acae	0.12565872
98	0xbca4e6e0	-0.020129621
99	0x3e91b873	0.28461036
100	0x3d591ee7	0.053007986
101	0x3e1b18ef	0.1514623
102	0xbeb103a0	-0.34573078
103	0x3c52b543	0.012860599
104	0x3ed922f1	0.4240947
105	0xbd964b02	-0.07338525
106	0x3e907528	0.28214383
107	0x3c16e003	0.009208682
108	0xbe80cbd1	-0.251555
109	0xbeb7e50b	-0.35916933
110	0x3dc77cb2	0.097405806
111	0xbe142b1c	-0.1446957
112	0xbd1a12ba	-0.037615515
113	0x3e487f4e	0.19579813
114	0xbe8f9edc	-0.28050888
115	0x3d360a74	0.044443563
116	0xbe81a306	-0.2531969
117	0xbe869278	-0.26283622
118	0x3b552ba4	0.0032527233
119	0x3e164742	0.1467562
120	0xbe5e480a	-0.21707168
121	0xbe7c8ab7	-0.2466229
122	0xbea1df7b	-0.31615815
123	0xbd686b37	-0.056742873
124	0xbe96d384	-0.2945825
125	0xbb75a63b	-0.0037483114
126	0xbeb5f5f8	-0.35539222
127	0x3e2a3b88	0.16624272
128	0xbc31cee4	-0.010852549
129	0x3e3f9184	0.18707854
130	0xbee47f61	-0.44628432
131	0x3e4bf85a	0.19918957
132	0xbd6eae3f	-0.058271643
133	0x3eb5e517	0.35526344
134	0x3df55299	0.11978645
135	0x3e0c32f2	0.13691309
136	0x3e191edb	0.14953177
137	0x3e134c24	0.14384514
138	0x3e3e3ef3	0.185787
139	0xbed1905c	-0.4093045
140	0x3e2e80b3	0.17041282
141	0xbe5d79fe	-0.21628568
142	0x3bd742d6	0.0065692468
143	0x3e05f7c7	0.13082801
144	0xbe4eb359	-0.20185603
145	0x3e9561ed	0.29176274
146	0x3e7ca0c4	0.24670702
147	0x3ccb1603	0.02479077
148	0x3ec09b55	0.3761851
149	0x3e836d2a	0.25669223
150	0x3ed854a9	0.4225209
151	0xbe44962c	-0.19197911
152	0x3d3ddcdc	0.046353206
153	0xbe437efa	-0.19091406
154	0xbef7af6b	-0.4837602
155	0x3e2ff201	0.17182161
156	0xbe10acdc	-0.1412844
157	0x3e916f91	0.2840543
158	0xbe53f1aa	-0.20697656
159	0xbeb91f29	-0.36156586
160	0x3e21f5e3	0.15816455
161	0xbece5f7f	-0.40307233
162	0x3cc87193	0.024468219
163	0x3d7ac18a	0.06121973
164	0x3e85e600	0.2615204
165	0x3ead6299	0.33864287
166	0xbe1d9907	-0.15390407
167	0x3eb54952	0.354075
168	0xbe847ec5	-0.25877967
169	0xbe5130a1	-0.20428707
170	0x3e9afe90	0.3027234
171	0xbd1b9304	-0.037982002
172	0xbe057e93	-0.13036565
173	0x3e873d1d	0.26413813
174	0xbde41128	-0.11136085
175	0xbe656013	-0.2239993
176	0xbced5953	-0.028973257
177	0x3e7a8c9b	0.24467699
178	0xbe0953f3	-0.1341093
179	0x3e0c4501	0.13698198
180	0x3ea0dae3	0.31416997
181	0xbe8a64ad	-0.27029935
182	0x3dab895a	0.08375807
183	0xbe4cb370	-0.19990325
184	0x3a91c6e7	0.00111219
185	0x3ea05a9c	0.3131913
186	0xbe842241	-0.25807384
187	0xbdd94679	-0.10609145
188	0x3e02b71a	0.1276516
189	0x3e738381	0.23780634
190	0xbdd62f0b	-0.104581915
191	0xbd26101b	-0.040542703
192	0xbe1560ce	-0.1458771
193	0xbe14f0fb	-0.14545052
194	0xbd2a5550	-0.041585267
195	0xbd930f59	-0.07180662
196	0xbd432c6c	-0.047649786
197	0x3dc3acd1	0.095544465
198	0xbe16f4a5	-0.14741762
199	0x3e8f1103	0.27942666
200	0x3e71bbfb	0.23606865
201	0xbecb9342	-0.39760786
202	0xbecab98f	-0.39594695
203	0x3d27edbe	0.040998213
204	0xbd58902b	-0.052871864
205	0xbe5096b5	-0.2036999
206	0x3e6c2423	0.2306066
207	0xbe4293f3	-0.1900175
208	0xbe88a5d4	-0.26689017
209	0xbe4d40a3	-0.20044188
210	0x3bfdef89	0.007749502
211	0xbc82188b	-0.015880844
212	0x3e147161	0.14496376
213	0x3eb65252	0.3560968
214	0xbdb868c5	-0.09004358
215	0xbda368c0	-0.07978964
216	0xbdc822e9	-0.097722836
217	0xbe212372	-0.15736178
218	0x3e20f4df	0.15718411
219	0x3f0560c8	0.521008
220	0xbe33adb8	-0.17546737
221	0xbd96e440	-0.07367754
222	0xbe410c56	-0.18852362
223	0xbe774a72	-0.24149492
224	0xbd38e8bc	-0.045143828
225	0xbe0fa001	-0.1402588
226	0xbf07456d	-0.5284031
227	0x3eb0dc2c	0.34542978
228	0xbde3a2ac	-0.111150116
229	0x3e902554	0.2815348
230	0xbe81128d	-0.25209466
231	0x3e1ccbf2	0.15312174
232	0xbe37cf54	-0.17950183
233	0x3e44c3f0	0.19215369
234	0x3e942570	0.28934813
235	0xbd5debd2	-0.054179974
236	0x3e181650	0.14852262
237	0xbe6cf4ab	-0.23140208
238	0xbce2635a	-0.027635265
239	0x3c139b28	0.00900916
240	0xbe108013	-0.14111356
241	0xbd2e39fd	-0.04253577
242	0xbd502c73	-0.05082364
243	0x3e3d89a0	0.18509531
244	0xbe5071f1	-0.20355965
245	0x3ef0f717	0.47063515
246	0x3e338a48	0.17533219
247	0x3e9e6428	0.30935788
248	0x3e7ac825	0.24490412
249	0x3e808dd2	0.251082
250	0x3e2c5abe	0.1683149
251	0xbe9a7c21	-0.30172828
252	0xbe6fe071	-0.23425461
253	0xbdb7c239	-0.08972592
254	0xbe5031f6	-0.20331559
255	0xbddd44be	-0.10804127

l3.bias f4 [18]
0	0x3db10cd8	0.08645028
1	0xbd87b56c	-0.066264
2	0xbee99c53	-0.45627078
3	0xbea174f1	-0.31534532
4	0x3e172aaa	0.14762369
5	0xbccd222e	-0.025040712
6	0x3c97b33b	0.018518081
7	0xbebaa3e3	-0.3645316
8	0xbdf8995e	-0.121386275
9	0xbe4aa230	-0.19788432
10	0x3d6f78d8	0.058464855
11	0xbe98c726	-0.29839438
12	0xbea2dd31	-0.3180938
13	0x3ebefa92	0.37300545
14	0xbd827943	-0.06370785
15	0xbe75b000	-0.2399292
16	0xbeca233c	-0.39480007
17	0xbe9fd031	-0.31213525
