LARA/data/result/d_120.pt (torch, 94638 bytes, 7 tensors)

D_attr_matrix.weight f4 [36, 5]
0.022871211 -0.5562361 -0.20247309 0.08453144 0.09589888 -0.03212413 -0.48671183 0.08396248
-0.23098023 0.2720177 0.2751024 0.0005959209 0.04302531 0.074054524 -0.1550806 -0.05772283
-0.32241285 0.04300344 0.19042337 -0.30483153 0.10177594 -0.25256556 0.061805956 0.29130006
0.28534353 -0.17276812 -0.8716206 -0.015922228 0.66528076 -0.12835886 -0.091586836 -0.1430622
-0.18028387 0.5723314 0.07150345 0.47538334 -0.21967512 0.29134688 -0.12859963 -0.30694106
-0.48499665 0.21461119 0.07394151 -0.34791812 0.05276055 -0.2874749 0.1953182 -0.09084997
-0.19424485 0.14907698 0.27918693 0.18240996 0.106168844 -0.064137965 0.11735178 0.14283237
0.37209314 0.03143413 -0.14672336 -0.037742246 -0.17410335 0.088217765 -0.07974431 0.096637584
-0.076115265 -0.20677838 0.41639614 0.10212284 0.5039248 0.49356353 0.26626626 0.3269584
0.08165577 -0.112529725 -0.4591523 -0.10922629 0.23084167 0.21406843 -0.00054661906 0.22081615
0.13172634 -0.053773005 0.06864424 0.2078434 -0.0802021 -0.12326595 -0.27696928 0.24054988
0.41605026 -0.039637774 0.05187902 0.1247482 0.11958283 -0.09326833 -0.14653274 -0.41375074
-0.09774461 0.28102037 0.29686007 -0.5491125 -0.068682306 -0.030002693 -0.016671026 0.246834
-0.31588173 0.16632733 0.12002861 0.29808098 0.17424746 0.12370532 -0.42143673 0.24908659
-0.07689984 0.12813169 -0.07789253 -0.15712196 0.51077616 -0.18495756 0.0840035 0.4367526
-0.33228242 -0.21178333 -0.10035057 -0.44053167 0.06882653 -0.074683 -0.14332385 -0.1459942
-0.2521966 0.20359473 0.13274434 0.02955464 -0.20009564 -0.05032227 -0.049122274 -0.030167112
-0.15388128 -0.07981848 0.27968997 -0.012113562 0.04806758 0.14249252 0.06357629 -0.069676474
0.025893798 -0.2698641 -0.11307421 0.09186887 0.30787957 -0.24144644 0.06283625 0.20277248
-0.028441682 0.077166 -0.1863266 0.35525814 0.16792566 -0.13353759 0.015599464 -0.028636273
0.2207179 -0.14785987 0.20777038 0.24010009 0.016745089 0.10103547 -0.16112073 -0.383792
-0.0028233754 0.1434894 -0.0448216 0.3057363 0.093579054 -0.2824181 -0.25905573 -0.43827382
0.26180133 0.347335 -0.35827953 -0.3026825
00000000: 685c bb3c 7d65 0ebf 1b55 4fbe d21e ad3d
00000010: a266 c43d 9794 03bd 4b32 f9be 85f4 ab3d
00000020: 1586 6cbe e745 8b3e 39da 8c3e 9337 1c3a
00000030: 4f3b 303d e6a9 973d 73cd 1ebe c66e 6cbd
00000040: 4c13 a5be 6024 303d 58fe 423e e112 9cbe
00000050: e76f d03d 4650 81be 3e28 7d3d 4825 953e
00000060: 8c18 923e 20ea 30be 8722 5fbf 556f 82bc
00000070: d74f 2a3f 8170 03be e191 bbbd e67e 12be
00000080: 569c 38be 5084 123f 6770 923d 7265 f33e
00000090: 84f2 60be 6b2b 953e 9faf 03be 6127 9dbe
000000a0: 7b51 f8be 09c3 5b3e a56e 973d 5322 b2be
000000b0: 721b 583d e92f 93be 7f01 483e 8d0f babd
000000c0: 1fe8 46be a3a7 183e 97f1 8e3e adc9 3a3e
000000d0: 0d6f d93d c45a 83bd 2156 f03d a642 123e
000000e0: fe82 be3e 13c1 003d a63e 16be 9d97 1abd
000000f0: 2648 32be 84ab b43d fc50 a3bd ede9 c53d
00000100: 52e2 9bbd b6bd 53be e031 d53e c825 d13d
00000110: 3701 013f 5cb4 fc3e 0d54 883e 1767 a73e
00000120: 243b a73d fc75 e6bd 0316 ebbe 08b2 dfbd
00000130: c261 6c3e c134 5b3e fc4a 0fba a11d 623e
00000140: 45e3 063e 1541 5cbd 5a95 8c3d e6d4 543e
00000150: 0041 a4bd dc72 fcbd ebce 8dbe b552 763e
00000160: 8a04 d53e 385b 22bd 187f 543d fc7b ff3d
00000170: d8e7 f43d 7703 bfbd ae0c 16be 23d7 d3be
00000180: 532e c8bd e7e1 8f3e 0bfe 973e a392 0cbf
00000190: 4fa9 8cbd 35c8 f5bc ad91 88bc 0dc2 7c3e
000001a0: 40bb a1be b651 2a3e 8fd1 f53d 129e 983e
000001b0: ed6d 323e 3759 fd3d 8ec6 d7be 8e10 7f3e
000001c0: aa7d 9dbd f434 033e 1e86 9fbd 94e4 20be
000001d0: 3ac2 023f 8465 3dbe 070a ac3d 099e df3e
000001e0: ec20 aabe bbdd 58be 9a84 cdbd 5e8d e1be
000001f0: ecf4 8c3d 67f3 98bd 7dc3 12be 817f 15be
00000200: ea1f 81be 237b 503e 22ee 073e 931c f23c
00000210: dfe5 4cbe b91e 4ebd 7034 49bd 0521 f7bc
00000220: 0e93 1dbe df77 a3bd 8633 8f3e f677 46bc
00000230: 83e2 443d 8fe9 113e 4934 823d 8ab2 8ebd
00000240: 3b1f d43c a12b 8abe 7493 e7bd bf25 bc3d
00000250: 64a2 9d3e bc3d 77be 4bb0 803d 97a3 4f3e
00000260: 88fe e8bc 3509 9e3d 66cc 3ebe 65e4 b53e
00000270: b4f4 2b3e 14be 08be e594 7f3c 9e96 eabc
00000280: e003 623e 9468 17be c2c1 543e ccdc 753e
00000290: ff2c 893c afeb ce3d d5fc 24be 6380 c4be
000002a0: 6108 39bb e3ee 123e db96 37bd 7889 9c3e
000002b0: 60a6 bf3d 1b99 90be f4a2 84be 6d65 e0be
000002c0: d30a 863e e5d5 b13e 6a70 b7be 33f9 9abe

l1.weight f4 [100, 108]
-0.058405835 0.10046576 -0.025462352 0.14061151 0.12698005 -0.08060643 0.053543642 0.09031175
0.1272294 -0.01566516 -0.13702953 -0.07389703 -0.042928837 0.36688778 0.17724067 -0.13146828
0.062962934 0.15290917 0.052913293 0.06149309 -0.06928785 0.028402757 -0.020805145 0.002068273
-0.025236897 -0.064775154 -0.03280405 0.031214029 0.10850521 0.21218958 0.21593961 -0.06206082
0.18580079 0.049788326 -0.04377256 0.056752305 -0.13770664 0.14187634 0.047887936 0.14775008
-0.08772026 -0.047112253 0.03770374 0.04787054 -0.117678784 -0.16785897 0.032170966 0.21307275
-0.055678792 0.055559438 -0.12590817 -0.101247124 -0.08083752 -0.08656686 -0.039820757 0.20423955
0.11194991 -0.020249601 0.029295286 -0.049912028 0.14653611 0.07432871 -0.21297063 0.024037546
0.027124865 -0.12305863 -0.1731418 0.010803566 -0.082232185 0.07674526 -0.011095239 -0.1203198
0.07141511 -0.039926015 -0.09214902 -0.16568738 -0.16974492 -0.1925737 0.025241254 -0.011089433
0.15711293 -0.22668 0.04032896 -0.11098197 0.11444712 -0.104248546 0.0041551525 -0.104341105
-0.041784015 0.03306167 -0.053179916 -0.41847304 0.2090006 -0.09133008 0.038166627 0.31723768
-0.25560692 -0.015159074 0.4340983 0.4091191 -0.13476208 -0.19350484 0.3419575 0.05311288
0.26601568 -0.03245213 0.4636937 -0.1929297 -0.19246225 -0.1186049 0.09805543 -0.25853616
-0.043337617 -0.07965514 -0.44945204 0.0901588 0.22895391 -0.101529635 -0.015630877 -0.17600468
0.09733994 -0.05664733 0.068366654 -0.16607006 -0.063478075 -0.17102005 0.12600265 0.25140268
-0.20489408 -0.10621531 -0.053428657 -0.0349153 0.06903704 0.16091007 -0.15139839 0.19360586
0.06991243 0.045130752 -0.008469222 0.030091953 -0.15194193 -0.05587463 -0.20007306 0.2856505
-0.14035964 -0.10482296 -0.36732042 -0.3476891 0.07784065 -0.06332767 0.03875814 0.1202933
-0.13402946 0.30803835 0.09132068 0.063762926 -0.16971375 -0.06900186 0.045662943 0.10071719
0.3512959 0.028967034 -0.038715586 -0.09436109 0.08590091 0.2635817 -0.004306485 -0.16436507
0.009752045 -0.033361476 -0.21834828 -0.06287864 0.064090416 -0.087758705 -0.33593416 0.14018822
0.51355946 -0.1126118 0.055709817 0.14705883 0.05497896 0.06071358 -0.011616241 0.0016620166
-0.07623944 -0.10891771 -0.049047537 0.008189867 0.061800394 -0.084412225 0.5310051 0.09308402
0.003602969 -0.036486704 0.13099179 0.17627713 -0.085806735 -0.19496807 -0.08662908 0.04232022
-0.23584567 0.039672356 -0.071437754 -0.111756325 0.17005931 0.0019011509 0.074924506 0.0039173244
0.043290675 0.07357021 0.04058928 -0.039546784 0.031847488 0.10689685 -0.100996174 0.12536137
0.12569986 -0.023482434 -0.15726659 0.0098046195 -0.030255571 -0.18111186 0.026762966 0.2440254
0.02880364 -0.04094341 -0.06565016 -0.018297886 -0.05455769 0.07432687 -0.035510875 -0.10421467
-0.14765695 0.006710065 -0.07022198 0.30698833 0.041811604 -0.035205446 -0.04222572 0.06071562
0.0531205 0.07082003 0.046423387 -0.1644698 0.008548941 0.11709411 0.015391726 -0.02313355
0.15398845 0.13063851 0.102279544 -0.16645233 -0.05821939 0.047750764 0.08954582 -0.0013483802
00000000: f53a 6fbd fec0 cd3d 6c96 d0bc 77fc 0f3e
00000010: 0f07 023e fc14 a5bd 9450 5b3d 5ef5 b83d
00000020: 6d48 023e 3954 80bc 7851 0cbe 5357 97bd
00000030: 26d6 2fbd b7d8 bb3e 947e 353e 9f9f 06be
00000040: b6f2 803d 3994 1c3e 9cbb 583d 2ee0 7b3d
00000050: cae6 8dbd e6ac e83c 8d6f aabc dd8b 073b
00000060: 9cbd cebc d6a8 84bd 8a5d 06bd 90b4 ff3c
00000070: fb37 de3d 3a48 593e 461f 5d3e 7d33 7ebd
00000080: 9042 3e3e d8ee 4b3d db4a 33bd 1b75 683d
00000090: f802 0dbe 0848 113e 2426 443d cc4b 173e
000000a0: aea6 b3bd c7f8 40bd 3d6f 1a3d e613 443d
000000b0: 9301 f1bd 39e3 2bbe b4c5 033d be2f 5a3e
000000c0: 720f 64bd 4b92 633d 12ee 00be a75a cfbd
000000d0: 248e a5bd f749 b1bd 171b 23bd 2c24 513e
000000e0: ff45 e53d 7ee2 a5bc abfc ef3c 8e70 4cbd
000000f0: 900d 163e a739 983d f914 5abe 63ea c43c
00000100: f734 de3c 2a06 fcbd 164c 31be 7101 313c
00000110: 5969 a8bd 9e2c 9d3d cec8 35bc 3a6a f6bd
00000120: 1642 923d 7689 23bd a0b8 bcbd f4a9 29be
00000130: 9dd1 2dbe 0a32 45be bfc6 ce3c 74b0 35bc
00000140: 36e2 203e cd1e 68be fb2f 253d 844a e3bd
00000150: 4063 ea3d 4380 d5bd f227 883b cab0 d5bd
00000160: b725 2bbd ac6b 073d 2fd3 59bd 1942 d6be
00000170: 4104 563e 440b bbbd 9c54 1c3d fa6c a23e
00000180: e9de 82be c45d 78bc 2242 de3e 0f78 d13e
00000190: 12ff 09be 2226 46be 0e15 af3e e48c 593d
000001a0: 3533 883e 86ec 04bd 4369 ed3e 5d8f 45be
000001b0: d314 45be 20e7 f2bd 49d1 c83d da5e 84be
000001c0: c982 31bd 3c22 a3bd 941e e6be 2da5 b83d
000001d0: e572 6a3e c5ee cfbd 530c 80bc 923a 34be
000001e0: 2a5a c73d 0807 68bd d103 8c3d 450e 2abe
000001f0: cb00 82bd e11f 2fbe d706 013e dab7 803e
00000200: c1cf 51be 6a87 d9bd 02d8 5abd 5803 0fbd
00000210: 4b63 8d3d 9cc5 243e 2e08 1bbe 9d40 463e
00000220: 402e 8f3d 06db 383d 7ec2 0abc 6683 f63c
00000230: aa96 1bbe ccdc 64bd f4df 4cbe c840 923e
00000240: 70ba 0fbe 6cad d6bd 6c11 bcbe 4e04 b2be
00000250: eb6a 9f3d f0b1 81bd dbc0 1e3d 555c f63d
00000260: 053f 09be 34b7 9d3e 5606 bb3d 2396 823d
00000270: 71c9 2dbe d950 8dbd 1109 3b3d d044 ce3d
00000280: 0edd b33e 464c ed3c 3c94 1ebd 6340 c1bd
00000290: d1ec af3d 2ef4 863e 6a1d 8dbb 514f 28be
000002a0: 0bc7 1f3c 0ba6 08bd b196 5fbe 84c6 80bd
000002b0: d641 833d d6ba b3bd 90ff abbe 808d 0f3e
000002c0: a278 033f 04a1 e6bd fa2f 643d 9796 163e
000002d0: 9e31 613d ceae 783d 0c52 3ebc 06d8 d93a
000002e0: 6c23 9cbd 4010 dfbd 12e6 48bd cb2e 063c
000002f0: 6922 7d3d 51e0 acbd f3ef 073f d6a2 be3d
00000300: ca1f 6c3b 1573 15bd b622 063e fe81 343e
00000310: 71bb afbd b6a5 47be 966a b1bd f857 2d3d
00000320: 8781 71be 7b7f 223d f54d 92bd 80e0 e4bd
00000330: 0724 2e3e 0a30 f93a 0572 993d e65c 803b
00000340: 9051 313d faab 963d f240 263d cffb 21bd
00000350: 8372 023d bcec da3d 15d7 cebd bb5e 003e
00000360: 77b7 003e 3c5e c0bc 7e0a 21be 8ea3 203c
00000370: 88da f7bc 6375 39be 023e db3c cbe1 793e
00000380: 9cf5 eb3c 47b4 27bd 9773 86bd 73e5 95bc
00000390: e277 5fbd b038 983d da73 11bd 806e d5bd
000003a0: 6233 17be 1be0 db3b 8bd0 8fbd 932d 9d3e
000003b0: a542 2b3d 9633 10bd e0f4 2cbd f1b0 783d
000003c0: e294 593d 180a 913d 7326 3e3d c56a 28be
000003d0: dc10 0c3c 09cf ef3d 942d 7c3c 9282 bdbc
000003e0: 26af 1d3e 1ac6 053e f077 d13d 7b72 2abe
000003f0: 7577 6ebd 4e96 433d cd63 b73d 22bc b0ba

l1.bias f4 [100]
-0.06364353 -0.018766498 0.25471148 -0.12050921 -0.08742557 -0.14196482 0.015694361 0.1125579
-0.011350878 -0.15071946 0.18921448 -0.110166386 0.03501322 0.2619692 -0.038936622 -0.06312315
0.034585673 0.005984893 -0.21748573 0.13886093 -0.22308765 -0.1308582 -0.08562707 0.2952461
-0.008895787 -0.05206939 -0.15057243 -0.049397357 0.15137704 0.12619658 0.024537545 -0.103776544
-0.13445479 0.03743136 -0.2678298 0.07221547 -0.21308894 0.09697202 -0.11313971 -0.09035446
0.042314008 0.14650293 0.05355678 0.31335595 0.068790905 0.12043968 -0.023495834 0.1404886
0.09202781 -0.097438544 -0.15756844 -0.08630939 0.060243316 -0.15531301 0.052726924 0.32818073
0.01047975 0.06274147 0.024083737 0.21664181 0.24805173 -0.0015020467 -0.04043491 -0.14372659
0.13427047 -0.24621549 -0.07925782 0.31965572 -0.026900902 0.20863068 -0.002991901 0.07181778
-0.14899339 -0.14441721 0.18915446 -0.017264526 0.05163989 0.12773216 -0.14185633 0.28224948
-0.18849617 -0.06810231 0.12750244 -0.12273962 -0.020887725 0.25512332 0.051740736 -0.07056057
0.020405635 0.20566358 0.15473828 0.18237604 0.0029092215 0.024296524 -0.17143932 0.0041458327
0.22172238 -0.03623702 -0.05982367 -0.043193888
00000000: 8a57 82bd 33bc 99bc 8b69 823e 88cd f6bd
00000010: 2d0c b3bd 3a5f 11be 7691 803c c284 e63d
00000020: 08f9 39bc 3456 1abe 71c1 413e ea9e e1bd
00000030: 066a 0f3d d420 863e 027c 1fbd b646 81bd
00000040: b5a9 0d3d ec1c c43b 94b4 5ebe 8f31 0e3e
00000050: 1771 64be b1ff 05be 3f5d afbd 7f2a 973e
00000060: a3bf 11bc b646 55bd a92f 1abe e254 4abd
00000070: 9502 1b3e ad39 013e f602 c93c cc88 d4bd
00000080: 84ae 09be a051 193d fd20 89be b4e5 933d
00000090: fd33 5abe 4499 c63d cbb5 e7bd c20b b9bd
000000a0: 7451 2d3d dd04 163e 5b5e 5b3d 3170 a03e
000000b0: 3fe2 8c3d 14a9 f63d 567a c0bc 3edc 0f3e
000000c0: 1479 bc3d dc8d c7bd 9f59 21be fac2 b0bd
000000d0: b2c1 763d 600a 1fbe 30f8 573d 4e07 a83e
000000e0: 42b3 2b3c 9a7e 803d 424b c53c 5ad7 5d3e
000000f0: 4601 7e3e 53e0 c4ba 149f 25bd 102d 13be
00000100: 337e 093e ea1f 7cbe ed51 a2bd eaa9 a33e
00000110: 485f dcbc 48a3 553e c513 44bb 3315 933d
00000120: b991 18be 1be2 13be b5b1 413e 566e 8dbc
00000130: 5984 533d 38cc 023e c942 11be 0183 903e
00000140: 2405 41be 3979 8bbd 0090 023e e95e fbbd
00000150: bc1c abbc 869f 823e 18ee 533d 0f82 90bd
00000160: b829 a73c 7999 523e b673 1e3e c9c0 3a3e
00000170: a3a8 3e3b 8109 c73c ca8d 2fbe c4d9 873b
00000180: 310b 633e 456d 14bd aa09 75bd 13ec 30bd

l2.weight f4 [100, 100]
-0.013184325 -0.23435144 -0.17956038 -0.07965656 0.2553213 -0.07208847 -0.11192904 -0.024265576
-0.049488194 0.10007535 -0.0047085877 0.2733513 -0.041640885 0.017926445 0.121473886 0.23005544
-0.07766487 -0.24051131 0.01841157 -0.067492284 0.21332377 0.15423378 0.124246545 -0.08871819
0.07465059 0.06999605 -0.03109263 0.1075481 0.024233872 -0.13963334 0.011088461 0.0031819069
0.2033887 0.026329275 -0.094369546 -0.02608331 -0.021284591 0.02722261 0.14138474 -0.091627024
-0.050893962 -0.03981681 -0.21601325 -0.12094539 -0.028239356 0.006055185 -0.030483074 0.0036570453
-0.023557559 -0.14558797 0.12770085 -0.015552348 -0.0069530224 -0.051708583 -0.13933222 0.13877165
0.27314022 -0.21808538 -0.1777217 0.01671941 0.22131428 -0.170522 0.06606285 -0.15795021
-0.017002977 0.18145427 -0.20263442 -0.16228226 -0.047628146 -0.10659509 -0.19736245 -0.111476764
-0.06007412 0.0141714 -0.15846394 -0.037805293 0.15337391 -0.46278387 -0.008495379 -0.3559631
0.03183642 0.18895663 0.084235035 0.12248526 0.17106122 0.071189865 0.11032033 -0.016563257
0.1731979 -0.12866443 0.07635757 -0.15382874 -0.13069218 0.044368576 -0.106226735 0.100314416
-0.14441036 0.06468411 0.098954804 0.093698055 0.074728034 0.2640248 0.05363431 -0.18272223
-0.13715284 0.048896868 -0.046961095 -0.057926636 -0.20457885 -0.03478387 0.076058835 0.07401527
-0.06276463 0.077881 -0.1215568 -0.124488935 -0.12927143 0.12117543 -0.102334134 0.011863042
-0.1002744 -0.057376523 0.17170799 0.005528366 -0.0627801 0.04094012 -0.13057527 -0.20447907
0.0063210567 -0.07162852 0.11096802 0.062405944 -0.11031559 0.043324575 0.07054293 0.15926923
0.20225382 -0.04966221 -0.014683431 0.14812301 -0.071641445 -0.020006616 0.108070835 -0.22463447
0.09258329 0.18710318 0.09555836 0.13038644 0.07145552 -0.16730969 -0.04070647 0.061365116
-0.07349952 0.11654785 -0.00411866 0.03572365 -0.02708686 0.21116905 0.033734452 -0.09591152
0.000686163 0.077985115 0.21469797 -0.107100375 0.3603372 0.0025419414 0.30443928 0.14786515
-0.06923856 -0.05200541 0.027453328 -0.058793757 -0.15102601 0.05444765 -0.026968753 -0.038944557
-0.1016553 -0.123693675 0.15594637 0.23291445 -0.016301034 0.043421235 -0.020404859 0.09236175
0.028766198 0.084817976 -0.13376611 0.18925066 0.06207183 0.269409 0.051234726 0.038468715
0.1498654 0.031998225 -0.010175519 0.050288714 0.12563206 -0.07780786 -0.08556414 0.09832678
0.44045773 -0.0061770226 -0.4819021 0.08042254 -0.21586727 0.1927256 -0.4634006 -0.079129785
0.2228333 0.051868103 -0.25868312 -0.014593631 -0.20506659 -0.5343598 -0.20631553 0.14977513
-0.37832448 -0.34758228 -0.15502581 -0.13452062 -0.1328581 0.196321 0.2390595 0.15227118
-0.60391235 0.14153636 0.094623834 0.15962881 0.13801421 -0.56316054 0.597359 -0.13459308
0.7409741 0.022158762 0.17584865 -0.046243772 -0.120431356 0.04767846 0.041096162 0.018525288
0.20450181 0.11842832 0.06530961 -0.20924318 -0.14895022 0.24102207 -0.3367485 -0.04640861
0.42411414 0.4465027 -0.24385972 -0.026563277 0.5073433 -0.27062455 0.34502736 0.4668578
00000000: 1103 58bc d3f9 6fbe adde 37be fb22 a3bd
00000010: 79b9 823e 1fa3 93bd 0d3b e5bd 9ac8 c6bc
00000020: 22b4 4abd 4ef4 cc3d 7f4a 9abb b4f4 8b3e
00000030: a28f 2abd 7bda 923c 4dc7 f83d a793 6b3e
00000040: c20e 9fbd 9948 76be dcd3 963c 6539 8abd
00000050: 8c71 5a3e 76ef 1d3e f974 fe3d e2b1 b5bd
00000060: 69e2 983d 175a 8f3d f9b5 febc 2e42 dc3d
00000070: 1d86 c63c 0bfc 0ebe 60ac 353c 8a87 503b
00000080: 2145 503e 7eb0 d73c d244 c1bd aaac d5bc
00000090: 065d aebc f301 df3c 29c7 103e f3a6 bbbd
000000a0: 3076 50bd f416 23bd 9432 5dbe 37b2 f7bd
000000b0: 3956 e7bc 936a c63b a4b7 f9bc 0aab 6f3b
000000c0: c8fb c0bc 0315 15be 03c4 023e 47cf 7ebc
000000d0: 2ed6 e3bb 61cc 53bd 1bad 0ebe 281a 0e3e
000000e0: 09d9 8b3e c651 5fbe adfc 35be 25f7 883c
000000f0: 36a0 623e 529d 2ebe f64b 873d b3bd 21be
00000100: d449 8bbc 26cf 393e 667f 4fbe 522d 26be
00000110: bb15 43bd 874e dabd 6219 4abe ee4d e4bd
00000120: 4810 76bd 292f 683c 5f44 22be b9d9 1abd
00000130: 0d0e 1d3e 02f2 ecbe 3430 0bbc cc40 b6be
00000140: e866 023d d97d 413e 6b83 ac3d 8dd9 fa3d
00000150: ac2a 2f3e fecb 913d a0ef e13d abaf 87bc
00000160: ca5a 313e 9cc0 03be 5c61 9c3d 4885 1dbe
00000170: 2cd4 05be d3bb 353d 678d d9bd a571 cd3d
00000180: 4fe0 13be 1a79 843d d1a8 ca3d c4e4 bf3d
00000190: 030b 993d 422e 873e a6af 5b3d 891b 3bbe
000001a0: cb71 0cbe 1548 483d 475a 40bd 7b44 6dbd
000001b0: 1e7d 51be 8879 0ebd bcc4 9b3d 5195 973d
000001c0: be8a 80bd 1380 9f3d c6f2 f8bd 0ef4 febd
000001d0: bb5f 04be d32a f83d 8f94 d1bd 345d 423c
000001e0: aa5c cdbd a503 6bbd 38d4 2f3e 4c27 b53b
000001f0: da92 80bd d4b0 273d 86b5 05be f662 51be
00000200: de20 cf3b f9b1 92bd 3443 e33d 609d 7f3d
00000210: 24ed e1bd 1c75 313d d078 903d 7917 233e
00000220: a01b 4f3e 9a6a 4bbd c692 70bc 8fad 173e
00000230: c0b8 92bd eae4 a3bc 3e54 dd3d 9406 66be
00000240: 4f9c bd3d fa97 3f3e 1ab4 c33d 0684 053e
00000250: 4657 923d 3b53 2bbe d4bb 26bd fd59 7b3d
00000260: eb86 96bd a4b0 ee3d d3f5 86bb f652 123d
00000270: 43e5 ddbc b33c 583e 232d 0a3d 426d c4bd
00000280: 9fdf 333a a9b6 9f3d c9d9 5b3e 7157 dbbd
00000290: 1e7e b83e b396 263b 77df 9b3e f669 173e
000002a0: f2cc 8dbd a003 55bd cde5 e03c b9d1 70bd
000002b0: 90a6 1abe 8004 5f3d 93ed dcbc 5484 1fbd
000002c0: a730 d0bd 1c53 fdbd 68b0 1f3e 2081 6e3e
000002d0: bf89 85bc 77da 313d 1728 a7bc 2828 bd3d
000002e0: 17a7 eb3c 0cb5 ad3d fcf9 08be edca 413e
000002f0: 083f 7e3d faef 893e 81db 513d 5f91 1d3d
00000300: 5176 193e 9210 033d 38b7 26bc 8afb 4d3d
00000310: b1a5 003e ba59 9fbd 403c afbd 8d5f c93d
00000320: ad83 e13e 9f68 cabb dfbb f6be 93b4 a43d
00000330: 4f0c 5dbe dc59 453e d842 edbe cc0e a2bd
00000340: 6a2e 643e a673 543d 1d72 84be 201a 6fbc
00000350: fafc 51be cecb 08bf 6144 53be a75e 193e
00000360: bfb3 c1be 4ef6 b1be 16bf 1ebe c6bf 09be
00000370: f40b 08be 5f08 493e 03cc 743e faec 1b3e
00000380: 009a 1abf e8ee 103e 24ca c13d bc75 233e
00000390: 9953 0d3e 4a2b 10bf 85ec 183f c5d2 09be
000003a0: 7bb0 3d3f 4b86 b53c ab11 343e 1c6a 3dbd
000003b0: b7a4 f6bd 7d4a 433d 7354 283d 58c2 973c
000003c0: ec68 513e 8c8a f23d 0bc1 853d d843 56be
000003d0: 6886 18be 7dce 763e 4d6a acbe f416 3ebd
000003e0: 7d25 d93e 009c e43e 5db6 79be 3b9b d9bc
000003f0: 40e1 013f 4d8f 8abe 6da7 b03e fc07 ef3e

l2.bias f4 [100]
-0.27483612 0.30947304 0.15178916 -0.20059785 0.023690809 0.14658508 -0.07178838 0.07538376
-0.016822167 0.066578746 0.047472145 0.35282126 0.3828734 -0.28282198 0.26923844 0.025460837
0.33268523 0.076482765 -0.09266136 -0.001847771 0.0978239 0.23704046 0.27069807 0.110472426
0.12715662 -0.19059174 0.19557203 -0.39068362 -0.016567526 -0.017585814 0.048283257 -0.12852027
0.24621958 0.034045864 -0.0620133 -0.19030458 -0.064609766 0.013935384 0.028353386 -0.04524177
-0.25788915 0.09515225 -0.0036174217 -0.16503642 0.13065308 -0.030497141 0.3017339 0.028934373
-0.14026858 -0.049642205 -0.3345403 0.13690238 -0.20093745 -0.03029872 0.26762506 -0.03312827
0.3425485 -0.27586752 0.3545462 0.26501328 0.15138799 -0.035199355 -0.010284204 -0.119986236
-0.26302603 -0.22989231 0.03883105 -0.07990097 0.09097807 -0.061163343 -0.070199184 0.023764247
-0.026018547 -0.15802675 0.078167 0.007758002 0.407706 -0.022618443 -0.17038067 -0.115161516
-0.19367768 -0.0024905582 0.046970345 0.042869914 -0.12557994 -0.464623 0.21066768 0.11604617
-0.040404055 -0.18022758 -0.15313298 -0.0095751835 0.07956366 0.050116602 0.18788484 0.2194096
-0.04702908 0.19658728 0.32926428 -0.095332436
00000000: 52b7 8cbe 4073 9e3e 9e6e 1b3e 8669 4dbe
00000010: 3a13 c23c 661a 163e c905 93bd cd62 9a3d
00000020: a4ce 89bc 705a 883d 2772 423d fda4 b43e
00000030: fb07 c43e 0bce 90be 9fd9 893e 3f93 d03c
00000040: b855 aa3e ffa2 9c3d 3dc5 bdbd e830 f2ba
00000050: e657 c83d bcba 723e f098 8a3e 5e3f e23d
00000060: 5835 023e 7b2a 43be 0944 483e af07 c8be
00000070: 9fb8 87bc 2010 90bc aac4 453d d19a 03be
00000080: fc20 7c3e ad73 0b3d a801 7ebd 34df 42be
00000090: 2052 84bd 3d51 643c 5c45 e83c 6f4f 39bd
000000a0: 0c0a 84be 2fdf c23d 4412 6dbb 4fff 28be
000000b0: ecc9 053e 24d5 f9bc de7c 9a3e c707 ed3c
000000c0: 91a2 0fbe a055 4bbd de48 abbe 2330 0c3e
000000d0: 8cc2 4dbe 0535 f8bc 2706 893e 82b1 07bd
000000e0: 8462 af3e 823e 8dbe 1487 b53e d2af 873e
000000f0: 7405 1b3e 332d 10bd 147f 28bc 58bb f5bd
00000100: 59ab 86be e468 6bbe 4f0d 1f3d 1fa3 a3bd
00000110: b652 ba3d 6a86 7abd 97c4 8fbd 3dad c23c
00000120: d924 d5bc c4d1 21be 0516 a03d d636 fe3b
00000130: d7be d03e 504a b9bc 4578 2ebe cdd9 ebbd
00000140: 7153 46be a238 23bb fa63 403d 5d98 2f3d
00000150: 0798 00be 11e3 edbe 45b9 573e 9da9 ed3d
00000160: b97e 25bd 948d 38be e4ce 1cbe 3be1 1cbc
00000170: 46f2 a23d 1147 4d3d e264 403e e9ac 603e
00000180: 91a1 40bd 2d4e 493e 5495 a83e a73d c3bd

l3.weight f4 [18, 100]
-0.12810117 -0.23500435 -0.46063846 0.19682586 0.28767148 -0.23373982 0.10488289 -0.15809996
0.024399988 -0.20437126 -0.05617421 -0.3190667 -0.14237614 0.36885056 -0.022643756 -0.122115456
-0.18464208 -0.07254719 -0.08464119 0.51842326 -0.2514831 -0.06550901 -0.041600257 -0.05911638
-0.23710185 0.23460186 -0.26177374 0.23431201 -0.24724744 0.25569323 -0.27652144 0.19823846
-0.19288617 0.34237698 0.26171136 0.25382185 0.11324657 -0.056303855 0.039747726 -0.0951459
0.33135927 -0.14109851 0.042959064 0.07702756 -0.26692778 0.30362087 0.21046308 0.074947335
0.28887236 0.17483929 0.17117214 -0.14778739 0.21668835 -0.5603507 -0.21316527 0.31179622
-0.18926863 0.047479227 -0.19234882 -0.07418816 0.07140019 -0.32564223 0.3074572 0.24293226
0.33813742 0.31401795 -0.32603046 0.16070628 -0.32674408 -0.2972111 0.19388224 -0.115110904
0.11888403 0.08305591 -0.25194246 -0.06418479 -0.12656584 0.15830418 -0.103579864 0.21273504
0.36816356 0.09071311 -0.4612463 -0.24644735 0.10925212 0.14207292 -0.06995821 -0.42576382
0.0052374885 0.08054003 0.078566976 0.06791155 0.105519645 -0.100480326 -0.17136694 -0.10154238
0.018697124 0.13080058 -0.023812892 0.28844497 0.057330403 0.14718765 -0.35361296 0.01669005
0.44777176 -0.07961293 0.28413302 0.0048854672 -0.25587332 -0.36668354 0.09576572 -0.14901683
-0.04124941 0.2095567 -0.2881002 0.04911551 -0.2575191 -0.26716167 0.007382862 0.16726549
-0.22128655 -0.25092593 -0.32046887 -0.061047897 -0.28909913 0.0005782097 -0.35547516 0.17817736
-0.0151608875 0.1892383 -0.45060092 0.2035039 -0.06257087 0.35640782 0.12852934 0.13333142
0.14540543 0.13933818 0.19012812 -0.40331486 0.1747373 -0.21685581 0.011298238 0.13545671
-0.20615746 0.29603538 0.2561264 0.03558482 0.3861235 0.26097134 0.42683265 -0.20893754
0.05066908 -0.19521533 -0.48833135 0.16018195 -0.14558996 0.28886417 -0.21128155 -0.36586416
0.16125457 -0.40846536 0.035296854 0.07355221 0.26585826 0.33233744 -0.15828975 0.35842666
-0.26562905 -0.21216622 0.30903536 -0.02154466 -0.10807224 0.26844084 -0.11183071 -0.22816004
-0.03327265 0.24899837 -0.14136907 0.14128463 0.3225158 -0.2929375 0.07945692 -0.19732822
-0.0020586294 0.3197312 -0.25568685 -0.11054514 0.13194807 0.24210584 -0.104469344 -0.03570855
-0.14896652 -0.13982353 -0.04588397 -0.076168425 -0.04301817 0.10079483 -0.15185165 0.28373528
0.2388109 -0.40054736 -0.40076968 0.043452404 -0.036381464 -0.20709014 0.2320318 -0.19276658
-0.26963866 -0.20511524 -0.0060222307 -0.018626375 0.14211266 0.36350498 -0.10102301 -0.07657056
-0.10053171 -0.16013174 0.16000186 0.5344704 -0.17823426 -0.076399215 -0.19125533 -0.24421841
-0.04208637 -0.13750559 -0.52699345 0.35252416 -0.11387945 0.2817182 -0.25483418 0.15585643
-0.18222669 0.19153953 0.29337564 -0.06015514 0.14631432 -0.23464441 -0.024866778 0.013356828
-0.13833186 -0.04432684 -0.04754491 0.18844078 -0.20627916 0.4715803 0.18126786 0.3165264
0.24968094 0.25404397 0.17104672 -0.3120211 -0.23151018 -0.092445165 -0.20663814 -0.111967236
00000000: f42c 03be fba4 70be ced8 ebbe b88c 493e
00000010: ad49 933e 7e59 6fbe d7cc d63d f5e4 21be
00000020: 7ce2 c73c b346 51be ee16 66bd b65c a3be
00000030: 0dcb 11be fbd9 bc3e 667f b9bc ab17 fabd
00000040: d012 3dbe 9f93 94bd 5c58 adbd 63b7 043f
00000050: 65c2 80be 9629 86bd 0865 2abd 0424 72bd
00000060: d4ca 72be 783b 703e 3507 86be 7def 6f3e
00000070: 6f2e 7dbe 39ea 823e 3894 8dbe 06ff 4a3e
00000080: f483 45be 094c af3e 08ff 853e f0f4 813e
00000090: d1ed e73d df9e 66bd 83ce 223d dbdb c2bd
000000a0: eca7 a93e 217c 10be d8f5 2f3d a0c0 9d3d
000000b0: c2aa 88be 3274 9b3e a283 573e fd7d 993d
000000c0: 14e7 933e 1209 333e c047 2f3e 9455 17be
000000d0: 8de3 5d3e 2573 0fbf ff47 5abe c1a3 9f3e
000000e0: a3cf 41be 9479 423d 17f7 44be f6ef 97bd
000000f0: 433a 923d 94ba a6be 086b 9d3e 3cc3 783e
00000100: 5920 ad3e f6c6 a03e 77ed a6be 3090 243e
00000110: 004b a7be 0e2c 98be 1189 463e 44bf ebbd
00000120: 7879 f33d 3819 aa3d 9afe 80be 5173 83bd
00000130: 7a9a 01be 7e1a 223e ae21 d4bd 37d7 593e
00000140: ef7f bc3e ccc7 b93d 7a28 ecbe b25c 7cbe
00000150: 93bf df3d 907b 113e 4046 8fbd b7fd d9be
00000160: 3d9f ab3b 2cf2 a43d b9e7 a03d 3615 8b3d
00000170: af1a d83d a1c8 cdbd d17a 2fbe 74f5 cfbd
00000180: b62a 993c 96f0 053e 4113 c3bc 0faf 933e
00000190: 49d3 6a3d 5cb8 163e c20c b5be 92b9 883c
000001a0: 5742 e53e 1b0c a3bd e279 913e 4516 a03b
000001b0: d401 83be f2bd bbbe d120 c43d de97 18be
000001c0: 24f5 28bd 0896 563e df81 93be 582d 493d
000001d0: 8bd9 83be 6ac9 88be efeb f13b a547 2b3e
000001e0: f198 62be 5d79 80be 7f14 a4be 5c0d 7abd
000001f0: cd04 94be ff92 173a d700 b6be 2074 363e
00000200: 5f65 78bc afc7 413e 2ab5 e6be 5463 503e
00000210: 2825 80bd 167b b63e 329d 033e 0888 083e
00000220: 29e5 143e abae 0e3e f2b0 423e 497f cebe
00000230: 56ee 323e 730f 5ebe 3f1c 393c 2ab5 0a3e
00000240: f11a 53be f391 973e 0023 833e 63c1 113d
00000250: fbb1 c53e 099e 853e cf89 da3e b9f3 55be
00000260: 628a 4f3d 87e6 47be 9106 fabe bd06 243e
00000270: 8915 15be 01e6 933e 315a 58be 8c52 bbbe
00000280: eb1f 253e 5f22 d1be 6f93 103d 8ba2 963d
00000290: 931e 883e 2228 aa3e b516 22be b383 b73e
000002a0: 8800 88be 1a42 59be e239 9e3e 6d7e b0bc
000002b0: fb54 ddbd 1471 893e 8007 e5bd c9a2 69be
000002c0: e748 08bd 6ef9 7e3e 0ec3 10be ebac 103e
000002d0: ca20 a53e e7fb 95be 4fba a23d 6910 4abe
000002e0: 12ea 06bb cfb3 a33e 63e9 82be 7e65 e2bd
000002f0: 651d 073e 98ea 773e 06f4 d5bd 2143 12bd
00000300: ae8a 18be e62d 0fbe d4f0 3bbd 31fe 9bbd
00000310: d233 30bd 856d ce3d 007f 1bbe c045 913e
00000320: d88a 743e 8b14 cdbe af31 cdbe 26fb 313d
00000330: bb04 15bd 700f 54be bf99 6d3e 9a64 45be
00000340: 140e 8abe bb09 52be 2256 c5bb 5796 98bc
00000350: fb85 113e 531d ba3e 27e5 cebd 07d1 9cbd
00000360: 92e3 cdbd 93f9 23be 87d7 233e 0dd3 083f
00000370: 0b83 36be 3177 9cbd 70d8 43be 6414 7abe
00000380: c262 2cbd 44ce 0cbe 0be9 06bf 0c7e b43e
00000390: a139 e9bd 5e3d 903e a079 82be d498 1f3e
000003a0: a299 3abe f022 443e 5535 963e 3c65 76bd
000003b0: 6cd3 153e a046 70be 6ab5 cbbc 99d6 5a3c
000003c0: dea6 0dbe 1090 35bd 74be 42bd 9ff6 403e
000003d0: d83a 53be f972 f13e 489e 393e c00f a23e
000003e0: 5cac 7f3e 0d12 823e df26 2f3e 3bc1 9fbe
000003f0: 0111 6dbe e453 bdbd f398 53be 144f e5bd

l3.bias f4 [18]
0.08262282 -0.070563205 -0.45898733 -0.3185731 0.14260855 -0.0291351 0.014670238 -0.36775568
-0.12485152 -0.20248641 0.05466002 -0.30205828 -0.3213002 0.36883512 -0.06704099 -0.244342
-0.39894632 -0.31509823
00000000: 2736 a93d 7183 90bd 6300 ebbe 031c a3be
00000010: fa07 123e bcac eebc 705b 703c 794a bcbe
00000020: 27b2 ffbd 9958 4fbe 2fe3 5f3d 62a7 9abe
00000030: 7681 a4be f5d7 bc3e c94c 89bd ca34 7abe
00000040: b142 ccbe 8e54 a1be
