LARA/data/result/d_140.pt (torch, 94638 bytes, 7 tensors)

D_attr_matrix.weight f4 [36, 5]
000000 fc 5a b1 bb 5a f9 06 bf 01 cb 4c be 0e 50 b1 3d
       -0.0054124575 -0.5272423 -0.19999315 0.08657847
000010 2a 63 9e 3d 33 b3 70 bd 85 9b e5 be 16 61 9e 3d
       0.07733758 -0.058764648 -0.44845214 0.077333614
000020 6d f6 80 be f3 c4 7a 3e b6 de 84 3e 8e 40 4d 3c
       -0.25188008 0.24489193 0.25951165 0.012527598
000030 f4 cf 30 3d b1 5d 98 3d e3 3c 12 be 2c e6 87 bd
       0.04316707 0.07439745 -0.14281039 -0.06635699
000040 82 29 b9 be b9 bd 4c 3d af 29 57 3e 70 e8 96 be
       -0.3616448 0.04998562 0.21011995 -0.2947421
000050 96 be 84 3c 52 45 7d be 6e e7 53 3d d8 e8 8d 3e
       0.01620416 -0.24733475 0.05173438 0.27716708
000060 75 88 81 3e c9 17 84 be 29 f1 5d bf a0 82 8f 3c
       0.2529942 -0.25799397 -0.86696106 0.017518342
000070 66 2d 2c 3f d1 14 2e be 27 73 83 bd ba 6f 13 be
       0.6725677 -0.17000128 -0.06418448 -0.14398089
000080 c5 69 17 be 82 57 10 3f 96 12 6e 3d 20 a6 10 3f
       -0.14786442 0.56383526 0.058123194 0.56503487
000090 33 e2 5a be ba 7b b8 3e a5 40 18 be 4d 25 b9 be
       -0.2137535 0.36031896 -0.1486841 -0.3616127
0000a0 3e 6f f2 be 7e ea 58 3e 84 f9 a7 3d e5 2a a3 be
       -0.47350496 0.21183202 0.08201888 -0.31868663
0000b0 32 ba 56 3d dc ee 8c be 1f a5 46 3e 61 1e d9 bd
       0.052423663 -0.27525985 0.19398926 -0.106014974
0000c0 bd 70 2b be 27 01 1f 3e 3d 5d 84 3e 62 84 38 3e
       -0.16742225 0.15527783 0.25852385 0.1801925
0000d0 6a ae e1 3d 7e 5c 46 bd 69 11 c2 3d de 1e ef 3d
       0.11019595 -0.04842805 0.09475977 0.11675809
0000e0 ee a4 b1 3e 2d ca 89 bc 81 d5 d8 bd 4e 70 d9 bd
       0.34696144 -0.016820038 -0.10587598 -0.106171235
0000f0 ea 52 2c be 0e d3 ab 3d cb 35 a2 bd 7d 3a a1 3d
       -0.16828504 0.08389865 -0.079204164 0.07872484
000100 03 bc 96 bd 5f 68 5c be 98 70 cd 3e 62 57 ba 3d
       -0.07360079 -0.2152419 0.40124965 0.09098698
000110 73 96 00 3f ae 1b 01 3f 75 ff 70 3e cd 73 a1 3e
       0.5022957 0.5043286 0.23534949 0.3153366
000120 f1 73 97 3d 73 17 c2 bd de 1f ec be 73 4e 05 be
       0.07395161 -0.09477129 -0.46118063 -0.13018207
000130 2e 04 5e 3e 18 10 52 3e c3 36 6d 3c ff 53 61 3e
       0.21681282 0.20513952 0.014478388 0.22004698
000140 c2 06 03 3e 11 df 2d bd 56 eb 60 3d 83 8f 52 3e
       0.12795547 -0.04244906 0.054911934 0.20562558
000150 9b 08 b0 bd c4 a8 85 bd ef fc a6 be d8 04 74 3e
       -0.08595391 -0.0652633 -0.32614848 0.23829973
000160 47 f1 d3 3e b3 6d 28 bd ca a3 54 3d 69 0d bd 3d
       0.41395018 -0.041120242 0.051914014 0.092310734
000170 d2 a9 e0 3d 17 e8 a3 bd e4 37 11 be 88 bf eb be
       0.10969891 -0.08003252 -0.14181477 -0.46044564
000180 1c 07 1f be b8 fe 9f 3e 27 11 9f 3e e9 ab 0a bf
       -0.15530056 0.31249022 0.31067774 -0.54168564
000190 08 66 8e bd 9f b8 b9 bc 68 c8 12 bc 7b 9f 67 3e
       -0.06953055 -0.022671042 -0.008958913 0.2261943
0001a0 f7 91 a3 be 71 24 3b 3e 97 4e 15 3e cd 94 b7 3e
       -0.319473 0.1827562 0.14580761 0.35855713
0001b0 0f 85 20 3e 4a b8 03 3e 91 df cf be 92 92 81 3e
       0.15675758 0.1286327 -0.40600255 0.25307137
0001c0 51 0d c4 bc 67 86 c4 3d 61 e3 9f bd d4 0a 14 be
       -0.023932131 0.09595948 -0.07807041 -0.14457256
0001d0 51 bc 11 3f 63 68 42 be 2a a6 7d 3d e7 fc f1 3e
       0.56927973 -0.18985133 0.061926045 0.47263262
0001e0 25 66 a2 be 25 ab 6a be bb 5f 0e bd 2b e2 d6 be
       -0.31718555 -0.22916849 -0.034759264 -0.41969427
0001f0 24 0c 82 3d 04 78 fd bc 14 c5 01 be dd 9a b1 bd
       0.06349972 -0.030941017 -0.12672836 -0.08672116
000200 f2 bf 80 be 3a 40 40 3e 98 2b fd 3d 33 32 99 3c
       -0.25146443 0.187745 0.123618305 0.018700695
000210 17 a4 3d be 2f ca 55 bd 06 4f 4e bd 89 5f 33 bd
       -0.18519627 -0.05219477 -0.05036833 -0.04379228
000220 76 09 54 be f8 c0 81 bd 1c 28 ba 3e bd 7d c1 bb
       -0.20706734 -0.06335634 0.36358726 -0.0059048817
000230 c1 9e 39 3d ab 94 09 3e 34 cb 14 3d ba 16 60 bd
       0.045317415 0.13435619 0.036326602 -0.054709174
000240 38 6f 3a 3d ff c0 82 be b9 8c e9 bd 8d b3 9a 3d
       0.045516223 -0.2553787 -0.11403794 0.07553778
000250 65 24 a6 3e 2f 25 64 be 1b c5 49 3d dc 8b 46 3e
       0.32449642 -0.2227981 0.04926024 0.1938929
000260 54 f7 a7 bb 61 cd 18 3d 11 36 1d be 47 18 aa 3e
       -0.0051259194 0.03730524 -0.15352656 0.33221647
000270 bf 3f 2b 3e 43 55 0b be ac 8d 50 bd 00 c8 c9 39
       0.16723536 -0.13606744 -0.05091636 0.0003848672
000280 44 f7 40 3e 59 67 09 be a5 b5 47 3e 7d 64 65 3e
       0.18844324 -0.1341833 0.19502886 0.22401614
000290 77 f6 25 bd 63 6a a1 3d d3 f7 21 be f5 b8 c8 be
       -0.04051825 0.0788162 -0.15817194 -0.3920361
0002a0 39 08 f3 bb a1 ca ec 3d 17 f6 25 bd c6 b1 92 3e
       -0.0074167517 0.11562086 -0.040517893 0.28651255
0002b0 84 0e a6 3d 7b 93 87 be e3 ba 81 be 88 61 fc be
       0.081082374 -0.26479706 -0.25337896 -0.4929316
0002c0 c6 02 64 3e 6c 6d c5 3e c6 ee aa be 0f f0 98 be
       0.22266683 0.38560045 -0.33385295 -0.2987065

l1.weight f4 [100, 108]
000000 cc d4 74 bd 2d e9 df 3d b8 45 d8 bc 9d 50 28 3e
       -0.05977325 0.109331466 -0.026400432 0.16437002
000010 49 c0 e7 3d 3c ec b2 bd 4c e3 7f 3d c6 de a6 3d
       0.11315972 -0.087364644 0.062472627 0.081479594
000020 4d a3 f6 3d db 85 af bb f9 98 14 be 69 38 87 bd
       0.12042866 -0.005356533 -0.1451148 -0.06602556
000030 07 0f 59 bd 29 3d b7 3e bc 13 2b 3e 4b a1 09 be
       -0.052992847 0.3578885 0.16706747 -0.13440435
000040 a9 86 92 3d 53 99 20 3e 1d 0e 39 3d 08 27 77 3d
       0.07154591 0.15683489 0.045179475 0.060339957
000050 af 8f 7a bd 8d 87 a1 3c 48 23 44 bc 85 19 1c 3c
       -0.061172184 0.019717956 -0.011971302 0.009527569
000060 f0 ef 12 bd f4 f8 9a bd 83 83 1c bd fe f7 a3 3c
       -0.035873353 -0.07567015 -0.038211357 0.020015713
000070 d4 bf e3 3d 5a 3d 49 3e 00 bf 65 3e 6c 1a 90 bd
       0.11120573 0.1965231 0.22436142 -0.070362896
000080 42 e4 45 3e 52 f8 23 3d fb 9e 0d bd eb d0 2c 3d
       0.19325355 0.04003174 -0.034575444 0.042191427
000090 43 ef 16 be 7f c0 0b 3e 6a ed 76 3d ac aa 25 3e
       -0.14739709 0.1364765 0.06028501 0.16178387
0000a0 13 47 c7 bd 32 1c 2f bd c0 a7 fd 3c 50 35 24 3d
       -0.09730353 -0.0427515 0.030963778 0.040089905
0000b0 df 53 e0 bd 8f d9 40 be 4f 75 a7 3c b6 08 53 3e
       -0.10953497 -0.18832992 0.02044168 0.20608792
0000c0 07 fb 23 bd 75 0f 77 3d 35 d9 fb bd 6e 15 d6 bd
       -0.04003432 0.060317475 -0.12297288 -0.10453306
0000d0 2e 6e be bd f9 fe c3 bd 2a 56 06 bd 52 d3 5a 3e
       -0.09298359 -0.095701165 -0.032797016 0.21369675
0000e0 93 5c d2 3d 79 3d 2f bc 28 d3 b2 3c 6e c5 2b bd
       0.102715634 -0.010695809 0.021829203 -0.04193633
0000f0 86 f1 1e 3e cf c8 aa 3d f5 7e 4e be 7b f6 05 3d
       0.15521821 0.083390824 -0.20165618 0.032705765
000100 c5 47 7b 3c ed d6 05 be bc 8c 2f be 66 39 a4 3c
       0.015336935 -0.13070269 -0.1714353 0.020046901
000110 0a 59 a7 bd 0a 33 ac 3d 4f 2b 3e bc f2 47 05 be
       -0.0817128 0.084081724 -0.011607005 -0.13015726
000120 e1 ca 83 3d 37 1e 0a bd b4 35 b9 bd 28 e4 33 be
       0.064351805 -0.03372022 -0.09043446 -0.17567503
000130 5a 99 36 be c6 1c 41 be b1 a4 8b 3c b6 d3 79 bb
       -0.17831936 -0.18858632 0.017046304 -0.0038120574
000140 17 aa 15 3e 2e 27 5f be 67 32 c5 3c 83 49 fb bd
       0.14615665 -0.2179229 0.024071885 -0.122698806
000150 a3 a3 fb 3d c3 bc ea bd f2 2f a7 bb 97 d6 df bd
       0.122870706 -0.11461785 -0.005102151 -0.10929602
000160 82 c4 08 bd e8 5e 2b 3d ca 46 ff 3d ab 74 90 be
       -0.03339053 0.041838557 0.12464674 -0.2821401
000170 82 6e 35 3e 89 dd 17 3d fc e5 5f 3d b7 97 0e 3e
       0.17717937 0.037076507 0.05466269 0.13925062
000180 43 ce ea bd d0 c8 e3 3c 82 5d 0f 3f 6c ce c2 3e
       -0.114651226 0.027805716 0.56002057 0.38048112
000190 94 41 a0 3b 57 5b 54 be 6c 5d cf 3e 63 cd 24 3d
       0.00489063 -0.20737968 0.40500963 0.040234935
0001a0 7c 19 15 3e 41 36 0e 3d d3 ac c9 3e de 0d cc be
       0.14560503 0.03471971 0.39389667 -0.3985433
0001b0 6b e5 0e be 87 0c f9 bd bc 7b b5 3d 23 aa 67 be
       -0.13954704 -0.121605925 0.08861491 -0.22623496
0001c0 90 cf 46 bd a6 30 ac bd 91 5a 13 bf 03 e7 b7 3d
       -0.04853779 -0.084077165 -0.5756007 0.08979609
0001d0 a3 4a 70 3e 70 26 de bd 81 a5 a8 bb 1a 08 34 be
       0.23465972 -0.10847175 -0.0051466827 -0.17581216
0001e0 0f d8 c9 3d a2 0d 63 bd 6b e8 93 3d e3 ed 67 be
       0.09855663 -0.055432923 0.072220646 -0.2264934
0001f0 4b e7 80 bd 99 75 47 be 3e 9c 0b 3e 51 69 9c 3e
       -0.06294116 -0.19478454 0.1363382 0.305491
000200 8e 75 4f be 62 26 d7 bd 3c 6c c3 bd 49 93 04 bd
       -0.20259687 -0.10505368 -0.095421284 -0.032367025
000210 14 c5 aa 3d 9b ae 2b 3e c9 0e 21 be e4 14 4f 3e
       0.08338371 0.16765825 -0.15728296 0.20222813
000220 d6 6f a4 3d 4d 9c 82 3d 30 2b 1d bc 38 4a ef 3c
       0.080291435 0.06377468 -0.009592816 0.029210195
000230 18 50 1e be 45 96 64 bd 28 ac 54 be a7 3b ab 3e
       -0.15460241 -0.05580737 -0.20768797 0.3344395
000240 4f b4 0b be 28 d1 d8 bd 72 fe c3 be 57 52 ca be
       -0.13643001 -0.105867684 -0.38280064 -0.39515945
000250 d3 37 8e 3d c6 63 a7 bd 17 b0 52 3d ff eb 01 3e
       0.069442414 -0.08173327 0.051437464 0.12687682
000260 98 f9 06 be 29 f4 aa 3e 99 ed c7 3d 9d ba 81 3d
       -0.1318115 0.33389404 0.09762115 0.06334422
000270 75 e3 38 be 17 7d 88 bd 50 84 6f 3d d6 67 fe 3d
       -0.18055518 -0.06664484 0.058475792 0.12422149
000280 31 cc fa 3e f4 ed f6 3c fb 8d 10 bd 00 8f c4 bd
       0.4898391 0.030142762 -0.035291653 -0.095975876
000290 a7 c1 b6 3d f7 3b 82 3e 95 6a 3f bb 40 c4 1f be
       0.08923655 0.25436375 -0.0029207815 -0.15602207
0002a0 8e a0 a8 3b 28 dd 13 bd 9f e5 61 be 5c 65 87 bd
       0.0051460927 -0.036099583 -0.2206025 -0.0661113
0002b0 56 36 80 3d 23 82 c1 bd 88 f0 cb be b9 22 11 3e
       0.06260364 -0.0944865 -0.39831948 0.14173402
0002c0 2e 7e 17 3f 9b 98 d8 bd 97 00 21 3d 55 19 17 3e
       0.5917691 -0.10575982 0.039307203 0.14755757
0002d0 1c e8 65 3d 5b 3c 82 3d df e0 0e bd 28 2f cf 3c
       0.05612956 0.06359168 -0.034882423 0.02529104
0002e0 52 b1 99 bd 15 7f 09 be 96 49 54 bd 00 67 6a 3c
       -0.07504524 -0.13427384 -0.05182799 0.014306784
0002f0 ad 7d 86 3d 32 43 b1 bd 85 0a 0d 3f c2 db c9 3d
       0.065669395 -0.086553946 0.55094177 0.098563686
000300 5f fb 37 3b c6 47 1e bd 70 5a 08 3e c1 33 39 3e
       0.0028073413 -0.038642667 0.13315749 0.18086149
000310 d8 52 b4 bd 04 cf 49 be 33 bc eb bd 35 c7 82 3c
       -0.08804864 -0.19707876 -0.115105055 0.01596413
000320 f4 0e 62 be 88 a8 d7 3b 61 f2 23 bd 8a 50 a1 bd
       -0.22076017 0.00658137 -0.040026072 -0.0787669
000330 a2 af e0 3d f5 ae 23 bd 75 f1 12 3d 67 2f da bb
       0.10970999 -0.039961774 0.035874803 -0.006658483
000340 2d 56 02 3d 7b 19 c5 3d b9 fa a3 bc 41 ae 49 bd
       0.031820465 0.09624001 -0.020017015 -0.049238447
000350 ae 6f 8f 3d a4 bc af 3d 02 06 d2 bd 8d 13 10 3e
       0.07003723 0.08580902 -0.10255052 0.14069958
000360 a3 34 05 3e 71 bd 3a bd 3b 3d 37 be ee 65 6a 3c
       0.1300836 -0.04559082 -0.17894451 0.0143065285
000370 1f bd 1b bc 36 fc 21 be 0b 31 81 3c 28 6f 87 3e
       -0.009505539 -0.15818867 0.015770456 0.26451993
000380 69 44 47 3d 15 4c 7c bd ee 74 50 bd 6b cc 26 bd
       0.048649225 -0.061595995 -0.050892763 -0.040722292
000390 11 d0 0b bd 6c 89 c6 3d 2c 9a 6a bc 85 42 e8 bd
       -0.034133974 0.0969418 -0.014318984 -0.113408126
0003a0 b9 57 2c be 3e fa 87 bc c8 52 3e bd 91 37 a7 3e
       -0.16830339 -0.016598817 -0.046465665 0.3265958
0003b0 f4 68 90 3c 2b 8b 5d bc 4b ab 23 bc 99 96 15 3d
       0.01762817 -0.01352195 -0.00998957 0.036520574
0003c0 7f e5 8c 3d 46 f7 bc 3d 51 19 8c 3d b3 68 13 be
       0.068797104 0.09226851 0.06840766 -0.14395408
0003d0 a6 39 36 bc 75 ea 0d 3e 97 ef c9 bb 06 60 8f 3a
       -0.011122143 0.1385897 -0.0061625945 0.0010938651
0003e0 40 3e 0a 3e 5f 30 20 3e 5e 7b b2 3d 55 a0 1e be
       0.13500309 0.15643452 0.08714937 -0.1549085
0003f0 61 cf 1b bd 11 de 91 3d 31 2b 94 3d 06 08 44 bc
       -0.03803957 0.07122434 0.072348006 -0.011964804

l1.bias f4 [100]
000000 6b 8c 95 bd 87 77 86 bc f4 a7 8d 3e 6e 78 fb bd
       -0.07302173 -0.016414417 0.276672 -0.122788295
000010 10 e0 d7 bd be e7 fe bd 45 bd 52 3b 2f b5 c5 3d
       -0.105407834 -0.12446545 0.003215627 0.09653699
000020 0d 76 e0 bc 0a b7 18 be d0 e2 38 3e 08 f1 d9 bd
       -0.027400041 -0.14913574 0.18055272 -0.10641676
000030 9f 3e 12 3d c7 99 69 3e b0 e9 a3 bc 8e 44 80 bd
       0.03570425 0.22812568 -0.020008892 -0.06263076
000040 ca 88 3c 3d dc 70 1c 3c 3f 6c 5b be 04 de 10 3e
       0.04602889 0.009548392 -0.21428011 0.14147192
000050 78 9d 63 be 77 a2 28 be bb 1a b4 bd f7 f2 94 3e
       -0.22228038 -0.16468225 -0.08794161 0.29091617
000060 77 80 8f bb 19 ee 61 bd 37 71 36 be bb 40 73 bd
       -0.004379328 -0.05515871 -0.17816626 -0.059387904
000070 92 be 10 3e ef e7 01 3e f0 ba 86 3c 46 9f ef bd
       0.14135197 0.12686132 0.01644656 -0.11700301
000080 bb 1d 0f be 3c 8b 07 3d 18 d9 8d be 5b 26 8a 3d
       -0.13976185 0.03309177 -0.27704692 0.06745597
000090 c5 86 5d be 4d 3f c7 3d 68 d7 f9 bd c5 25 98 bd
       -0.21633442 0.097288705 -0.121992886 -0.07429079
0000a0 ae d2 3b 3d 76 a6 26 3e df 65 83 3d 99 31 99 3e
       0.045855217 0.16274437 0.06415915 0.29920653
0000b0 fe 2e 89 3d 52 65 f4 3d 6e 73 89 bc 07 46 21 3e
       0.06698416 0.11933388 -0.016778674 0.1574937
0000c0 f9 92 ac 3d c8 cb d7 bd dd 1b 10 be b4 92 a1 bd
       0.0842647 -0.10536915 -0.14073129 -0.078893095
0000d0 44 c8 36 3d d4 e5 15 be df ce 47 3d a3 19 a6 3e
       0.044624582 -0.14638454 0.048781272 0.32441434
0000e0 36 ee 26 bc c7 f2 61 3d d6 1a de 3c 76 f6 4f 3e
       -0.01018863 0.05516317 0.027112406 0.20308861
0000f0 71 93 79 3e 0d 9e 51 bc 2e b6 38 bd 36 a4 18 be
       0.2437265 -0.01279403 -0.045095615 -0.14906392
000100 c7 b8 08 3e e1 44 77 be 29 3e 91 bd 00 7a 9d 3e
       0.13351737 -0.24147369 -0.07091934 0.3075714
000110 6f a4 95 bd 0f 7e 58 3e 92 82 34 bc c5 1a a3 3d
       -0.07306754 0.21141838 -0.0110174585 0.0796409
000120 99 2c 07 be 44 48 2b be 86 c7 33 3e a4 c7 2e bc
       -0.13200606 -0.16726786 0.17556581 -0.010667715
000130 fc 77 38 3d a2 3a fb 3d 65 90 16 be 8e 9b 90 3e
       0.0450363 0.12267043 -0.1470352 0.2824368
000140 c8 47 30 be ed 6e aa bd 21 b2 05 3e 31 25 de bd
       -0.17214882 -0.08321939 0.13056232 -0.108469374
000150 c6 1a 84 bc 36 4b 84 3e 65 79 68 3d d3 ac 9b bd
       -0.016126048 0.2583863 0.056756396 -0.07601323
000160 0f cf cc 3c e2 52 56 3e bd e3 22 3e c5 2b 2f 3e
       0.025001077 0.20930055 0.15907188 0.1710654
000170 82 2f ed ba ff c8 91 3c 36 53 2c be 8c 36 d0 bb
       -0.0018095823 0.017796038 -0.16828617 -0.0063541587
000180 ba fa 6e 3e 28 bf ce bc 3b 35 63 bd 5c 9e eb bc
       0.23337832 -0.025237635 -0.055470686 -0.028762035

l2.weight f4 [100, 100]
000000 19 d0 ec 3c 82 44 72 be 6d 1a 37 be 36 e4 bf bd
       0.028907822 -0.23658946 -0.17881174 -0.093697
000010 f8 df 8e 3e dc d7 bc bd 8c 07 4f be 9e d9 f9 3b
       0.2790525 -0.092208594 -0.20217723 0.007624819
000020 54 11 dd bc 0b d3 99 3d 63 33 8b 3c 47 25 85 3e
       -0.026985802 0.075109564 0.016992277 0.26005003
000030 be c4 a3 bc bd 15 03 3d 14 1f e6 3d 5d 71 75 3e
       -0.019991275 0.032003153 0.112363964 0.23969026
000040 e8 7c 93 bc 73 ca 54 be 88 0c c2 3b be 31 77 bd
       -0.018003896 -0.20780353 0.005921904 -0.060350172
000050 e5 16 49 3e ca 4c 29 3e b5 f1 f2 3d bf 7f 8e bd
       0.1963764 0.16533199 0.11862508 -0.069579594
000060 c0 9d dc 3d 1a 11 84 3d 0d 0d ea bc 26 85 b9 3d
       0.10772276 0.06448574 -0.028570676 0.09058599
000070 d4 bd 47 3d c6 0d 01 be 4b a4 4f bc 24 ed 28 3c
       0.04876502 -0.1260291 -0.012673448 0.010310445
000080 17 6a 87 3e 03 e1 1e bd d2 55 d4 bd 5f ff ae bc
       0.26448128 -0.038788807 -0.103679314 -0.021362005
000090 13 83 52 bd 35 54 6b 3d 18 5c 0a 3e c1 80 74 bd
       -0.051394533 0.057453353 0.13511693 -0.0596931
0000a0 d3 d5 69 bd bc b9 0e bc 69 83 4c be 1e 64 87 bd
       -0.057088684 -0.008711275 -0.19972004 -0.06610893
0000b0 4b e0 98 bd fa d8 52 bd 18 9b 45 bd bd df 48 bc
       -0.074646555 -0.051476456 -0.048243612 -0.012260375
0000c0 5c 5d 5a bd f2 da 50 be f7 4a ba 3d a5 c5 be bc
       -0.05331169 -0.20396021 0.0909633 -0.023287604
0000d0 78 47 46 3d 77 46 a7 bd a6 90 21 be 20 e7 5f 3e
       0.048408 -0.08167737 -0.15777835 0.21865511
0000e0 d8 11 7c 3e 32 21 5a be 35 ae 2e be 72 64 eb bc
       0.24616182 -0.21301726 -0.17058642 -0.02873442
0000f0 9c ad 85 3e d3 dc 5c be 46 6b a6 3d 58 f4 1d be
       0.26109016 -0.21568613 0.081259295 -0.15425241
000100 53 fe 6c bb 44 0c 0a 3e 06 ff 82 be a8 00 17 be
       -0.0036162331 0.13481241 -0.25585192 -0.14746344
000110 e8 5b 06 bd b6 96 98 bd 73 e1 38 be 1e 9f ec bd
       -0.032802492 -0.07450621 -0.18054752 -0.11553787
000120 ae 7e 75 bd 07 08 93 3b 01 f4 1e be 7e 32 9a bd
       -0.059935264 0.004487041 -0.15522768 -0.07529162
000130 88 0e 38 3e 6f 3d e9 be 01 3b 28 bd ec d8 c2 be
       0.17974293 -0.45554683 -0.041071896 -0.38056123
000140 6f 32 10 3d 6c 4c 22 3e 83 10 1f 3d 43 ff c6 3d
       0.035204347 0.15849465 0.038834106 0.09716656
000150 1d 97 10 3e 08 bd c0 3d 55 f7 06 3e 8b 97 78 bd
       0.14120145 0.09411055 0.13180287 -0.060691398
000160 99 c7 7d 3e 3c 1a e5 bd f9 2e 1a 3e 24 83 1a be
       0.24783172 -0.111866444 0.15056981 -0.15089089
000170 6f 1b 27 be e1 da 37 3d 6d 56 06 be d6 14 bf 3d
       -0.16319059 0.044886474 -0.13118906 0.09330146
000180 fe 11 11 be fb a2 70 3d 9e f9 9e 3d 03 de b6 3d
       -0.1416702 0.05874918 0.077624545 0.08929064
000190 b4 22 5a 3d cf 91 8d 3e f8 fe c8 3c fb 13 47 be
       0.05325575 0.27650306 0.024535641 -0.19441216
0001a0 cb f1 23 be 6c 85 18 3d 92 ea 42 bd ef ad 32 bd
       -0.16010205 0.037236616 -0.047586985 -0.043622907
0001b0 4e eb 4a be 92 ba 4f bd 0e 35 c8 3d dc a9 79 3d
       -0.19816324 -0.050715037 0.097757444 0.060953006
0001c0 1d 77 51 bd 1f 03 cb 3d b8 b5 f3 bd 4c e3 10 be
       -0.051138986 0.09912705 -0.118998945 -0.14149207
0001d0 21 c5 05 be 02 c5 09 3e 94 67 ce bd 2c 04 cd 3c
       -0.1306348 0.13454059 -0.1007835 0.025026403
0001e0 80 f7 e4 bd 79 8c 45 bd d0 54 23 3e b0 06 73 3c
       -0.111800194 -0.04822967 0.15950322 0.014833137
0001f0 97 1e 95 bd b3 b8 bf 3c d4 99 02 be 7a 64 5d be
       -0.07281225 0.023403501 -0.12753993 -0.2162036
000200 cd 52 7f 3c 26 4d 36 bd e7 be f9 3d 70 f1 8a 3d
       0.015583706 -0.04450717 0.12194615 0.06784332
000210 e6 ae 04 be bc 6b 6b 3d 6c cf 55 3d 1f 75 33 3e
       -0.12957343 0.05747579 0.052199766 0.17525147
000220 d8 5e 42 3e a7 35 3b bd 81 9c 04 bd b3 ba fe 3d
       0.18981493 -0.045705464 -0.032375816 0.12437954
000230 22 99 9f bd 9b c2 0a bc 83 0f f5 3d d0 f4 55 be
       -0.0779288 -0.008469249 0.11965849 -0.2089417
000240 b1 26 9a 3d bb 17 3b 3e 1d 12 bf 3d 60 10 fc 3d
       0.07526911 0.18270771 0.09329627 0.12307811
000250 1f b1 5d 3d 01 69 24 be 0c 6e 0b bd 1a e7 55 3d
       0.054123994 -0.16055681 -0.034040496 0.05222235
000260 67 e7 b3 bd 06 a0 e3 3d bf 5d b5 bb 1d 35 bd 3c
       -0.08784371 0.111145064 -0.005534857 0.023096615
000270 02 5a 4d bd 0c 1b 66 3e 96 09 39 3d 98 8e db bd
       -0.050134666 0.22471255 0.045175157 -0.10720557
000280 af 22 a6 3c d0 1b c4 3d 91 f3 3d 3e d2 b6 a8 bd
       0.02028021 0.09575617 0.18549944 -0.08237995
000290 34 e9 be 3e 3c 3e 9a bb 69 df a6 3e ab a4 24 3e
       0.37287295 -0.004707126 0.32592323 0.16078441
0002a0 2c 37 63 bd b4 0b 5f bd ef e2 21 3d f4 82 18 bd
       -0.055472538 -0.05445452 0.03952306 -0.03723426
0002b0 23 82 29 be 7d fe 62 3d e9 d5 1f bc 8d fb dd bc
       -0.1655355 0.05541848 -0.00975559 -0.027097488
0002c0 61 9c c8 bd 4b e3 db bd 5d 44 1d 3e 5d 54 80 3e
       -0.09795452 -0.10736712 0.1535811 0.25064364
0002d0 d5 ab 23 bd 58 f5 24 3d a3 02 0c bd d1 c8 d5 3d
       -0.039958794 0.04027304 -0.034182202 0.10438693
0002e0 03 ee 70 3c 84 ae c6 3d f9 b3 1b be 27 8e 34 3e
       0.014705184 0.09701255 -0.15205373 0.17632352
0002f0 be 85 0e 3d 86 d6 8f 3e 3b db ef 3c 90 ef 59 3d
       0.034795515 0.28093356 0.029279342 0.05320698
000300 1a a1 0d 3e bc f3 25 3d 5a 48 9c bc b6 e1 09 3d
       0.13830987 0.040515646 -0.019077469 0.03366252
000310 24 5c 0f 3e 7d e1 a1 bd 4e eb 84 bd 54 c7 b7 3d
       0.13999993 -0.079043366 -0.06490193 0.08973566
000320 87 86 be 3e 12 24 75 bb ab 7c be be 66 60 a7 3d
       0.3721201 -0.0037405533 -0.3720449 0.081726834
000330 41 c5 16 be 5b be 51 3e f4 b1 b0 be 2a 97 ff bd
       -0.14723684 0.20482771 -0.34510767 -0.12480004
000340 f6 c9 5e 3e 77 ac 08 3e b1 b7 b0 be 39 09 08 bc
       0.2175673 0.1334704 -0.34515145 -0.00830298
000350 2b 55 8a be c5 7b 29 bf 7e cd 90 be 1c 75 12 3e
       -0.27018103 -0.6620448 -0.28281778 0.14302486
000360 c0 f4 dd be 86 45 be be 5c f9 eb bd 37 c7 fb bd
       -0.43350792 -0.37162417 -0.11522171 -0.122938566
000370 40 74 08 be 3c 58 67 3e 87 61 63 3e d9 fb 1d 3e
       -0.13325596 0.22592252 0.22205172 0.15428104
000380 b6 23 0e bf 97 8d 09 3e fa 01 0e 3e 54 20 25 3e
       -0.5552324 0.13432918 0.13867941 0.16125613
000390 09 f0 03 3e a1 b3 3c bf 1a c8 25 3f 55 84 11 be
       0.12884535 -0.7371159 0.64758456 -0.14210637
0003a0 86 49 58 3f 3b f4 24 3a 49 57 6d 3e 23 41 be bd
       0.8448719 0.00062924967 0.23177828 -0.092897676
0003b0 b8 0f 12 bd 5d 59 cc 3c f6 4f e3 3d b9 74 21 3d
       -0.03565952 0.024944955 0.11099236 0.039417956
0003c0 60 fe 30 3e 73 4f 24 3d 47 19 81 3d 8c e4 95 be
       0.17284536 0.04011483 0.063036494 -0.2927593
0003d0 b7 59 23 be f6 b0 b7 3e 4b 0c 9e be 94 d5 e7 bd
       -0.15952192 0.35877198 -0.30868754 -0.11320034
0003e0 72 94 fc 3e 80 20 c2 3e cf dd 93 be 32 cf 29 bd
       0.49332005 0.3791542 -0.28880164 -0.041457362
0003f0 fd 16 19 3f 16 16 7e be 50 d6 9a 3e 1c c0 e2 3e
       0.598007 -0.24813113 0.30241632 0.44287193

l2.bias f4 [100]
000000 6a 38 83 be 11 71 a4 3e 0e 03 18 3e 60 b4 4b be
       -0.25628978 0.32117513 0.14844915 -0.19893026
000010 5f 78 f2 3c 0a a8 21 3e b3 07 99 bd e2 43 82 3d
       0.029598413 0.15786758 -0.07472172 0.06360604
000020 b2 8f a2 bc 6b 1e 96 3d df 60 76 3d cf fb ae 3e
       -0.01984391 0.073300205 0.060150977 0.3417649
000030 1d c0 c8 3e b3 0c 90 be 5d 03 8d 3e 3d a6 ba 3c
       0.3920907 -0.2813469 0.27541628 0.022784347
000040 a0 46 ad 3e e5 7c ac 3d 43 ea d0 bd 30 cf a4 bb
       0.33842945 0.08422259 -0.10200932 -0.0050295815
000050 bd c7 dc 3d 86 7c 58 3e a6 39 8a 3e bb af c5 3d
       0.107802846 0.21141252 0.26997107 0.096526586
000060 b1 7d 0f 3e 7c c2 46 be 3f 5e 47 3e da 9f c9 be
       0.14012791 -0.19410127 0.19469546 -0.3937977
000070 46 fc 08 bd cf 98 af bc 81 8c f9 3c 93 87 da bd
       -0.03344371 -0.02143517 0.030462505 -0.1067039
000080 c7 92 74 3e 5c 55 23 3d e2 aa 80 bd 87 ef 43 be
       0.23884116 0.039876327 -0.06282593 -0.19134341
000090 9f bd aa bd 9d 35 9e 3c 35 99 0f 3d bc 45 f5 bc
       -0.083369486 0.019312674 0.03505822 -0.029940479
0000a0 01 8a 85 be 83 81 c7 3d e9 8e d7 bb 48 d5 2c be
       -0.2608185 0.09741499 -0.0065783155 -0.16878235
0000b0 e9 e0 db 3d be 07 15 bd aa 8e 9d 3e f5 46 0e 3d
       0.107362576 -0.036384337 0.30772907 0.03473564
0000c0 f5 45 12 be 23 41 63 bd 29 f3 a3 be 37 e6 0a 3e
       -0.14284499 -0.05548204 -0.32021454 0.13564382
0000d0 9b d3 44 be 11 e8 4c bd d8 9b 85 3e fa 4e 06 bd
       -0.19221346 -0.050026003 0.26095462 -0.03279016
0000e0 d3 fe a4 3e 92 a7 91 be a9 df ae 3e c4 23 89 3e
       0.32225665 -0.28448159 0.34155014 0.267851
0000f0 5c a3 13 3e 6f 09 2b bd 91 48 43 bc 20 1d e8 bd
       0.14417785 -0.041757043 -0.011919157 -0.1133368
000100 3e d9 8b be 18 68 77 be 7f 68 35 3d d8 7e aa bd
       -0.2731418 -0.24160802 0.04428911 -0.08324975
000110 29 36 a2 3d e1 1f 65 bd b3 08 88 bd 39 46 bf 3c
       0.079204865 -0.055938605 -0.06642284 0.023348914
000120 77 63 b7 bc f8 6e 1c be 65 97 95 3d fa e4 70 3c
       -0.022386296 -0.15276706 0.07304267 0.01470303
000130 55 6c cf 3e 6f 37 d5 bc 45 16 31 be 2b b0 cf bd
       0.40512338 -0.02602741 -0.17293651 -0.10141023
000140 7b e1 44 be 66 57 c0 ba 1d 7c 21 3d 27 49 65 3d
       -0.19226639 -0.0014674484 0.039425004 0.055977967
000150 52 ce 05 be fa 32 f3 be 23 fb 57 3e f4 bc fd 3d
       -0.13066986 -0.4749983 0.21091895 0.123895556
000160 aa 60 52 bd 7b da 3c be a3 6a 23 be e8 71 89 bc
       -0.051361717 -0.18442719 -0.15958647 -0.016777948
000170 56 b6 a3 3d 49 78 50 3d f5 a7 3a 3e 6a 75 5f 3e
       0.07993762 0.050895963 0.18228133 0.21822134
000180 a9 83 47 bd 0d 98 52 3e 56 f7 a9 3e 56 3f b7 bd
       -0.048709545 0.20565815 0.33196515 -0.08947627

l3.weight f4 [18, 100]
000000 ae 48 fa bd ef 90 76 be 81 0e f3 be b7 ea 4e 3e
       -0.12220894 -0.24078725 -0.47472003 0.20206724
000010 bf f3 94 3e 13 61 7d be 9f 65 dc 3d 3f df 27 be
       0.29092214 -0.24744062 0.1076157 -0.16393755
000020 5d 20 98 3c 08 62 57 be c8 2a 87 bd 0f 65 a6 be
       0.01857012 -0.2103349 -0.06599957 -0.32498977
000030 55 6a 17 be 62 0a c1 3e bc ae e4 bc f1 83 ed bd
       -0.14786656 0.37703234 -0.027915351 -0.115974315
000040 ae 0a 43 be 10 64 a0 bd 84 41 a1 bd e1 e3 09 3f
       -0.19047043 -0.078315854 -0.07873824 0.5386334
000050 4a a7 83 be 31 f0 91 bd e0 dc 41 bd 1e e6 84 bd
       -0.2571357 -0.07125891 -0.047329783 -0.06489204
000060 78 77 82 be ef 23 76 3e 9f 8c 92 be 8f 7c 76 3e
       -0.25481772 0.24037145 -0.2862291 0.24070953
000070 ea 8a 81 be ba 72 89 3e 5d 9b 90 be 52 0c 51 3e
       -0.25301296 0.26845342 -0.28243533 0.20414856
000080 f6 68 4b be 53 ad b2 3e 50 d3 83 3e 5b 37 7b 3e
       -0.19864258 0.3489786 0.25747156 0.24532835
000090 16 c4 04 3e d3 50 7f bd 8d f7 3a 3d db f8 fe bd
       0.12965426 -0.06233294 0.04564624 -0.12449809
0000a0 48 aa ac 3e 6d 4a 29 be 6b 6c 46 3d 89 74 ab 3d
       0.33723664 -0.16532297 0.04844324 0.08371837
0000b0 80 99 8b be 8f 46 9f 3e ca b1 5a 3e 0e a2 a5 3d
       -0.2726555 0.3110852 0.21356884 0.0808755
0000c0 08 e6 99 3e 6c d0 38 3e 2d 38 35 3e a6 2d 1e be
       0.30058312 0.18048257 0.1769721 -0.15447101
0000d0 99 d1 63 3e 82 ea 10 bf 86 51 72 be 32 f6 ab 3e
       0.22247924 -0.5660783 -0.23663911 0.3358627
0000e0 5b b7 47 be 80 48 5c 3d 0b dc 4a be 29 78 a4 bd
       -0.19503538 0.05378008 -0.19810502 -0.08030731
0000f0 01 d4 8d 3d 51 61 ac be c4 2f a4 3e 78 4a 79 3e
       0.06925202 -0.33667997 0.32067692 0.24344814
000100 63 03 b0 3e 76 c4 a9 3e 0b f0 a9 be 2e 8c 2a 3e
       0.34377584 0.331577 -0.3319095 0.16655037
000110 17 0d af be e1 02 a2 be f1 b0 35 3e 7c 6f 00 be
       -0.34189674 -0.3164282 0.17743279 -0.12542528
000120 af 19 ef 3d b5 d1 b5 3d ac 72 80 be aa 1a 8f bd
       0.11674821 0.08877889 -0.25087488 -0.06987508
000130 90 70 07 be 7a fd 27 3e 4a 95 f6 bd 38 b5 5f 3e
       -0.13226533 0.16405287 -0.120401934 0.21846473
000140 2a d9 c1 3e 7b 34 b8 3d 40 15 ef be a2 2f 88 be
       0.37860996 0.08994385 -0.466959 -0.2659884
000150 46 b8 fb 3d fb a9 0d 3e 14 55 89 bd 67 06 dd be
       0.12291007 0.13834374 -0.067056805 -0.43168947
000160 e7 8e 33 3c a1 a1 b0 3d 35 16 b2 3d f1 07 9a 3d
       0.010959364 0.08624578 0.08695642 0.07521046
000170 47 8a c9 3d 0c 77 e4 bd 19 58 35 be b0 eb dc bd
       0.098408274 -0.11155519 -0.17709388 -0.10787141
000180 71 78 c7 3c 5f 95 10 3e c9 b6 f7 bc 74 a0 96 3e
       0.024349423 0.1411948 -0.030238526 0.2941929
000190 10 cb 80 3d c8 7d 11 3e d7 22 bc be 0a 29 ad 3c
       0.06288731 0.14208138 -0.3674533 0.021137733
0001a0 88 1f e5 3e 66 d4 c2 bd e1 c0 93 3e b4 e6 23 ba
       0.4475062 -0.09513168 0.28858092 -0.0006252334
0001b0 8f d0 85 be b1 bc bc be bc c1 d4 3d 65 49 1e be
       -0.2613568 -0.3686271 0.103885144 -0.15457685
0001c0 a3 3c 3b bd 66 5e 5e 3e 97 7d 8c be 3f e1 5e 3d
       -0.045712125 0.21715698 -0.27439567 0.05441403
0001d0 3f 9a 86 be 3b 90 8b be 52 fe 4e 3c ad 43 40 3e
       -0.26289555 -0.27258477 0.012633877 0.18775816
0001e0 bb eb 67 be d4 44 83 be 37 de a6 be bd 42 88 bd
       -0.22648518 -0.2563845 -0.3259141 -0.06653354
0001f0 f2 52 9b be 3f 20 c6 3b 7f 3a c2 be 36 0a 3b 3e
       -0.3033672 0.0060463245 -0.37935254 0.18265614
000200 07 05 a9 bc ac 08 4d 3e c4 8c e9 be 20 19 56 3e
       -0.02063228 0.2002284 -0.45615208 0.20908022
000210 05 48 8b bd cc c2 ba 3e 25 e8 f7 3d 15 2e 05 3e
       -0.06800846 0.36476743 0.12104825 0.1300586
000220 1d ad 22 3e 1f 37 09 3e a8 51 48 3e 88 c0 da be
       0.1588635 0.13399933 0.195624 -0.42725015
000230 51 97 38 3e ef 8a 72 be 93 08 83 3c 2e 59 10 3e
       0.18026473 -0.23685811 0.0159953 0.1409652
000240 8f b1 58 be 5c f5 99 3e 29 f8 84 3e a1 b4 2e 3d
       -0.21161483 0.30070007 0.2597058 0.04265273
000250 37 ad ca 3e 5d 01 88 3e 11 5b dd 3e 69 53 5b be
       0.39585277 0.2656354 0.4323354 -0.21418537
000260 9e f6 65 3d 0b 7c 4d be 17 ce 02 bf ac fc 35 3e
       0.056143396 -0.2006685 -0.5109572 0.17772168
000270 38 b3 1a be c1 82 96 3e 9a f5 5d be 1f 14 be be
       -0.15107429 0.29396632 -0.21675721 -0.37124726
000280 e8 61 24 3e 12 25 d7 be 79 e4 37 3d f7 09 9c 3d
       0.16052973 -0.4202047 0.044895623 0.07619088
000290 ee be 8a 3e 05 33 b4 3e 8a 27 27 be ee 51 ba 3e
       0.27098793 0.35195175 -0.16323677 0.36390632
0002a0 c9 d0 90 be d1 45 6a be fb 9f 94 3e a3 3e 1a bd
       -0.2828429 -0.22878195 0.29028305 -0.03765739
0002b0 78 ee e2 bd af 3b 8c 3e ed d4 ed bd b6 2f 6f be
       -0.110806406 0.27389285 -0.11612878 -0.23358044
0002c0 dc 91 1e bd 8f 47 82 3e 84 1d 24 be ec 42 16 3e
       -0.03871332 0.2544522 -0.16026884 0.14673966
0002d0 b5 50 ab 3e f8 d8 94 be 67 96 97 3d 2a d9 5b be
       0.33460012 -0.29071784 0.07401734 -0.2146956
0002e0 bf 17 5b 3c 62 2a 9f 3e 2d c6 78 be 0f 24 ed bd
       0.013372361 0.31087023 -0.24294348 -0.11579143
0002f0 3e ae 0c 3e 1a 7d 7d 3e a3 5a d1 bd 4a 98 f8 bc
       0.13738343 0.24754754 -0.10222366 -0.030346055
000300 fe 5e 1e be fc 93 1a be ba 46 52 bd 95 92 a5 bd
       -0.15465924 -0.15095514 -0.05133698 -0.08084599
000310 4b bf 1d bd 8e 7e e7 3d 0c 3e 21 be 5b 11 94 3e
       -0.03851251 0.11303435 -0.15746325 0.2891949
000320 b1 38 7b 3e 3c 4e d0 be 00 25 d3 be df 41 48 3d
       0.24533345 -0.40684688 -0.41239166 0.048890945
000330 ac f6 f1 bc 16 0d 60 be d3 60 6f 3e 5f 0a 4c be
       -0.029536568 -0.21879992 0.2337678 -0.19925831
000340 11 61 8d be 8a 97 59 be 17 d9 e6 bc 10 fc cd bc
       -0.27613118 -0.21249214 -0.028179688 -0.025144607
000350 78 69 0b 3e 5f 1e bf 3e e9 52 ee bd 3b 07 90 bd
       0.13614452 0.3732786 -0.116369076 -0.07032629
000360 d3 19 db bd 7c 93 2a be b7 63 2a 3e d9 f9 0e 3f
       -0.10698285 -0.16657823 0.166396 0.5584999
000370 e3 f5 3c be 0d b5 a9 bd 72 76 4a be 40 5e 80 be
       -0.18453173 -0.08286486 -0.19771746 -0.25071907
000380 e6 5f 88 bd ae 2c 06 be ed 3e 0c bf b2 80 b9 3e
       -0.06658916 -0.13102981 -0.5478352 0.36231
000390 e0 7a f6 bd 8a 1b 99 3e 9e d2 85 be 91 4c 26 3e
       -0.12035155 0.29903823 -0.2613725 0.16240145
0003a0 c7 2c 41 be 13 16 4a 3e a0 46 95 3e 21 3a 90 bd
       -0.18864737 0.19734983 0.29155445 -0.07042337
0003b0 b0 4b 2b 3e 67 f6 76 be 28 f5 96 bc a3 4f ad bc
       0.16728091 -0.24117433 -0.018427446 -0.021156138
0003c0 15 ec 06 be e7 fb 94 bd 84 e1 2a bd 49 d3 47 3e
       -0.13175996 -0.07274609 -0.041718975 0.19514193
0003d0 83 dc 59 be ec 69 f5 3e 53 16 3b 3e 13 31 a4 3e
       -0.21275525 0.47932374 0.18270235 0.3206869
0003e0 fe 8b 87 3e 39 0b 85 3e 4c ce 35 3e 78 2e a4 be
       0.26473993 0.25985125 0.17754477 -0.32066703
0003f0 da 6a 66 be 80 92 ca bd 30 16 69 be 10 2e 97 bd
       -0.22501698 -0.09891224 -0.2276237 -0.073818326

l3.bias f4 [18]
000000 4c 8e 9d 3d 4a a5 9b bd e8 4f ee be 69 32 a6 be
       0.076931566 -0.07599886 -0.4654534 -0.32460335
000010 1e 2f 0e 3e a2 f8 11 bd 1b 12 0d 3c e8 ea be be
       0.13885161 -0.035637505 0.008610274 -0.37288594
000020 45 b4 06 be 6e 9a 53 be b1 59 48 3d 4a 31 9d be
       -0.13154705 -0.20664379 0.04891366 -0.30701667
000030 01 ef a7 be ac 4e b9 3e bb 97 94 bd 1d 33 7e be
       -0.32799533 0.36192834 -0.07255503 -0.24824186
000040 ba 7b ce be 7b 1b a5 be
       -0.4032877 -0.32247528
