LARA/data/result/d_150.pt (torch, 94638 bytes, 7 tensors)

D_attr_matrix.weight f4 [36, 5]
-0.00071506074 -0.52724606 -0.20261395 0.07065045 0.028548956 -0.0770666 -0.4503136 0.08340029
-0.25936556 0.18161225 0.25925887 0.011238186 0.033222977 0.048010007 -0.13329718 -0.06356976
-0.3801885 0.052220896 0.21865539 -0.28774142 0.032432437 -0.23959939 0.035693962 0.27081537
0.232727 -0.2943224 -0.85552853 0.015790734 0.66665417 -0.19957511 -0.040038057 -0.14139003
-0.14516081 0.56225705 0.044080697 0.5723139 -0.22206728 0.3809418 -0.14268363 -0.37210897
-0.46353883 0.20947196 0.08816455 -0.31091452 0.05351705 -0.2620661 0.18882819 -0.1130749
-0.16266881 0.15691866 0.2656694 0.16811877 0.10447116 -0.064376615 0.08920819 0.11912844
0.32405218 -0.042218447 -0.1126803 -0.1429376 -0.16648142 0.08646676 -0.083216 0.07043827
-0.07234028 -0.23024696 0.39449763 0.06318492 0.4742745 0.48293406 0.24125029 0.3118172
0.07056209 -0.083703354 -0.46116892 -0.11838017 0.22459345 0.2011624 0.016503358 0.21352498
0.0982156 -0.033871353 0.049688347 0.20165187 -0.07395561 -0.06773793 -0.36183393 0.2577187
0.41485414 -0.030430809 0.05433667 0.07736734 0.09906295 -0.06608198 -0.13350402 -0.45692044
-0.1631007 0.30534562 0.3132992 -0.53896874 -0.06607474 -0.005073483 -0.0032161553 0.22707884
-0.30624706 0.18526159 0.15658566 0.37658748 0.16197212 0.13794331 -0.41105282 0.22629955
-0.017939148 0.09000553 -0.0838367 -0.11992456 0.5629685 -0.20438261 0.0698507 0.46085662
-0.3119755 -0.2276702 -0.0019540817 -0.41471586 0.058419243 -0.048727844 -0.1020589 -0.08127578
-0.22936247 0.20605345 0.13735159 0.030397177 -0.17285855 -0.05281778 -0.037163448 -0.02367624
-0.19192387 -0.0563828 0.36553404 0.01591488 0.06353086 0.13854155 0.03171714 -0.050201233
0.028733239 -0.24000157 -0.104901515 0.072672546 0.32612875 -0.24086662 0.041075062 0.20611517
0.003650564 0.02405103 -0.11929728 0.32730582 0.18610345 -0.14374372 -0.083171695 0.01915385
0.1727101 -0.12423891 0.19564176 0.23217025 -0.06084636 0.08087753 -0.16802152 -0.38038546
0.022172322 0.068417236 -0.036474805 0.28201118 0.07843288 -0.2560484 -0.2511556 -0.5137925
0.21514042 0.39997554 -0.32303017 -0.29555333
00000000: ea72 3bba 99f9 06bf 087a 4fbe 2fb1 903d
00000010: 80df e93c 18d5 9dbd 818f e6be c5cd aa3d
00000020: 90cb 84be 90f8 393e 94bd 843e 5e20 383c
00000030: d114 083d 24a6 443d 0e7f 08be dd30 82bd
00000040: 11a8 c2be 94e5 553d 33e7 5f3e d852 93be
00000050: e0d7 043d 8b59 75be d533 123d 50a8 8a3e
00000060: fd4f 6e3e 6db1 96be eb03 5bbf 925b 813c
00000070: d9a9 2a3f 6b5d 4cbe f2fe 23bd 8cc8 10be
00000080: 09a5 14be 14f0 0f3f f68d 343d 2a83 123f
00000090: 9b65 63be ce0a c33e a81b 12be 1185 bebe
000000a0: f654 edbe d17f 563e 9e8f b43d 3030 9fbe
000000b0: b234 5b3d 872d 86be 2d5c 413e d093 e7bd
000000c0: a792 26be 49af 203e d205 883e 5427 2c3e
000000d0: faf4 d53d e3d7 83bd c9b2 b63d 9df9 f33d
000000e0: 2bea a53e 40ed 2cbd eec4 e6bd 3c5e 12be
000000f0: 1b7a 2abe 7c15 b13d 266d aabd f141 903d
00000100: 2427 94bd dcc5 6bbe 98fb c93e 1867 813d
00000110: 1bd4 f23e 2243 f73e 510a 773e 81a6 9f3e
00000120: db82 903d aa6c abbd 551e ecbe 4d71 f2bd
00000130: d3fb 653e 84fd 4d3e 0d32 873c 4ba6 5a3e
00000140: 4325 c93d b0bc 0abd 0286 4b3d d47d 4e3e
00000150: 0a76 97bd 2fba 8abd 4c42 b9be b5f3 833e
00000160: c367 d43e 084a f9bc 2190 5e3d c572 9e3d
00000170: 84e1 ca3d fd55 87bd 47b5 08be 7af1 e9be
00000180: df03 27be 4356 9c3e c168 a03e dbf9 09bf
00000190: 3152 87bd 763f a6bb 22c6 52bb 5b87 683e
000001a0: 6acc 9cbe 37b5 3d3e fe57 203e 13d0 c03e
000001b0: 05dc 253e 0341 0d3e 8475 d2be 12bb 673e
000001c0: 1ff5 92bc d254 b83d 93b2 abbd 029b f5bd
000001d0: b41e 103f ad49 51be e20d 8f3d 66f5 eb3e
000001e0: 41bb 9fbe 6022 69be 0d10 00bb a355 d4be
000001f0: 0449 6f3d d996 47bd 4204 d1bd eb73 a6bd
00000200: ffdd 6abe adff 523e e5a5 0c3e 8003 f93c
00000210: d501 31be 7557 58bd b338 18bd adf4 c1bc
00000220: b187 44be a7f1 66bd 4727 bb3e ec5f 823c
00000230: 781c 823d d6dd 0d3e d5e9 013d cf9f 4dbd
00000240: f861 eb3c f9c2 75be 9bd6 d6bd 58d5 943d
00000250: 59fa a63e bda5 76be 533e 283d db0f 533e
00000260: 4d3e 6f3b aa06 c53c 2252 f4bd a194 a73e
00000270: e791 3e3e 8e31 13be ec55 aabd 89e8 9c3c
00000280: ebda 303e f870 febd 5056 483e 0abe 6d3e
00000290: 083a 79bd 1ea3 a53d d50d 2cbe e2c1 c2be
000002a0: bba2 b53c 561e 8c3d 9b66 15bd c563 903e
000002b0: 6ba1 a03d c718 83be 7897 80be e887 03bf
000002c0: c54d 5c3e 98c9 cc3e 3664 a5be c452 97be

l1.weight f4 [100, 108]
-0.043501105 0.13602656 0.003158796 0.14986955 0.09440192 -0.112922855 0.08230898 0.05643766
0.094695374 0.020761393 -0.16252123 -0.040471654 -0.07710603 0.3318658 0.14093366 -0.13096727
0.09764544 0.18011469 0.019498121 0.045813065 -0.035339367 -0.0064058965 -0.024197565 0.035215575
-0.061724618 -0.10286467 -0.06270881 -0.0068275617 0.13658266 0.16895205 0.25044945 -0.098825745
0.217914 0.01141262 -0.0135181295 0.022567295 -0.1733753 0.11045801 0.081772946 0.18196692
-0.1208288 -0.018258765 0.005102787 0.013696865 -0.08470101 -0.2041564 -0.0021438252 0.17907533
-0.018882662 0.087753 -0.09664332 -0.09873758 -0.10331662 -0.12216171 -0.0063726213 0.24018309
0.07701087 0.010124088 -0.0033014836 -0.017782435 0.18255892 0.11039497 -0.19373134 0.05924866
-0.008324136 -0.15652952 -0.15673453 0.04539328 -0.09473621 0.10749991 -0.028429778 -0.15974624
0.041425597 -0.02926511 -0.09046144 -0.20537253 -0.20460586 -0.16187695 0.016657345 0.017997464
0.12073344 -0.1920703 0.0012680236 -0.14814958 0.14640732 -0.09260587 -0.031117199 -0.13404265
-0.007616759 0.06796043 0.041571587 -0.16057064 0.2938951 0.08294435 0.0023377554 -0.0032911175
-0.030527193 0.0708189 0.4405364 0.38514546 0.0031924841 -0.13309088 0.2546391 0.14232619
0.10096459 0.12998292 0.27022913 -0.47663805 -0.12378657 -0.119638525 0.086081825 -0.20613976
-0.05560161 -0.08997756 -0.65648735 0.08868045 0.23861648 -0.108985625 -0.00086851034 -0.17192785
0.09708846 -0.058671214 0.07094075 -0.22491638 -0.06076973 -0.18968965 0.13310729 0.3014555
-0.19837332 -0.10786778 -0.114204064 -0.02790191 0.085869744 0.16757257 -0.16319767 0.20611073
0.087851934 0.07448787 -0.006973492 0.026123954 -0.15204395 -0.058485318 -0.20611037 0.32905328
-0.13920882 -0.107519254 -0.37163246 -0.3900088 0.062761396 -0.09365983 0.056813873 0.12721086
-0.1282839 0.3305642 0.09543857 0.061194014 -0.17765789 -0.06442538 0.06578127 0.13616255
0.5692024 0.027247392 -0.031104986 -0.09280006 0.08839025 0.2491129 -0.0058817444 -0.14311291
0.0062000724 -0.034427762 -0.2156652 -0.06429523 0.057490148 -0.09996585 -0.4349333 0.14531153
0.62135595 -0.10214774 0.034498997 0.14500524 0.052970763 0.06266822 -0.033673007 0.035658307
-0.07821409 -0.15603973 -0.067165114 0.020844702 0.06295367 -0.08426923 0.54752284 0.095417194
0.010155491 -0.04213747 0.13063411 0.18062913 -0.08584307 -0.19476154 -0.11428696 -0.0009303472
-0.23191307 0.001537174 -0.063334964 -0.07458808 0.101908036 -0.020654649 0.044881336 -0.009033937
0.017180793 0.07011892 -0.003894579 -0.059405133 0.092147194 0.068266645 -0.11292575 0.15920094
0.12767413 -0.052403457 -0.18918194 0.030187454 -0.006348347 -0.1514738 0.0107269855 0.26942143
0.054547008 -0.067877024 -0.050525684 -0.047644842 -0.028219327 0.10378385 -0.008031648 -0.11580005
-0.17450397 -0.023722483 -0.03964459 0.3330664 0.00978287 -0.0070292302 0.013075438 0.028373342
0.07172303 0.09855773 0.07490166 -0.13842492 -0.017028674 0.14397533 -0.012434723 0.0076297456
0.12923664 0.16325985 0.08118422 -0.15070684 -0.031973455 0.07810433 0.06699986 -0.015914008
00000000: 372e 32bd 8c4a 0b3e ce03 4f3b 6777 193e
00000010: cb55 c13d 1944 e7bd 9c91 a83d 2d2b 673d
00000020: a6ef c13d cc13 aa3c f76b 26be 9bc5 25bd
00000030: c4e9 9dbd 50ea a93e ea50 103e 491c 06be
00000040: 55fa c73d fc6f 383e 86ba 9f3c 7ba6 3b3d
00000050: 03c0 10bd 8ee8 d1bb f939 c6bc 353e 103d
00000060: f4d2 7cbd b6aa d2bd 7a6d 80bd bdb9 dfbb
00000070: 53dc 0b3e c401 2d3e e93a 803e 2765 cabd
00000080: d924 5f3e fffb 3a3c 257b 5dbc 0cdf b83c
00000090: 4b89 31be cf37 e23d 9378 a73d 8955 3a3e
000000a0: 1775 f7bd 6893 95bc 4835 a73b d168 603c
000000b0: b977 adbd 600e 51be 6b7f 0cbb 865f 373e
000000c0: d0af 9abc d8b7 b33d efec c5bd ee36 cabd
000000d0: aa97 d3bd eb2f fabd 6cd1 d0bb 8ef2 753e
000000e0: e0b7 9d3d 81df 253c b45d 58bb 78ac 91bc
000000f0: baf0 3a3e c216 e23d 8261 46be b9ae 723d
00000100: f561 08bc 4649 20be 047f 20be 4eee 393d
00000110: 0f05 c2bd ea28 dc3d 91e5 e8bc 8594 23be
00000120: e3ad 293d 62bd efbc d943 b9bd 2d4d 52be
00000130: 3384 51be 12c3 25be fc74 883c 6b6f 933c
00000140: 1843 f73d 14ae 44be d033 a63a 86b4 17be
00000150: cdeb 153e 25a8 bdbd 7fe9 febc 7a42 09be
00000160: 0196 f9bb d72e 8b3d f846 2a3d a16c 24be
00000170: 6b79 963e bade a93d 0735 193b caaf 57bb
00000180: 2a14 fabc 8009 913d fd8d e13e c931 c53e
00000190: ff38 513b fa48 08be 0e60 823e f5bd 113e
000001a0: 86c6 ce3d 3e1a 053e 795b 8a3e e709 f4be
000001b0: d083 fdbd 0b05 f5bd ab4b b03d 4d16 53be
000001c0: 84be 63bd 2846 b8bd 8e0f 28bf 199e b53d
000001d0: e157 743e db33 dfbd beac 63ba db0d 30be
000001e0: 51d6 c63d 3a51 70bd 6249 913d 7b50 66be
000001f0: aee9 78bd 013e 42be 474d 083e 6058 9a3e
00000200: 6022 4bbe c8e9 dcbd d2e3 e9bd 8c92 e4bc
00000210: 7adc af3d 2598 2b3e 4a1d 27be b10e 533e
00000220: b7eb b33d 198d 983d e481 e4bb e701 d63c
00000230: 69b1 1bbe 4d8e 6fbd 990e 53be ac79 a83e
00000240: c28c 0ebe 0e33 dcbd 9c46 bebe 3caf c7be
00000250: 0c89 803d bad0 bfbd aab5 683d 9043 023e
00000260: db5c 03be b63f a93e 4c75 c33d 93a6 7a3d
00000270: f3eb 35be 74f1 83bd 55b8 863d 326e 0b3e
00000280: 40b7 113f ec35 df3c e2cf febc f50d bebd
00000290: f305 b53d 7417 7f3e a6bb c0bb 318c 12be
000002a0: fa29 cb3b 2004 0dbd 57d7 5cbe 38ad 83bd
000002b0: ca7a 6b3d e5ba ccbd 94af debe 8ccc 143e
000002c0: 2f11 1f3f d632 d1bd d24e 0d3d 417c 143e
000002d0: dff7 583d 3258 803d b5ec 09bd 720e 123d
000002e0: b52e a0bd e1c8 1fbe dd8d 89bd 82c2 aa3c
000002f0: dbed 803d 5995 acbd 752a 0c3f 176a c33d
00000300: 3763 263c 5798 2cbd f3c4 053e d8f6 383e
00000310: 7ece afbd 926f 47be 480f eabd 8be2 73ba
00000320: 9f7a 6dbe 007b c93a c3b5 81bd a3c1 98bd
00000330: 29b5 d03d f033 a9bc 7ed5 373d 1403 14bc
00000340: bcbe 8c3c 829a 8f3d 313c 7fbb cc52 73bd
00000350: abb7 bc3d 62cf 8b3d 9e45 e7bd 9205 233e
00000360: 02bd 023e 02a5 56bd e9b8 41be ae4b f73c
00000370: cb05 d0bb f31b 1bbe 3dc0 2f3c 9bf1 893e
00000380: af6c 5f3d 1c03 8bbd 05f4 4ebd 3d27 43bd
00000390: 382c e7bc a18c d43d 2c97 03bc 9428 edbd
000003a0: 2bb1 32be a755 c2bc 5e62 22bd ae87 aa3e
000003b0: 5548 203c 7555 e6bb 5d3a 563c 366f e83c
000003c0: 86e3 923d a3d8 c93d 0b66 993d 43bf 0dbe
000003d0: b87f 8bbc 456e 133e 02bb 4bbc f202 fa3b
000003e0: 9c56 043e 972d 273e ea43 a63d e552 1abe
000003f0: 99f6 02bd 2af5 9f3d 3937 893d 185e 82bc

l1.bias f4 [100]
-0.09941163 -0.018787382 0.28327212 -0.12534893 -0.08720078 -0.112242654 -0.01216197 0.08388749
-0.039928075 -0.13519078 0.17883715 -0.10577731 0.03981419 0.23103069 -0.015102485 -0.06766639
0.040307354 0.0104053635 -0.21372367 0.14198315 -0.22470771 -0.17535168 -0.08654517 0.29056677
-0.004057952 -0.048538845 -0.16912642 -0.057430167 0.14307706 0.12917401 0.016680403 -0.13645254
-0.1486722 0.02512586 -0.2764967 0.056152344 -0.21992894 0.10273431 -0.13149782 -0.06771219
0.043238427 0.18364444 0.06626899 0.30010134 0.06458532 0.11946648 -0.036230963 0.1680332
0.080618024 -0.117191456 -0.1505952 -0.081104875 0.040108778 -0.15834068 0.064756654 0.33342618
-0.007350715 0.061926223 0.03486621 0.20272432 0.25009423 -0.012125427 -0.047466803 -0.14796211
0.13081929 -0.23572285 -0.06549386 0.3102229 -0.092371576 0.21986975 -0.017804526 0.08086631
-0.13003185 -0.15472378 0.1790967 -0.012007769 0.04979164 0.11520263 -0.15062697 0.27649438
-0.17152078 -0.08345931 0.12560354 -0.097474515 -0.009491112 0.26243326 0.05473427 -0.064211905
0.023991294 0.21224377 0.16204534 0.1619074 -0.018296862 0.02067956 -0.16172446 -0.01245205
0.23292965 -0.041077074 -0.052889805 -0.023625663
00000000: 5398 cbbd ffe7 99bc 0b09 913e 785b 00be
00000010: 5396 b2bd 7adf e5bd 0043 47bc 34cd ab3d
00000020: 9f8b 23bd 746f 0abe 1621 373e c6a1 d8bd
00000030: 3414 233d 4f93 6c3e 6a70 77bc ad94 8abd
00000040: 5319 253d 427b 2a3c 61da 5abe 0864 113e
00000050: c719 66be 648f 33be 983e b1bd 2bc5 943e
00000060: 92f8 84bb abd0 46bd 7a2f 2dbe e53b 6bbd
00000070: cb82 123e 3146 043e 57a5 883c 37ba 0bbe
00000080: 863d 18be bfd4 cd3c fa90 8dbe 0000 663d
00000090: 0d35 61be 5e66 d23d 5da7 06be b0ac 8abd
000000a0: c71a 313d 4a0d 3c3e 09b8 873d e2a6 993e
000000b0: 4f45 843d d8aa f43d eb66 14bd e510 2c3e
000000c0: 101b a53d 1302 f0bd a135 1abe 501a a6bd
000000d0: 1a49 243d 0f24 22be 239f 843d d6b6 aa3e
000000e0: 44de f0bb 5aa6 7d3d dfcf 0e3d f796 4f3e
000000f0: 5a0c 803e baa9 46bc 8d6c 42bd 6183 17be
00000100: 7ef5 053e 5561 71be a521 86bd 89d5 9e3e
00000110: 4f2d bdbd 8925 613e ccda 91bc 3c9d a53d
00000120: 1227 05be e96f 1ebe 2065 373e 3cbc 44bc
00000130: 52f2 4b3d 5bef eb3d f53d 1abe ac90 8d3e
00000140: 25a3 2fbe b7ec aabd 379e 003e b8a0 c7bd
00000150: 9c80 1bbc a75d 863e 0b31 603d 8881 83bd
00000160: 6489 c43c 6e56 593e 37ef 253e 0ecb 253e
00000170: 4de3 95bc 2e68 a93c 199b 25be af03 4cbc
00000180: 1c85 6e3e 6f40 28bd fba2 58bd 9b8a c1bc

l2.weight f4 [100, 100]
0.02648545 -0.24412191 -0.18781169 -0.08951776 0.28850868 -0.09437785 -0.20501706 0.048346058
-0.03730997 0.059204917 0.026933156 0.26310885 -0.033459403 0.039340537 0.13580105 0.24869761
0.00909252 -0.19018732 0.04133398 -0.069233395 0.19923091 0.1487706 0.12675652 -0.072109826
0.13200022 0.07300948 -0.03952116 0.09609268 0.042812087 -0.103044994 -0.0069598183 -0.01456031
0.28187665 -0.08084 -0.10139821 -0.0079894075 -0.052052047 0.046936166 0.14476119 -0.067699604
-0.055933848 -0.011708095 -0.20486024 -0.049638104 -0.101635024 -0.065291025 -0.033454172 -0.009339054
-0.062393263 -0.21225503 0.08941972 -0.02092159 0.050619546 -0.05397292 -0.15350147 0.20035084
0.24681541 -0.21515566 -0.17351335 -0.017859226 0.26035073 -0.21179298 0.06999142 -0.14818811
-0.008496821 0.14762065 -0.2610629 -0.15106888 -0.03192892 -0.07658355 -0.18202995 -0.12183386
-0.053634267 0.010594945 -0.16498756 -0.03453146 0.1730993 -0.45220596 -0.03341636 -0.3845544
0.015933326 0.15891303 0.036703736 0.11567895 0.11913489 0.091789156 0.13605803 -0.04978917
0.25073746 -0.11679459 0.15049689 -0.15858378 -0.16192171 0.054011032 -0.15776421 0.09826101
-0.14831509 0.066350855 0.06012051 0.09206404 0.06998767 0.2817623 0.02448429 -0.20151396
-0.16656348 0.033430405 -0.05649862 -0.047503095 -0.19145355 -0.0535921 0.1012376 0.05417071
-0.0389016 0.10098856 -0.11685571 -0.1498743 -0.13491954 0.1386845 -0.12648897 0.035140987
-0.118311405 -0.03945137 0.15320487 0.017565899 -0.088454515 0.013261408 -0.11388274 -0.22412494
0.024591656 -0.045057308 0.11631651 0.07887039 -0.13170993 0.06882497 0.045365546 0.17338802
0.18185796 -0.034484815 -0.0431443 0.1334004 -0.08307608 -0.00033017405 0.12733985 -0.19836386
0.07661906 0.17492846 0.079571456 0.12216166 0.05182349 -0.14131854 -0.04061038 0.043268047
-0.097377576 0.108240046 0.0046782964 0.042877078 -0.057718482 0.22998522 0.050462738 -0.1213305
0.021891437 0.08828963 0.18179893 -0.08059838 0.3804674 -0.010482744 0.32720965 0.16784076
-0.04943898 -0.045365702 0.045680273 -0.02911816 -0.17184092 0.050667565 0.00010983 -0.038094383
-0.10731623 -0.10127642 0.1452704 0.2562796 -0.04056557 0.035594054 -0.03713694 0.093603715
0.017270748 0.090800695 -0.15756206 0.1711796 0.047621872 0.28848574 0.023024244 0.062875845
0.13789016 0.025031328 -0.008281387 0.024793738 0.14780639 -0.08745241 -0.069732 0.086787835
0.3076432 0.00023157225 -0.3388747 0.08217412 -0.18046702 0.22251712 -0.313305 -0.2535058
0.22659612 0.2447385 -0.3689464 -0.003500652 -0.24720094 -0.65701723 -0.36306086 0.14274791
-0.51609135 -0.44673252 -0.12130973 -0.1175418 -0.13201502 0.26259798 0.19925404 0.18281265
-0.5659665 0.15650693 0.10868699 0.16150536 0.11993135 -0.821218 0.7062121 -0.067845225
0.75529355 0.10390753 0.23215438 -0.16595536 0.020105498 0.011511248 0.1346436 0.041088898
0.18921846 0.012370299 0.062544696 -0.2937464 -0.12699908 0.4527817 -0.29048342 -0.16902739
0.48731983 0.30178687 -0.26496288 -0.022273216 0.6344959 -0.38589543 0.23593071 0.4115868
00000000: 04f8 d83c 18fb 79be b551 40be 1655 b7bd
00000010: 69b7 933e 2d49 c1bd feef 51be 8406 463d
00000020: 57d2 18bd db80 723d eca2 dc3c 34b6 863e
00000030: ba0c 09bd 8b23 213d 6e0f 0b3e 96aa 7e3e
00000040: cbf8 143c 77c0 42be d24d 293d 3dca 8dbd
00000050: 3003 4c3e 5257 183e 76cc 013e 51ae 93bd
00000060: 112b 073e ff85 953d f1e0 21bd 3dcc c43d
00000070: ba5b 2f3d 4109 d3bd 300f e4bb 5e8e 6ebc
00000080: 2352 903e 718f a5bd dda9 cfbd 01e6 02bc
00000090: 8734 55bd 2340 403d 473c 143e 17a6 8abd
000000a0: e41a 65bd 4fd3 3fbc e2c6 51be 5351 4bbd
000000b0: 0626 d0bd 4db7 85bd 3e07 09bd d502 19bc
000000c0: 1490 7fbd 6259 59be b021 b73d c163 abbc
000000d0: 7156 4f3d b512 5dbd 7d2f 1dbe c528 4d3e
000000e0: 2ebd 7c3e c451 5cbe 7cad 31be 834d 92bc
000000f0: b14c 853e 42e0 58be a957 8f3d a0be 17be
00000100: 4036 0bbc de29 173e 09aa 85be cdb1 1abe
00000110: e6c7 02bd d6d7 9cbd 0f66 3abe 0884 f9bd
00000120: 9baf 5bbd 6c96 2d3c 80f2 28be dc70 0dbd
00000130: f140 313e 8a87 e7be 98df 08bd 50e4 c4be
00000140: 9b86 823c 19ba 223e a856 163d 16e9 ec3d
00000150: fefc f33d f4fb bb3d cc52 0b3e bbef 4bbd
00000160: a960 803e 0132 efbd db1b 1a3e c963 22be
00000170: cece 25be ac3a 5d3d f18c 21be 123d c93d
00000180: e9df 17be f5e2 873d ed40 763d 128c bc3d
00000190: b255 8f3d 2643 903e 4793 c83c ad59 4ebe
000001a0: 9e8f 2abe 52ee 083d 196b 67bd 9b92 42bd
000001b0: 660c 44be 6483 5bbd a955 cf3d 1be2 5d3d
000001c0: 4957 1fbd 17d3 ce3d 0c52 efbd a678 19be
000001d0: 5928 0abe 4f03 0e3e 5386 01be ffef 0f3d
000001e0: 404d f2bd c297 21bd bde1 1c3e 5ce6 8f3c
000001f0: a427 b5bd 6046 593c 5b3b e9bd 0281 65be
00000200: 7174 c93c 038e 38bd 5a37 ee3d cd86 a13d
00000210: f8de 06be 1bf4 8c3d 39d1 393d a18c 313e
00000220: f938 3a3e f33f 0dbd 14b8 30bd 1d9a 083e
00000230: cb23 aabd 361b adb9 6165 023e e51f 4bbe
00000240: 74ea 9c3d 7220 333e 5cf6 a23d e42f fa3d
00000250: de44 543d cfb5 10be 1257 26bd d639 313d
00000260: e56d c7bd f5ac dd3d 654c 993b e09f 2f3d
00000270: 376a 6cbd 3f81 6b3e 04b2 4e3d 207c f8bd
00000280: ac55 b33c 32d1 b43d 8029 3a3e c310 a5bd
00000290: a0cc c23e d1bf 2bbc 0688 a73e 73de 2b3e
000002a0: 8780 4abd 63d1 39bd 3d1b 3b3d 3589 eebc
000002b0: 11f7 2fbe cb88 4f3d 8854 e638 db08 1cbd
000002c0: 9dc8 dbbd 036a cfbd c4c1 143e 1437 833e
000002d0: 1528 26bd 12cb 113d e71c 18bd 4eb3 bf3d
000002e0: 627b 8d3c b7f5 b93d f357 21be b449 2f3e
000002f0: 270f 433d 67b4 933e 579d bc3c 0dc5 803d
00000300: 1433 0d3e 800e cd3c a8ae 07bc 3d1c cb3c
00000310: 8f5a 173e 401a b3bd a7cf 8ebd d2bd b13d
00000320: 6983 9d3e 34d2 7239 fc80 adbe e84a a83d
00000330: 59cc 38be 87db 633e 8369 a0be 83cb 81be
00000340: d008 683e bb9c 7a3e 8be6 bcbe 326b 65bb
00000350: 3e22 7dbe 4832 28bf 1de3 b9be 822c 123e
00000360: 901e 04bf 20ba e4be 3c71 f8bd c1b9 f0bd
00000370: f22e 07be 3e73 863e 4009 4c3e 3d33 3b3e
00000380: 2ee3 10bf 5a43 203e 4997 de3d a961 253e
00000390: 919e f53d 583b 52bf 51ca 343f 70f2 8abd
000003a0: eb5a 413f 79cd d43d e1b9 6d3e 34f0 29be
000003b0: 49b4 a43c ac99 3c3c 03e0 093e d54c 283d
000003c0: 7cc2 413e cbac 4a3c 6f17 803d ee65 96be
000003d0: 0c0c 02be 01d3 e73e 3eba 94be 8415 2dbe
000003e0: fc81 f93e cf83 9a3e 37a9 87be 5276 b6bc
000003f0: 536e 223f 1694 c5be d297 713e 81bb d23e

l2.bias f4 [100]
-0.26087153 0.32878292 0.14849629 -0.20007987 0.0239616 0.15593183 -0.076564446 0.06671179
-0.012555031 0.06418132 0.065197095 0.34187198 0.3954773 -0.28504908 0.27102616 0.02121759
0.34202325 0.08842704 -0.10843199 -0.0076275286 0.10848296 0.21769652 0.26873118 0.09962589
0.14389199 -0.20098013 0.20110527 -0.3954681 -0.026263833 -0.028356137 0.034313474 -0.10468235
0.24405108 0.035299 -0.06712694 -0.19176137 -0.07667719 0.024436485 0.029345896 -0.026302945
-0.26817146 0.099789195 -0.009086016 -0.17605098 0.105365835 -0.031065933 0.30730334 0.0351699
-0.14339688 -0.06268226 -0.323937 0.13881849 -0.19753513 -0.05187982 0.26053938 -0.03495139
0.321678 -0.28766724 0.34332076 0.27388698 0.1366201 -0.044284783 -0.010782025 -0.11377566
-0.2795874 -0.23918554 0.045417428 -0.08857668 0.07690221 -0.053626984 -0.06842468 0.033776395
-0.030545572 -0.16022998 0.072981425 0.018111508 0.4131591 -0.03369648 -0.17345028 -0.09994499
-0.19248192 0.009090304 0.046177365 0.061553035 -0.12941577 -0.4741027 0.20900328 0.12795633
-0.060529716 -0.19698362 -0.16193826 -0.020316657 0.09035496 0.049039047 0.18874754 0.22340715
-0.050773334 0.20869745 0.33852223 -0.092038184
00000000: f490 85be 3c56 a83e 690f 183e bde1 4cbe
00000010: 1e4b c43c 98ac 1f3e d2cd 9cbd 31a0 883d
00000020: 9eb3 4dbc 7f71 833d 0e86 853d d809 af3e
00000030: 007c ca3e f4f1 91be f1c3 8a3e 83d0 ad3c
00000040: ac1d af3e 3c19 b53d 9711 debd 59f0 f9bb
00000050: 502c de3d d6eb 5e3e 2297 893e a908 cc3d
00000060: 6c58 133e bccd 4dbe 8aee 4d3e cb7a cabe
00000070: 4027 d7bc 214b e8bc 498c 0c3d b363 d6bd
00000080: 87e8 793e af95 103d d979 89bd 185d 44be
00000090: ee08 9dbd 062f c83c ce66 f03c 4679 d7bc
000000a0: c54d 89be 475e cc3d 83dd 14bc b546 34be
000000b0: 0bca d73d fc7d febc dd56 9d3e 500e 103d
000000c0: a2d6 12be 8f5f 80bd 12db a5be 6f26 0e3e
000000d0: a646 4abe ef7f 54bd 6b65 853e 3029 0fbd
000000e0: fbb2 a43e 1f49 93be bdc7 af3e ea3a 8c3e
000000f0: 24e6 0b3e f663 35bd 17a7 30bc 3703 e9bd
00000100: 1426 8fbe 0eed 74be a007 3a3d b167 b5bd
00000110: e87e 9d3d f8a7 5bbd 3d22 8cbd 1e59 0a3d
00000120: b53a fabc 5413 24be 4977 953d 965e 943c
00000130: 9789 d33e 5205 0abd f39c 31be f5af ccbd
00000140: fb19 45be 80ef 143c 7a24 3d3d 091f 7c3d
00000150: 9185 04be 97bd f2be f504 563e fc06 033e
00000160: 02ee 77bd 13b6 49be 25d3 25be 1e6f a6bc
00000170: 050c b93d 2bdd 483d 0947 413e d8c4 643e
00000180: b3f7 4fbd c9b4 553e c952 ad3e 847e bcbd

l3.weight f4 [18, 100]
-0.120108224 -0.24285549 -0.48434037 0.20447348 0.29222816 -0.2707836 0.11215951 -0.16602291
0.016568149 -0.20590937 -0.065707274 -0.3271321 -0.14985368 0.3808883 -0.04233859 -0.11321102
-0.19254005 -0.08033615 -0.07667147 0.55840987 -0.2592508 -0.07324645 -0.04931858 -0.06687644
-0.25457665 0.24233891 -0.29656664 0.24005564 -0.25496113 0.285631 -0.28454915 0.20627531
-0.20065075 0.36255464 0.2680635 0.24176303 0.12742773 -0.06459266 0.04773762 -0.13809094
0.33920413 -0.17000711 0.050691452 0.0861317 -0.27462992 0.306774 0.21344057 0.08813717
0.31242025 0.18246968 0.17899162 -0.16144107 0.22444208 -0.56805015 -0.2530414 0.34856504
-0.19707614 0.056110144 -0.20009986 -0.082381815 0.0810911 -0.35011563 0.3251249 0.23690036
0.34571582 0.34625536 -0.33426246 0.16860391 -0.34569928 -0.32485497 0.16703057 -0.10619913
0.118934676 0.09072577 -0.25568113 -0.07182058 -0.13419566 0.16600972 -0.12087044 0.22043952
0.38699394 0.07936384 -0.46890098 -0.27610403 0.13443443 0.14323652 -0.08320937 -0.43388063
0.0129010705 0.0881766 0.08160941 0.078586474 0.09609464 -0.11645933 -0.17903906 -0.10952611
0.026980804 0.1437848 -0.032453526 0.296176 0.066685416 0.13832973 -0.37329528 0.024954341
0.44830856 -0.11435797 0.2900353 -0.004414529 -0.26511908 -0.36255482 0.10280774 -0.15840329
-0.049394537 0.22065875 -0.28676322 0.058548998 -0.2666705 -0.2763709 0.016405782 0.20840026
-0.2303285 -0.26013818 -0.329683 -0.07029332 -0.30198005 0.009792458 -0.3859231 0.18120115
-0.024359453 0.21794201 -0.45994493 0.21291098 -0.071772665 0.37467048 0.13103987 0.12542045
0.1554278 0.13012764 0.1993311 -0.44056997 0.18399416 -0.24136388 0.01985578 0.14468987
-0.21537705 0.29490292 0.25685963 0.046558775 0.40786964 0.26907796 0.4360902 -0.22098792
0.05987099 -0.2044143 -0.5231188 0.19003606 -0.15485658 0.29788032 -0.22052978 -0.37496054
0.16950257 -0.42982712 0.049413484 0.06860189 0.27468765 0.36297518 -0.16720027 0.36768132
-0.2835869 -0.23684394 0.27701983 -0.014987554 -0.108593054 0.27764046 -0.118434206 -0.23733155
-0.042458806 0.2581819 -0.15809532 0.15050544 0.3396428 -0.30062005 0.07027658 -0.22468828
0.021248275 0.3163371 -0.2582537 -0.11963291 0.14112724 0.2512904 -0.10796946 -0.025725065
-0.15836875 -0.15260684 -0.05508699 -0.08398004 -0.034405068 0.11250603 -0.16123715 0.29295754
0.24805807 -0.40943885 -0.42056662 0.05076638 -0.027813205 -0.23984928 0.23706223 -0.20198405
-0.27883208 -0.2075792 -0.021150557 -0.027867805 0.13367204 0.3769225 -0.1261781 -0.06826267
-0.10958005 -0.16930921 0.1688932 0.5772215 -0.18721084 -0.08563262 -0.20052886 -0.25351986
-0.067091174 -0.12826717 -0.55635256 0.36154422 -0.123086914 0.31594384 -0.26406676 0.1651595
-0.19139405 0.20937924 0.3018962 -0.071959466 0.16465376 -0.2434728 -0.015995419 -0.035950772
-0.12906915 -0.07790956 -0.03974239 0.19678396 -0.2155795 0.47464693 0.18164769 0.32660216
0.27673212 0.26155487 0.18027127 -0.3276739 -0.2223037 -0.10167468 -0.24254097 -0.059198312
00000000: 4dfb f5bd 1caf 78be 76fb f7be 7f61 513e
00000010: ee9e 953e 26a4 8abe e3b3 e53d e901 2abe
00000020: edb9 873c e8d9 52be 8991 86bd dc7d a7be
00000030: 3e73 19be cb03 c33e 3b6b 2dbd 2edb e7bd
00000040: 3829 45be 4887 a4bd ef05 9dbd f3f3 0e3f
00000050: 85bc 84be 3c02 96bd 4802 4abd 84f6 88bd
00000060: df57 82be b127 783e 95d7 97be 25d1 753e
00000070: 448a 82be 3a3e 923e 6db0 91be d639 533e
00000080: 6477 4dbe c3a0 b93e 9e3f 893e ba90 773e
00000090: 6a7c 023e 2849 84bd 8688 433d b667 0dbe
000000a0: 2aac ad3e 5816 2ebe d7a1 4f3d d165 b03d
000000b0: 4b9c 8cbe 7b11 9d3e 2a90 5a3e 4381 b43d
000000c0: 8cf5 9f3e 55d9 3a3e 9449 373e cf50 25be
000000d0: 25d4 653e bc6b 11bf a48e 81be 1e77 b23e
000000e0: 54ce 49be c0d3 653d fae6 4cbe ccb7 a8bd
000000f0: 1713 a63d 5b42 b3be c576 a63e 0296 723e
00000100: aa01 b13e 6248 b13e 7324 abbe 81a6 2c3e
00000110: 7fff b0be 6453 a6be 100a 2b3e ee7e d9bd
00000120: 0694 f33d 6fce b93d a3e8 82be ab16 93bd
00000130: 966a 09be 74fe 293e ec8a f7bd e6ba 613e
00000140: 1224 c63e 8289 a23d ca13 f0be 825d 8dbe
00000150: 2ea9 093e 98ac 123e ad69 aabd 9a25 debe
00000160: 035f 533c ef95 b43d d622 a73d f2f1 a03d
00000170: 44cd c43d 3b82 eebd 0456 37be 3a4f e0bd
00000180: d906 dd3c 533c 133e fded 04bd 61a4 973e
00000190: 5d92 883d 4fa6 0d3e 8f20 bfbe 0c6d cc3c
000001a0: b388 e53e 8334 eabd 827f 943e c1a7 90bb
000001b0: b0bd 87be c9a0 b9be dd8c d23d 7934 22be
000001c0: ed51 4abd 5ef4 613e a1d2 92be 13d1 6f3d
000001d0: 0989 88be 7d80 8dbe 6b65 863c e166 553e
000001e0: 3cdb 6bbe d530 85be 36cc a8be f2f5 8fbd
000001f0: 219d 9abe 8c70 203c b697 c5be cb8c 393e
00000200: 7a8d c7bc 312c 5f3e e77d ebbe 5605 5a3e
00000210: 8cfd 92bd cfd4 bf3e 512f 063e 386e 003e
00000220: 7728 1f3e 2e40 053e 741d 4c3e 6392 e1be
00000230: f768 3c3e 1828 77be 97a8 a23c 9529 143e
00000240: cd8b 5cbe 84fd 963e 1b83 833e 6ab4 3e3d
00000250: 4ad4 d03e 96c4 893e 3747 df3e a84a 62be
00000260: 493b 753d fb51 51be 1deb 05bf d098 423e
00000270: b992 1ebe c583 983e 8fd2 61be d4fa bfbe
00000280: 1592 2d3e 4d12 dcbe cb65 4a3d 267f 8c3d
00000290: dca3 8c3e e2d7 b93e 8c36 2bbe ba40 bc3e
000002a0: 4d32 91be 3887 72be 8bd5 8d3e 5c8e 75bc
000002b0: 0966 debd e426 8e3e a28d f2bd 0b07 73be
000002c0: 49e9 2dbd 6b30 843e bde3 21be 191e 1a3e
000002d0: a9e5 ad3e dfea 99be 2bed 8f3d af14 66be
000002e0: dd10 ae3c f0f6 a13e d439 84be 1902 f5bd
000002f0: a983 103e 23a9 803e 181f ddbd 5fbd d2bc
00000300: 6b2b 22be f844 1cbe e5a2 61bd bafd abbd
00000310: 54ec 0cbd 9069 e63d 5a1b 25be 88fe 953e
00000320: ef02 7e3e f8a1 d1be 8254 d7be 68f0 4f3d
00000330: 85d8 e3bc 0d9b 75be 71c0 723e e8d4 4ebe
00000340: 14c3 8ebe a48f 54be ef43 adbc 064b e4bc
00000350: 53e1 083e fcfb c03e d534 01be 4ccd 8bbd
00000360: 816b e0bd 655f 2dbe 57f2 2c3e cac4 133f
00000370: 33b4 3fbe 2860 afbd 7057 4dbe 5bcd 81be
00000380: 1967 89bd 7858 03be 1f6d 0ebf 531c b93e
00000390: fe14 fcbd 64c3 a13e c233 87be 921f 293e
000003a0: cdfc 43be 8367 563e 2492 9a3e 7c5f 93bd
000003b0: ff9a 283e ef50 79be d308 83bc 1e41 13bd
000003c0: b42a 04be 0c8f 9fbd ebc8 22bd bc81 493e
000003d0: dfc0 5cbe ec04 f33e da01 3a3e 6638 a73e
000003e0: d5af 8d3e 85ea 853e 0899 383e e0c4 a7be
000003f0: 95a3 63be d13a d0bd a95c 78be ee79 72bd

l3.bias f4 [18]
0.07500386 -0.07974419 -0.46829358 -0.32729697 0.13645764 -0.03775528 0.0051647685 -0.37704387
-0.13586247 -0.20845152 0.046234153 -0.31159964 -0.3298534 0.35992453 -0.0760311 -0.25083715
-0.40561768 -0.32606903
00000000: a09b 993d ec50 a3bd 2dc4 efbe 7893 a7be
00000010: 8dbb 0b3e 48a5 1abd 383d a93b e50b c1be
00000020: 881f 0bbe 5174 55be 0660 3d3d fd89 9fbe
00000030: 8be2 a8be 0748 b83e 31b6 9bbd ba6d 80be
00000040: 1fad cfbe 85f2 a6be
