LARA/data/result/d_190.pt (torch, 94638 bytes, 7 tensors)

D_attr_matrix.weight f4 [36, 5]
0.021117713 -0.50022525 -0.18924111 0.08224678 -0.033925164 -0.12893102 -0.40928152 0.09684319
-0.28965586 0.15031613 0.24457106 0.014717272 -0.03642953 -0.013112811 -0.09760443 -0.06643177
-0.39852065 0.066777356 0.13221622 -0.25361106 0.029981678 -0.23365416 -0.003101197 0.25094193
0.2052432 -0.45361203 -0.8237174 -0.020133924 0.64613026 -0.2910023 -0.017611835 -0.1323152
-0.1056041 0.55900323 0.027149271 0.58850324 -0.21712351 0.42913425 -0.15239985 -0.38256028
-0.45196447 0.18977034 0.073307216 -0.2958802 0.048520986 -0.2458687 0.16950618 -0.1966527
-0.13033466 0.15309447 0.24142067 0.14720161 0.09395075 -0.039074518 0.07539755 0.09643166
0.32876787 -0.06472819 -0.104378894 -0.1668423 -0.15436564 0.0793065 -0.07830189 0.032067273
-0.059326734 -0.21436371 0.34965935 0.07406973 0.51417094 0.5408308 0.21936022 0.29439262
0.052813794 -0.0678031 -0.43660322 -0.10802553 0.21886307 0.19418189 0.015971083 0.21398899
0.055091597 0.014717956 0.03133837 0.1841106 -0.050020814 -0.11301782 -0.53708404 0.30297682
0.43070874 -0.01977611 0.05639959 0.052977346 0.07869462 -0.06042702 -0.12420426 -0.4715687
-0.1502257 0.32048488 0.31452882 -0.5390259 -0.05819295 -0.0020374646 -0.002178277 0.19557126
-0.29026052 0.2219429 0.21759653 0.49312973 0.14420447 0.15524651 -0.38468382 0.14963442
0.009570859 0.06313026 -0.071614385 -0.09891758 0.57181966 -0.27595904 0.05253153 0.5291298
-0.298055 -0.18365367 0.023720108 -0.41562352 0.04253744 -0.02190814 -0.07359388 -0.07093466
-0.21271612 0.19545116 0.10198731 0.04193439 -0.16508071 -0.048638087 -0.011825549 -0.074238166
-0.19060495 -0.04343302 0.39679044 0.044750102 0.02465275 0.09300486 0.012824044 -0.0250758
0.028003896 -0.29195225 -0.13692464 0.05405683 0.3608711 -0.26086646 0.011159565 0.2013965
0.033747524 0.035855122 -0.082115605 0.31603256 0.19823383 -0.15427245 -0.113472 0.047221113
0.124066375 -0.10927774 0.19185989 0.1864222 -0.02301821 0.07134911 -0.18811737 -0.37958094
-0.010368675 0.10138726 0.009320656 0.26734033 0.062475048 -0.24803519 -0.23864454 -0.52760834
0.22604315 0.40088868 -0.3175867 -0.28672
00000000: 0eff ac3c c30e 00bf 6cc8 41be 0071 a83d
00000010: 1df5 0abd 7e06 04be 598d d1be b955 c63d
00000020: c64d 94be 79ec 193e d670 7a3e b620 713c
00000030: 2137 15bd 1ed7 56bc d5e4 c7bd 610d 88bd
00000040: e60a ccbe 91c2 883d b063 073e 4fd9 81be
00000050: 239c f53c 0943 6fbe 743d 4bbb 767b 803e
00000060: 462b 523e d63f e8be 25df 52bf e6ef a4bc
00000070: cb68 253f 41fe 94be b246 90bc a37d 07be
00000080: f646 d8bd d61a 0f3f 2668 de3c 26a8 163f
00000090: a055 5ebe 7cb7 db3e b50e 1cbe f1de c3be
000000a0: e367 e7be 2853 423e 1822 963d 9c7d 97be
000000b0: f1bd 463d 01c5 7bbe 0793 2d3e 535f 49be
000000c0: 7376 05be ccc4 1c3e fb36 773e 05bc 163e
000000d0: 4069 c03d 9a0c 20bd 086a 9a3d f67d c53d
000000e0: 4354 a83e 3790 84bd 9ac4 d5bd b5d8 2abe
000000f0: 0712 1ebe 726b a23d be5c a0bd f958 033d
00000100: 9700 73bd 2982 5bbe 8d06 b33e dfb1 973d
00000110: b5a0 033f e373 0a3f f79f 603e a1ba 963e
00000120: 4753 583d 5adc 8abd 758a dfbe 7d3c ddbd
00000130: a41d 603e 9ed7 463e cad5 823c ee1f 5b3e
00000140: baa7 613d 9523 713c aa5c 003d 7d87 3c3e
00000150: a0e2 4cbd e375 e7bd 577e 09bf c71f 9b3e
00000160: db85 dc3e 8201 a2bc 4203 673d c6fe 583d
00000170: a52a a13d 5382 77bd ce5e febd 7471 f1be
00000180: c4d4 19be 9816 a43e ec09 a13e 9afd 09bf
00000190: bb5b 6ebd fc86 05bb 6cc1 0ebb d543 483e
000001a0: 079d 94be 0045 633e a0d1 5e3e 807b fc3e
000001b0: 56aa 133e f1f8 1e3e 47f5 c4be c439 193e
000001c0: 18cf 1c3c 704a 813d 90aa 92bd 4d95 cabd
000001d0: c662 123f 814a 8dbe 4d2b 573d 0d75 073f
000001e0: aa9a 98be b50f 3cbe ac50 c23c 9bcc d4be
000001f0: bd3b 2e3d b378 b3bc 63b8 96bd 3146 91bd
00000200: 41d2 59be 5924 483e b9de d03d 65c3 2b3d
00000210: eb0a 29be bb38 47bd f3bf 41bc 2e0a 98bd
00000220: f22d 43be d3e6 31bd 1e28 cb3e e24b 373d
00000230: 90f4 c93c 5579 be3d f01b 523c c46b cdbc
00000240: 6d68 e53c c47a 95be f935 0cbe b26a 5d3d
00000250: 19c4 b83e 4a90 85be 9cd6 363c e23a 4e3e
00000260: d83a 0a3d d2dc 123d 3a2c a8bd 05cf a13e
00000270: cffd 4a3e 99f9 1dbe 0264 e8bd ed6a 413d
00000280: 8316 fe3d 02cd dfbd eb76 443e 76e5 3e3e
00000290: af90 bcbc 7b1f 923d d7a1 40be 6f58 c2be
000002a0: 60e1 29bc 20a4 cf3d aab5 183c d5e0 883e
000002b0: d6e5 7f3d f0fc 7dbe 3c5f 74be 5711 07bf
000002c0: db77 673e 4841 cd3e b99a a2be f7cc 92be

l1.weight f4 [100, 108]
-0.021582158 0.1447235 0.011916794 0.12818485 0.11033242 -0.11994287 0.079153314 0.057187032
0.0974164 0.030017339 -0.16314714 -0.036114693 -0.07766044 0.32573855 0.13024598 -0.12838525
0.10398381 0.18826067 0.01104303 0.03590134 -0.028238373 -0.013134122 -0.012583092 0.042138662
-0.067807466 -0.11118896 -0.06820795 -0.013056994 0.14319962 0.16409607 0.25702518 -0.10309982
0.22485265 0.013218424 0.0017156546 0.017340148 -0.18101653 0.104631 0.08693072 0.18648496
-0.121239446 -0.025667693 0.0020721368 0.0066107633 -0.08064435 -0.21540256 -0.009314259 0.1743219
-0.0069092703 0.093429975 -0.097865276 -0.11525685 -0.11274938 -0.13092555 -0.00050417305 0.25061125
0.075095385 -0.02012491 -0.008042651 0.0013395804 0.19047324 0.11907692 -0.22779699 0.06673582
-0.016958846 -0.1654797 -0.15164846 0.052794207 -0.078197606 0.11715746 -0.033856247 -0.1764984
0.046029553 -0.0052980618 -0.09014788 -0.21381462 -0.21218632 -0.1778242 0.017011821 0.016669719
0.11210996 -0.18404694 -0.005906802 -0.15611485 0.16028486 -0.08828757 -0.038572077 -0.14337239
-0.00057904696 0.07569276 0.10216842 -0.032074705 0.1907794 0.0024329075 0.027928133 0.07664956
0.05901564 0.0064781206 0.57226014 0.34810415 0.061322577 -0.20650542 0.3419634 0.114498265
-0.0112710195 0.26631716 0.31617838 -0.35177594 0.0043881475 -0.12267977 0.055370692 -0.053494684
-0.185724 -0.09697503 -0.853698 0.10960775 0.2649557 -0.115831524 -0.01727975 -0.17427243
0.06871048 -0.05726055 0.06649261 -0.20201986 -0.06283903 -0.16937599 0.12799984 0.27439466
-0.19199815 -0.10924336 -0.19596882 -0.02046404 0.1045945 0.17432618 -0.17426631 0.22658285
0.10193153 0.11741255 -0.006387252 0.023277722 -0.15346551 -0.06374064 -0.21406333 0.29064107
-0.14078023 -0.10288841 -0.28784284 -0.3473903 0.052353177 -0.1146431 0.06983562 0.13134217
-0.1269314 0.34039074 0.09765105 0.05956119 -0.18025295 -0.062717065 0.075996414 0.18698433
0.7090082 0.026456147 -0.02773313 -0.0885826 0.09906616 0.16537172 -0.007222093 -0.07787442
0.0037708974 -0.036705505 -0.18350105 -0.06576964 0.049670275 -0.10574645 -0.45036083 0.14792027
0.6613453 -0.08573981 0.102441356 0.16316144 0.03873646 -0.031524338 0.05767415 0.07932436
-0.078807615 -0.28805768 -0.13679285 0.036251344 0.06339127 -0.082269326 0.576389 0.100010544
-0.011267963 -0.07648842 0.13052265 0.19035952 -0.08660742 -0.1951928 -0.09774475 -0.011609409
-0.23124981 -0.0080030495 -0.060509797 -0.08848462 0.07993839 -0.07208232 0.020023942 -0.03846759
0.046981853 0.1128813 -0.031094888 -0.04049671 0.03195305 0.09246014 -0.077221334 0.14903387
0.14437799 -0.061341275 -0.20687263 0.06359604 -0.014045817 -0.14526159 -0.009036318 0.28026128
0.063274674 -0.077717096 -0.06782714 -0.057670534 -0.041801214 0.11354353 -0.0006559851 -0.110792205
-0.18218724 -0.029898077 -0.031611122 0.33116877 -0.0010704028 0.0010493555 0.0429944 0.016600113
0.07264026 0.10578944 0.083793744 -0.13381974 -0.023439901 0.1485433 -0.02006821 0.015280818
0.12385147 0.17097937 0.073715925 -0.14258005 -0.024641603 0.0862649 0.057205148 -0.021101577
00000000: 11cd b0bc 6632 143e a83e 433c e442 033e
00000010: f7f5 e13d 9ca4 f5bd 221b a23d f33c 6a3d
00000020: 4082 c73d ece6 f53c 0b10 27be 00ed 13bd
00000030: 700c 9fbd 34c7 a63e 345f 053e 6c77 03be
00000040: 77f5 d43d 68c7 403e d3ed 343c 490d 133d
00000050: 2954 e7bc 8030 57bc 5029 4ebc 9799 2c3d
00000060: a4de 8abd 0ab7 e3bd 9cb0 8bbd 01ed 55bc
00000070: eca2 123e cd08 283e ce98 833e 0026 d3bd
00000080: c63f 663e 1792 583c d1df e03a ed0c 8e3c
00000090: 665c 39be c748 d63d bc08 b23d eaf5 3e3e
000000a0: 634c f8bd 0e45 d2bc b0cc 073b 1a9f d83b
000000b0: dd28 a5bd 7d92 5cbe d59a 18bc 7181 323e
000000c0: 2967 e2bb 3758 bf3d 976d c8bd c90b ecbd
000000d0: 26e9 e6bd 5911 06be 7b2a 04ba 1e50 803e
000000e0: 9ccb 993d ffdc a4bc 53c5 03bc dc94 af3a
000000f0: 6b0b 433e 9ade f33d 9d43 69be caac 883d
00000100: 47ed 8abc 8373 29be bc49 1bbe bd3e 583d
00000110: 1126 a0bd 40f0 ef3d d9ac 0abd ffbb 34be
00000120: 7c89 3c3d 5d9b adbb 749f b8bd 38f2 5abe
00000130: 5f47 59be 8c17 36be 605c 8b3c ef8e 883c
00000140: e899 e53d cd76 3cbe d98d c1bb 92dc 1fbe
00000150: b721 243e 1dd0 b4bd c1fd 1dbd 36d0 12be
00000160: 2fcb 17ba ce04 9b3d ad3d d13d c460 03bd
00000170: ad5b 433e 6a71 1f3b 8ac9 e43c 72fa 9c3d
00000180: 62ba 713d 6a46 d43b a47f 123f b53a b23e
00000190: 622d 7b3d 2876 53be d415 af3e 117e ea3d
000001a0: 15aa 38bc b95a 883e 22e2 a13e fa1b b4be
000001b0: 73ca 8f3b 883f fbbd 61cc 623d 3e1d 5bbd
000001c0: 6f2e 3ebe d89a c6bd f48b 5abf 077a e03d
000001d0: 46a8 873e 1439 edbd 438e 8dbc 7974 32be
000001e0: 15b8 8c3d 0a8a 6abd 472d 883d 4bde 4ebe
000001f0: c0b1 80bd e670 2dbe 6412 033e 757d 8c3e
00000200: 2a9b 44be fcba dfbd 0dac 48be 34a4 a7bc
00000210: a435 d63d 9082 323e de72 32be 5605 683e
00000220: 7ac1 d03d fe75 f03d 274c d1bb ecb0 be3c
00000230: 1026 1dbe 748a 82bd 6b33 5bbe e8ce 943e
00000240: b128 10be 29b7 d2bd 2360 93be 24dd b1be
00000250: 4970 563d 00ca eabd fa05 8f3d 907e 063e
00000260: 4efa 01be b247 ae3e 46fd c73d 6ff6 733d
00000270: 3b94 38be ce71 80bd 02a4 9b3d d278 3f3e
00000280: 9081 353f 90ba d83c 9730 e3bc cb6a b5bd
00000290: 33e3 ca3d 3457 293e 4fa7 ecbb a07c 9fbd
000002a0: 2921 773b 8358 16bd b3e7 3bbe 3cb2 86bd
000002b0: 0f73 4b3d 9891 d8bd b295 e6be 6978 173e
000002c0: ed4d 293f 5a98 afbd c6cc d13d cb13 273e
000002d0: 1faa 1e3d aa1f 01bd bb3b 6c3d cf74 a23d
000002e0: e365 a1bd 4c7c 93be 6d13 0cbe 4a7c 143d
000002f0: 48d3 813d d27c a8bd 3b8e 133f 54d2 cc3d
00000300: 439d 38bc f6a5 9cbd bba7 053e 9bed 423e
00000310: 3b5f b1bd 9fe0 47be 662e c8bd 6435 3ebc
00000320: c0cc 6cbe 391f 03bc 1fd9 77bd 6d37 b5bd
00000330: bdb6 a33d e59f 93bd 4009 a43c 3190 1dbd
00000340: 0b70 403d 502e e73d b5ba febc e1df 25bd
00000350: 34e1 023d be5b bd3d 3826 9ebd 569c 183e
00000360: d3d7 133e fd40 7bbd 6bd6 53be a43e 823d
00000370: 6d20 66bc 74bf 14be 110d 14bc 687e 8f3e
00000380: 2796 813d 242a 9fbd f5e8 8abd f037 6cbd
00000390: c037 2bbd 8389 e83d 6af6 2bba 06e7 e2bd
000003a0: 4b8f 3abe d0ec f4bc aa7a 01bd f48e a93e
000003b0: c24c 8cba 878a 893a e51a 303d f6fc 873c
000003c0: 6bc4 943d 22a8 d83d 0e9c ab3d 0b08 09be
000003d0: 0905 c0bc bc1b 183e 1666 a4bc 655c 7a3c
000003e0: d7a5 fd3d 3715 2f3e 60f8 963d 8100 12be
000003f0: 30dd c9bc a7ab b03d f24f 6a3d 37dd acbc

l1.bias f4 [100]
-0.1078246 -0.018493377 0.29188713 -0.12249475 -0.08601477 -0.13566186 -0.011262913 0.08448495
-0.049906492 -0.14088401 0.19096345 -0.10989216 0.035323497 0.23544845 -0.015459664 -0.07263565
0.04549683 0.02356809 -0.22373195 0.14226855 -0.22717051 -0.17613888 -0.08919392 0.29521668
-0.005486631 -0.033047978 -0.17036124 -0.05325093 0.14988054 0.13302016 0.015845532 -0.1399814
-0.14724965 0.022155209 -0.28099996 0.07152162 -0.23644006 0.099866875 -0.1235752 -0.10059447
0.04438914 0.18979926 0.06961329 0.3003682 0.05679231 0.1154332 -0.02270606 0.16332255
0.08252467 -0.12307218 -0.13265355 -0.07952916 0.039884206 -0.1490837 0.06010499 0.34327218
-0.005090483 0.060759217 0.038029235 0.20035666 0.24958631 -0.004230559 -0.0462757 -0.14063667
0.13299593 -0.23422414 -0.06231123 0.30291075 -0.07462055 0.20300995 -0.02075774 0.088304594
-0.13196123 -0.14281915 0.17974144 -0.006502114 0.04545961 0.09896961 -0.14481643 0.25839767
-0.1737489 -0.076796874 0.12627047 -0.10521382 -0.003173078 0.2714154 0.05544946 -0.06768711
0.02757292 0.2232471 0.16415097 0.17424923 -0.011181694 0.019726459 -0.16753414 -0.0066345017
0.23315586 -0.033936642 -0.059467494 -0.020419147
00000000: 25d3 dcbd 6c7f 97bc 3b72 953e 87de fabd
00000010: 8328 b0bd f1ea 0abe 1588 38bc 7206 ad3d
00000020: c06a 4cbd e643 10be ec8b 433e 240f e1bd
00000030: 5faf 103d 6619 713e 884a 7dbc 00c2 94bd
00000040: e25a 3a3d de11 c13c fd19 65be d9ae 113e
00000050: 639f 68be c05d 34be 4dab b6bd a426 973e
00000060: 32c9 b3bb 515d 07bd 2d73 2ebe a61d 5abd
00000070: 497a 193e 7036 083e 7dce 813c 4957 0fbe
00000080: 9dc8 16be d77e b53c 3adf 8fbe ed79 923d
00000090: 581d 72be 0187 cc3d ff14 fdbd 7904 cebd
000000a0: 63d1 353d bd5a 423e 6a91 8e3d dcc9 993e
000000b0: 0e9f 683d 3e68 ec3d 0f02 babc 073e 273e
000000c0: b202 a93d 440d fcbd 55d6 07be 2fe0 a2bd
000000d0: 9f5d 233d 66a9 18be a630 763d 5fc1 af3e
000000e0: 11ce a6bb a8de 783d 8bc4 1b3d 4c2a 4d3e
000000f0: 8e93 7f3e 80a0 8abb 978b 3dbd 0f03 10be
00000100: 1630 083e 74d8 6fbe 0f3a 7fbd 1e17 9b3e
00000110: a9d2 98bd d7e1 4f3e 230c aabc 0ad9 b43d
00000120: d820 07be 2f3f 12be 240e 383e af0f d5bb
00000130: db33 3a3d 94b0 ca3d c24a 14be b34c 843e
00000140: 3beb 31be ae47 9dbd 0c4d 013e 587a d7bd
00000150: 6af3 4fbb f6f6 8a3e f91e 633d 8a9f 8abd
00000160: 9be0 e13c e39a 643e 3117 283e 646e 323e
00000170: 6d33 37bc 6299 a13c 128e 2bbe 3c66 d9bb
00000180: 69c0 6e3e 2601 0bbd 3094 73bd 0e46 a7bc

l2.weight f4 [100, 100]
0.02037404 -0.2586678 -0.23072405 -0.07193731 0.30565488 -0.089559115 -0.18911473 0.06700884
-0.03844805 0.048634794 0.03346248 0.27870178 -0.042953122 0.020806711 0.18315859 0.28886333
0.00824144 -0.13570592 0.03653818 -0.10185273 0.22078942 0.12201991 0.14881356 -0.0898651
0.1595207 0.094479 -0.066007316 0.11770706 0.02580918 -0.1270579 -0.019672811 0.017020974
0.26514244 -0.123806104 -0.07723401 -0.018820304 -0.034552757 0.016351942 0.16569294 -0.077932216
-0.055889323 -0.026802119 -0.23153038 -0.06597442 -0.08745526 -0.118751936 -0.028907806 0.007974627
-0.088431396 -0.1714564 0.10039555 0.0038096975 0.0623475 -0.043592416 -0.17197876 0.17946307
0.2324625 -0.23448843 -0.20242573 -0.016203295 0.27441347 -0.19790609 0.045004353 -0.1273873
-0.026988467 0.1346026 -0.26998603 -0.1720107 -0.028259587 -0.06582685 -0.19764999 -0.13006021
-0.022171594 0.042182583 -0.17600271 -0.059378896 0.1982253 -0.41258562 -0.034649223 -0.43114236
0.046723086 0.18957707 0.050677978 0.095157444 0.13047434 0.10935981 0.16107652 -0.073631085
0.3049075 -0.1362825 0.15630512 -0.15785998 -0.1704053 0.027457925 -0.14056182 0.10859778
-0.16616812 0.0866824 0.054635905 0.13559292 0.072501615 0.27669093 0.04399641 -0.22132008
-0.16815281 0.021825803 -0.067668356 -0.02933941 -0.19395067 -0.06857408 0.08862058 0.03962157
-0.024851173 0.12894756 -0.10759586 -0.18767056 -0.14658023 0.105636485 -0.13626343 0.06368526
-0.1365362 -0.029234506 0.13060403 0.036725987 -0.10081432 -0.01583625 -0.08969197 -0.24979596
0.039687052 -0.005935679 0.1138243 0.031261314 -0.120761536 0.07133657 0.024529507 0.18585475
0.15972202 -0.012997626 -0.06521154 0.1408523 -0.08669812 0.019038133 0.15446436 -0.18983127
0.046318993 0.20834266 0.07978502 0.10629739 0.03364143 -0.16201033 -0.049561746 0.022343006
-0.10192164 0.115067884 0.026204111 0.06908531 -0.060199086 0.24698669 0.07495375 -0.12427444
0.015606481 0.08393978 0.15574342 -0.06480245 0.40104762 -0.020070706 0.31358638 0.18792431
-0.044625178 -0.03501808 0.06092173 -0.014245661 -0.18969086 0.025448479 0.013598824 -0.037938133
-0.13834594 -0.11935928 0.14355609 0.28393325 -0.08127657 0.011704971 -0.050416462 0.10071232
-0.0147446655 0.07852678 -0.16201414 0.16844666 0.018491693 0.308899 0.01884176 0.06357591
0.13196419 0.034195453 -0.0011589736 0.008818108 0.17079967 -0.097304925 -0.050739225 0.06021804
0.28407624 0.0070463475 -0.3041222 0.076999776 -0.23891006 0.18337482 -0.29997313 -0.36773065
0.2128572 0.3081321 -0.35622665 0.0022546104 -0.24593331 -0.6537018 -0.41629264 0.13197699
-0.5935131 -0.59153396 -0.06255116 -0.12732232 -0.13026612 0.23185489 0.19389598 0.20761874
-0.56246 0.22209792 0.13385445 0.15573265 0.097791046 -1.0421903 0.82568437 -0.008390276
0.7968449 0.2529543 0.25414935 -0.16492191 -0.0033101072 0.017242711 0.16730446 0.11368911
0.13566169 -0.020770919 0.06755434 -0.42578432 -0.09370256 0.5505139 -0.286522 -0.21744959
0.70341897 0.31531543 -0.29636508 -0.07063219 0.6496979 -0.41389623 0.22519276 0.34679404
00000000: 75e7 a63c 1b70 84be ed42 6cbe de53 93bd
00000010: cc7e 9c3e c56a b7bd 4ba7 41be ee3b 893d
00000020: b47b 1dbd 4735 473d f40f 093d 00b2 8e3e
00000030: 9def 2fbd d672 aa3c ed8d 3b3e e5e5 933e
00000040: 1b07 073c 7ef6 0abe 0fa9 153d 2a98 d0bd
00000050: 9f16 623e 93e5 f93d 9562 183e 320b b8bd
00000060: 6559 233e 357e c13d d82e 87bd 6610 f13d
00000070: c66d d33c 771b 02be e028 a1bc 926f 8b3c
00000080: c0c0 873e 0e8e fdbd dd2c 9ebd 0a2d 9abc
00000090: 3187 0dbd 82f4 853c 69ab 293e ed9a 9fbd
000000a0: 34ec 64bd 1e90 dbbc 4d16 6dbe 991d 87bd
000000b0: be1b b3bd 3734 f3bd 10d0 ecbc 03a8 023c
000000c0: 851b b5bd 4492 2fbe 2f9c cd3d 1eac 793b
000000d0: 1860 7f3d f68d 32bd 331b 30be 2bc5 373e
000000e0: a60a 6e3e bc1d 70be b148 4fbe c6bc 84bc
000000f0: ec7f 8c3e e5a7 4abe 7c56 383d d171 02be
00000100: eb16 ddbc 44d5 093e 9c3b 8abe 9323 30be
00000110: a680 e7bc 3ad0 86bd c264 4abe 812e 05be
00000120: 34a1 b5bc a5c7 2c3d 0e3a 34be 4937 73bd
00000130: 93fb 4a3e 6c3e d3be 58ec 0dbd b1be dcbe
00000140: b560 3f3d 7e20 423e b693 4f3d e8e1 c23d
00000150: 119b 053e 09f8 df3d 3ef1 243e e5cb 96bd
00000160: d61c 9c3e a48d 0bbe 730e 203e 0ca6 21be
00000170: ba7e 2ebe 71ef e03c 70ef 0fbe 8368 de3d
00000180: fa27 2abe 8b86 b13d e6c9 5f3d dfd8 0a3e
00000190: ba7b 943d 6faa 8d3e 9435 343d bba1 62be
000001a0: 4030 2cbe 07cc b23c b595 8abd 3459 f0bc
000001b0: 019b 46be 9170 8cbd b57e b53d 3a4a 223d
000001c0: b094 cbbc d40a 043e 385b dcbd b62c 40be
000001d0: 2119 16be f157 d83d a488 0bbe 6b6d 823d
000001e0: 25d0 0bbe 347d efbc 10bd 053e fd6d 163d
000001f0: bd77 cebd 06bb 81bc 6cb0 b7bd 83ca 7fbe
00000200: e48e 223d 1680 c2bb b71c e93d dd0b 003d
00000210: d351 f7bd e818 923d 1bf2 c83c b550 3e3e
00000220: 2b8e 233e fff3 54bc a18d 85bd 963b 103e
00000230: c98e b1bd dcf5 9b3c e82b 1e3e 2163 42be
00000240: fcb8 3d3d c757 553e 5466 a33d 72b2 d93d
00000250: 99cb 093d 09e6 25be 4201 4bbd ae08 b73c
00000260: 4bbc d0bd b6a8 eb3d 01aa d63c 997c 8d3d
00000270: 5193 76bd 14ea 7c3e 5a81 993d 9983 febd
00000280: 53b2 7f3c 9fe8 ab3d 347b 1f3e 26b7 84bd
00000290: 1d56 cd3e 526b a4bc 658e a03e 3b6f 403e
000002a0: e4c8 36bd 1e6f 0fbd 1089 793d a266 69bc
000002b0: 523e 42be 5479 d03c 9acd 5e3c 0465 1bbd
000002c0: 8faa 0dbe a372 f4bd 5e00 133e b35f 913e
000002d0: 5574 a6bd 35c6 3f3c 7e81 4ebd 4342 ce3d
000002e0: 9c93 71bc a6d2 a03d 09e7 25be 487d 2c3e
000002f0: e47b 973c 0228 9e3e 095a 9a3c 1634 823d
00000300: 9f21 073e 8810 0c3d b3e8 97ba d379 103c
00000310: 1ce6 2e3e ce47 c7bd efd3 4fbd 31a7 763d
00000320: 7172 913e 0ce5 e63b e8b5 9bbe 0fb2 9d3d
00000330: d7a4 74be 9cc6 3b3e 1496 99be 3147 bcbe
00000340: 3df7 593e 7ec3 9d3e 5763 b6be 16c2 133b
00000350: f1d5 7bbe 0059 27bf 4f24 d5be fa24 073e
00000360: 79f0 17bf c56e 17bf d31a 80bd c860 02be
00000370: 7b64 05be 5e6b 6d3e ab8c 463e 029a 543e
00000380: 61fd 0fbf a36d 633e 2411 093e 6178 1f3e
00000390: ac46 c83d 7e66 85bf 0d60 533f 5e77 09bc
000003a0: 07fe 4b3f 3a83 813e dd1f 823e 4ae1 28be
000003b0: 62ee 58bb 9640 8d3c dc51 2b3e d6d5 e83d
000003c0: e6ea 0a3e c627 aabc ee59 8a3d 6700 dabe
000003d0: 21e7 bfbd 7bee 0c3f 03b3 92be 1bab 5ebe
000003e0: 4413 343f 0671 a13e 2abd 97be 9ca7 90bd
000003f0: 9a52 263f 35ea d3be ee98 663e fd8e b13e

l2.bias f4 [100]
-0.27877623 0.34807184 0.14950837 -0.20699364 0.025696415 0.15742515 -0.07380824 0.08235652
0.005273053 0.0617441 0.06721264 0.3603796 0.40372753 -0.28261453 0.28049505 0.010508907
0.35849237 0.10577295 -0.11511184 -0.013649805 0.1265445 0.23410557 0.28353056 0.10379172
0.1443398 -0.21455437 0.2022287 -0.38814357 -0.010284025 -0.030798577 0.050341308 -0.112404086
0.26234502 0.036366306 -0.06274663 -0.1912122 -0.09026449 0.042615484 0.010550069 -0.027809385
-0.28623587 0.09137455 -0.021272868 -0.19189373 0.09615362 -0.012246541 0.3065493 0.040802814
-0.14377841 -0.06994703 -0.33480218 0.13035451 -0.20964418 -0.03608825 0.26009887 -0.041507483
0.33121806 -0.30369806 0.36325303 0.2892543 0.15038228 -0.043190427 -0.0068887626 -0.11500106
-0.29358843 -0.23630124 0.06139407 -0.1157315 0.06802236 -0.061297722 -0.08496896 0.027833786
-0.035557423 -0.17841156 0.069511876 0.03857683 0.42878693 -0.044540554 -0.1810178 -0.11097847
-0.18654881 0.009479699 0.062822185 0.057810202 -0.12280179 -0.47502816 0.20508122 0.15185525
-0.08624636 -0.22606936 -0.16467458 -0.02708864 0.11634585 0.04951903 0.20195451 0.23057164
-0.061988596 0.20704757 0.34949794 -0.10950248
00000000: c2bb 8ebe 7936 b23e b918 193e 24f6 53be
00000010: 4a81 d23c 0f34 213e c628 97bd 89aa a83d
00000020: 93c9 ac3b 62e7 7c3d c8a6 893d ad83 b83e
00000030: 60b5 ce3e dab2 90be 0c9d 8f3e 8d2d 2c3c
00000040: 508c b73e 7d9f d83d c2bf ebbd 6fa3 5fbc
00000050: e294 013e 5fb9 6f3e eb2a 913e c190 d43d
00000060: d0cd 133e 24b4 5bbe 0a15 4f3e c1ba c6be
00000070: 547e 28bc 4c4d fcbc b032 4e3d 1d34 e6bd
00000080: 1652 863e d6f4 143d 4e81 80bd 22cd 43be
00000090: 97dc b8bd 938d 2e3d 32da 2c3c 82d0 e3bc
000000a0: 828d 92be 9422 bb3d 7044 aebc ca7f 44be
000000b0: 30ec c43d b7a5 48bc 08f4 9c3e da20 273d
000000c0: a63a 13be 6340 8fbd 316b abbe a77b 053e
000000d0: f7ac 56be 46d1 13bd ae2b 853e c003 2abd
000000e0: 6a95 a93e 507e 9bbe 4dfc b93e 2419 943e
000000f0: d0fd 193e 72e8 30bd 21bb e1bb ad85 ebbd
00000100: 3951 96be f4f8 71be 5978 7b3d a304 edbd
00000110: 4f4f 8b3d 5213 7bbd 3504 aebd ae03 e43c
00000120: a9a4 11bd 85b1 36be 3e5c 8e3d bd02 1e3d
00000130: f689 db3e 2870 36bd bb5c 39be ae48 e3bd
00000140: a706 3fbe bd50 1b3c eba8 803d 64ca 6c3d
00000150: 817f fbbd e436 f3be d000 523e f17f 1b3e
00000160: eea1 b0bd ba7e 67be 74a0 28be ffe8 ddbc
00000170: bc46 ee3d 77d4 4a3d 2acd 4e3e f91a 6c3e
00000180: c1e7 7dbd 4704 543e 65f1 b23e d642 e0bd

l3.weight f4 [18, 100]
-0.11058362 -0.25225914 -0.52037245 0.21272664 0.30810124 -0.29272586 0.12348678 -0.17550826
0.00724869 -0.2098272 -0.060416833 -0.3366528 -0.15899606 0.39609924 -0.04470059 -0.10388945
-0.20178267 -0.089645155 -0.06727157 0.59074765 -0.26840252 -0.0826298 -0.058672953 -0.07634591
-0.2464423 0.25169146 -0.3273861 0.25809175 -0.2642728 0.30637273 -0.29410648 0.21606643
-0.20998564 0.379142 0.26910067 0.23214507 0.14201841 -0.07348499 0.057073977 -0.14293122
0.34849444 -0.17702453 0.059051942 0.0949851 -0.2841877 0.31444344 0.24594489 0.11699274
0.3289637 0.19165376 0.18852298 -0.17769639 0.2337934 -0.5773928 -0.29443222 0.32554027
-0.20659724 0.06517764 -0.20948677 -0.09162044 0.07653403 -0.37635422 0.33822185 0.2361603
0.35498655 0.3489681 -0.34337533 0.17792557 -0.36791897 -0.33699146 0.16939983 -0.11311033
0.1204026 0.10005358 -0.24774453 -0.081105076 -0.14349708 0.17541736 -0.14036675 0.22980092
0.41061518 0.060422048 -0.47820428 -0.28214473 0.13007219 0.15001348 -0.07609046 -0.44293165
0.022185741 0.097478755 0.059279572 0.08868791 0.0879544 -0.12474026 -0.18835633 -0.11813614
0.035910938 0.17342708 -0.041758664 0.3055049 0.07561423 0.12942848 -0.40469134 0.032525107
0.46535894 -0.13297519 0.29749525 -0.013303442 -0.2741007 -0.36615932 0.10333763 -0.16722672
-0.05788629 0.24069722 -0.2871659 0.067025766 -0.2755767 -0.28540182 0.025330056 0.24427253
-0.23915133 -0.2691432 -0.33871704 -0.079302266 -0.2945081 0.01883151 -0.41361806 0.20180948
-0.033345867 0.24176028 -0.46880186 0.22181718 -0.08068066 0.38786325 0.13475347 0.1151806
0.16939613 0.12170977 0.20798811 -0.442985 0.1929915 -0.24900271 0.027760945 0.15282752
-0.2244694 0.30407488 0.28852943 0.073166475 0.42771304 0.27754813 0.44510058 -0.24049672
0.06882576 -0.21333289 -0.557954 0.1722397 -0.1638231 0.30641747 -0.22959568 -0.3837679
0.16581732 -0.45279765 0.063793495 0.07623913 0.28362808 0.36269927 -0.17568946 0.3765875
-0.30562186 -0.25004157 0.28265497 -0.020366883 -0.0849469 0.28672197 -0.116083354 -0.24640174
-0.051563952 0.26722217 -0.17930748 0.1595476 0.36327857 -0.31855705 0.061212752 -0.23277485
0.013786925 0.32334247 -0.25293654 -0.128239 0.1501976 0.26038983 -0.118557945 -0.01627454
-0.16607307 -0.15725057 -0.06419422 -0.092459925 -0.02614663 0.13979132 -0.17003341 0.30198842
0.25869617 -0.4199311 -0.44609413 0.05903184 -0.013134981 -0.25460732 0.24590772 -0.21251035
-0.28933886 -0.20873658 -0.021540403 -0.03846521 0.123760164 0.3861439 -0.14411603 -0.058982965
-0.11994706 -0.17988159 0.17917196 0.60465324 -0.19750464 -0.09628042 -0.21119647 -0.26429462
-0.06516853 -0.11760343 -0.57532805 0.3749418 -0.13369155 0.33477882 -0.27468392 0.17581093
-0.20193766 0.22038686 0.30053443 -0.083212174 0.17849132 -0.25323772 -0.0058967955 -0.041742098
-0.118484624 -0.08315846 -0.030660106 0.20558189 -0.22636884 0.47827715 0.20370549 0.34493312
0.28996414 0.27083373 0.19091076 -0.3383612 -0.21172494 -0.1122292 -0.27477458 -0.058367763
00000000: aa79 e2bd 1c28 81be 2137 05bf 03d5 593e
00000010: 72bf 9d3e 2ae0 95be a3e6 fc3d 70b8 33be
00000020: 6b86 ed3b f1dc 56be a477 77bd c15d acbe
00000030: ddcf 22be 85cd ca3e f717 37bd fec3 d4bd
00000040: 1ea0 4ebe e197 b7bd adc5 89bd 3d3b 173f
00000050: 0e6c 89be d039 a9bd 0d53 70bd 3f5b 9cbd
00000060: 5f5b 7cbe b4dd 803e 279f a7be 9a24 843e
00000070: c44e 87be e3dc 9c3e 2095 96be 8540 5d3e
00000080: 7a06 57be e61e c23e 90c7 893e 70b7 6d3e
00000090: 466d 113e 4c7f 96bd 67c6 693d 905c 12be
000000a0: dd6d b23e eb45 35be 73e0 713d 8c87 c23d
000000b0: 0d81 91be bbfe a03e fad8 7b3e e499 ef3d
000000c0: ee6d a83e e240 443e 2b0c 413e 0bf6 35be
000000d0: 8967 6f3e 04d0 13bf d2bf 96be 37ad a63e
000000e0: 3a8e 53be db7b 853d b383 56be 7fa3 bbbd
000000f0: e0bd 9c3d 80b1 c0be 6a2b ad3e 01d4 713e
00000100: ccc0 b53e f2ab b23e e4ce afbe 1f32 363e
00000110: e05f bcbe 258a acbe 2677 2d3e 64a6 e7bd
00000120: a395 f63d e4e8 cc3d beb0 7dbe 6b1a a6bd
00000130: e6f0 12be 9ca0 333e 4dbc 0fbe ef50 6b3e
00000140: 273c d23e 1c7d 773d 31d7 f4be 4675 90be
00000150: a531 053e 229d 193e 51d5 9bbd f0c7 e2be
00000160: dfbe b53c f1a2 c73d 23cf 723d 02a2 b53d
00000170: 7021 b43d d277 ffbd 7be0 40be 5cf1 f1bd
00000180: 5917 133d de96 313e 220b 2bbd 236b 9c3e
00000190: a2db 9a3d e688 043e b433 cfbe 0c39 053d
000001a0: 8743 ee3e a62a 08be 4c51 983e aef6 59bc
000001b0: ed56 8cbe 3c79 bbbe aea2 d33d 7b3d 2bbe
000001c0: 2d1a 6dbd 5579 763e 6907 93be ce44 893d
000001d0: 6418 8dbe 3020 92be fa80 cf3c 9422 7a3e
000001e0: 16e4 74be 23cd 89be 526c adbe 3a69 a2bd
000001f0: c4c9 96be 8a44 9a3c bfc5 d3be 25a7 4e3e
00000200: ad95 08bd 0290 773e cc06 f0be 0b24 633e
00000210: e73b a5bd 0396 c63e d0fc 093e cee3 eb3d
00000220: 2e76 2d3e f942 f93d d6fa 543e eece e2be
00000230: 909f 453e 91fa 7ebe ec6a e33c d17e 1c3e
00000240: 4edb 65be b4af 9b3e 21ba 933e 4ed8 953d
00000250: 34fd da3e ca1a 8e3e 39e4 e33e c644 76be
00000260: 85f4 8c3d f073 5abe 13d6 0ebf 9b5f 303e
00000270: 3ec1 27be c0e2 9c3e 211b 6bbe 3a7d c4be
00000280: 04cc 293e 18d5 e7be 2aa6 823d 4323 9c3d
00000290: b337 913e b8b3 b93e f0e7 33be 14d0 c03e
000002a0: 787a 9cbe 7305 80be 27b8 903e 73d8 a6bc
000002b0: a4f8 adbd 39cd 923e 1cbd edbd bd50 7cbe
000002c0: b934 53bd 58d1 883e 619c 37be 7260 233e
000002d0: a6ff b93e e919 a3be 39ba 7a3d 885c 6ebe
000002e0: 8ee2 613c 258d a53e e680 81be 1651 03be
000002f0: 66cd 193e d151 853e 82ce f2bd 2f52 85bc
00000300: 0f0f 2abe 4b06 21be 4278 83bd a15b bdbd
00000310: 7531 d6bc 7525 0f3e 3d1d 2ebe 3a9e 9a3e
00000320: d373 843e 3601 d7be 7366 e4be 5fcb 713d
00000330: 1a34 57bc e45b 82be 3ccf 7b3e 509c 59be
00000340: 3924 94be 0bbf 55be 8075 b0bc b28d 1dbd
00000350: f875 fd3d a7b4 c53e 2793 13be 1f98 71bd
00000360: cea6 f5bd e132 38be db78 373e 8eca 1a3f
00000370: a83e 4abe ab2e c5bd e343 58be a051 87be
00000380: 1477 85bd 11da f0bd b348 13bf 5ff8 bf3e
00000390: 70e6 08be 2168 ab3e 5fa3 8cbe c807 343e
000003a0: bfc8 4ebe 18ad 613e a6df 993e 256b aabd
000003b0: 6ec6 363e 60a8 81be e839 c1bb c3f9 2abd
000003c0: 11a8 f2bd fc4e aabd e72a fbbc 0f84 523e
000003d0: 3ccd 67be bee0 f43e 2c98 503e 139b b03e
000003e0: 2e76 943e b8aa 8a3e 1c7e 433e ae3d adbe
000003f0: 6cce 58be 6cd8 e5bd 41af 8cbe 0913 6fbd

l3.bias f4 [18]
0.06570505 -0.0888567 -0.4790355 -0.33774403 0.12522541 -0.04817834 -0.006462537 -0.38740614
-0.14544919 -0.21760723 0.035632648 -0.32241958 -0.33974203 0.34906405 -0.08614303 -0.26083672
-0.41361937 -0.3377038
00000000: 5f90 863d 80fa b5bd 2444 f5be c9ec acbe
00000010: 173b 003e a756 45bd b1c3 d3bb 195a c6be
00000020: a2f0 14be 6ed4 5ebe 8af3 113d 2e14 a5be
00000030: abf2 adbe 86b8 b23e c26b b0bd 648c 85be
00000040: ebc5 d3be 83e7 acbe
