LARA/data/result/d_20.pt (torch, 94638 bytes, 7 tensors)

D_attr_matrix.weight f4 [36, 5]
0	0xbec40b1c	-0.38289726
1	0x3eaf6af8	0.34261298
2	0x3e0925e3	0.13393359
3	0xbe6c1661	-0.23055412
4	0x3e2c2f02	0.16814807
5	0xbe399993	-0.1812499
6	0xbe197277	-0.14985071
7	0x3ef958d7	0.48700592
8	0xbeaa4246	-0.33253688
9	0x3ef0dc0c	0.47042882
10	0x3e848f6c	0.25890672
11	0xbd6a26b7	-0.057165828
12	0xbe3e6877	-0.18594538
13	0xbe9fcdd1	-0.31211713
14	0xbe32c586	-0.17458162
15	0xbee82d62	-0.45347124
16	0xbef66c41	-0.48129466
17	0xbdfa002b	-0.12207063
18	0x3db5e779	0.088820405
19	0xbe7e874d	-0.248563
20	0xbdbf316b	-0.093355976
21	0xbe736cdc	-0.23771995
22	0x3e190213	0.14942198
23	0xbef57bfd	-0.47946158
24	0x3eb1596a	0.3463853
25	0xbf3b8881	-0.73255163
26	0x3eb1378b	0.34612688
27	0x3ef2127c	0.47279727
28	0xbdff5dfd	-0.12469099
29	0x3e7eaea5	0.24871309
30	0xbe3f49f5	-0.18680556
31	0xbed86f1a	-0.42272264
32	0x3e901af1	0.28145555
33	0x3eef05c4	0.46684086
34	0xbbb19d51	-0.005420365
35	0x3e0a9bc1	0.13535978
36	0x3e856435	0.26053014
37	0x3d9118c5	0.070848025
38	0x3d685f60	0.05673158
39	0x3ee15083	0.44006738
40	0xbe06840e	-0.13136312
41	0x3d5c8e60	0.053846717
42	0x3e41b244	0.18915659
43	0xbdea614f	-0.114443414
44	0xbefec5bd	-0.49760237
45	0xbea5944c	-0.32339704
46	0xbeba9f95	-0.36449876
47	0x3e0cc9b3	0.13748817
48	0x3e80c5d8	0.25150943
49	0xbe1283e7	-0.14308129
50	0xbe890e49	-0.2676871
51	0x3e7dd22d	0.24787207
52	0xbe0e2734	-0.13882142
53	0x3e36ea70	0.17862868
54	0x3e87690e	0.26447338
55	0xbe92613d	-0.28589812
56	0x3e065150	0.13116956
57	0xbe9839f1	-0.29731706
58	0xbd485f78	-0.04891917
59	0xbd5e2b06	-0.05424025
60	0x3e078bf7	0.13236986
61	0xbe194ab0	-0.14969897
62	0xbd662777	-0.05618998
63	0x3e169cee	0.14708301
64	0xbebe41a9	-0.3715947
65	0x3eb0c0e6	0.3452217
66	0xbd1183b6	-0.035526
67	0x3e9004ad	0.28128567
68	0x3ea0db8f	0.3141751
69	0xbf20aa5c	-0.6275995
70	0x3e4f5add	0.20249505
71	0xbd1c2457	-0.038120594
72	0x3e56eff0	0.20989966
73	0x3e97e145	0.29664055
74	0xbe0d9f6d	-0.13830347
75	0xbd9550ea	-0.07290824
76	0x3e2df262	0.16986993
77	0xbc563959	-0.013075196
78	0x3e37b726	0.1794096
79	0xbefb0e32	-0.49034268
80	0xbe23db59	-0.16001643
81	0xbe0e550c	-0.1389963
82	0x3e27cdfa	0.16387168
83	0xbd6d278d	-0.057899047
84	0xbe8fa066	-0.28052062
85	0x3dce2e58	0.10067433
86	0xbeff792e	-0.4989714
87	0x3d642f7c	0.055709347
88	0xbeb1be9f	-0.34715745
89	0x3bc32e9e	0.005956485
90	0x3e8a7148	0.27039552
91	0x3be1f6d4	0.0068958793
92	0x3d6baf23	0.05754007
93	0xbe24b81d	-0.16085859
94	0x3e4c1ccd	0.19932862
95	0x3dc9d810	0.09855664
96	0x3ee1f828	0.4413464
97	0xbeef4faa	-0.46740466
98	0xbe3303b6	-0.17481884
99	0x3e10b5b3	0.14131813
100	0xbeaa2031	-0.33227685
101	0x3e859c6b	0.260959
102	0x3e6a3444	0.228715
103	0x3d46fc32	0.048580356
104	0x3e6857f1	0.22689797
105	0x3e30f221	0.17279865
106	0x3de07798	0.10960311
107	0x3edcdb6f	0.43136165
108	0xbe73de30	-0.23815227
109	0xbc9902d6	-0.01867811
110	0x3e5b44de	0.2141299
111	0xbd465799	-0.048423383
112	0x3e157351	0.14594771
113	0xbe9dbd79	-0.3080862
114	0x3e430e5e	0.1904845
115	0xbd3538d3	-0.044243645
116	0x3eec51da	0.46156198
117	0x3dcad8da	0.099046424
118	0xbea853e2	-0.32876498
119	0x3e8925d8	0.26786685
120	0x3e158853	0.14602785
121	0x3d3a7da1	0.045529965
122	0xbe71cd95	-0.2361358
123	0xbe1ec7ab	-0.15505855
124	0x3dd6b1cd	0.104831316
125	0xbe0c00f1	-0.13672234
126	0x3de34768	0.11097604
127	0xbd3f2577	-0.04666659
128	0xbd4f6609	-0.050634418
129	0x3da37e4f	0.07983076
130	0xbe91dec3	-0.28490266
131	0x3e64fb7e	0.22361562
132	0x3df6f808	0.12059027
133	0xbe98ad7a	-0.29819852
134	0xbea63de5	-0.32469097
135	0xbe274e0f	-0.1633837
136	0x3e8c76ad	0.27434292
137	0xbe86862a	-0.26274234
138	0xbe911061	-0.2833281
139	0x3e35d05f	0.17755269
140	0xbed34c78	-0.4126928
141	0x3e2691ac	0.16266507
142	0xbf0d6f52	-0.55247986
143	0xbd2d7e82	-0.042356975
144	0x3dac3271	0.084080584
145	0xbdb712bb	-0.089391194
146	0x3e04f654	0.12984592
147	0xbda875e5	-0.082256116
148	0x3ebaaf65	0.3646194
149	0xbe43e68d	-0.19130917
150	0x3e81cf91	0.25353673
151	0xbd958390	-0.07300484
152	0xbe3ad52f	-0.18245386
153	0x3eb3cb4b	0.35116038
154	0xbf0ef1ba	-0.55837595
155	0x3e7159b4	0.23569375
156	0xbe9763de	-0.2956838
157	0xbe873ab3	-0.2641197
158	0x3ed1b48e	0.40958065
159	0xbeb57238	-0.35438704
160	0xbf0946a4	-0.53623414
161	0xbdfe18b1	-0.12407053
162	0xbdb31f3e	-0.08746193
163	0xbca6eb13	-0.020375764
164	0x3d800858	0.062515914
165	0xbe85e1f8	-0.26148963
166	0xbeecd813	-0.46258602
167	0xbe91ef3a	-0.28502828
168	0xbef563ca	-0.47927696
169	0x3e531c37	0.20616232
170	0xbe0d8f73	-0.13824253
171	0xbe6f0636	-0.23342213
172	0x3dcf1259	0.101109214
173	0x3e56a87b	0.20962708
174	0x3e51c8ea	0.20486799
175	0x3e98f6a3	0.2987567
176	0xbdc7f2d3	-0.09763112
177	0x3d42a94c	0.047524735
178	0xbe11e6af	-0.14248155
179	0x3ed0a32b	0.40749487

l1.weight f4 [100, 108]
0	0xbd97b753	-0.07408013
1	0x3e32e242	0.17469123
2	0x3e0c8774	0.13723546
3	0x3e1e6e73	0.1547182
4	0xbb670cf6	-0.0035255528
5	0x3d397ca7	0.045284893
6	0xbc8dc668	-0.017306522
7	0xbdef72e4	-0.116918355
8	0xbdd8810f	-0.10571491
9	0x3e1e5c16	0.15464815
10	0xbdb930b7	-0.09042495
11	0x3dcecac4	0.10097268
12	0x3e43325f	0.19062184
13	0xbd875f87	-0.06610017
14	0x3d2249f0	0.039621294
15	0x3cbff53e	0.02343237
16	0xbd3d679f	-0.0462414
17	0x3c393351	0.011303739
18	0x3d916e5c	0.071011275
19	0xbe48297b	-0.19547074
20	0xbe417f53	-0.18896227
21	0xbd55805d	-0.05212437
22	0x3dfb9afc	0.1228542
23	0xbccf5f4d	-0.025313998
24	0xbb82dd1a	-0.0039936425
25	0xbdb7199f	-0.08940434
26	0xbd3a374f	-0.045462903
27	0xbcae5660	-0.021281421
28	0xbddfbf57	-0.10925167
29	0x3e08b53a	0.13350382
30	0x3da4ff90	0.08056557
31	0xbe5c27b0	-0.21499515
32	0x3cafa4cd	0.021440888
33	0xbb29427c	-0.0025826981
34	0xbd922399	-0.07135696
35	0xbd019df6	-0.031644784
36	0x3e692ff0	0.22772193
37	0x3d7922fd	0.060824383
38	0xbdb58845	-0.08863882
39	0xbdb1278d	-0.08650122
40	0xbd3a943e	-0.04555153
41	0xbd80335b	-0.06259795
42	0x3d857294	0.06515995
43	0xbe013aa1	-0.12620021
44	0x3c80bc3f	0.015714763
45	0x3e5bd8d2	0.21469429
46	0x3e74cc2a	0.23906007
47	0xbdf6a08e	-0.12042342
48	0x3d27d186	0.0409713
49	0xbce98131	-0.028503986
50	0xbde84b27	-0.11342459
51	0xbd5e51cb	-0.054277223
52	0xbc97c08f	-0.018524436
53	0x3e4b1238	0.19831169
54	0x3e547b29	0.20750107
55	0xbd0acb68	-0.03388539
56	0x3d736abd	0.059427965
57	0xbd056145	-0.032563467
58	0x3dad0e6d	0.08450017
59	0xbd371e9f	-0.044706937
60	0x3d2eb0f3	0.04264922
61	0x3db61cc3	0.088922046
62	0x3dcf9653	0.10136094
63	0xbdd654c3	-0.10465386
64	0x3ca55b9d	0.020185286
65	0x3d78e322	0.060763486
66	0xbcb16cc3	-0.021658307
67	0xbdae77ac	-0.08518919
68	0xbdbf9110	-0.0935384
69	0xbe10e280	-0.14148903
70	0xbe542770	-0.20718169
71	0x3df8a6ef	0.12141215
72	0xbd8236d3	-0.06358113
73	0x3e2ac3ea	0.16676298
74	0x3d8dc473	0.06922235
75	0x3d5fde75	0.05465551
76	0x3d27fc35	0.041012008
77	0x3c698e77	0.014255158
78	0x3e42513a	0.18976298
79	0xbda373fa	-0.07981105
80	0xbd2bc75c	-0.04193817
81	0xbce9e551	-0.02855173
82	0xbd2a2026	-0.041534565
83	0xbdec1fea	-0.115295246
84	0x3d361587	0.044454124
85	0xbb6f9e06	-0.0036562695
86	0x3de4688b	0.111527525
87	0xbd3176a0	-0.04332602
88	0xbbaa6f60	-0.005201265
89	0xbdc84a0b	-0.097797476
90	0xbd33ecc6	-0.043926977
91	0x3e82e939	0.2556856
92	0xbd05460c	-0.032537505
93	0xbc033bf3	-0.0080098985
94	0xbd86a085	-0.065735854
95	0xbbdc4c53	-0.0067229657
96	0xbe01e363	-0.12684397
97	0xbd9110a1	-0.0708325
98	0x3d39b5e1	0.04533947
99	0xbe35ea67	-0.17765199
100	0x3e01e327	0.12684308
101	0x3ea5decd	0.32396546
102	0x3eadcf67	0.33947298
103	0xbdd1ca9a	-0.10243721
104	0xbebbf745	-0.3671209
105	0xbd186c05	-0.03721239
106	0x3d5f0fa8	0.05445829
107	0x3d114eb0	0.035475433
108	0xbcc0ddd0	-0.023543268
109	0xbcaf8a4a	-0.021428246
110	0xbdc19ffb	-0.09454342
111	0x3e0ef16d	0.13959284
112	0xbdd8c691	-0.105847485
113	0xbd8c56a5	-0.06852464
114	0x3e08f239	0.1337365
115	0xbdf73ba8	-0.120719254
116	0x3d1ee915	0.038796503
117	0x3de6b579	0.11265082
118	0xbe15b3d2	-0.14619377
119	0x3bbaf560	0.0057055205
120	0xbd870ed2	-0.065946236
121	0x3dc7aa0e	0.09749232
122	0x3d8d9a95	0.0691425
123	0xbcca43e6	-0.02469058
124	0x3d1758c5	0.03694989
125	0x3cf55992	0.029949937
126	0xbe965c5f	-0.2936735
127	0xbe1d48c2	-0.15359786
128	0xbc1f6373	-0.0097283
129	0x3a485938	0.0007642689
130	0x3d999809	0.074997015
131	0xbca27de3	-0.019835418
132	0xbd86b6ca	-0.06577833
133	0x3d86ee63	0.065884374
134	0xbda7fb41	-0.0820222
135	0xbdbfba89	-0.09361751
136	0x3e242cd0	0.1603272
137	0x3e16e012	0.14733914
138	0xbe5c42e8	-0.21509898
139	0xbd35f6e5	-0.04442491
140	0x3a9a8bf4	0.0011790977
141	0xbd46a230	-0.048494518
142	0x3e327978	0.17429149
143	0xbe2a955e	-0.16658542
144	0x3e232dfe	0.15935513
145	0xbe101917	-0.14072071
146	0xbd0364fc	-0.032078728
147	0x3d0516b6	0.032492362
148	0x3d352035	0.04422017
149	0xbbf8270d	-0.0075730146
150	0xbc5a2174	-0.01331364
151	0xbe113e86	-0.14184007
152	0xbc62b2a9	-0.013836541
153	0xbcb31bc5	-0.021863827
154	0x3ddc9908	0.10771376
155	0xbe66e51f	-0.2254834
156	0x3d108345	0.03528144
157	0xbd6490ee	-0.05580228
158	0x3dbf1852	0.093308106
159	0xbdb38553	-0.08765664
160	0xbd2f8e58	-0.04286036
161	0x3db0434a	0.08606584
162	0xb97d5a80	-0.00024161674
163	0x3e5ef42a	0.21772829
164	0x3e43e49d	0.19130178
165	0xbda05fa6	-0.078307435
166	0x3d7b5aa2	0.06136573
167	0x3d86ddd7	0.06585281
168	0x3d9e1662	0.07719113
169	0x3d8961d6	0.06708114
170	0xbd099913	-0.03359325
171	0x3d169bb9	0.036769602
172	0x3e191253	0.14948396
173	0x3da6e8ca	0.0814987
174	0xbe33e3d7	-0.17567383
175	0xbcbaf124	-0.022820063
176	0x3daa188d	0.08305464
177	0xbd80d7c0	-0.06291151
178	0x3e1ccf2a	0.15313402
179	0xbc87205a	-0.016494919
180	0xbdae4de3	-0.085109495
181	0x3d7a8321	0.06116021
182	0xbd1714ce	-0.036885075
183	0x3dc496f3	0.09599104
184	0x3beb27b6	0.007176365
185	0x3dde6f33	0.10861053
186	0x3cc830e1	0.02443737
187	0x3d8b9b75	0.068167605
188	0x3e27244f	0.16322444
189	0xbc993805	-0.01870347
190	0xbdf2150c	-0.118204206
191	0xbd287105	-0.04112341
192	0xbcc59d6d	-0.024122918
193	0xbd80d94b	-0.06291445
194	0x3e2988c7	0.16556083
195	0xbd2d2a33	-0.042276572
196	0xbdc458ab	-0.095872246
197	0x3e82bef2	0.25536305
198	0xbdaecb44	-0.085348636
199	0xbe16e90b	-0.14737336
200	0xbdd42307	-0.103582434
201	0xbd99fdfa	-0.07519145
202	0x3d158caf	0.03651112
203	0x3cb2f59d	0.021845633
204	0x3cda7304	0.026666172
205	0x3d4511d6	0.048112713
206	0x3d6fc972	0.058541723
207	0x3d764d3f	0.06013226
208	0xbde54223	-0.11194255
209	0x3e47b32b	0.19501941
210	0xbd6ec20b	-0.058290523
211	0x3c8eadbe	0.017416831
212	0xbd41c803	-0.047309887
213	0xbdd1bd7e	-0.10241221
214	0xbd74ab79	-0.05973384
215	0x3d825278	0.06363386
216	0x3d998ac3	0.0749717
217	0xbd8a6117	-0.067568
218	0x3e8a0045	0.2695333
219	0xbd3944d8	-0.04523167
220	0x3d91448d	0.07093153
221	0x3ce2b8c1	0.027675988
222	0x3d677edf	0.056517478
223	0xbc124819	-0.008928322
224	0xbd52be75	-0.051451165
225	0xbdae746a	-0.08518298
226	0x3db4ab8c	0.088217825
227	0x3e1d9003	0.15386967
228	0xbcf52ba8	-0.029928043
229	0xbdad5310	-0.084631085
230	0xbccf36e7	-0.025294734
231	0xbce82008	-0.028335586
232	0x3d1ed5ab	0.03877799
233	0xbdb4d5e1	-0.08829857
234	0xbd8d1a73	-0.068898104
235	0x3d9b71a1	0.07590032
236	0x3d53acd5	0.051678497
237	0xbce0c8a9	-0.027439432
238	0x3d6ce64a	0.05783681
239	0x3e1ec76e	0.15505764
240	0xbd33e06c	-0.043915197
241	0x3c96eb7c	0.018422835
242	0x3d9c1da2	0.076228395
243	0x3dc37a8d	0.09544859
244	0xbdb58d65	-0.088648595
245	0x3c8d81ed	0.017273868
246	0x3cf22a90	0.029561311
247	0xbdaefda8	-0.08544475
248	0xbe0cf07d	-0.13763614
249	0xbc87330a	-0.01650383
250	0xbda06982	-0.07832624
251	0x3e143225	0.14472254
252	0xbe337b37	-0.17527471
253	0x3c715a86	0.014731055
254	0xbdc962e9	-0.09833319
255	0x3db62ef3	0.088956736

l1.bias f4 [100]
0	0x3e3e309d	0.18573232
1	0xbdda30d7	-0.10653847
2	0xbedf5ccf	-0.43625495
3	0x3df8b3cb	0.12143668
4	0xbd9b316e	-0.07577787
5	0x3cae27a8	0.021259144
6	0x3cbec20f	0.023285894
7	0x3e5dbf36	0.21654972
8	0x3dc2bc36	0.09508555
9	0x3d98ad39	0.074549146
10	0xbd998b0e	-0.07497226
11	0x3cea6d31	0.02861652
12	0xbdf53714	-0.11973396
13	0x3dca98d2	0.098924294
14	0xbe35d43e	-0.17756745
15	0x3e743a50	0.2385037
16	0x3e276114	0.16345626
17	0x3e3f4dbf	0.18682002
18	0xbded97f4	-0.116012484
19	0x3f07e4d5	0.53083545
20	0x3e8f3df8	0.27976966
21	0x3d8a5a72	0.06755532
22	0xbd57a5ce	-0.052648358
23	0x3c92142a	0.01783188
24	0x3e4701c8	0.19434273
25	0xbd473664	-0.048635855
26	0xbd1ef581	-0.03880835
27	0x3e58e449	0.21180834
28	0xbe1807fe	-0.14846799
29	0xbda5fd0d	-0.08104906
30	0x3de631d8	0.11239976
31	0x3e7cd118	0.24689138
32	0xbe21f30b	-0.1581537
33	0xbe24f7c7	-0.16110145
34	0xbe30c60c	-0.17263049
35	0x3d898256	0.06714313
36	0xbd7403f2	-0.059574075
37	0xbe6c0882	-0.2305012
38	0xbdc73360	-0.09726596
39	0x3dc4035a	0.09570952
40	0xbdae7acf	-0.08519518
41	0xbcf17d24	-0.029478617
42	0xbde6679e	-0.11250232
43	0xbdb9d17b	-0.09073158
44	0xbe17db8b	-0.14829843
45	0x3e07f651	0.13277556
46	0x3be02ddc	0.0068414044
47	0xbd806a47	-0.06270271
48	0x3e14837d	0.14503284
49	0x3ccdd366	0.025125217
50	0xbe0714c1	-0.1319151
51	0x3e4b8204	0.19873816
52	0xbd19df7c	-0.037566647
53	0xbc15e2b3	-0.009148288
54	0xbed8dd3c	-0.42356288
55	0x3d95a169	0.07306177
56	0x3e1ddfde	0.1541743
57	0x3dbeb749	0.093123026
58	0x3e29f062	0.16595605
59	0x3e1a2aa6	0.15055332
60	0x3e1f2118	0.15539968
61	0x3e1f2977	0.15543161
62	0xbe6634c4	-0.22481066
63	0x3bfaa6ea	0.0076492922
64	0x3e81d19b	0.2535523
65	0x3df7c39c	0.120978564
66	0xbe31dc92	-0.17369297
67	0xbcf6866d	-0.030093396
68	0x3cad3792	0.021144662
69	0xbe47283c	-0.19448942
70	0x3e0b2f82	0.13592342
71	0x3e33a6f7	0.17544161
72	0x3e8cfa37	0.2753465
73	0xbc80781d	-0.015682274
74	0x3c8b110c	0.016975902
75	0x3e7183ff	0.23585509
76	0x3d8e436e	0.06946455
77	0xbc1df774	-0.009641517
78	0x3d000073	0.03125043
79	0xbda56f04	-0.08077815
80	0x3e6b0b49	0.22953524
81	0x3d90f1f9	0.070774026
82	0x3e345c72	0.1761339
83	0x3e957144	0.29187977
84	0x3e15ee35	0.1464165
85	0xbdd471ac	-0.10373244
86	0x3d4363ba	0.04770253
87	0x3e9b5175	0.30335584
88	0xbe578aa6	-0.21048984
89	0xbdb1cd59	-0.08681745
90	0xbe6f3b68	-0.23362505
91	0xbe6bd9b2	-0.23032263
92	0x3e1ca2b7	0.15296446
93	0xbd02f282	-0.031969555
94	0xbb38a5dc	-0.0028175032
95	0xbd16e10d	-0.03683572
96	0xb885fca4	-6.388992e-05
97	0xbdc12fb9	-0.094329305
98	0xbe98aa9d	-0.29817668
99	0x3e3ab987	0.18234836

l2.weight f4 [100, 100]
0	0x3c1d368d	0.009595525
1	0x3e2130be	0.1574125
2	0x3c84a2f0	0.016190976
3	0xbe376ba8	-0.17912161
4	0x3c8f0636	0.017459016
5	0xbdfe6440	-0.12421465
6	0xbe094741	-0.13406087
7	0x3cc3b462	0.023889724
8	0xbe3f0779	-0.18655194
9	0x3d4e07c1	0.050300363
10	0x3e2301d0	0.1591866
11	0x3b36854a	0.0027850443
12	0x3e32dd9c	0.1746735
13	0x3c47e29d	0.012200025
14	0xbd00f2a5	-0.031481404
15	0xbd6ea683	-0.058264267
16	0x3d5cf0a9	0.05394045
17	0xbe8b1a1f	-0.27168366
18	0x3d790cd2	0.060803242
19	0x3d9d2a78	0.07674116
20	0xbe238fce	-0.15972826
21	0xbc63602a	-0.013877908
22	0x3d592ffd	0.05302428
23	0xbdf0e535	-0.11762468
24	0xbd962de2	-0.0733297
25	0xbda1324d	-0.07870922
26	0xbdeff5c6	-0.117167994
27	0xbdca5666	-0.098797604
28	0xbc1d68fe	-0.009607552
29	0x3d978d60	0.07400012
30	0xbd6d4717	-0.057929125
31	0x3dc6ab50	0.09700644
32	0x3cda8d41	0.026678683
33	0x3cf6e8d0	0.03014031
34	0x3e3aa473	0.18226795
35	0xbdf1860f	-0.11793148
36	0x3c81e156	0.015854519
37	0x3e323a58	0.17405069
38	0xbe3aadb5	-0.18230326
39	0x3dc558ba	0.09636064
40	0x3db2b564	0.08726004
41	0xbd32f096	-0.043686472
42	0x3d433b6f	0.047664102
43	0x3c94071b	0.018069794
44	0x3df4a1b8	0.11944908
45	0xbe300e96	-0.17193064
46	0x3d246fd5	0.040145714
47	0x3cfc51a7	0.030800654
48	0x3d35f20d	0.04442029
49	0xbcb4b875	-0.022060612
50	0xbddb694f	-0.107134454
51	0x3e0e14d5	0.13875134
52	0x3d729231	0.05922145
53	0xbc053254	-0.008129675
54	0x3e4a2c30	0.19743419
55	0x3db5c539	0.08875508
56	0x3d9f1030	0.077667594
57	0x3d18c171	0.037293855
58	0xbd16948a	-0.03676275
59	0xba7abd87	-0.0009564985
60	0x3e02e399	0.12782134
61	0xbdaffd0a	-0.08593185
62	0x3dd51bc9	0.1040569
63	0xbce547a9	-0.027988272
64	0xbd9dcf7c	-0.0770559
65	0xbdbc65a9	-0.09199078
66	0x3dfffd70	0.12499511
67	0xbe6b5283	-0.22980694
68	0x3d0f49e5	0.03498258
69	0xbc6b6b0a	-0.014368782
70	0xbe5e0eed	-0.21685381
71	0x3d0ad747	0.03389671
72	0x3dbdd22d	0.092686035
73	0xbc364ad1	-0.011126236
74	0x3d12f03e	0.035873644
75	0xbdc2b38f	-0.09506904
76	0x3d033f83	0.03204299
77	0xbd0751a6	-0.03303685
78	0xbc58e827	-0.013238943
79	0xbcff4510	-0.031160861
80	0x3dea9b38	0.11455387
81	0x3cd27928	0.025692537
82	0x3d38dd11	0.0451327
83	0xbe15ba49	-0.14621843
84	0xbe3a5d0f	-0.18199562
85	0x3d751d62	0.059842475
86	0xbce0a2be	-0.027421352
87	0x3e1aa58c	0.15102214
88	0xbd903212	-0.070408
89	0x3e01c696	0.12673411
90	0x3c5ffdb9	0.013671332
91	0xbd46d99d	-0.048547376
92	0xbd9a7e25	-0.075435914
93	0x3d0abbe8	0.033870608
94	0xbe52ffeb	-0.20605437
95	0x3ae464a8	0.0017425017
96	0x3e11653d	0.14198776
97	0x3e3bc939	0.18338479
98	0x3d92d63d	0.07169769
99	0x3db773b8	0.089576185
100	0xbe05267e	-0.13002965
101	0x3e209119	0.1568035
102	0xbe43238f	-0.19056533
103	0x3e033539	0.12813272
104	0xbe56a269	-0.20960392
105	0x3e01ad42	0.12663749
106	0xbe5e4dbb	-0.2170934
107	0xbdac3bf2	-0.08409871
108	0xbd46e30e	-0.04855638
109	0x3e4e7258	0.20160806
110	0x3de1c31b	0.110235415
111	0xbe414eb1	-0.18877675
112	0xbd2d829f	-0.042360898
113	0x3e4ee1ae	0.20203277
114	0xbe67bd0d	-0.22630711
115	0x3e21ff93	0.1582015
116	0x3cfaf656	0.03063504
117	0x3e0b56b4	0.13607293
118	0x3d265e85	0.040617485
119	0x3e5ca2a4	0.21546417
120	0x3e3341ad	0.17505522
121	0x3e470188	0.19434178
122	0x3e188d5e	0.14897677
123	0x3dbb70c2	0.09152366
124	0x3d9f6674	0.07783213
125	0x3e7d34b0	0.2472713
126	0xbe12f46a	-0.14351049
127	0x3dfcdb38	0.123465
128	0xbde85db7	-0.11346
129	0x3d2852b3	0.041094493
130	0x3d849a71	0.0647477
131	0x3eab3660	0.33439922
132	0xbe1f10c8	-0.15533745
133	0xbc074338	-0.008255772
134	0x3ddb0448	0.10694176
135	0x3eb873e0	0.36025906
136	0xbe891389	-0.26772717
137	0x3e41a40e	0.18910238
138	0xbc36c93f	-0.011156379
139	0xbd94e2ae	-0.07269798
140	0x3ded8aa5	0.1159871
141	0x3df90faf	0.121611945
142	0x3d11adac	0.035566017
143	0x3de57afd	0.11205099
144	0x3da8abcf	0.08235895
145	0x3d85378b	0.065047346
146	0x3e98a052	0.29809815
147	0xbdb63281	-0.088963516
148	0x3e4aa30b	0.19788758
149	0x3d6d971a	0.05800543
150	0x3da56ba6	0.08077173
151	0x3eded297	0.43520042
152	0xbdf77d9b	-0.12084504
153	0x3dde7368	0.10861856
154	0xbd5775d8	-0.05260262
155	0xbdad8e48	-0.084744036
156	0xbe61f0a4	-0.22064453
157	0x3e000efc	0.12505716
158	0xbd5dca36	-0.05414792
159	0x3d8fe7e1	0.07026649
160	0xbe0b5ecc	-0.13610381
161	0xbbc6a417	-0.0060620415
162	0xbda3140e	-0.079628095
163	0xbbd7663a	-0.0065734657
164	0x3de11c23	0.10991695
165	0xbc9a9435	-0.018869499
166	0xbe23ed7c	-0.16008562
167	0x3d42131a	0.047381498
168	0xbe399eb4	-0.18126947
169	0xbc5b86b1	-0.013398812
170	0x3e68777e	0.22701833
171	0x3c635208	0.013874538
172	0x3e54b1f9	0.20771016
173	0xbe00ecb2	-0.12590292
174	0x3d9fac18	0.07796496
175	0x3b5261d4	0.0032101767
176	0x3e61218b	0.21985452
177	0x3e2c7a10	0.16843438
178	0x3d095b38	0.03353426
179	0x3d9ac7e6	0.07557659
180	0x3da304c5	0.07959894
181	0xbe97fe62	-0.29686266
182	0x3e389c2d	0.18028326
183	0xbd946c9d	-0.07247279
184	0x3e0998d8	0.13437212
185	0xbca6c021	-0.020355286
186	0xbd719c3e	-0.058986895
187	0xbce607eb	-0.028079947
188	0xbe504ad2	-0.20341042
189	0x3e57aa26	0.21061
190	0xbbd5db2d	-0.006526372
191	0xbd39dfd0	-0.04537946
192	0xbe587339	-0.21137704
193	0x3ed3afc5	0.4134504
194	0x3cd5c909	0.026096838
195	0xbd9a4408	-0.07532507
196	0xbe9a6489	-0.30154827
197	0xbdabe0ba	-0.083924726
198	0xbdb6d3e1	-0.089271314
199	0x3d599e25	0.053129334
200	0xbe24253a	-0.16029826
201	0x3e1f2bae	0.15544006
202	0x3dd5a094	0.104310185
203	0x3e679dc8	0.22618783
204	0xbd6761a6	-0.05648961
205	0xbd89b3b4	-0.06723729
206	0xbd23bbc5	-0.039973993
207	0xbddd9c6a	-0.10820849
208	0xbd96b7cc	-0.07359275
209	0xbd992bc3	-0.0747905
210	0x3e18417d	0.14868732
211	0xbd25dcee	-0.040493898
212	0x3e6d9397	0.23200832
213	0xbd80b0ce	-0.06283723
214	0xbd299537	-0.041402068
215	0xbd8f11ea	-0.06985839
216	0xbdf586f3	-0.1198863
217	0xbc2ce1a4	-0.010551844
218	0x3d22b680	0.039724827
219	0xbcd735fb	-0.026270857
220	0xbcde2bf1	-0.027120562
221	0xbca7ad08	-0.02046825
222	0xbcec372f	-0.028834907
223	0xbdb54a31	-0.088520415
224	0x3dbfe5b3	0.093699835
225	0xbc41a620	-0.011819392
226	0xbdcb6fe0	-0.09933448
227	0xbdd13f9e	-0.10217212
228	0x3e9d3f97	0.30712578
229	0x3e60a82d	0.21939154
230	0xbdca1a87	-0.09868341
231	0xbe001cfe	-0.1251106
232	0xbb8e2818	-0.0043382756
233	0xbd10a133	-0.03530998
234	0x3c8fad01	0.01753855
235	0xbe35c1a2	-0.17749646
236	0x3df97c61	0.121819265
237	0x3d8bd04c	0.06826839
238	0x3d491220	0.04908955
239	0x3db16404	0.086616546
240	0x3d479fc5	0.048736352
241	0x3d5a77b1	0.053336803
242	0x3dc253aa	0.09488614
243	0x3d25bf41	0.040465597
244	0x3e8dead4	0.27718222
245	0x3d1f1e8c	0.03884749
246	0xbe1e7aa3	-0.1547647
247	0xbde29fd5	-0.11065642
248	0xbde7ab5e	-0.113119826
249	0x3d728fe3	0.059219252
250	0x3dd869ec	0.10567078
251	0x3e50aea9	0.20379128
252	0xbd8c4e5f	-0.068508856
253	0xbdef999b	-0.1169922
254	0x3d9223ee	0.07135759
255	0xbdf6d2a2	-0.12051894

l2.bias f4 [100]
0	0xbe230a4e	-0.159219
1	0xbea701e2	-0.32618624
2	0xbe0bc9c2	-0.13651183
3	0xbdec0eba	-0.11526246
4	0xbdd2e7a0	-0.10298085
5	0x3da487a4	0.08033684
6	0x3e94639c	0.28982246
7	0xbd861753	-0.065474175
8	0x3e2856c8	0.16439354
9	0xbc899de1	-0.016798915
10	0x3d9dd42e	0.07706486
11	0xbe0a822b	-0.13526218
12	0x3ea34fe0	0.31896877
13	0x3d513148	0.05107239
14	0x3dfdc30d	0.123907186
15	0x3c5ae86b	0.013361077
16	0x3e570ae9	0.21000256
17	0x3e155c5f	0.14586018
18	0x3ec338c7	0.38129255
19	0xbd89d5ef	-0.06730258
20	0xbdd4e2a5	-0.103947915
21	0x3d1d4e84	0.038404956
22	0x3e4ddff2	0.2010496
23	0x3df816d6	0.121137306
24	0xbe4248c0	-0.18973064
25	0x3cd518c5	0.026012788
26	0xbd884492	-0.06653704
27	0x3e18d41e	0.14924666
28	0x3d9e6514	0.07734123
29	0xbca74a9e	-0.020421322
30	0x3d3ff977	0.046868768
31	0x3d96d30e	0.07364474
32	0x3da2ec12	0.07955183
33	0x3e1de8a1	0.15420772
34	0xbde98646	-0.11402564
35	0xbcd4ece0	-0.025991857
36	0x3d718141	0.058961157
37	0x3d8d5f4e	0.069029436
38	0x3d0e3c0d	0.034725238
39	0xbc15751d	-0.00912216
40	0xbe2e7804	-0.1703797
41	0x3e4ed951	0.20200087
42	0x3e132e90	0.14373231
43	0x3c8ae89c	0.01695662
44	0x3de5bad0	0.11217272
45	0xbd1fe935	-0.039040763
46	0xbd43f2d5	-0.047839005
47	0xbdb345d8	-0.08753556
48	0xbbf235f9	-0.007391688
49	0xbc98b895	-0.018642703
50	0xbe566d09	-0.20940031
51	0x3d111cae	0.03542774
52	0xbe26678a	-0.16250435
53	0xbe99cc69	-0.30038765
54	0x3e360ffc	0.17779535
55	0x3d9ea776	0.077467844
56	0xbc402ff5	-0.011730184
57	0xbe98e017	-0.29858467
58	0x3e0bbe53	0.13646822
59	0x3e71e061	0.2362075
60	0x3dbc23d4	0.09186521
61	0x3db998f3	0.09062376
62	0x3d2a892e	0.04163473
63	0x3ca19e3c	0.019728772
64	0xbd848452	-0.064705506
65	0xbd73371e	-0.059378736
66	0xbe62fa41	-0.22165777
67	0xbc101d6f	-0.00879608
68	0x3d9d2507	0.07673078
69	0xbdfd9d55	-0.12383524
70	0xbd9b05e3	-0.07569482
71	0xbdb8f06c	-0.09030232
72	0x3dae9795	0.08525006
73	0x3e9715af	0.2950873
74	0x3e27bcc3	0.163806
75	0x3d9bd1e0	0.0760839
76	0xbe3204fb	-0.17384712
77	0xbd839c9c	-0.06426355
78	0xbd1815dc	-0.03713022
79	0x3d319d0d	0.043362666
80	0x3e27f7af	0.16403078
81	0xbe65f899	-0.22458114
82	0x3e030308	0.12794125
83	0xbc8dd0c2	-0.017311458
84	0x3df3be8b	0.119015776
85	0x3e15858a	0.14601722
86	0xbc2e8ad0	-0.010653213
87	0x3e2e28aa	0.170077
88	0xbe00a8b8	-0.12564361
89	0x3e5cefc8	0.21575844
90	0xbd40509f	-0.046951886
91	0xbdb4e899	-0.08833427
92	0x3dfc5d8b	0.123225294
93	0x3ba09d83	0.0049015894
94	0x3d408930	0.047005832
95	0xbe940832	-0.28912503
96	0x3dd9c631	0.10633505
97	0x3db0dce3	0.08635881
98	0x3d9fa970	0.077959895
99	0xbebc21b8	-0.36744475

l3.weight f4 [18, 100]
0	0xbd22f0ae	-0.03978031
1	0x3d30596f	0.04305404
2	0x3def71eb	0.1169165
3	0xbe94f3fe	-0.290924
4	0xbdd06ccf	-0.101770036
5	0xbe842e7f	-0.25816724
6	0x3e315a2b	0.17319553
7	0x3ddd2ead	0.10799918
8	0xbc2e6e08	-0.010646351
9	0xbe0e15a2	-0.1387544
10	0x3dc42a24	0.0957835
11	0xbe995cfb	-0.2995375
12	0x3ebc9c37	0.36837932
13	0x3e0d17b0	0.13778567
14	0x3d038464	0.03210868
15	0xbde84eed	-0.11343179
16	0x3e526e27	0.20549832
17	0xbe2c3bb9	-0.16819657
18	0xbe8c8c65	-0.27450863
19	0xbe2d8b16	-0.16947588
20	0xbe5edf57	-0.21764885
21	0x3da067d0	0.07832301
22	0xbe1f02df	-0.15528439
23	0xbe9c97e8	-0.30584645
24	0xbe8c05b4	-0.273481
25	0xbd875b79	-0.06609244
26	0xbd105af9	-0.03524301
27	0x3e4a78df	0.19772671
28	0xbdc69504	-0.09696391
29	0x3e906661	0.2820311
30	0xbe1f6183	-0.15564542
31	0x3d573119	0.052537058
32	0xbd2e0522	-0.042485364
33	0xbe4e6e20	-0.20159197
34	0xbd4c54a7	-0.04988542
35	0x3ebdbb54	0.37056983
36	0xbe014c2d	-0.12626715
37	0x3c39e96a	0.011347154
38	0xbde38300	-0.11108971
39	0xbd304151	-0.04303104
40	0x3e80d543	0.25162706
41	0xbe0ac3b7	-0.13551222
42	0xbe039f17	-0.12853657
43	0xbd3b0cbf	-0.045666452
44	0x3d2a13d8	0.04152283
45	0xbe2df2ca	-0.16987148
46	0x3e476721	0.19472934
47	0x3d9bdf14	0.07610908
48	0x3d94f585	0.07273392
49	0xbe8320bc	-0.25610912
50	0x3e248182	0.16065028
51	0xbe1a3162	-0.150579
52	0x3ebb6645	0.36601463
53	0x3dd5b4fc	0.10434911
54	0xbe11ced5	-0.14239056
55	0xbe21397d	-0.15744586
56	0xbe04ce4d	-0.12969323
57	0x3d0d5afa	0.03451059
58	0xbd24d389	-0.0402408
59	0x3d420f12	0.047377653
60	0xbd1f403d	-0.03887962
61	0xbe90160a	-0.28141814
62	0xbe62beff	-0.22143172
63	0xbd4c6a83	-0.049906265
64	0x3d78fba7	0.06078687
65	0xbda1e8e4	-0.079057485
66	0xbd05a98d	-0.0326324
67	0xbda862b9	-0.08221955
68	0x3c9ef9a1	0.019406142
69	0xbc4aa73d	-0.012368974
70	0xbdd08be0	-0.10182929
71	0x3d632871	0.05545849
72	0xbe93c623	-0.28862104
73	0xbe729d2f	-0.23692773
74	0xbe2571d7	-0.16156708
75	0x3e7439f5	0.23850234
76	0x3d059394	0.032611445
77	0xbdfc5170	-0.123202205
78	0xbb814340	-0.0039447844
79	0x3e71d824	0.23617607
80	0x3e2fbaeb	0.17161147
81	0x3d75ef38	0.06004259
82	0xbdb332de	-0.087499365
83	0x3dc04191	0.09387506
84	0x3e2c25b2	0.16811255
85	0x3d22b4fb	0.039723378
86	0x3e781a4d	0.24228783
87	0xbd82e955	-0.06392161
88	0xbd9c9073	-0.07644739
89	0xbe3b2790	-0.1827681
90	0x3df6f29e	0.12057994
91	0xbe9eedef	-0.31040904
92	0x3d84d98a	0.06486805
93	0xbcc31d29	-0.023817616
94	0xbe351edd	-0.17687555
95	0x3d8ee956	0.06978099
96	0x3b7df28c	0.0038749306
97	0x3defe5fb	0.11713787
98	0x3d851bf4	0.06499472
99	0xbdbe42d4	-0.0929009
100	0xbd6967ec	-0.056983873
101	0xbc228261	-0.00991878
102	0x3ea08ef1	0.31359056
103	0x3e1a28ac	0.15054578
104	0x3d262d08	0.04057029
105	0x3cad68d0	0.021168143
106	0x3dbfc6dc	0.09364101
107	0xbd93be61	-0.07214046
108	0x3e9fb2a2	0.31190974
109	0x3c8f4d40	0.01749289
110	0x3ebb93bf	0.3663616
111	0x3b0427fd	0.0020165436
112	0x3da38b79	0.07985587
113	0x3cf670ed	0.030083144
114	0x3e08b71a	0.13351098
115	0xbd83a7fb	-0.06428524
116	0xbca940d8	-0.020660803
117	0xbdae263f	-0.085033886
118	0xbe2dd601	-0.16976167
119	0xbc375fbc	-0.011192258
120	0xbdd6fea4	-0.104977876
121	0xbcb91182	-0.022591356
122	0xbea07983	-0.31342706
123	0xbe27d8b5	-0.16391261
124	0x3d9d3537	0.076761656
125	0xbd5a69ed	-0.053323675
126	0xbe712192	-0.23547962
127	0x3e2df7ab	0.16989009
128	0x3e2a4461	0.16627647
129	0x3e00128a	0.12507072
130	0x3e27fd65	0.16405256
131	0xbaa1c326	-0.0012341484
132	0xbe517f6b	-0.20458762
133	0xbe6622e4	-0.22474247
134	0x3e7baebe	0.24578378
135	0xbd1dc3db	-0.03851686
136	0xbd65199b	-0.055932622
137	0xbe9dc594	-0.30814803
138	0xbd9ad311	-0.07559789
139	0xbddc2586	-0.107493445
140	0x3e1999a8	0.15000021
141	0x3dcb7ffb	0.0993652
142	0xbe902907	-0.281563
143	0xbe38df09	-0.18053831
144	0xbd1199b0	-0.03554696
145	0xbe3ad155	-0.18243916
146	0x3d8f06cf	0.069837205
147	0xbd884e69	-0.066555806
148	0x3eb76933	0.35822448
149	0xbe07e2df	-0.13270138
150	0x3cbbe229	0.02293499
151	0xbeaf5215	-0.3424231
152	0xbe1d52b6	-0.15363583
153	0x3d68ba66	0.05681839
154	0xbc2aa790	-0.010415927
155	0xbd2f17d8	-0.04274735
156	0xbddb4019	-0.10705585
157	0x3dcbcc07	0.099510245
158	0xbe94ece7	-0.29086992
159	0xbde21167	-0.110384755
160	0x3cfd500c	0.030921958
161	0xbe07bf8d	-0.13256665
162	0xbd9b002f	-0.075683944
163	0xbca61e78	-0.0202782
164	0x3eadc166	0.33936614
165	0xbead946f	-0.33902308
166	0xbd8cca57	-0.06874531
167	0xbe5259e6	-0.20542106
168	0xbe2f701c	-0.1713261
169	0x3e1dac8b	0.15397851
170	0x3e43a367	0.19105302
171	0x3db6f7f3	0.08934011
172	0xbdca3ccd	-0.09874878
173	0xbdee4493	-0.11634173
174	0xbd9e7e19	-0.07738895
175	0xbd2ffefa	-0.042967774
176	0x3e84d7d8	0.25945926
177	0x3e1fef2d	0.15618582
178	0xbe0ab2ca	-0.13544765
179	0xbddd1997	-0.107958965
180	0x3e25bf34	0.1618622
181	0x3ca02cf4	0.019552685
182	0xbc0c4095	-0.008560319
183	0x3d2f13c8	0.042743474
184	0x3e89aad1	0.26888135
185	0xbdd4601a	-0.103698924
186	0x3e0ab5a7	0.13545857
187	0xbdab36ca	-0.083600596
188	0x3a52e65e	0.00080451916
189	0xbe9f404c	-0.31103742
190	0x3e3220ea	0.17395368
191	0xbcd1c18e	-0.02560499
192	0xbe891bbc	-0.26778972
193	0x3d393bf9	0.04522321
194	0xbe4badc2	-0.19890502
195	0x3e401f25	0.1876188
196	0xbe15b83e	-0.14621064
197	0xbe16ce3f	-0.14727114
198	0x3e770a3d	0.24125
199	0xbdd58dae	-0.10427414
200	0x3e46a4ea	0.19398847
201	0x3e915232	0.28383023
202	0x3e9645fe	0.29350275
203	0x3e04c360	0.12965155
204	0x3e0dcdc6	0.13848028
205	0xbe056950	-0.13028455
206	0x3cfd06fc	0.03088712
207	0xbdfe7277	-0.12424176
208	0xbda5d87b	-0.08097931
209	0xbe21e24a	-0.15808979
210	0xbd3c0b3d	-0.045909155
211	0xbe68de43	-0.22741036
212	0xbda614a5	-0.081094064
213	0x3d9f0941	0.07765437
214	0xbdb65f50	-0.08904898
215	0x3cd80907	0.026371492
216	0x3db1b9bb	0.086780034
217	0xbd96826b	-0.07349094
218	0xbca98783	-0.0206945
219	0xbdc32c54	-0.09529939
220	0xbe442747	-0.19155608
221	0xbe13429c	-0.14380878
222	0xbe188eda	-0.14898244
223	0xbe8f3211	-0.27967885
224	0xbdd8e8c2	-0.1059127
225	0x3e0e79d8	0.13913667
226	0xbec662c8	-0.3874724
227	0xbda57dfb	-0.080806695
228	0xbd8e9ef2	-0.0696391
229	0x3cc5f9ea	0.02416702
230	0xbddb9b24	-0.1072295
231	0x3e009977	0.12558542
232	0xbe7da3f2	-0.24769571
233	0xbe024145	-0.12720211
234	0x3e4cc74f	0.19997905
235	0x3e387cb6	0.18016323
236	0x3d5de046	0.054168962
237	0xbd3f643d	-0.046726454
238	0xbdcb0270	-0.09912574
239	0x3e24ac3f	0.16081332
240	0x3e67da70	0.22641921
241	0x3e084677	0.1330813
242	0x3d8f7f8c	0.070067495
243	0x3d11838e	0.03552585
244	0x3e221e09	0.1583177
245	0xbcb460c0	-0.02201879
246	0x3e51e3ee	0.20497105
247	0x3dd79426	0.10526304
248	0x3d40d99c	0.04708253
249	0xbe341955	-0.17587788
250	0x3d8c6f5c	0.068571776
251	0xbe95b8ad	-0.2924246
252	0x3e3c84d2	0.18410042
253	0x3d8d68cc	0.06904754
254	0xbe383635	-0.17989428
255	0xbe1fd2fa	-0.15607825

l3.bias f4 [18]
0	0x3cd0dd63	0.02549619
1	0x3ebe9ab9	0.3722742
2	0x3ec2cebd	0.38048354
3	0xbf041276	-0.5159067
4	0xbdf0621d	-0.117374636
5	0xbe8ec01b	-0.2788094
6	0xbeea04c1	-0.45706752
7	0xbec5b107	-0.38611624
8	0xbf9392ca	-1.1529171
9	0xbc1d680d	-0.009607327
10	0xbeb73c8e	-0.35788387
11	0xbe8e685c	-0.27813995
12	0xbc7fcc75	-0.015612711
13	0xbf0d268e	-0.55136955
14	0x3d8d29be	0.06892727
15	0x3d79c240	0.060976267
16	0xbcf13d1e	-0.029448088
17	0xbdda3706	-0.10655026
