LARA/data/result/d_250.pt (torch, 94638 bytes, 7 tensors)

D_attr_matrix.weight f4 [36, 5]
0.038522422 -0.48240831 -0.18342078 0.07938523 -0.040948406 -0.2458838 -0.359547 0.13439472
-0.35717145 0.25294045 0.23655622 0.014710339 -0.030900622 -0.025207393 -0.023175718 -0.06376151
-0.4137068 0.16025086 0.100885086 -0.2276583 0.031271543 -0.21653792 -0.017241107 0.2289678
0.14027467 -0.6102051 -0.8205677 0.024496255 0.6431218 -0.36518666 -0.0077946554 -0.12342079
-0.06684051 0.5524716 0.0014809946 0.6215143 -0.21919239 0.4889698 -0.16606364 -0.4006324
-0.45373303 0.18094662 0.079786725 -0.28017932 0.04394133 -0.21920365 0.15348142 -0.2830679
-0.10573824 0.15537159 0.21605873 0.1372427 0.09205793 -0.01759249 0.08073897 0.06457891
0.34381697 -0.09124849 -0.10319779 -0.19947632 -0.13664003 0.0645608 -0.07571932 -0.023501432
-0.050982494 -0.23374584 0.3922925 0.074796826 0.6969706 0.728626 0.18368591 0.27745
0.033511445 -0.03995804 -0.4206341 -0.10630016 0.2327142 0.20115769 0.018862974 0.2215108
0.021704478 0.030359 -0.0039588287 0.18435588 -0.044518847 -0.18990256 -0.6475721 0.3061559
0.4295487 -0.0069677816 0.05472701 0.03750771 0.06244989 -0.06869262 -0.10930272 -0.5230066
-0.14819685 0.39696527 0.36097613 -0.5592599 -0.058584515 -0.024104359 -0.00697815 0.13723147
-0.2783475 0.290042 0.38826993 0.5638334 0.12625034 0.17672108 -0.32419854 0.09616782
0.014108447 0.038413096 -0.0657929 -0.06900028 0.5989633 -0.3674822 0.08091758 0.5572671
-0.25116906 -0.15295994 0.008428523 -0.40179574 0.014655097 0.020489674 -0.04405837 -0.17426293
-0.20972416 0.21193758 0.07237754 0.045684922 -0.15934159 -0.059876546 -0.021434423 -0.11884099
-0.2565718 -0.039616603 0.45948398 0.14341961 0.03752732 0.0143637 0.0024382176 -0.03146471
0.026185755 -0.3605238 -0.21971764 0.03648676 0.36686337 -0.28755528 -0.05473235 0.17061728
0.04563359 0.044524487 -0.0633425 0.29325777 0.17640474 -0.18603666 -0.14557754 0.06741287
0.09830423 -0.10271235 0.19410309 0.13192941 -0.019009009 0.04236211 -0.20702931 -0.42852187
-0.054577183 0.15468915 0.0304674 0.26713476 0.032279078 -0.23967916 -0.22211175 -0.6264871
0.20797332 0.41479513 -0.30113676 -0.29664347
00000000: b0c9 1d3d 39fe f6be a8d2 3bbe b994 a23d
00000010: 84b9 27bd f6c8 7bbe 8b16 b8be c59e 093e
00000020: 2ddf b6be 6981 813e cb3b 723e a203 713c
00000030: 4d23 fdbc bc7f cebc 01db bdbc 6595 82bd
00000040: 61d1 d3be cd18 243e d79c ce3d 421f 69be
00000050: 9716 003d 1ebc 5dbe 393d 8dbc 8976 6a3e
00000060: 2aa4 0f3e 6736 1cbf ba10 52bf 5fac c83c
00000070: a1a3 243f bff9 babe 4f6a ffbb 0ac4 fcbd
00000080: ade3 88bd c76e 0d3f ef1d c23a 901b 1f3f
00000090: f873 60be 405a fa3e 960c 2abe b11f cdbe
000000a0: b24f e8be 124a 393e 3967 a33d aa73 8fbe
000000b0: d3fb 333d ec76 60be 3c2a 1d3e 47ee 90be
000000c0: 4a8d d8bd bb19 1f3e 803e 5d3e 5a89 0c3e
000000d0: de88 bc3d 201e 90bc 795a a53d f341 843d
000000e0: c708 b03e 7de0 babd 5d59 d3bd 8543 4cbe
000000f0: 5deb 0bbe 7438 843d bb12 9bbd 1386 c0bc
00000100: 05d3 50bd 125b 6fbe 90da c83e 142f 993d
00000110: aa6c 323f 3c87 3a3f 2918 3c3e ed0d 8e3e
00000120: 4c43 093d 0bab 23bd 5a5d d7be e6b3 d9bd
00000130: a24c 6e3e 48fc 4d3e 8686 9a3c bad3 623e
00000140: 97cd b13c 70b3 f83c 10b9 81bb cac7 3c3e
00000150: 6559 36bd d175 42be 49c7 25bf 77c0 9c3e
00000160: cfed db3e fd51 e4bb 6e29 603d afa1 193d
00000170: 75cb 7f3d b7ae 8cbd 1bda dfbd c3e3 05bf
00000180: eac0 17be 083f cb3e ddd1 b83e a82b 0fbf
00000190: 51f6 6fbd 8176 c5bc f7a8 e4bb 6886 0c3e
000001a0: 9083 8ebe 6380 943e 51cb c63e 6357 103f
000001b0: c547 013e 5ff6 343e 5afd a5be a2f3 c43d
000001c0: 1e27 673c 0d57 1d3d 6ebe 86bd 0550 8dbd
000001d0: a955 193f a026 bcbe 1eb8 a53d 0fa9 0e3f
000001e0: 3b99 80be 88a1 1cbe ca17 0a3c 2cb8 cdbe
000001f0: ef1b 703c f6d9 a73c 8d76 34bd fb71 32be
00000200: eec1 56be 2a06 593e ad3a 943d 1d20 3b3d
00000210: 712a 23be 1c41 75bd 3e97 afbc e862 f3bd
00000220: 615d 83be 0545 22bd 7c41 eb3e 97dc 123e
00000230: 3fb6 193d b955 6b3c 81ca 1f3b 24e1 00bd
00000240: 8283 d63c 9396 b8be a9fd 60be 2473 153d
00000250: 84d5 bb3e 723a 93be 072f 60bd 4cb6 2e3e
00000260: 4aea 3a3d 4f5f 363d b6b9 81bd e225 963e
00000270: 72a3 343e 6580 3ebe 4712 15be c20f 8a3d
00000280: ba53 c93d da5a d2bd f6c2 463e 8118 073e
00000290: c8b8 9bbc e483 2d3d 7eff 53be 3867 dbbe
000002a0: 538c 5fbd d566 1e3e c596 f93c e3c5 883e
000002b0: 1137 043d 746e 75be 4371 63be 7561 20bf
000002c0: f5f6 543e 0760 d43e 992e 9abe a7e1 97be

l1.weight f4 [100, 108]
-0.0573696 0.1311576 0.003070161 0.09964998 0.14430387 -0.104764044 0.061882805 0.05343055
0.08772387 0.016397353 -0.15082565 -0.049610097 -0.09502591 0.33838964 0.14572293 -0.13054009
0.0885341 0.17098285 0.026298773 0.04146773 -0.044755906 0.0028325035 -0.010410465 0.025623163
-0.054421086 -0.09600628 -0.051938064 0.0036490536 0.120060295 0.17883512 0.2409287 -0.08306958
0.2081606 0.05365457 -0.0044235974 0.05460692 -0.16399382 0.111239806 0.0503082 0.15007612
-0.08474792 -0.026467225 0.019084688 0.020157726 -0.10120831 -0.19730547 0.007983835 0.19104765
-0.024346538 0.07819535 -0.10520965 -0.08740239 -0.07891548 -0.11672297 -0.012733003 0.23672265
0.08783364 0.009309776 0.011235969 -0.023645028 0.17392 0.103772774 -0.21841735 0.05087372
-0.0061801844 -0.15271702 -0.17307562 0.03918353 -0.05120957 0.1161083 -0.04529177 -0.1649848
0.08486888 0.009151106 -0.09270762 -0.1745219 -0.1965702 -0.22684754 -0.011852495 0.006691445
0.13168636 -0.19515981 0.02442669 -0.13422182 0.12348393 -0.089169316 -0.024264552 -0.1313998
-0.015672894 0.06054747 0.05285251 0.14431861 0.34454495 0.25370637 0.13149624 0.21565615
0.20670776 0.14360973 0.5001861 0.38988146 0.1150314 -0.23032969 0.4165098 0.24433953
0.17831363 0.30847925 0.50178623 -0.14886273 0.27384427 -0.11939921 0.007173467 0.13862367
-0.45969817 -0.117835835 -1.0332978 0.14712833 0.3046839 -0.12438227 -0.16112071 -0.18124247
0.0816101 -0.05615233 0.030097658 -0.21616621 -0.051777627 -0.1821705 0.122904114 0.28341874
-0.18461749 -0.119098194 -0.17527923 -0.014713271 0.08786882 0.16982198 -0.19477707 0.23544742
0.13287634 0.15239371 0.008153913 -0.014063598 -0.15564905 -0.27082768 -0.30090162 0.23991343
-0.15331782 -0.10305724 -0.17564079 -0.29428205 0.026728649 -0.072446465 0.04964834 0.119686216
-0.11789973 0.46983075 0.13041052 0.020633342 -0.23175071 -0.02821828 0.12215776 0.2625271
0.8406739 0.014147258 -0.007824282 -0.07022342 0.12335065 -0.024515772 -0.014484999 0.07311048
0.005957502 -0.033608846 -0.038692012 -0.059469525 -0.013338635 -0.13749519 -0.5279547 0.16401905
0.7747661 0.032450326 0.1473946 0.16982207 -0.054458436 -0.080646016 0.11130172 0.24218476
-0.088836834 -0.4646476 -0.25666976 0.092545256 0.062834576 -0.056795675 0.72432405 0.12703584
-0.17135035 -0.20264985 0.12074005 0.20168597 -0.07754918 -0.18541847 -0.11330745 -0.09542561
-0.19743994 0.095167026 -0.020119647 -0.22516453 0.017921668 -0.071104854 0.11308983 -0.1290899
0.114992335 0.09947129 -0.15967515 0.011273339 0.02037316 0.11073183 -0.16598463 0.1784612
0.1682032 -0.056283943 -0.21449733 0.08841442 -0.044118226 -0.14951666 0.002657386 0.26379186
0.071678124 -0.063505515 -0.12535414 -0.058455143 -0.032710306 0.11167282 -0.014190384 -0.1417272
-0.17390557 -0.050991558 -0.032825164 0.36125088 -4.9065607e-06 -0.0050048367 0.08783346 0.01438341
0.054963604 0.097629525 0.08122548 -0.14643797 -0.02502195 0.13402402 -0.0134802405 0.006919954
0.12985829 0.13926795 0.075833455 -0.15568939 -0.032044843 0.08380078 0.06406821 -0.0039551854
00000000: 63fc 6abd 2e4e 063e c134 493b 4a15 cc3d
00000010: 65c4 133e 888e d6bd d378 7d3d fed9 5a3d
00000020: 93a8 b33d be53 863c 0a72 1abe f533 4bbd
00000030: f29c c2bd 6841 ad3e 6438 153e 4dac 05be
00000040: 5e51 b53d 2116 2f3e 8670 d73c 11da 293d
00000050: f851 37bd 86a1 393b a890 2abc abe7 d13c
00000060: a5e8 5ebd f19e c4bd 02bd 54bd f624 6f3b
00000070: 2ce2 f53d 8e20 373e 03b6 763e 6220 aabd
00000080: 0d28 553e e5c4 5b3d d3f3 90bb 81ab 5f3d
00000090: ffed 27be b2d1 e33d f90f 4e3d 8ead 193e
000000a0: 5190 adbd cbd1 d8bc 7e57 9c3c d121 a53c
000000b0: 4d46 cfbd 720a 4abe a2ce 023c ffa1 433e
000000c0: 6472 c7bc e224 a03d 2878 d7bd 0600 b3bd
000000d0: 709e a1bd 740c efbd 169e 50bc 6c67 723e
000000e0: 20e2 b33d 0888 183c 1217 383c 38b3 c1bc
000000f0: 1618 323e d286 d43d cca8 5fbe f660 503d
00000100: 2583 cabb da61 1cbe bc3a 31be e97e 203d
00000110: 20c1 51bd 30ca ed3d dd83 39bd c7f1 28be
00000120: bccf ad3d 85ee 153c 7edd bdbd deb5 32be
00000130: b349 49be b94a 68be f830 42bc e943 db3b
00000140: cad8 063e f9d7 47be 7b1a c83c 7271 09be
00000150: 25e5 fc3d 679e b6bd 74c6 c6bc ab8d 06be
00000160: 7164 80bc a000 783d e07b 583d 42c8 133e
00000170: 3268 b03e cde5 813e f3a6 063e f7d4 5c3e
00000180: 33ab 533e 6e0e 133e 320c 003f 8b9e c73e
00000190: 9595 eb3d 8cdb 6bbe c640 d53e 2434 7a3e
000001a0: d997 363e fef0 9d3e 1075 003f 796f 18be
000001b0: 5135 8c3e 9387 f4bd 670f eb3b 5df3 0d3e
000001c0: 8f5d ebbe ea53 f1bd 1a43 84bf cfa8 163e
000001d0: 87ff 9b3e 22bc febd d4fc 24be a097 39be
000001e0: 3223 a73d fcff 65bd 5d8f f63c ad5a 5dbe
000001f0: c714 54bd e78a 3abe 27b5 fb3d 431c 913e
00000200: 5e0c 3dbe c1e9 f3bd 667c 33be ee0f 71bc
00000210: 91f4 b33d d0e5 2d3e a473 47be 2119 713e
00000220: bc10 083e 190d 1c3e fd97 053c 016b 66bc
00000230: 7762 1fbe eda9 8abe c70f 9abe deab 753e
00000240: 59ff 1cbe ad0f d3bd 2edb 33be 23ac 96be
00000250: 0af6 da3c d05e 94bd 0f5c 4b3d 0c1e f53d
00000260: 6a75 f1bd a88d f03e 568a 053e 4107 a93c
00000270: 0f50 6dbe 062a e7bc d92d fa3d f469 863e
00000280: 6836 573f e7c9 673c 6b31 00bc 4cd1 8fbd
00000290: 449f fc3d 4dd5 c8bc 7d52 6dbc f3ba 953d
000002a0: 2637 c33b 6ea9 09bd 847b 1ebd 5196 73bd
000002b0: 4a8a 5abc 8acb 0cbe 0a28 07bf 9cf4 273e
000002c0: 1257 463f a2ea 043d 9cee 163e d6e5 2d3e
000002d0: cf0f 5fbd bd29 a5bd 28f2 e33d 48ff 773e
000002e0: 16f0 b5bd 4ae6 edbe 386a 83be 5e88 bd3d
000002f0: 6aaf 803d 95a2 68bd 4d6d 393f af15 023e
00000300: 7776 2fbe 7183 4fbe 8f46 f73d c486 4e3e
00000310: 1bd2 9ebd 57de 3dbe bd0d e8bd 816e c3bd
00000320: b22d 4abe eee6 c23d f5d1 a4bc 8891 66be
00000330: 76d0 923c 6c9f 91bd a49b e73d 2530 04be
00000340: 1a81 eb3d 9bb7 cb3d e281 23be d0b3 383c
00000350: 9de5 a63c 5fc7 e23d e0f7 29be 88be 363e
00000360: 763d 2c3e fe89 66bd 30a5 5bbe 9f12 b53d
00000370: 50b5 34bd e51a 19be 8a27 2e3b ba0f 873e
00000380: fbcb 923d 2e0f 82bd d65c 00be a96e 6fbd
00000390: 3efb 05bd b8b4 e43d c97e 68bc ef20 11be
000003a0: 4d14 32be 86dc 50bd ae73 06bd e0f5 b83e
000003b0: 09a3 a4b6 9dff a3bb 07e2 b33d 65a8 6b3c
000003c0: 8421 613d fdf1 c73d 8b59 a63d d6f3 15be
000003d0: d5fa ccbc 983d 093e 3adc 5cbc c8c0 e23b
000003e0: 92f9 043e 429c 0e3e 924e 9b3d 0a6d 1fbe
000003f0: 7441 03bd be9f ab3d 3236 833d 809a 81bb

l1.bias f4 [100]
-0.09435159 -0.027682323 0.28562525 -0.12415545 -0.07264374 -0.13383554 0.007862224 0.09182306
-0.054188836 -0.1403944 0.19230427 -0.11883624 0.04969454 0.25000256 -0.0069592604 -0.08854367
0.053300057 0.0344151 -0.20906667 0.15399095 -0.23679559 -0.18356507 -0.104799286 0.28982112
0.0066928575 -0.021223642 -0.16221583 -0.053041548 0.13450311 0.14849354 0.0016563855 -0.14937487
-0.15807675 0.012475498 -0.28814808 0.07876738 -0.24547526 0.114081815 -0.11326195 -0.0930171
0.027227247 0.17388105 0.07858744 0.30832124 0.06027265 0.10491526 0.0015913913 0.16366087
0.06963606 -0.11831463 -0.1240772 -0.09555798 0.030162722 -0.14335477 0.041460425 0.32028043
0.001405006 0.06647749 0.049627304 0.18198223 0.26191685 -0.020332864 -0.053275615 -0.12927547
0.13994266 -0.22010715 -0.062476452 0.3274687 -0.09009355 0.20171307 -0.013952222 0.09306837
-0.13363029 -0.1311891 0.19634849 0.005959088 0.03268936 0.10701656 -0.16232568 0.2572639
-0.21180469 -0.08148842 0.11685877 -0.10919507 -0.0036057306 0.2734238 0.06442062 -0.05041897
0.04237797 0.22706367 0.17310672 0.18435265 -0.010082446 0.0033591476 -0.17793576 -0.017995683
0.23410706 -0.025506975 -0.07047572 -0.010793545
00000000: 683b c1bd 0ac6 e2bc 793d 923e 3645 febd
00000010: 3ec6 94bd 2f0c 09be 8fd0 003c ba0d bc3d
00000020: 1df5 5dbd 8dc3 0fbe 69eb 443e 6a60 f3bd
00000030: 818c 4b3d 5600 803e 820a e4bb 6256 b5bd
00000040: 2951 5a3d d9f6 0c3d 9315 56be ceaf 1d3e
00000050: 8b7a 72be 7bf8 3bbe 02a1 d6bd 6f63 943e
00000060: c24f db3b 34dd adbc e81b 26be 1842 59bd
00000070: 2fbb 093e b10e 183e 131b d93a baf5 18be
00000080: dfde 21be 0866 4c3c 2588 93be cb50 a13d
00000090: de5d 7bbe baa3 e93d e2f5 e7bd c07f bebd
000000a0: ad0b df3c e00d 323e 74f2 a03d 48dc 9d3e
000000b0: 74e0 763d d0dd d63d 3b96 d03a b796 273e
000000c0: 5a9d 8e3d f14e f2bd 301c febd e7b3 c3bd
000000d0: d017 f73c 98cb 12be 68d2 293d ccfb a33e
000000e0: 2e28 b83a 5a25 883d 0046 4b3d 8d59 3a3e
000000f0: f719 863e 1b91 a6bc 8837 5abd ca60 04be
00000100: 214d 0f3e c563 61be 4fe7 7fbd faa9 a73e
00000110: f882 b8bd df8d 4e3e dc97 64bc a19a be3d
00000120: 61d6 08be 6f56 06be 940f 493e 7444 c33b
00000130: 47e5 053d 802b db3d b438 26be 18b8 833e
00000140: 54e3 58be 67e3 a6bd a753 ef3d aaa1 dfbd
00000150: 1f4e 6cbb 34fe 8b3e f5ee 833d 1f84 4ebd
00000160: 8694 2d3d 6183 683e e342 313e f1c6 3c3e
00000170: d830 25bc 2525 5c3b cb34 36be af6b 93bc
00000180: c3b9 6f3e 01f4 d0bc 9355 90bd 69d7 30bc

l2.weight f4 [100, 100]
0.019087022 -0.3261416 -0.26686075 -0.058893584 0.33298132 -0.092309155 -0.18715149 0.010635007
-0.069902726 0.04887267 0.06413144 0.31109673 -0.0187362 -0.026507273 0.17031936 0.30422354
0.025573133 -0.13082963 0.06769805 -0.12993005 0.26367432 0.085643694 0.17877905 -0.10105495
0.13549 0.15674181 -0.100483336 0.12818924 0.009341591 -0.19664684 -0.018054973 0.07449836
0.27004218 -0.15586829 -0.040602513 -0.03492448 -0.015950222 0.0014153598 0.19455941 -0.09757
-0.035446137 -0.06754911 -0.26676083 -0.14656527 -0.05377813 -0.047619216 -0.024861176 0.0345512
-0.03381966 -0.12768194 0.10470543 0.011803592 0.016387645 -0.072597854 -0.20118725 0.17703441
0.22378366 -0.25971463 -0.23358212 -0.0067846663 0.28064632 -0.18549517 0.030024728 -0.16593878
-0.039018854 0.13461691 -0.25875914 -0.21469341 -0.03534362 -0.058362972 -0.23834948 -0.13797054
0.042063784 0.090486504 -0.16587253 -0.04681884 0.20782086 -0.38251972 -0.04950603 -0.46055037
0.06518092 0.22377692 0.075179964 0.08090939 0.19410482 0.16472751 0.20660779 -0.075375065
0.3336268 -0.16230917 0.19664717 -0.17543207 -0.20716745 -0.008513769 -0.13100334 0.15411367
-0.1418119 0.11851638 0.03923221 0.1425864 0.05483882 0.2934594 0.100546524 -0.27145755
-0.12527303 0.011408805 -0.053288475 0.0072537716 -0.16881381 -0.101870336 0.09968709 0.015824396
-0.033362985 0.20407352 -0.0921294 -0.264337 -0.12624104 0.10999601 -0.14452884 0.11154956
-0.16630626 0.01750959 0.07166433 0.062680304 -0.043308504 -0.102680154 -0.052610036 -0.30474633
0.07180299 0.06373062 0.1695728 -0.045915443 -0.16005893 0.097682714 -0.010340276 0.21206984
0.12456858 0.001843759 -0.10656526 0.16198264 -0.1261513 0.074512444 0.24036944 -0.08995302
-0.013846461 0.18032701 0.10092119 0.053689852 -0.076306164 -0.22142664 -0.060143147 -0.004572045
-0.06156372 0.1336792 0.07774288 0.08687495 -0.051336266 0.27673993 0.14947578 -0.16049668
0.023691788 0.0410816 0.13504298 -0.037329808 0.4444129 -0.0025214287 0.24833435 0.22747849
-0.006215191 0.0228691 0.08467537 -0.002551141 -0.23000416 -0.036985815 0.01587473 -0.11376141
-0.1434761 -0.25808334 0.14511192 0.30229703 -0.11039621 -0.037528217 -0.08179112 0.0790588
-0.12000488 0.06773993 -0.17218289 0.1512629 0.035709728 0.36294928 0.071975715 0.08839151
0.10993975 0.026490062 -0.004681198 -0.042264167 0.18931152 -0.12719895 -0.029325055 0.063039854
0.32214049 -0.028261507 -0.3931178 0.07193107 -0.23980683 0.18304613 -0.23399621 -0.4220689
0.1766793 0.36599842 -0.5558245 0.01756319 -0.25049812 -0.6716573 -0.34141877 0.11713252
-0.73008144 -0.7525546 -0.08507576 -0.15698786 -0.12253339 0.18326655 0.28004226 0.20065309
-0.796003 0.18326032 0.07846075 0.14128959 0.07389605 -1.2662029 0.88060635 0.04144044
0.8160685 0.34271446 0.27566877 -0.23584116 0.021175414 -0.073117666 0.1955145 0.059086993
0.20305392 0.004378373 0.075363725 -0.51862246 -0.07907242 0.63294584 -0.38337702 -0.26671377
0.7786685 0.4957245 -0.27212134 -0.00015220404 0.63248056 -0.51872134 0.23745796 0.30415788
00000000: 635c 9c3c 08fc a6be f9a1 88be 663a 71bd
00000010: 877c aa3e 950c bdbd a4a4 3fbe 743e 2e3c
00000020: 2929 8fbd b52e 483d 5857 833d 1248 9f3e
00000030: a97c 99bc c825 d9bc 3368 2e3e 30c3 9b3e
00000040: bf7e d13c 34f8 05be 46a5 8a3d 620c 05be
00000050: 5200 873e f665 af3d db11 373e e6f5 cebd
00000060: e4bd 0a3e ed80 203e 35ca cdbd 0a44 033e
00000070: 790d 193c ca5d 49be 06e8 93bc 9992 983d
00000080: f842 8a3e f09b 1fbe d24e 26bd f90c 0fbd
00000090: 0aaa 82bc 9883 b93a 953a 473e c8d2 c7bd
000000a0: f82f 11bd 3057 8abd e094 88be 3515 16be
000000b0: 7546 5cbd 5e0c 43bd aaa9 cbbc 8f85 0d3d
000000c0: 7c86 0abd 0ebf 02be cd6f d63d da63 413c
000000d0: 623f 863c 2fae 94bd 0804 4ebe 8248 353e
000000e0: 8b27 653e 51f9 84be 2730 6fbe e851 debb
000000f0: e0b0 8f3e 72f2 3dbe 6bf6 f53c dbeb 29be
00000100: 3cd2 1fbd 04d9 093e 147c 84be 97d8 5bbe
00000110: 79c4 10bd 030e 6fbd e311 74be 2648 0dbe
00000120: 134b 2c3d fd50 b93d 7dda 29be 1dc5 3fbd
00000130: fece 543e a0d9 c3be d6c6 4abd 42cd ebbe
00000140: 937d 853d c725 653e f4f7 993d d2b3 a53d
00000150: 6ac3 463e 54ae 283e fe90 533e 3e5e 9abd
00000160: 22d1 aa3e 6034 26be e05d 493e 77a4 33be
00000170: b423 54be 567d 0bbc bd25 06be f9cf 1d3e
00000180: 2437 11be b7b8 f23d f4b1 203d 2b02 123e
00000190: ac9e 603d 4f40 963e 56eb cd3d 7cfc 8abe
000001a0: 9347 00be ffeb 3a3c 0445 5abd 0cb1 ed3b
000001b0: 87dd 2cbe 65a1 d0bd bf28 cc3d 2aa2 813c
000001c0: a0a7 08bd a6f8 503e 57ae bcbd 2e57 87be
000001d0: 5545 01be 9745 e13d 5eff 13be 1974 e43d
000001e0: 304c 2abe 4670 8f3c c0c4 923d 885e 803d
000001f0: 4264 31bd f949 d2bd 9f7d 57bd b607 9cbe
00000200: 720d 933d 3385 823d 7ea4 2d3e d511 3cbd
00000210: 7de6 23be e00d c83d 436a 29bc d628 593e
00000220: d01d ff3d 49aa f13a e33e dabd c7de 253e
00000230: ce2d 01be fb99 983d 6823 763e 4a39 b8bd
00000240: 44dc 62bc a5a7 383e c5af ce3d e4e9 5b3d
00000250: 6846 9cbd aabd 62be a958 76bd 18d1 95bb
00000260: 3d2a 7cbd 33e3 083e a937 9f3d 7eeb b13d
00000270: fa45 52bd dbb0 8d3e 2e10 193e 3e59 24be
00000280: 4815 c23c 2e45 283d b548 0a3e 24e7 18bd
00000290: 168a e33e 8e3e 25bb 5c4b 7e3e 1ff0 683e
000002a0: cda8 cbbb fb57 bb3c 486a ad3d 0b31 27bb
000002b0: 3686 6bbe 707e 17bd b90b 823c befb e8bd
000002c0: 66eb 12be 8023 84be 3898 143e adc6 9a3e
000002d0: 6817 e2bd 30b7 19bd 1a82 a7bd 95e9 a13d
000002e0: 1ec5 f5bd 3bbb 8a3d b650 30be a9e4 1a3e
000002f0: 5d44 123d 7dd4 b93e 0168 933d 9c06 b53d
00000300: 1728 e13d b001 d93c bc64 99bb 311d 2dbd
00000310: e1da 413e 7140 02be 193b f0bc 0a1b 813d
00000320: 99ef a43e ad84 e7bc bc46 c9be 9950 933d
00000330: ec8f 75be 7270 3b3e b49c 6fbe 6a19 d8be
00000340: 6beb 343e 2564 bb3e 844a 0ebf aee0 8f3c
00000350: 4a41 80be bcf1 2bbf 71ce aebe 2de3 ef3d
00000360: 9ee6 3abf 6ba7 40bf 333c aebd 6dc1 20be
00000370: c9f2 fabd 3aaa 3b3e b361 8f3e 0178 4d3e
00000380: dac6 4bbf 98a8 3b3e 08b0 a03d 38ae 103e
00000390: d056 973d f012 a2bf 6b6f 613f 73bd 293d
000003a0: dde9 503f 4578 af3e 7524 8d3e 5880 71be
000003b0: 1078 ad3c b7be 95bd f434 483e 3405 723d
000003c0: 5eed 4f3e 7478 8f3b 4c58 9a3d 71c4 04bf
000003d0: b9f0 a1bd bd08 223f fe49 c4be b58e 88be
000003e0: d256 473f 9acf fd3e 7d53 8bbe f698 1fb9
000003f0: 3fea 213f ecca 04bf 2e28 733e 95ba 9b3e

l2.bias f4 [100]
-0.2992438 0.38259235 0.13934784 -0.2258028 0.0154995015 0.15647066 -0.0738503 0.107177414
0.022152878 0.09396343 0.07773441 0.3769967 0.42217302 -0.29650983 0.29891467 -0.010930893
0.38101313 0.12979974 -0.14608602 -0.02924626 0.1543082 0.26462373 0.28292662 0.11259691
0.14588283 -0.23460123 0.18387504 -0.39290988 0.0062603503 -0.022515453 0.06975765 -0.12565354
0.29293084 0.04947917 -0.06291608 -0.18875799 -0.087694585 0.06909088 0.009346794 -0.03895343
-0.31539172 0.093306765 -0.04083044 -0.20629764 0.09344403 -0.049195707 0.31405252 0.055333897
-0.14781828 -0.08980695 -0.36024076 0.13871258 -0.23845811 -0.024871515 0.24365366 -0.05633523
0.34606275 -0.323729 0.37407237 0.30742913 0.14651139 -0.052766073 -0.01355596 -0.09982638
-0.30994296 -0.21290897 0.0862531 -0.14957401 0.06621392 -0.049210884 -0.08973194 0.0166216
-0.031247752 -0.17898174 0.065630585 0.05088574 0.42351496 -0.052045997 -0.18805967 -0.1258432
-0.17858066 0.012684037 0.073141314 0.06705541 -0.10907349 -0.47173852 0.20013604 0.18046626
-0.103852466 -0.1780947 -0.17751752 -0.0414313 0.1520063 0.029051675 0.18898022 0.25210124
-0.07863466 0.21425767 0.38530663 -0.12905529
00000000: 7c36 99be 25e3 c33e 33b1 0e3e d938 67be
00000010: 9ff1 7d3c d839 203e d33e 97bd d57f db3d
00000020: f479 b53c e66f c03d 3833 9f3d b605 c13e
00000030: 1027 d83e 23d0 97be 580b 993e 7d17 33bc
00000040: 2714 c33e 39ea 043e 9397 15be da95 efbc
00000050: f802 1e3e c37c 873e c2db 903e 3599 e63d
00000060: 4f62 153e 4e3b 70be bd49 3c3e 7c2b c9be
00000070: a023 cd3b 5472 b8bc 19dd 8e3d 52ab 00be
00000080: 08fb 953e acaa 4a3d 25da 80bd c649 41be
00000090: 3899 b3bd 857f 8d3d 4c23 193c a28d 1fbd
000000a0: 067b a1be 9e17 bf3d d23d 27bd b03f 53be
000000b0: 955f bf3d 7081 49bd 7ecb a03e cca5 623d
000000c0: ad5d 17be b5ec b7bd 7a71 b8be ac0a 0e3e
000000d0: 5d2e 74be 59bf cbbc 5880 793e c5bf 66bd
000000e0: 232f b13e cfbf a5be 6a86 bf3e 5a67 9d3e
000000f0: 1507 163e 3d21 58bd d119 5ebc c671 ccbd
00000100: d8b0 9ebe cf04 5abe 77a5 b03d ee29 19be
00000110: 2a9b 873d 5a91 49bd 61c5 b7bd 062a 883c
00000120: 49fb ffbc fd46 37be 5469 863d 916d 503d
00000130: f4d6 d83e 2f2e 55bd b792 40be 0add 00be
00000140: d9dd 36be b5d0 4f3c 1dcb 953d 5954 893d
00000150: ec61 dfbd b687 f1be 76f0 4c3e 26cc 383e
00000160: 9ab0 d4bd 755e 36be 27c7 35be deb3 29bd
00000170: 8aa7 1b3e c7fd ed3c 0884 413e 6a13 813e
00000180: 350b a1bd 5d66 5b3e e946 c53e 1227 04be

l3.weight f4 [18, 100]
-0.10248455 -0.2603279 -0.5576537 0.21901463 0.3387667 -0.31220102 0.122806594 -0.18359068
-0.00069675234 -0.23773324 -0.056226134 -0.3447243 -0.16648063 0.4320764 -0.03253091 -0.09706328
-0.2095663 -0.09755298 -0.05987371 0.62586075 -0.2761086 -0.09056619 -0.066735476 -0.08500393
-0.24368073 0.25963435 -0.35076198 0.28513888 -0.27218178 0.32799217 -0.30222866 0.22493266
-0.21795401 0.39731058 0.29789492 0.22667591 0.144043 -0.080851436 0.0653025 -0.16839011
0.3563477 -0.2020426 0.065750346 0.10300572 -0.29334798 0.34201145 0.27200088 0.15069851
0.35757524 0.19939442 0.19657472 -0.2152122 0.24159351 -0.5854412 -0.32558358 0.30675897
-0.21471404 0.07278414 -0.21755904 -0.09954676 0.08061926 -0.40284738 0.37166524 0.22291066
0.3629572 0.3625149 -0.35092375 0.18584819 -0.38958177 -0.37345755 0.11919639 -0.13385373
0.07412068 0.108053364 -0.24870338 -0.089030854 -0.15143675 0.18362826 -0.16229716 0.23775914
0.42953017 0.034242127 -0.48614395 -0.3057317 0.13350649 0.15289423 -0.07471176 -0.45068267
0.030096287 0.10602144 0.034710914 0.094824314 0.08042322 -0.12662815 -0.19654505 -0.12427156
0.042934522 0.19422965 -0.04901729 0.3134532 0.08458853 0.120436154 -0.43616074 0.039596494
0.49165505 -0.1519184 0.29560077 -0.02228939 -0.28301224 -0.38744923 0.10763799 -0.17616397
-0.06603702 0.27676392 -0.26929057 0.07446525 -0.28430378 -0.29430664 0.033650015 0.28190726
-0.24783973 -0.2780357 -0.34775218 -0.08884406 -0.28570977 0.027750535 -0.43202898 0.22650199
-0.042215526 0.26218584 -0.47776598 0.23148517 -0.08958345 0.40427116 0.15769327 0.109722175
0.1679453 0.11336271 0.21702494 -0.45481965 0.20182149 -0.27036372 0.035076573 0.16156584
-0.23445028 0.32593876 0.31050697 0.102390155 0.4551272 0.28586805 0.45406815 -0.27675992
0.07757258 -0.22230151 -0.58207375 0.16493694 -0.17280634 0.3148926 -0.23862815 -0.39258727
0.17501006 -0.47853598 0.09331915 0.071210146 0.29256943 0.3761886 -0.18409449 0.38547316
-0.326432 -0.28375477 0.23151366 -0.057313338 -0.110653795 0.29570672 -0.12667876 -0.25532335
-0.060494892 0.2763853 -0.20221733 0.168471 0.38169515 -0.34004644 0.05229555 -0.2524261
0.01594915 0.3255674 -0.24639463 -0.13691574 0.15910403 0.2698757 -0.12764141 -0.009535104
-0.17454202 -0.15788822 -0.07332996 -0.09970685 -0.018839506 0.1589298 -0.1781403 0.31091213
0.26762417 -0.42865446 -0.4760135 0.06329384 0.013994913 -0.2754617 0.24449481 -0.22122926
-0.29794955 -0.23190986 -0.010685958 -0.047440458 0.116804354 0.4122098 -0.15608136 -0.05418409
-0.12820712 -0.18863381 0.18642004 0.63268054 -0.2059482 -0.10522999 -0.22015074 -0.2738286
-0.07048961 -0.108730234 -0.59372526 0.39523435 -0.142456 0.35380536 -0.28350484 0.1849124
-0.21078603 0.24119191 0.32551497 -0.089256756 0.17747347 -0.26055577 0.0019966597 -0.06692186
-0.10966373 -0.10334073 -0.024594855 0.21064167 -0.23575081 0.49992234 0.22604133 0.37019968
0.31243518 0.27610138 0.19967522 -0.36740956 -0.20312138 -0.120912924 -0.30441004 -0.0051703043
00000000: 6be3 d1bd b349 85be 65c2 0ebf 5f45 603e
00000010: d472 ad3e d0d8 9fbe 0682 fb3d 32ff 3bbe
00000020: 42a6 36ba 5870 73be 604d 66bd b47f b0be
00000030: e679 2abe 1e39 dd3e 223f 05bd 1dc9 c6bd
00000040: 8c98 56be dbc9 c7bd 233e 75bd 6938 203f
00000050: 1b5e 8dbe c47a b9bd 9cac 88bd 8a16 aebd
00000060: 7187 79be cbee 843e 1397 b3be b9fd 913e
00000070: 695b 8bbe 97ee a73e b7bd 9abe bf54 663e
00000080: 562f 5fbe 4b6c cb3e af85 983e bb1d 683e
00000090: 0280 133e 7095 a5bd 51bd 853d 756e 2cbe
000000a0: 3573 b63e 41e4 4ebe 1ea8 863d aaf4 d23d
000000b0: b531 96be 201c af3e b343 8b3e b650 1a3e
000000c0: 1a14 b73e 0d2e 4c3e e24a 493e 9660 5cbe
000000d0: 4a64 773e 79df 15bf e4b2 a6be 830f 9d3e
000000e0: ffdd 5bbe da0f 953d ccc7 5ebe 2cdf cbbd
000000f0: b61b a53d 0342 cebe e84a be3e b142 643e
00000100: 87d5 b93e 8e9b b93e 47ac b3be fd4e 3e3e
00000110: 4377 c7be d435 bfbe 3d1d f43d f410 09be
00000120: 95cc 973d 154b dd3d 19ac 7ebe cf55 b6bd
00000130: 3c12 1bbe 0c09 3c3e 3a31 26be 2277 733e
00000140: 61eb db3e 7941 0c3d dce7 f8be de88 9cbe
00000150: edb5 083e 4e90 1c3e 7b02 99bd e1bf e6be
00000160: 7d8c f63c c521 d93d 082d 0e3d 4033 c23d
00000170: eeb4 a43d cfaa 01be 1b43 49be 1682 febd
00000180: 1cdc 2f3d 23e4 463e 5bc6 48bd f07c a03e
00000190: c03c ad3d 3ba7 f63d 7650 dfbe ef2f 223d
000001a0: 36ba fb3e 7f90 1bbe fc58 973e 3d98 b6bc
000001b0: fbe6 90be bf5f c6be 4e71 dc3d 5464 34be
000001c0: 6b3e 87bd 00b4 8d3e 74e0 89be 3d81 983d
000001d0: 4490 91be 5caf 96be 99d4 093d 2656 903e
000001e0: b3c9 7dbe b25a 8ebe 930c b2be e0f3 b5bd
000001f0: 8d48 92be 1755 e33c e732 ddbe 23f0 673e
00000200: 30ea 2cbd 393d 863e be9d f4be 730a 6d3e
00000210: 8777 b7bd a1fc ce3e 587a 213e 05b6 e03d
00000220: daf9 2b3e b52a e83d c93b 5e3e 1fde e8be
00000230: 4baa 4e3e 1d6d 8abe 74ac 0f3d 8471 253e
00000240: bc13 70be 72e1 a63e c5fa 9e3e eeb1 d13d
00000250: 6f06 e93e 4c5d 923e 9f7b e83e 7ab3 8dbe
00000260: 5fde 9e3d 02a3 63be c902 15bf 3be5 283e
00000270: 25f4 30be 9a39 a13e f05a 74be 3301 c9be
00000280: d635 333e ab02 f5be 1c1e bf3d a0d6 913d
00000290: a9cb 953e cb9b c03e 4483 3cbe bd5c c53e
000002a0: 1822 a7be 4e48 91be eb11 6d3e 64c1 6abd
000002b0: 759e e2bd df66 973e 14b8 01be beb9 82be
000002c0: 7ec9 77bd 6082 8d3e 0f12 4fbe a983 2c3e
000002d0: 8c6d c33e 911a aebe dc33 563d fe3d 81be
000002e0: cba7 823c c5b0 a63e e04e 7cbe a433 0cbe
000002f0: 2bec 223e 262d 8a3e 6eb4 02be 2039 1cbc
00000300: 25bb 32be 73ad 21be 052e 96bd 1b33 ccbd
00000310: 4f55 9abc 7ebe 223e 696a 36be e02f 9f3e
00000320: 0906 893e 9978 dbbe 0bb8 f3be 33a0 813d
00000330: eb4a 653c 5109 8dbe d95c 7a3e ec89 62be
00000340: d88c 98be c779 6dbe 2814 2fbc ed50 42bd
00000350: 1f37 ef3d 2a0d d33e cbd3 1fbe 23f0 5dbd
00000360: ba48 03be 3929 41be e5e4 3e3e 5af7 213f
00000370: 16e4 52be d282 d7bd 326f 61be 4333 8cbe
00000380: db5c 90bd f5ad debd 61fe 17bf 285c ca3e
00000390: fcdf 11be fa25 b53e 8c27 91be ad59 3d3e
000003a0: 4bd8 57be 03fb 763e e6a9 a63e 3fcc b6bd
000003b0: 9bbb 353e 9167 85be 64da 023b 540e 89bd
000003c0: 6197 e0bd 4ea4 d3bd 267b c9bc 73b2 573e
000003d0: a968 71be d2f5 ff3e 6177 673e d08a bd3e
000003e0: 81f7 9f3e 295d 8d3e a977 4c3e 1b1d bcbe
000003f0: 0dff 4fbe 32a1 f7bd a2db 9bbe a86b a9bb

l3.bias f4 [18]
0.057782464 -0.0977706 -0.48812157 -0.34633192 0.114598155 -0.055187047 -0.013847828 -0.39508992
-0.15049085 -0.22412513 0.026940687 -0.33033687 -0.3483082 0.33999586 -0.09519337 -0.26945284
-0.4195035 -0.34721997
00000000: 4ead 6c3d f43b c8bd 12eb f9be 6b52 b1be
00000010: 70b2 ea3d d00b 62bd 00e2 62bc 3a49 cabe
00000020: 461a 1abe 0f81 65be b7b2 dc3c ea21 a9be
00000030: 7455 b2be f013 ae3e bef4 c2bd b9f5 89be
00000040: 2ac9 d6be d1c6 b1be
