LARA/data/result/d_300.pt (torch, 94638 bytes, 7 tensors)

D_attr_matrix.weight f4 [36, 5]
0	0x3d393843	0.04521967
1	0xbef1fa58	-0.4726131
2	0xbe3516e6	-0.17684516
3	0x3dab6682	0.08369161
4	0xbd63c644	-0.055609003
5	0xbea46c23	-0.32113752
6	0xbead173c	-0.3380679
7	0x3e208fed	0.15679903
8	0xbec976f9	-0.3934858
9	0x3eaf6352	0.34255463
10	0x3e6b60d2	0.22986153
11	0x3c48c566	0.012254095
12	0xbcf87b98	-0.030332372
13	0xbcb41377	-0.021981938
14	0x3c379c78	0.011206739
15	0xbd8d0935	-0.06886522
16	0xbed04efa	-0.40685254
17	0x3e827112	0.2547689
18	0x3db82349	0.08991105
19	0xbe319db0	-0.1734531
20	0x3cba4bd0	0.022741228
21	0xbe568c5a	-0.20951977
22	0xbb3c8469	-0.0028765446
23	0x3e4bc5ae	0.19899628
24	0x3e011202	0.12604526
25	0xbf3344ff	-0.70027155
26	0xbf50daf3	-0.8158409
27	0x3dbefb3a	0.093252614
28	0x3f21a38b	0.6314017
29	0xbed28d5a	-0.41123468
30	0xbbb3ab0f	-0.0054830383
31	0xbdf1048f	-0.117684476
32	0xbd2f8487	-0.042850997
33	0x3f0bcc1f	0.5460834
34	0x3c182701	0.009286643
35	0x3f1aa612	0.60409653
36	0xbe636533	-0.22206573
37	0x3ef9cc10	0.487885
38	0xbe222761	-0.15835334
39	0xbec5b684	-0.3861581
40	0xbee502de	-0.4472875
41	0x3e2c03e9	0.16798367
42	0x3db7b3d0	0.089698434
43	0xbe8c005f	-0.27344033
44	0x3d20ae60	0.039228797
45	0xbe520493	-0.20509557
46	0x3e129590	0.14314866
47	0xbea07892	-0.31341988
48	0xbdcc755c	-0.09983322
49	0x3e1e1b2e	0.15440056
50	0x3e518eb8	0.20464599
51	0x3e086792	0.13320759
52	0x3db65500	0.08902931
53	0xbbb315eb	-0.0054652593
54	0x3da69cc8	0.081353724
55	0x3d12d8ed	0.035851408
56	0x3eaf9118	0.34290385
57	0xbdf1243d	-0.1177449
58	0xbde6c5fb	-0.112682305
59	0xbe6eaadc	-0.23307365
60	0xbdff89f1	-0.12477482
61	0x3d5f587b	0.05452774
62	0xbd8fefe0	-0.070281744
63	0xbd30b56c	-0.043141767
64	0xbd351104	-0.04420568
65	0xbe75441d	-0.23951764
66	0x3ed15c63	0.40890798
67	0x3d9c6f8a	0.07638462
68	0x3f375e20	0.71628
69	0x3f443f2f	0.7665891
70	0x3e26c229	0.16285004
71	0x3e88e0ef	0.2673411
72	0x3ca16163	0.019699758
73	0xbd2cdfb6	-0.042205535
74	0xbed3cf9c	-0.4136933
75	0xbddc5788	-0.10758883
76	0x3e727d03	0.236805
77	0x3e486d89	0.19573034
78	0x3cc41291	0.023934634
79	0x3e67ef59	0.22649898
80	0x3cde57b5	0.027141431
81	0x3d07ba8a	0.033136882
82	0xbca978a8	-0.020687416
83	0x3e38f797	0.18063198
84	0xbd1cf8d1	-0.038323227
85	0xbe74c245	-0.23902233
86	0xbf2d7f45	-0.6777232
87	0x3e9d7eb4	0.3076073
88	0x3ed5b62c	0.4174055
89	0x3b16d85d	0.0023017146
90	0x3d663ecc	0.05621223
91	0x3cf4bcb2	0.029875133
92	0x3d47ce09	0.048780475
93	0xbd7c3644	-0.06157519
94	0xbdd3446a	-0.10315783
95	0xbf073721	-0.52818495
96	0xbe240d9d	-0.16020818
97	0x3ecec9b1	0.40388253
98	0x3eb08091	0.34473088
99	0xbf0f5521	-0.5598927
100	0xbd61c2a3	-0.05511726
101	0xbc7d8774	-0.015474189
102	0xbba16180	-0.004924953
103	0x3dcf2c20	0.10115838
104	0xbe8a1620	-0.26970005
105	0x3e9efc37	0.310518
106	0x3efad48e	0.4899029
107	0x3f174722	0.59092915
108	0x3dd29c1c	0.10283682
109	0x3e3ee026	0.18640193
110	0xbe8c4f45	-0.27404228
111	0x3d9fb125	0.077974595
112	0x3cd13f82	0.025542978
113	0x3cd59e7c	0.026076548
114	0xbd5af6c3	-0.053457987
115	0xbd779fb2	-0.06045503
116	0x3f1c9158	0.61159277
117	0xbed682e4	-0.41896737
118	0x3daff239	0.08591122
119	0x3f124a53	0.5714466
120	0xbe537a41	-0.20652105
121	0xbe0ece9a	-0.13946
122	0x3cb2f202	0.021843914
123	0xbecafc2c	-0.39645517
124	0xbc1b2e0c	-0.009471428
125	0x3d3f3936	0.04668542
126	0xbc8b678d	-0.01701715
127	0xbeac0123	-0.33594617
128	0xbe480a23	-0.19535117
129	0x3e8167a0	0.25274372
130	0x3d58f691	0.05296952
131	0x3d269ffc	0.040679917
132	0xbe2115da	-0.15730992
133	0xbd8dde9d	-0.06927226
134	0xbd32ea4b	-0.04368047
135	0xbe21a11c	-0.15784115
136	0xbea5a03e	-0.32348818
137	0xbd1c44ee	-0.038151674
138	0x3efcd97a	0.4938467
139	0x3e7e88a1	0.24856807
140	0x3ce4531a	0.027871657
141	0x3b076e2f	0.002066504
142	0x3ca78948	0.020451203
143	0xbd21f870	-0.03954357
144	0x3cead472	0.028665755
145	0xbed7cc96	-0.42148274
146	0xbe850e18	-0.25987315
147	0x3cbb7d93	0.022887027
148	0x3eca2624	0.39482224
149	0xbeab28bf	-0.33429524
150	0xbdaadb52	-0.08342613
151	0x3e1e9562	0.15486673
152	0x3d6f6574	0.058446363
153	0x3d71510d	0.058915187
154	0xbd6bdba5	-0.057582516
155	0x3ea5b152	0.32361847
156	0x3e223431	0.15840222
157	0xbe6b0f8d	-0.22955151
158	0xbe3ccf21	-0.18438388
159	0x3de6dac4	0.11272195
160	0x3db244c3	0.087045215
161	0xbdce9f45	-0.10088972
162	0x3e4bd457	0.1990522
163	0x3dda0efd	0.1064739
164	0xbd29748e	-0.04137092
165	0x3c3c7624	0.011502776
166	0xbe4e77c1	-0.2016287
167	0xbef2783f	-0.47357365
168	0xbdbeeef8	-0.093229234
169	0x3e37633d	0.1790895
170	0x3d088c3e	0.03333687
171	0x3e875027	0.2642834
172	0x3afca9a1	0.0019276628
173	0xbe6e8137	-0.23291479
174	0xbe558aeb	-0.20853774
175	0xbf40f600	-0.75375366
176	0x3e55593a	0.20834818
177	0x3ecfe2c3	0.40602693
178	0xbe9666c4	-0.2937528
179	0xbe99a0f5	-0.30005613

l1.weight f4 [100, 108]
0	0xbd587cec	-0.05285351
1	0x3e01f7e5	0.1269222
2	0xbc2d1b97	-0.01056566
3	0x3ddb3d53	0.10705056
4	0x3e102020	0.14074755
5	0xbdd2fecb	-0.10302504
6	0x3d231c99	0.039822195
7	0x3d8b6a6b	0.06807407
8	0x3db24812	0.087051526
9	0xbaf3cf09	-0.001860113
10	0xbe0de152	-0.13855484
11	0xbd57247f	-0.05252504
12	0xbda5227a	-0.080632165
13	0x3eae72f2	0.3407207
14	0x3e1c29fa	0.15250388
15	0xbe0c1ee7	-0.13683663
16	0x3dad7f00	0.08471489
17	0x3e20119a	0.15631714
18	0x3cff9a17	0.031201405
19	0x3d3c32f8	0.045947045
20	0xbd4bcc2b	-0.049755257
21	0x3bfc16af	0.007693134
22	0xbbb0d843	-0.005396874
23	0x3ca40ccd	0.020025635
24	0xbd520bd1	-0.0512808
25	0xbdbe0ae7	-0.09279423
26	0xbd3bb72a	-0.045828976
27	0x3be4db33	0.0069841384
28	0x3dcc0227	0.09961348
29	0x3e3839bb	0.17990772
30	0x3e719aa3	0.23594145
31	0xbd985cbd	-0.074395634
32	0x3e4fb0c9	0.20282282
33	0x3d9ca6bd	0.0764899
34	0xbb967386	-0.004591408
35	0x3d8ecff0	0.06973255
36	0xbe23816c	-0.1596734
37	0x3de6e411	0.11273969
38	0x3d05739d	0.03258096
39	0x3e0cb84f	0.13742183
40	0xbd8600db	-0.06543132
41	0xbca4db3f	-0.020124076
42	0x3cabd056	0.020973366
43	0x3cc1bc29	0.023649292
44	0xbde1d677	-0.11027234
45	0xbe4782ae	-0.19483444
46	0x3c800fb1	0.015632482
47	0x3e4d91ea	0.20075193
48	0xbcebaa33	-0.02876768
49	0x3d921881	0.0713358
50	0xbddc363c	-0.10752532
51	0xbda1948c	-0.07889661
52	0xbd7efd95	-0.062253553
53	0xbde58129	-0.11206276
54	0xbc7d3c02	-0.0154562015
55	0x3e6e2916	0.2325786
56	0x3dbb2f4d	0.09139881
57	0x3cabdc95	0.020979205
58	0x3ca3d77b	0.02000021
59	0xbd14dd40	-0.036343813
60	0x3e2dd82c	0.16976994
61	0x3dcad379	0.099036165
62	0xbe67f5ea	-0.22652403
63	0x3d410e73	0.04713292
64	0x3b025f4e	0.0019893232
65	0xbe1cceff	-0.15313338
66	0xbe4a5b54	-0.19761401
67	0x3d152677	0.036413636
68	0xbcea7b2b	-0.028623184
69	0x3e03a28d	0.12854977
70	0xbd281db2	-0.041043945
71	0xbe235dc4	-0.15953737
72	0x3dba5172	0.09097566
73	0x3c00ff9f	0.007873445
74	0xbdadc1dc	-0.08484241
75	0xbe187930	-0.1488998
76	0xbe44f693	-0.19234686
77	0xbe80f96c	-0.25190294
78	0xbd014ca7	-0.031567242
79	0x3c030502	0.007996799
80	0x3e0cff0a	0.13769165
81	0xbe4c647e	-0.1996021
82	0x3ce45435	0.027872184
83	0xbe04c2b4	-0.12964898
84	0x3dfbfddb	0.123042785
85	0xbdc392c8	-0.09549481
86	0xbca9c92b	-0.020725807
87	0xbdf8c783	-0.12147429
88	0xbca0eec1	-0.019645097
89	0x3d66f3bb	0.056384783
90	0x3d58507a	0.052811123
91	0x3cdb070d	0.02673676
92	0x3ed70eb7	0.42003414
93	0x3ed35869	0.4127839
94	0x3e1deec0	0.15423107
95	0x3df7f3f6	0.12107079
96	0x3ea0d0d6	0.3140933
97	0x3e47118f	0.19440292
98	0x3ead780f	0.3388066
99	0x3e953ca0	0.29147816
100	0x3e40987a	0.18808165
101	0xbeab7b61	-0.33492568
102	0x3f049c73	0.5180122
103	0x3e8f8cb2	0.2803703
104	0x3e9a5ee1	0.30150512
105	0x3e6712e7	0.22565804
106	0x3edcb9cd	0.43110505
107	0x3d38cde4	0.045118228
108	0x3eba5c0e	0.36398357
109	0xbe1882e4	-0.14893681
110	0xbdb9a4d1	-0.09064639
111	0x3e73fcb4	0.23826867
112	0xbf0da836	-0.55334795
113	0xbddcbb61	-0.10777927
114	0xbf8c4de9	-1.0961276
115	0x3e3c045f	0.18361042
116	0x3e9c34ee	0.30509132
117	0xbe1ffaf6	-0.15623078
118	0xbe9f13b3	-0.31069717
119	0xbe5beccb	-0.21477048
120	0x3de72b63	0.11287572
121	0xbcd6e166	-0.026230525
122	0x3cc2f577	0.023798687
123	0xbe980b02	-0.29695898
124	0xbd70dc70	-0.058803976
125	0xbe8e6605	-0.2781221
126	0x3e2d1fac	0.16906613
127	0x3eb9492a	0.36188632
128	0xbe6060d5	-0.21911938
129	0xbdc6b5df	-0.09702658
130	0xbdc33d7a	-0.0953321
131	0xbd5a192c	-0.053246662
132	0x3d98c2fd	0.07459066
133	0x3e4055e2	0.18782762
134	0xbe30db64	-0.17271191
135	0x3e7c4e04	0.24639136
136	0x3de9c33c	0.11414191
137	0x3e25967d	0.16170688
138	0xbc21b2ec	-0.009869318
139	0xbb6f0661	-0.0036472308
140	0xbe345f22	-0.17614415
141	0xbea9043f	-0.33011052
142	0xbeabeaf7	-0.335777
143	0x3e6533cc	0.2238304
144	0xbe09ab6a	-0.13444296
145	0xbd9e45f9	-0.0772819
146	0xbe081648	-0.1328975
147	0xbe90604d	-0.28198472
148	0xbd19ec6d	-0.03757899
149	0xbdecf5be	-0.11570309
150	0x3da9717e	0.082736
151	0x3e1700ae	0.14746353
152	0xbe031011	-0.12799098
153	0x3f1a5774	0.6028969
154	0x3e4ee74d	0.20205422
155	0xbccd7d92	-0.02508429
156	0xbea460da	-0.32105142
157	0xbbd25c15	-0.0064196684
158	0x3e21ffad	0.15820189
159	0x3eabe5fa	0.33573896
160	0x3f71ba91	0.944253
161	0x3cff592d	0.031170452
162	0xbc80a844	-0.015705235
163	0xbdb7a2f6	-0.08966629
164	0x3e0f8d8c	0.1401884
165	0xbd38b39f	-0.045093175
166	0x3a32b9d3	0.0006817851
167	0x3d6aa10b	0.05728249
168	0xbd34a4b4	-0.044102386
169	0xbd97c8d0	-0.07411349
170	0x3ece3242	0.4027272
171	0xbdbcf6df	-0.092267744
172	0xbeb96c69	-0.36215523
173	0xbe376339	-0.17908944
174	0xbf1dfa8b	-0.61710423
175	0x3e1d6afe	0.15372846
176	0x3f6682b4	0.9004319
177	0x3e006e23	0.12542014
178	0x3e3cfa46	0.18454847
179	0x3e4259ed	0.18979616
180	0xbdf35263	-0.118809484
181	0xbde9dabe	-0.11418675
182	0x3e1b9dac	0.15196866
183	0x3e9dc2e7	0.3081276
184	0xbd8cda08	-0.06877524
185	0xbf03e001	-0.5151368
186	0xbe9ae54d	-0.30253068
187	0x3e0136db	0.12618582
188	0x3dc7420d	0.09729395
189	0xbd4d8514	-0.05017574
190	0x3f57319d	0.8406008
191	0x3e4a048c	0.19728297
192	0xbe96887d	-0.29401007
193	0xbeb87a18	-0.3603065
194	0x3e0fb135	0.14032443
195	0x3e9f371a	0.31096727
196	0xbdcc2b16	-0.099691555
197	0xbe53fc5d	-0.20701738
198	0xbd68ea9e	-0.056864373
199	0xbdea359b	-0.11436006
200	0xbea370a5	-0.31921878
201	0xbcd30cdb	-0.025762966
202	0xbd199677	-0.03749701
203	0xbdf04c0d	-0.117332555
204	0xbddd6c7b	-0.10811707
205	0xbe037fa2	-0.12841657
206	0x3e17e7af	0.14834474
207	0xbbcfe4ff	-0.006344437
208	0x3dd295de	0.10282491
209	0x3e6d3a51	0.23166777
210	0xbe9a0812	-0.30084282
211	0x3b9fc96e	0.004876307
212	0xbc867054	-0.016410984
213	0x3e3fcc1f	0.1873021
214	0xbd9bca62	-0.07606961
215	0x3d688123	0.05676378
216	0x3e38a4eb	0.18031661
217	0xbd5a44be	-0.053288214
218	0xbe5f9f8d	-0.21838208
219	0x3dcea029	0.10089142
220	0xbd782a7c	-0.06058739
221	0xbe186a78	-0.14884365
222	0x3d14d52b	0.036336105
223	0x3e7317dd	0.23739572
224	0x3d789191	0.060685698
225	0xbcca5e2c	-0.024703108
226	0xbe131d53	-0.14366655
227	0xbd64c9f7	-0.05585667
228	0xbc9e02af	-0.019288389
229	0x3dde5255	0.10855547
230	0xbca9db49	-0.020734446
231	0xbe1db5a5	-0.15401323
232	0xbe2c756a	-0.16841665
233	0xbd6eff92	-0.0583492
234	0xbd0d70c3	-0.034531366
235	0x3ec12da4	0.37730134
236	0x3a812c6c	0.0009855158
237	0xbc15b19c	-0.009136584
238	0x3de479cc	0.111560434
239	0x3c64000b	0.013916026
240	0x3d32ebed	0.043682028
241	0x3dbab6da	0.091169074
242	0x3da5dc1d	0.08098624
243	0xbe22c37e	-0.15894887
244	0xbcf5792f	-0.029965011
245	0x3df14219	0.11780185
246	0xbc151023	-0.009098086
247	0x3b34a0f5	0.0027561758
248	0x3e0a6f52	0.13519028
249	0x3df7829d	0.120854594
250	0x3daad963	0.083422445
251	0xbe2ffdce	-0.17186663
252	0xbd177b11	-0.0369826
253	0x3dafb8ee	0.085801944
254	0x3dac119d	0.08401797
255	0x3c50e4cd	0.012749863

l1.bias f4 [100]
0	0xbdbb794c	-0.09153995
1	0xbbd4fb4a	-0.0064996826
2	0x3e90498a	0.28181106
3	0xbe068bc4	-0.13139254
4	0xbd97cc21	-0.074119814
5	0xbe08ad50	-0.13347363
6	0x3c96e86a	0.01842137
7	0x3dc1bcc5	0.09459833
8	0xbd74e2ad	-0.059786487
9	0xbe0c12e9	-0.13679089
10	0x3e4cfcf6	0.20018372
11	0xbe058836	-0.13040242
12	0x3d8101b5	0.06299154
13	0x3e80da94	0.25166762
14	0xbb84bd39	-0.0040508774
15	0xbdc25105	-0.094881095
16	0x3d5e7b51	0.054316822
17	0x3d3809ca	0.04493121
18	0xbe560535	-0.20900424
19	0x3e2b7485	0.16743667
20	0xbe79d815	-0.24398835
21	0xbe4168fa	-0.18887702
22	0xbddb2617	-0.107006244
23	0x3e990e13	0.2989355
24	0x3c470a40	0.01214844
25	0xbc76dd62	-0.01506743
26	0xbe291341	-0.16511251
27	0xbd613e5c	-0.05499111
28	0x3dfce40a	0.123481825
29	0x3e1f3bb9	0.15550126
30	0xbba3a036	-0.004993464
31	0xbe1b9980	-0.15195274
32	0xbe278dda	-0.16362706
33	0x3c3242dc	0.010880198
34	0xbe952980	-0.29133224
35	0x3d985b02	0.07439233
36	0xbe76df45	-0.24108608
37	0x3defc6a7	0.11707812
38	0xbdd74318	-0.10510844
39	0xbda9eb32	-0.08296813
40	0x3ceb1644	0.02869714
41	0x3e2f497a	0.17117873
42	0x3daa59fe	0.08317946
43	0x3e9d3bef	0.30709788
44	0x3d744c97	0.059643354
45	0x3dc72dd6	0.097255394
46	0x3c09b7ad	0.008405608
47	0x3e20d95f	0.1570792
48	0x3d861ffa	0.06549068
49	0xbde8c05f	-0.11364817
50	0xbdf775ea	-0.12083037
51	0xbdca2ad1	-0.09871448
52	0x3cdf63c1	0.027269246
53	0xbe0c8db8	-0.13725936
54	0x3d02d738	0.03194353
55	0x3e9e2da2	0.3089419
56	0x3cb42115	0.021988431
57	0x3d9b1e6a	0.075741604
58	0x3d56efb3	0.05247469
59	0x3e35a18b	0.17737405
60	0x3e87c855	0.2652003
61	0xbd180efd	-0.03712367
62	0xbd69590c	-0.056969687
63	0xbdfc836c	-0.12329754
64	0x3e16f7db	0.14742987
65	0xbe5e70c6	-0.21722707
66	0xbd9df1cd	-0.077121355
67	0x3eb49431	0.3526931
68	0xbdc1c507	-0.09461408
69	0x3e4c0d0d	0.19926853
70	0xbc2397db	-0.009984936
71	0x3da36f8b	0.079802595
72	0xbe0c0759	-0.13674678
73	0xbe014bfd	-0.12626643
74	0x3e4756cd	0.19466706
75	0x3c4fc901	0.0126822
76	0x3ce1334a	0.027490277
77	0x3de47cbd	0.111566044
78	0xbe31cd9d	-0.17363591
79	0x3e82746d	0.2547945
80	0xbe735925	-0.23764475
81	0xbd9ffa22	-0.07811381
82	0x3de220b3	0.11041393
83	0xbdf4d614	-0.11954895
84	0xbb6cac5c	-0.0036113476
85	0x3e8d3f8b	0.27587542
86	0x3d8e60c8	0.06952053
87	0xbd3aa76d	-0.045569826
88	0x3d4248f1	0.047432844
89	0x3e6634ca	0.22481075
90	0x3e333d69	0.17503895
91	0x3e42c7f3	0.19021587
92	0xbc26770a	-0.010160217
93	0xbb13b9ee	-0.0022541243
94	0xbe3b4b81	-0.18290521
95	0xbc02c185	-0.007980709
96	0x3e7063e0	0.234756
97	0xbceeec4d	-0.029165411
98	0xbd9f536d	-0.07779584
99	0xbc1038c9	-0.008802601

l2.weight f4 [100, 100]
0	0x3d906d9f	0.070521586
1	0xbed91397	-0.42397758
2	0xbe8dfc4f	-0.2773156
3	0xbd59d567	-0.053182032
4	0x3eb3e8a1	0.3513842
5	0xbdbdd43f	-0.09268998
6	0xbe49410c	-0.1965372
7	0xbcd43c3c	-0.025907628
8	0xbdcdbb77	-0.10045522
9	0xbcabbdd2	-0.020964537
10	0x3da78162	0.08178975
11	0x3eb7f831	0.35931543
12	0xbcb643ed	-0.022249186
13	0xbd6c3f91	-0.05767781
14	0x3e2a62ab	0.16639201
15	0x3ea02e65	0.31285396
16	0xbd6204ae	-0.055180244
17	0xbe032dc8	-0.12810433
18	0x3de01b58	0.109427154
19	0xbe193334	-0.14960939
20	0x3ea197c9	0.31561115
21	0x3d5a3334	0.053271487
22	0x3e3b1c9d	0.18272634
23	0xbe0180b8	-0.12646759
24	0x3e2f0007	0.17089854
25	0x3e3abcb7	0.18236051
26	0xbe11f64e	-0.14254114
27	0x3e0bbb01	0.13645555
28	0xbcdce2bf	-0.02696359
29	0xbe64a10d	-0.22327061
30	0x3d046ac2	0.032328375
31	0xbc289f15	-0.010291834
32	0x3e9b727d	0.30360785
33	0xbe391cac	-0.18077344
34	0xbb8c9fa2	-0.0042914907
35	0xbd823b25	-0.06358937
36	0x3bb76097	0.005596231
37	0xbc0e4c95	-0.008685251
38	0x3e600c63	0.21879725
39	0xbdcb4e05	-0.099269904
40	0xbcdfe347	-0.027330054
41	0xbde3fd0b	-0.111322485
42	0xbe92c0e9	-0.28662804
43	0xbdbc003d	-0.09179733
44	0xbd1602f0	-0.036623895
45	0x3d04a5dc	0.03238474
46	0x3d091409	0.033466373
47	0x3d0a80f7	0.033814397
48	0x3d4f5a0b	0.05062298
49	0xbd9ef0df	-0.07760786
50	0x3de37f94	0.11108318
51	0x3cfbde21	0.030745568
52	0x3d32e8a7	0.043678906
53	0xbd87fa83	-0.06639578
54	0xbe661324	-0.22468239
55	0x3e3c33e0	0.18379164
56	0x3e57c13f	0.21069811
57	0xbe897644	-0.26848042
58	0xbe789176	-0.24274239
59	0xbc22b43d	-0.0099306675
60	0x3e842c38	0.25814986
61	0xbe315b48	-0.17319977
62	0x3d5ef822	0.054435857
63	0xbe365c09	-0.17808546
64	0xbd4e2662	-0.050329573
65	0x3dc3ceb1	0.09560908
66	0xbea8b625	-0.32951465
67	0xbe844367	-0.25832674
68	0x3d81d5bd	0.063395955
69	0xbd81deb9	-0.06341309
70	0xbe8dc5a3	-0.27689847
71	0xbde51301	-0.11185265
72	0x3e41406a	0.18872228
73	0x3d9c9bd6	0.07646911
74	0xbe3803dd	-0.17970224
75	0xbdac733f	-0.08420419
76	0x3e609198	0.2193054
77	0xbec0e1a3	-0.37672147
78	0xbd7275b5	-0.059194285
79	0xbee22389	-0.44167736
80	0x3df984b6	0.12183516
81	0x3e7d8e50	0.24761319
82	0x3d3aebed	0.045635153
83	0x3db92be2	0.09041573
84	0x3e515aab	0.20444743
85	0x3e2b27e4	0.16714436
86	0x3e4ac861	0.19803001
87	0xbd0f2881	-0.034950737
88	0x3ea96ecc	0.33092344
89	0xbe3e688a	-0.18594566
90	0x3e80d26a	0.25160533
91	0xbe5306f9	-0.20608129
92	0xbe5cda18	-0.21567571
93	0xbdaaa0e4	-0.08331469
94	0xbe031e52	-0.12804535
95	0x3e2cb901	0.16867448
96	0xbe03d4b1	-0.12874104
97	0x3e11a721	0.14223911
98	0x3c7251dd	0.014790026
99	0x3e363851	0.1779492
100	0x3d020998	0.03174743
101	0x3eb1e023	0.34741315
102	0x3e11e696	0.14248118
103	0xbe94f449	-0.29092625
104	0xbe438961	-0.19095375
105	0x3d0f552d	0.03499334
106	0xbbe0cbf3	-0.00686025
107	0x3d27f971	0.04100937
108	0xbe225769	-0.15853657
109	0x3ad25e1a	0.0016049773
110	0x3d4a6993	0.04941709
111	0x3b84048c	0.0040288623
112	0xbd1c3ca7	-0.03814378
113	0x3e5d9002	0.21636966
114	0xbd5fe9c4	-0.054666296
115	0xbea42d88	-0.32065988
116	0xbd79c7ac	-0.060981438
117	0x3dddad6d	0.10824094
118	0xbe252936	-0.16129002
119	0x3e14616b	0.14490287
120	0xbe36c304	-0.1784783
121	0x3d8a8605	0.067638434
122	0x3cfac0cb	0.030609509
123	0x3db3eb02	0.087850586
124	0xbd83542f	-0.06412541
125	0xbe0e806b	-0.13916175
126	0x3cf188cb	0.029484173
127	0xbe9870e8	-0.2977364
128	0x3dfe3a65	0.124134816
129	0x3de17033	0.110077284
130	0x3e1c8b62	0.15287545
131	0xbcc90a01	-0.024540903
132	0xbe819d44	-0.25315297
133	0x3e22624b	0.15857808
134	0xbccd3375	-0.02504895
135	0x3e7ec73e	0.24880692
136	0x3ddc7906	0.10765271
137	0x3be2a398	0.0069164746
138	0xbe0777b8	-0.13229263
139	0x3e2b5f31	0.16735531
140	0xbe11a2e9	-0.14222302
141	0x3e132032	0.1436775
142	0x3e968969	0.2940171
143	0xbdf841b4	-0.12121907
144	0xbd104cc4	-0.03522946
145	0x3e2d5765	0.1692787
146	0x3dddf768	0.108382046
147	0x3d54581b	0.051841836
148	0xbe799bae	-0.24375793
149	0xbeadb63b	-0.33928093
150	0xbd158539	-0.036504004
151	0xbd2776b8	-0.040884703
152	0xbded61fb	-0.11590954
153	0x3dd163c1	0.10224105
154	0x3e0b2ccc	0.13591307
155	0x3d3fc6ba	0.04682038
156	0xbc254844	-0.01008803
157	0x3ea025fa	0.31278974
158	0x3e3e55f4	0.18587476
159	0xbe1d6547	-0.15370665
160	0x3cbf6f50	0.023368508
161	0x3cabba56	0.020962875
162	0x3dfd4595	0.12366787
163	0xbcdaf5a1	-0.026728453
164	0x3eef0ecb	0.46690974
165	0x3d9d6bf7	0.07686608
166	0x3e910f20	0.28331852
167	0x3e8495a8	0.2589543
168	0xbdb626b4	-0.08894101
169	0x3cbfd593	0.02341727
170	0x3dceaa84	0.10091117
171	0xbd8aad4b	-0.06771334
172	0xbea8a50c	-0.3293842
173	0xbd9a9b57	-0.0754916
174	0x3cba3b49	0.022733347
175	0xbdc4fffa	-0.09619136
176	0xbe254d1e	-0.16142699
177	0xbeb9689b	-0.3621262
178	0x3e27bbc8	0.16380227
179	0x3e937c6e	0.2880587
180	0xbe1e04a5	-0.15431459
181	0xbdf04d0f	-0.11733448
182	0xbd874cf7	-0.06606477
183	0x3d7f08e2	0.06226433
184	0xbe43b8b8	-0.19113433
185	0x3d67d15f	0.056596156
186	0xbe8dc931	-0.2769256
187	0x3df754ce	0.12076722
188	0x3d6b1675	0.057394464
189	0x3ed32c22	0.41244608
190	0x3c8d1ea0	0.017226517
191	0x3de479c7	0.1115604
192	0x3d31d046	0.043411516
193	0x3cec274d	0.028827334
194	0x3d2ab5b4	0.04167719
195	0xbd0f51d2	-0.03499014
196	0x3e123178	0.14276683
197	0xbe1c1e51	-0.1524594
198	0xbd7b5e9b	-0.06136952
199	0x3dbb2748	0.09138352
200	0x3ed3db40	0.41378212
201	0xbdb8557c	-0.0900068
202	0xbedbf6a7	-0.42961618
203	0x3d695b9e	0.05697214
204	0xbe36e8ee	-0.17862293
205	0x3e4e069d	0.2011971
206	0xbe93981e	-0.28826994
207	0xbef1ff9d	-0.4726533
208	0x3e3133e0	0.17304945
209	0x3ed98886	0.42486972
210	0xbf2aa269	-0.6665407
211	0x3d0f06ea	0.034918703
212	0xbe8630cc	-0.26209104
213	0xbf3ba8b2	-0.73304284
214	0xbeb3b6f2	-0.35100514
215	0x3de6324d	0.11240063
216	0xbf4ea234	-0.8071625
217	0xbf47c2a0	-0.7803135
218	0xbd6af6b5	-0.057364184
219	0xbe077885	-0.13229568
220	0xbdea3b2e	-0.11437069
221	0x3e555ae6	0.20835456
222	0x3e9daefd	0.30797568
223	0x3e4f55f8	0.20247638
224	0xbf832fd3	-1.024897
225	0x3e7ea7e6	0.24868736
226	0x3de0c88e	0.10975753
227	0x3def58ce	0.1168686
228	0x3dca739a	0.098853305
229	0xbfb2614f	-1.3935946
230	0x3f5e4867	0.8682923
231	0x3e056a2d	0.13028784
232	0x3f4c29cd	0.7975128
233	0x3ec053d1	0.37563947
234	0x3e94871b	0.29009327
235	0xbe8e025d	-0.27736178
236	0x3d3e4d42	0.046460398
237	0xbdbd6193	-0.092471264
238	0x3e476ea4	0.194758
239	0x3d43e887	0.047829177
240	0x3e7967ca	0.24355999
241	0x3b713b3b	0.0036808986
242	0x3db1c5d4	0.08680311
243	0xbf14bea4	-0.58103395
244	0xbd6f6c81	-0.058453087
245	0x3f3e5f9f	0.74364656
246	0xbef17bc4	-0.47164738
247	0xbe66ff88	-0.22558415
248	0x3f48b5cf	0.7840242
249	0x3f0a90c4	0.54127145
250	0xbe893188	-0.26795602
251	0x3c9b946c	0.018991672
252	0x3f189751	0.5960589
253	0xbf03e56a	-0.51521933
254	0x3e9aa931	0.30207208
255	0x3ea34914	0.31891692

l2.bias f4 [100]
0	0xbea495dd	-0.32145587
1	0x3eccbe3c	0.39988887
2	0x3e0cd3e5	0.13752706
3	0xbe7fb004	-0.24969488
4	0x3c54f50c	0.012997877
5	0x3e1645ca	0.1467506
6	0xbd98398b	-0.074328505
7	0x3e050817	0.12991367
8	0x3d464172	0.048402257
9	0x3dd375e0	0.10325217
10	0x3db40c15	0.08791367
11	0x3ec95eec	0.39330232
12	0x3edcadbf	0.43101308
13	0xbe93d5ba	-0.28873998
14	0x3e9fafad	0.31188717
15	0xbd1e1a66	-0.038599394
16	0x3ecba9e9	0.3977807
17	0x3e24089e	0.16018912
18	0xbe37adac	-0.17937344
19	0xbd130bb5	-0.035899837
20	0x3e391d14	0.18077499
21	0x3e924a2e	0.2857222
22	0x3e8b1d7e	0.27170938
23	0x3e011a30	0.12607646
24	0x3e19466f	0.14968275
25	0xbe80de71	-0.2516971
26	0x3e3f2753	0.18667345
27	0xbec93fbc	-0.39306438
28	0x3d05b211	0.03264052
29	0xbd1bec5b	-0.038067203
30	0x3da5ae25	0.08089856
31	0xbe10767a	-0.14107695
32	0x3ea911c3	0.33021364
33	0x3d61e0f7	0.055146184
34	0xbd6b8eed	-0.05750935
35	0xbe3b82d0	-0.1831162
36	0xbdc90b4f	-0.0981661
37	0x3dc963b7	0.09833472
38	0x3ae7c314	0.0017682039
39	0xbd0dc3dd	-0.034610618
40	0xbeac5703	-0.33660135
41	0x3dd1a7c5	0.102370776
42	0xbd7f8a9a	-0.06238804
43	0xbe664b33	-0.22489624
44	0x3ddfe5e0	0.10932517
45	0xbd9426e5	-0.07233981
46	0x3ea28f00	0.31749725
47	0x3d79208a	0.060822047
48	0xbe0930c1	-0.13397504
49	0xbde819e9	-0.11333067
50	0xbebef6fd	-0.37297812
51	0x3e0c64b3	0.13710289
52	0xbe8ae846	-0.27130336
53	0x3c324d26	0.010882651
54	0x3e6ff6fe	0.23434064
55	0xbd894da3	-0.06704261
56	0x3eb9c5c1	0.36283687
57	0xbeb09a14	-0.34492552
58	0x3ec15259	0.3775814
59	0x3ea2e5bb	0.31815895
60	0x3e160a44	0.14652354
61	0xbd69aacd	-0.057047654
62	0xbc6add54	-0.014334995
63	0xbdcb9f92	-0.09942545
64	0xbea79ac9	-0.3273528
65	0xbe6cd978	-0.23129833
66	0x3de7ca95	0.11317936
67	0xbe2fc875	-0.17166312
68	0x3d69ed20	0.057110906
69	0xbd3299f1	-0.04360384
70	0xbdb8c708	-0.09022337
71	0x3c8ae1a9	0.016953306
72	0xbd0bda6b	-0.034143846
73	0xbe32f97b	-0.17477982
74	0x3d7f773b	0.062369566
75	0x3d15ac3c	0.03654121
76	0x3ec61abb	0.3869227
77	0xbd913f56	-0.070921585
78	0xbe458bab	-0.1929156
79	0xbdfcad0a	-0.12337692
80	0xbe32d186	-0.1746274
81	0x3c242ae9	0.010019996
82	0x3d6c00db	0.057618003
83	0x3d95c9cf	0.073138826
84	0xbe0a808c	-0.13525599
85	0xbef1ead0	-0.4724946
86	0x3e5621f5	0.20911391
87	0x3e58d3bf	0.21174525
88	0xbdecd907	-0.11564832
89	0xbe4d8afb	-0.20072548
90	0xbe3de482	-0.185442
91	0xbd8c4a2f	-0.06850087
92	0x3e3d4938	0.18484962
93	0x3d166c54	0.036724404
94	0x3e42b687	0.19014941
95	0x3e8f05ca	0.27934104
96	0xbdbd39d8	-0.092395484
97	0x3e5d19d1	0.2159188
98	0x3ed6fb5a	0.4198864
99	0xbe1edca5	-0.15513857

l3.weight f4 [18, 100]
0	0xbdc08156	-0.09399669
1	0xbe89b08f	-0.26892516
2	0xbf1680cc	-0.5879028
3	0x3e69424b	0.22779195
4	0x3eb88a37	0.3604295
5	0xbea51d83	-0.32249078
6	0x3e0202c0	0.12696362
7	0xbe44c826	-0.19216976
8	0xbc169401	-0.00919056
9	0xbe82bb33	-0.25533447
10	0xbd775941	-0.060387854
11	0xbeb4f881	-0.35345843
12	0xbe337b42	-0.17527488
13	0x3ee89f21	0.45433906
14	0xbd3b5ad1	-0.045740906
15	0xbdb49996	-0.08818357
16	0xbe5f9291	-0.21833254
17	0xbdd91ee1	-0.10601593
18	0xbd52a71e	-0.051428907
19	0x3f2568b4	0.6461289
20	0xbe91ae06	-0.28453082
21	0xbdcad95e	-0.09904741
22	0xbd9b83ec	-0.075935215
23	0xbdc0f262	-0.09421231
24	0xbe7705fd	-0.24123378
25	0x3e8949d8	0.2681415
26	0xbec144ca	-0.37747794
27	0x3e9a3b62	0.3012343
28	0xbe8faf69	-0.28063515
29	0x3eb0bfe3	0.34521398
30	0xbe9f3c48	-0.31100678
31	0x3e705672	0.23470476
32	0xbe67d598	-0.22640073
33	0x3ed3f162	0.41395098
34	0x3e9c6377	0.30544636
35	0x3e5f02a1	0.21778347
36	0x3e23ae55	0.15984471
37	0xbdb7091e	-0.08937286
38	0x3d9d25fc	0.076732606
39	0xbe4b4744	-0.19851404
40	0x3ebacb80	0.36483383
41	0xbe63457b	-0.22194473
42	0x3d96d37c	0.07364556
43	0x3de7cb2a	0.11318047
44	0xbe9b3ce5	-0.30319896
45	0x3ebaa15b	0.3645123
46	0x3e937599	0.28800657
47	0x3e3b2faa	0.18279901
48	0x3ebe27e4	0.3713981
49	0x3e56086e	0.20901653
50	0x3e522577	0.20522104
51	0xbe725c7f	-0.23668097
52	0x3e7fffd2	0.24999931
53	0xbf180698	-0.5938506
54	0xbeb85415	-0.3600165
55	0x3e8e0d34	0.27744448
56	0xbe64d8ed	-0.22348376
57	0x3da69e0f	0.08135616
58	0xbe67c651	-0.22634245
59	0xbde0dfec	-0.1098021
60	0x3d9dcfca	0.07705648
61	0xbed9f7d8	-0.42571902
62	0x3eca245f	0.39480874
63	0x3e5e63b3	0.2171772
64	0x3ebe343f	0.37149236
65	0x3ebf3c84	0.37350857
66	0xbeb7f232	-0.35926968
67	0x3e46f8f6	0.19430909
68	0xbed22d63	-0.41050252
69	0xbecac29d	-0.39601603
70	0x3dd4421a	0.1036417
71	0xbe17cc38	-0.14823997
72	0x3d798bdf	0.060924407
73	0x3def9bae	0.116996154
74	0xbe79ff2c	-0.24413747
75	0xbdc7f0a3	-0.09762695
76	0xbe25323d	-0.16132446
77	0x3e44e0bb	0.19226353
78	0xbe3f460c	-0.18679065
79	0x3e7c4a1a	0.24637643
80	0x3ee45341	0.44594768
81	0x3cdf4873	0.027256226
82	0xbefd6f5d	-0.49499026
83	0xbea4baa5	-0.32173648
84	0x3e0b5c0e	0.13609335
85	0x3e20f022	0.15716603
86	0xbd9624b1	-0.07331217
87	0xbeeb0b52	-0.45907074
88	0x3d1e2473	0.03860898
89	0x3debc4f8	0.11512178
90	0x3cf5bd66	0.029997539
91	0x3dd38acf	0.1032921
92	0x3d93a53e	0.07209252
93	0xbe06c384	-0.13160521
94	0xbe548043	-0.20752053
95	0xbe07c1e7	-0.13257562
96	0x3d50eb38	0.051005572
97	0x3e584447	0.21119796
98	0xbd6afd37	-0.05737039
99	0x3ea4d1ee	0.32191414
100	0x3dbf16e4	0.09330538
101	0x3de459f2	0.11149968
102	0xbeed33b0	-0.46328497
103	0x3d4368da	0.047707416
104	0x3f02e1aa	0.51125586
105	0xbe251b21	-0.1612363
106	0x3e98cc62	0.29843432
107	0xbcff2c3a	-0.031149019
108	0xbe957147	-0.29187986
109	0xbecee700	-0.40410614
110	0x3dd2b299	0.10287971
111	0xbe3d6584	-0.18495756
112	0xbd9a14a1	-0.07523466
113	0x3e99de23	0.3005229
114	0xbe8d2446	-0.27566737
115	0x3daa1265	0.0830429
116	0xbe961aa7	-0.2931721
117	0xbe9b39c7	-0.30317518
118	0x3d2d3406	0.04228594
119	0x3e9e56f5	0.30925718
120	0xbe836a1a	-0.25666887
121	0xbe92e5e7	-0.28691027
122	0xbeb6b4ee	-0.35684913
123	0xbdc8a26e	-0.09796606
124	0xbe8f21e1	-0.27955535
125	0x3d1613a0	0.03663981
126	0xbee9c4c6	-0.4565794
127	0x3e79d8f4	0.24399167
128	0xbd5109be	-0.05103468
129	0x3e90783c	0.28216732
130	0xbef92701	-0.4866257
131	0x3e76f94a	0.24118534
132	0xbdc9a5db	-0.098460875
133	0x3ed66275	0.41871992
134	0x3e25dfd0	0.16198659
135	0x3dd4c255	0.103886284
136	0x3e3f20bf	0.18664835
137	0x3dd687c9	0.10475118
138	0x3e68ad5d	0.22722383
139	0xbef349ca	-0.47517234
140	0x3e57bb75	0.21067603
141	0xbe96145d	-0.2931241
142	0x3d2fdb6b	0.042933863
143	0x3e2f61f1	0.17127205
144	0xbe79e8a5	-0.24405153
145	0x3eb20c6b	0.347751
146	0x3ea62d46	0.32456416
147	0x3e06151e	0.13093993
148	0x3ef0c192	0.47022682
149	0x3e96e6c6	0.2947294
150	0x3eed1507	0.46305105
151	0xbe991ce7	-0.29904863
152	0x3db0f631	0.08640707
153	0xbe6ca59a	-0.23110047
154	0xbf1c4fcc	-0.6105926
155	0x3e0bb9d2	0.13645104
156	0xbe3a0e03	-0.18169408
157	0x3ea5b121	0.323617
158	0xbe7d9a72	-0.24765947
159	0xbecdd745	-0.402033
160	0x3e30c9e9	0.17264523
161	0xbeffdcda	-0.49973184
162	0x3df1ab27	0.11800223
163	0x3d888be4	0.06667307
164	0x3e9a5bff	0.30148312
165	0x3ec537b1	0.38519052
166	0xbe45640c	-0.19276446
167	0x3ec9e81e	0.39434904
168	0xbeb0cb9a	-0.34530336
169	0xbe9e0366	-0.30861968
170	0x3e59e4b5	0.21278651
171	0xbd9f521c	-0.07779333
172	0xbe05072a	-0.12991014
173	0x3e9c06be	0.30473894
174	0xbdffb0e1	-0.12484909
175	0xbe874fb1	-0.26427987
176	0xbd8fc130	-0.070192695
177	0x3e9216b6	0.28532952
178	0xbe65711e	-0.22406432
179	0x3e35a446	0.17738447
180	0x3ecab934	0.39594424
181	0xbeb22af6	-0.34798402
182	0x3d316394	0.043307856
183	0xbe8979ea	-0.26850826
184	0x3c8f872a	0.017520506
185	0x3ea6075a	0.32427484
186	0xbe7402d4	-0.23829204
187	0xbe15265f	-0.14565419
188	0x3e2c0567	0.16798936
189	0x3e8eebf6	0.279144
190	0xbe035489	-0.12825216
191	0xbad2630f	-0.001605125
192	0xbe3bb0f0	-0.18329215
193	0xbe259761	-0.16171028
194	0xbdaabdfa	-0.083370164
195	0xbddd4b5d	-0.1080539
196	0xbc2374c0	-0.009976566
197	0x3e32ce6c	0.17461556
198	0xbe3f45cf	-0.18678974
199	0x3ea3b975	0.3197743
200	0x3e8d50a8	0.27600598
201	0xbedf84ad	-0.4365591
202	0xbf0136ed	-0.50474435
203	0x3d8e85ef	0.069591396
204	0x3d18c877	0.037300553
205	0xbe91b60e	-0.2845921
206	0x3e7bb860	0.24582052
207	0xbe6ac2c6	-0.22925863
208	0xbe9c8771	-0.30572084
209	0xbe7c2f84	-0.24627501
210	0xbc8c4e30	-0.017127126
211	0xbd663c54	-0.056209877
212	0x3de0c9c5	0.109759845
213	0x3edce774	0.43145335
214	0xbe39446f	-0.18092512
215	0xbd420802	-0.047370918
216	0xbe0b3f5a	-0.13598385
217	0xbe492f8f	-0.19647048
218	0x3e467f18	0.1938442
219	0x3f26314e	0.64918983
220	0xbe5adb55	-0.21372731
221	0xbde7d330	-0.11319578
222	0xbe6a3301	-0.22871019
223	0xbe90f579	-0.2831228
224	0xbd93bb23	-0.07213428
225	0xbdce6d0e	-0.10079394
226	0xbf1d7a64	-0.6151488
227	0x3ed1945f	0.4093351
228	0xbe19e2a7	-0.15027867
229	0x3ebd555e	0.36979192
230	0xbe95a65f	-0.29228494
231	0x3e46c4e0	0.1941104
232	0xbe5feaa6	-0.21866855
233	0x3e86b865	0.26312557
234	0x3eaa58cf	0.3327088
235	0xbdc95b43	-0.0983186
236	0x3e423e4b	0.18969075
237	0xbe893a4a	-0.26802284
238	0x3c306dbb	0.010768349
239	0xbdc644b7	-0.09681075
240	0xbdd0734c	-0.10178241
241	0xbdf6b3f1	-0.1204604
242	0xbc9394e1	-0.018015327
243	0x3e5ec890	0.21756196
244	0xbe7b6cf1	-0.24553277
245	0x3f04a342	0.5181161
246	0x3e7a1d7e	0.24425313
247	0x3eca2572	0.39481694
248	0x3ea66a46	0.32502955
249	0x3e90ed3a	0.2830599
250	0x3e54bdbc	0.20775503
251	0xbec5ab12	-0.3860708
252	0xbe47fd4c	-0.19530219
253	0xbe03c4a2	-0.12867978
254	0xbeae1ead	-0.3400778
255	0xbbec9c5c	-0.007220788

l3.bias f4 [18]
0	0x3d4a1989	0.04934076
1	0xbdda6b40	-0.106649876
2	0xbefdfaaf	-0.4960532
3	0xbeb61675	-0.35564008
4	0x3dd64225	0.10461835
5	0xbd819204	-0.063266784
6	0xbcbc1125	-0.022957394
7	0xbeceb838	-0.40374923
8	0xbe2291db	-0.15875952
9	0xbe6e1c1c	-0.2325291
10	0x3c892c35	0.016744712
11	0xbead9236	-0.33900613
12	0xbeb6c8f2	-0.35700184
13	0x3ea9bd96	0.33152455
14	0xbdd36459	-0.10321874
15	0xbe8f5bb4	-0.2799965
16	0xbedb9699	-0.42888334
17	0xbeb6267a	-0.3557623
