LARA/data/result/d_30.pt (torch, 94638 bytes, 7 tensors)

D_attr_matrix.weight f4 [36, 5]
0	0xbea9c328	-0.33156705
1	0x3ea8bb6a	0.32955486
2	0x3e0af81d	0.1357121
3	0xbe65a523	-0.22426276
4	0x3e215553	0.15755205
5	0xbe2f1044	-0.17096049
6	0xbe1b1984	-0.15146452
7	0x3eefb6bf	0.46819112
8	0xbe9f8548	-0.31156373
9	0x3eeafb61	0.45894912
10	0x3e47ee4a	0.19524494
11	0xbd04ff7d	-0.032470215
12	0xbe304535	-0.172139
13	0xbe955d0f	-0.2917256
14	0xbe2f3cdf	-0.17113064
15	0xbeeb5fef	-0.4597163
16	0xbeea65b2	-0.45780712
17	0xbdec0d78	-0.115260065
18	0x3dd73d10	0.105096936
19	0xbe735153	-0.23761491
20	0xbd98ab58	-0.07454556
21	0xbe618634	-0.2202385
22	0x3e10d3c1	0.14143278
23	0xbeec774c	-0.46184766
24	0x3ea25868	0.31708074
25	0xbf3a8192	-0.7285396
26	0x3eb452f3	0.35219535
27	0x3eea3be8	0.4574883
28	0xbde4ddb8	-0.11175102
29	0x3e7f351f	0.24922608
30	0xbe26c244	-0.16285044
31	0xbecd6d1c	-0.40122306
32	0x3e8f44d9	0.27982214
33	0x3eed5b5a	0.46358758
34	0xbaf49305	-0.0018659538
35	0x3e0b07f7	0.13577257
36	0x3e899e8d	0.26878777
37	0x3db1ec67	0.08687668
38	0x3d3f3842	0.04668451
39	0x3ee58ced	0.4483408
40	0xbdfebe3b	-0.12438627
41	0x3db6983e	0.08915757
42	0x3e2b6ff0	0.1674192
43	0xbdf2df9d	-0.11859057
44	0xbef6fed5	-0.48241296
45	0xbe9eb270	-0.30995512
46	0xbea4eb8f	-0.32210967
47	0x3dec2d05	0.11532024
48	0x3e7f18fd	0.24911876
49	0xbe065427	-0.13118039
50	0xbe77db71	-0.24204804
51	0x3e5e895b	0.21732084
52	0xbe08357d	-0.13301654
53	0x3e2f1c58	0.17100656
54	0x3e734087	0.23755084
55	0xbe8cafc8	-0.2747786
56	0x3e13990c	0.14413851
57	0xbe87c758	-0.26519275
58	0xbd84f153	-0.064913414
59	0xbd9d0238	-0.07666439
60	0x3de91e8b	0.11382779
61	0xbdca00b7	-0.098634176
62	0xbd6a9644	-0.05727221
63	0x3e0b8b40	0.13627338
64	0xbeafb9f2	-0.34321553
65	0x3eed2a3a	0.4632128
66	0x3d93352a	0.071878746
67	0x3ee806b7	0.45317623
68	0x3ed8f973	0.42377815
69	0xbf3ea51b	-0.7447068
70	0x3e44a780	0.19204521
71	0xbd46bc52	-0.04851944
72	0x3e3daea8	0.18523657
73	0x3e940a9a	0.28914338
74	0xbe050484	-0.12990004
75	0xbd95fc0d	-0.073234655
76	0x3e200280	0.15625954
77	0xbd3c1b6f	-0.0459246
78	0x3e2d1dd1	0.16905905
79	0xbeeef2a1	-0.46669486
80	0xbe0a4df1	-0.13506295
81	0xbdfe8844	-0.12428334
82	0x3e140c16	0.14457735
83	0xbd45574e	-0.048178963
84	0xbe883043	-0.2659932
85	0x3de3b498	0.1111843
86	0xbef84dc0	-0.4849682
87	0x3d27387b	0.04082535
88	0xbea5d18c	-0.32386434
89	0x3ce560d6	0.028000277
90	0x3e44d954	0.19223529
91	0xbbd28e88	-0.0064256825
92	0x3d79c9a5	0.06098332
93	0xbe135c14	-0.14390594
94	0x3e32445d	0.17408891
95	0x3db860fe	0.09002875
96	0x3ed3eb69	0.4139054
97	0xbee39d0e	-0.4445576
98	0xbe22f358	-0.15913141
99	0x3e0e844d	0.13917656
100	0xbea28145	-0.3173925
101	0x3e787175	0.2426203
102	0x3e5ade8c	0.21373957
103	0x3d22c321	0.03973687
104	0x3e568911	0.20950724
105	0x3e37fc42	0.17967322
106	0x3dca7347	0.09885269
107	0x3ed9d7e1	0.42547515
108	0xbe798658	-0.24367654
109	0xbc80aae9	-0.015706496
110	0x3e4f91e4	0.20270497
111	0xbd56cb72	-0.052440114
112	0x3e0ad0e5	0.1355625
113	0xbe99a366	-0.30007476
114	0x3e2e2776	0.1700724
115	0xbd89aae1	-0.06722046
116	0x3edca89c	0.4309739
117	0x3d617b21	0.055049066
118	0xbe9faac4	-0.3118497
119	0x3e5cb1d5	0.21552213
120	0x3e08f500	0.1337471
121	0x3c95322a	0.018212397
122	0xbe5652dc	-0.20930046
123	0xbdff467c	-0.12464616
124	0x3dbecd82	0.09316541
125	0xbdfe635e	-0.124212965
126	0x3dd7e8e7	0.105424695
127	0xbd7af935	-0.06127282
128	0xbd602771	-0.054725114
129	0x3d64ada5	0.055829663
130	0xbe893ccb	-0.26804194
131	0x3e4a45b6	0.19753155
132	0x3dfb23e2	0.122627035
133	0xbe96b2e6	-0.29433364
134	0xbe981f74	-0.29711497
135	0xbe1b6589	-0.15175451
136	0x3e7d68ae	0.24746963
137	0xbe7cbd7b	-0.24681656
138	0xbe92bbc5	-0.28658882
139	0x3e48180b	0.19540422
140	0xbec2fd15	-0.3808371
141	0x3e0f3c2a	0.13987795
142	0xbf08358f	-0.53206724
143	0xbd8977be	-0.06712292
144	0x3da30cda	0.079614356
145	0xbda06bb1	-0.078330405
146	0x3deec5b9	0.11658806
147	0xbd992b2f	-0.0747894
148	0x3eb1fed8	0.34764743
149	0xbe3f45fb	-0.18679039
150	0x3e80c9d6	0.2515399
151	0xbd8676bd	-0.06565616
152	0xbe1ac91f	-0.15115784
153	0x3ea870ec	0.32898653
154	0xbf0a021b	-0.5390946
155	0x3e5c8828	0.21536314
156	0xbe94c750	-0.29058313
157	0xbe75a08b	-0.23987024
158	0x3ece7f84	0.40331662
159	0xbeb198b9	-0.3468683
160	0xbef16dba	-0.47154027
161	0xbdd9455b	-0.10608932
162	0xbd9db4f1	-0.077005275
163	0xbc040602	-0.008058073
164	0x3d4a8f67	0.049453165
165	0xbe3f9b31	-0.18711545
166	0xbed68b42	-0.4190312
167	0xbe832740	-0.25615883
168	0xbeef13e3	-0.4669486
169	0x3e41b843	0.18917947
170	0xbe09ad3a	-0.13444987
171	0xbe47044b	-0.19435231
172	0x3dbb204b	0.09137019
173	0x3e3d9de6	0.18517265
174	0x3e42003d	0.18945403
175	0x3ea8f4af	0.3299918
176	0xbdcffd63	-0.101557516
177	0x3d2036a2	0.039114602
178	0xbdfde826	-0.123977944
179	0x3ee32f1d	0.44371882

l1.weight f4 [100, 108]
0	0xbd6ad7b9	-0.057334635
1	0x3e188659	0.14895
2	0x3e060914	0.130894
3	0x3e2b0be9	0.16703762
4	0xbc319a42	-0.010840001
5	0x3d049152	0.03236515
6	0xbb185da0	-0.0023249164
7	0xbdd21b2c	-0.10259089
8	0xbdbaece7	-0.09127217
9	0x3e2cf502	0.16890338
10	0xbd99441e	-0.074836954
11	0x3dea6a8b	0.11446103
12	0x3e344add	0.17606683
13	0xbd55602a	-0.052093662
14	0x3ccfdaba	0.025372852
15	0x3d0ece07	0.03486445
16	0xbd0e2715	-0.03470524
17	0xbaf432a3	-0.0018630814
18	0x3d6e88ab	0.058235805
19	0xbe634477	-0.22194086
20	0xbe31d6b2	-0.17367056
21	0xbd1551a7	-0.036454823
22	0x3dde78de	0.10862897
23	0xbd08c45f	-0.0333904
24	0x3c1dd7e7	0.009633995
25	0xbd997bf0	-0.07494342
26	0xbd77c26e	-0.060488157
27	0xbc02c8a0	-0.007982403
28	0xbdfee507	-0.12446027
29	0x3df26fc4	0.11837724
30	0x3d9521cd	0.072818376
31	0xbe4b58b5	-0.19858058
32	0x3d685917	0.056725588
33	0xbc4c1dc7	-0.012458271
34	0xbd74624c	-0.059664056
35	0xbd2a2448	-0.041538507
36	0x3e56d239	0.20978631
37	0x3d4a1b30	0.049342334
38	0xbdd185cf	-0.102306
39	0xbd9133c2	-0.0708995
40	0xbcf00ad1	-0.029302033
41	0xbd4e1145	-0.05030944
42	0x3d4c2a65	0.049845118
43	0xbdec1365	-0.11527137
44	0x3cfab8ff	0.030605791
45	0x3e4d097a	0.20023146
46	0x3e774910	0.24148965
47	0xbe0fa810	-0.14028955
48	0x3d636b2d	0.055522133
49	0xbd319ed3	-0.043364357
50	0xbdc51f80	-0.09625149
51	0xbd8ea6fa	-0.06965442
52	0xbd007e75	-0.0313706
53	0x3e2f38b3	0.17111473
54	0x3e43b21a	0.19110909
55	0xbd3b6706	-0.045752548
56	0x3d421394	0.047381952
57	0xbd3c8ddd	-0.04603373
58	0x3dcb5960	0.09929156
59	0xbd7526cd	-0.059851456
60	0x3cd9f075	0.026603917
61	0x3d9c4ee2	0.07632233
62	0x3deea1af	0.116519324
63	0xbdb6e8e7	-0.08931141
64	0x3bae457f	0.005318343
65	0x3d973bd5	0.07384459
66	0xbd16c2b3	-0.036806773
67	0xbda44eea	-0.08022864
68	0xbda2dd2e	-0.07952343
69	0xbe088180	-0.1333065
70	0xbe43b24a	-0.1911098
71	0x3dda30f5	0.10653869
72	0xbd42032f	-0.047366317
73	0x3e352431	0.17689587
74	0x3d374ee3	0.044752967
75	0x3d241f01	0.04006863
76	0x3d3a12af	0.045427974
77	0x3cd4dcbe	0.025984164
78	0x3e34c6a4	0.176539
79	0xbd822e4a	-0.06356485
80	0xbce271a6	-0.027642082
81	0xbc75791d	-0.014982489
82	0xbce32588	-0.027727857
83	0xbdd69fa4	-0.10479668
84	0x3cf6a868	0.0301096
85	0x3c740056	0.014892658
86	0x3e018dc8	0.12651742
87	0xbd72d9d3	-0.059289765
88	0xbcafc785	-0.021457443
89	0xbde25303	-0.110509895
90	0xbcb8d94c	-0.022564553
91	0x3e899075	0.26868024
92	0xbd531973	-0.051537942
93	0xbce17798	-0.027522847
94	0xbdab55a4	-0.08365944
95	0x3ca05884	0.019573458
96	0xbe0ce091	-0.1375754
97	0xbdb2a98c	-0.08723745
98	0x3d4b8be6	0.049693964
99	0xbe2dbf42	-0.1696749
100	0x3e177bb5	0.14793284
101	0x3eb35e28	0.35032773
102	0x3ebd65e6	0.36991805
103	0xbdb7ec07	-0.089805655
104	0xbec0c8b2	-0.37653118
105	0xbd5646c2	-0.052313574
106	0x3d2da211	0.042390887
107	0x3d311efa	0.043242432
108	0xbd08f61e	-0.03343784
109	0xbc820487	-0.0158713
110	0xbda5a90d	-0.080888845
111	0x3e03a01f	0.1285405
112	0xbdbc0d8e	-0.09182273
113	0xbd42150f	-0.047383364
114	0x3e10b5aa	0.141318
115	0xbe06dd83	-0.13170438
116	0x3cb91192	0.022591386
117	0x3dd56748	0.1042009
118	0xbe1cc90d	-0.1531107
119	0xbbb60e46	-0.0055559007
120	0xbd674045	-0.056457777
121	0x3db14c69	0.08657152
122	0x3da2fa6d	0.07957921
123	0xbd032503	-0.03201772
124	0x3ced69db	0.02898114
125	0x3d22561b	0.039632898
126	0xbe919068	-0.28430486
127	0xbe0543d7	-0.1301416
128	0xbcc5f8ad	-0.02416643
129	0xbcbd3fb8	-0.023101673
130	0x3dac15db	0.08402606
131	0x3c8aacaf	0.016928045
132	0xbd931d71	-0.0718335
133	0x3d61594f	0.055016812
134	0xbd94f845	-0.07273916
135	0xbdd770dc	-0.10519573
136	0x3e2acd36	0.16679844
137	0x3e1e6548	0.15468323
138	0xbe49ed4c	-0.19719428
139	0xbd4c5a4f	-0.049890812
140	0x3ca1c44b	0.01974692
141	0xbd032774	-0.032020047
142	0x3e2408b5	0.16018946
143	0xbe0e1bbf	-0.13877772
144	0x3e0c5ec5	0.13708027
145	0xbdf431a7	-0.11923533
146	0xbc8ccf8f	-0.017188815
147	0x3d001f75	0.03128
148	0x3d045068	0.032303244
149	0xbc63372a	-0.013868133
150	0xbb373007	-0.002795221
151	0xbe138904	-0.14407736
152	0xbcd4999c	-0.025952153
153	0xbc2a0c3b	-0.0103788925
154	0x3d6f93de	0.058490627
155	0xbe43637e	-0.19080922
156	0x3cc5b31a	0.024133254
157	0xbd378755	-0.044806797
158	0x3daa37f6	0.08311455
159	0xbd9dbc97	-0.07701986
160	0xbd05810d	-0.032593776
161	0x3db1118b	0.08645924
162	0x3c1fdaec	0.009756785
163	0x3e6b6711	0.22988535
164	0x3e29b5bb	0.16573231
165	0xbd8bb78b	-0.068221174
166	0x3d4eeb49	0.050517354
167	0x3d99cd70	0.07509887
168	0x3dab84f5	0.08374969
169	0x3d903279	0.07040877
170	0xbd2cb43a	-0.042164065
171	0x3ce8b938	0.028408632
172	0x3e23c297	0.15992199
173	0x3d912746	0.07087569
174	0xbe29a37d	-0.16566272
175	0xbbf90824	-0.0075998474
176	0x3d949af5	0.07256118
177	0xbd986140	-0.07440424
178	0x3e12607f	0.14294623
179	0xbbe83493	-0.0070863455
180	0xbdc39bb8	-0.09551185
181	0x3d888906	0.0666676
182	0xbcfe264c	-0.03102412
183	0x3dd93e25	0.10607556
184	0xbb87d804	-0.004145624
185	0x3dca3702	0.09873773
186	0x3d0f6772	0.035010763
187	0x3d6da34b	0.058017056
188	0x3e1b3a99	0.15159072
189	0xbcd22882	-0.025654081
190	0xbdffb97b	-0.124865495
191	0xbd19fede	-0.037596576
192	0xbc9641c3	-0.018341905
193	0xbda28e39	-0.07937283
194	0x3e1f12c7	0.15534507
195	0xbd05ab4b	-0.03263406
196	0xbda9a494	-0.08283344
197	0x3e871de8	0.26390004
198	0xbd73e206	-0.059541725
199	0xbe1c13ce	-0.1524193
200	0xbde04586	-0.109507605
201	0xbdade80e	-0.084915265
202	0x3cfe7395	0.031060973
203	0x3d6bc8f4	0.05756469
204	0x3cc65de4	0.024214692
205	0x3d0b384b	0.033989232
206	0x3d583616	0.052785955
207	0x3d8888e5	0.066667356
208	0xbdd1439c	-0.102179736
209	0x3e62735a	0.22114316
210	0xbcc97f36	-0.024596792
211	0x3d19e091	0.03756768
212	0xbd82ccdc	-0.0638673
213	0xbe0561a1	-0.13025524
214	0xbda50130	-0.08056867
215	0x3d8c4fac	0.06851134
216	0x3d91e857	0.071243934
217	0xbd73f922	-0.059563763
218	0x3e88d109	0.2672198
219	0xbd3cbffb	-0.046081524
220	0x3d8f4563	0.06995656
221	0x3d0bbf2b	0.03411786
222	0x3d694680	0.056952
223	0xbc329f01	-0.010902167
224	0xbd6360a5	-0.05551209
225	0xbdb25f72	-0.08709611
226	0x3dba6624	0.09101513
227	0x3e19757d	0.14986224
228	0xbcf9087c	-0.030399553
229	0xbdb2271f	-0.08698868
230	0xbcbae5e9	-0.022814708
231	0xbcfd9e8b	-0.030959388
232	0x3d15d79b	0.03658257
233	0xbdb0d637	-0.08634608
234	0xbd8921b6	-0.06695883
235	0x3d9b0351	0.07568992
236	0x3d3fa7f5	0.046791036
237	0xbd1ce9e9	-0.03830901
238	0x3d75cf24	0.060011998
239	0x3e2f5cdb	0.17125265
240	0xbd30e928	-0.043191105
241	0x3c7fa0d0	0.0156023055
242	0x3d9f5c3b	0.077812634
243	0x3dba1a45	0.09087042
244	0xbdb85005	-0.089996375
245	0x3c6c8c97	0.014437816
246	0x3cd0d467	0.025491906
247	0xbdb96d80	-0.090540886
248	0xbe27cf0b	-0.16387574
249	0xbc990c97	-0.018682761
250	0xbd9f0802	-0.07765199
251	0x3e1326e9	0.14370312
252	0xbe2b63ef	-0.1673734
253	0x3c80f872	0.015743468
254	0xbdc7403b	-0.09729048
255	0x3db0291f	0.08601593

l1.bias f4 [100]
0	0x3e2fa190	0.17151475
1	0xbdc3757e	-0.09543894
2	0xbede47c4	-0.43414128
3	0x3e00cc47	0.12577926
4	0xbd8f9462	-0.07010724
5	0x3c80665b	0.015673807
6	0x3cf5b9bb	0.02999579
7	0x3e66bc80	0.22532845
8	0x3dabd17f	0.083895676
9	0x3d8cf85c	0.06883308
10	0xbd86da07	-0.06584554
11	0x3cff14b8	0.03113781
12	0xbdfb81f6	-0.122806475
13	0x3dc483fe	0.09595488
14	0xbe34d3e4	-0.17658955
15	0x3e6c60aa	0.2308375
16	0x3e21bda8	0.15795004
17	0x3e317c8b	0.17332666
18	0xbddb86be	-0.107190594
19	0x3f093831	0.53601366
20	0x3e91b105	0.28455368
21	0x3d49053d	0.04907726
22	0xbd45ac76	-0.048260175
23	0x3c87eb3a	0.016591657
24	0x3e34892c	0.17630452
25	0xbd6f6ec5	-0.058455247
26	0xbcfc8d36	-0.030829053
27	0x3e64d822	0.22348073
28	0xbe25f4db	-0.16206686
29	0xbdc55efd	-0.09637258
30	0x3de7adc5	0.11312441
31	0x3e75432d	0.23951407
32	0xbe2cb25a	-0.1686491
33	0xbe2069d2	-0.15665367
34	0xbe28250a	-0.1642038
35	0x3d9584a2	0.07300688
36	0xbd809cdb	-0.06279918
37	0xbe69c0aa	-0.22827402
38	0xbd9bd72a	-0.07609399
39	0x3df006ce	0.11720048
40	0xbd944cbd	-0.07241199
41	0xbd2280a8	-0.039673477
42	0xbde88a13	-0.113544606
43	0xbda70680	-0.08155537
44	0xbe246895	-0.1605552
45	0x3e0d1a04	0.13779455
46	0x3ba90ee0	0.005159244
47	0xbd90ffc4	-0.070800334
48	0x3e1f857f	0.15578268
49	0x3d0a0741	0.033698324
50	0xbe026c2b	-0.12736575
51	0x3e427d51	0.18993117
52	0xbcc6e5e0	-0.024279535
53	0xbb80cbbe	-0.003930538
54	0xbed9d0af	-0.42542025
55	0x3d8b6108	0.068056166
56	0x3e25670c	0.1615259
57	0x3db2e5ac	0.08735213
58	0x3e329330	0.1743896
59	0x3e1d16fe	0.15340802
60	0x3e2534a4	0.16133362
61	0x3e1e8394	0.1547988
62	0xbe67af1b	-0.22625391
63	0x3cb1d688	0.021708742
64	0x3e7c864f	0.2466061
65	0x3dd86f44	0.10568097
66	0xbe3ec158	-0.18628442
67	0xbcc0a5c2	-0.02351654
68	0x3cb1f917	0.02172522
69	0xbe3f5573	-0.1868494
70	0x3e0b3f1e	0.13598296
71	0x3e2e7baf	0.17039369
72	0x3e867f2f	0.26268908
73	0xbc88de69	-0.016707616
74	0x3cb40592	0.021975312
75	0x3e6c23fa	0.23060599
76	0x3d65cf0a	0.05610565
77	0xbc609537	-0.013707451
78	0x3cb1bd45	0.021696696
79	0xbd9b73a1	-0.07590414
80	0x3e62cc5b	0.22148268
81	0x3d9c7e06	0.076412246
82	0x3e297299	0.16547622
83	0x3e9d18cf	0.3068299
84	0x3e1d639b	0.15370028
85	0xbdcb7f43	-0.099363826
86	0x3d1b9cfd	0.037991513
87	0x3e9b5925	0.3034145
88	0xbe53d34d	-0.20686074
89	0xbdc716f8	-0.09721178
90	0xbe779ff9	-0.24182118
91	0xbe5f24c0	-0.21791363
92	0x3e165a33	0.14682846
93	0xbd34f969	-0.04418317
94	0x3c0b8c27	0.008517302
95	0xbd37ea37	-0.0449011
96	0x3c11ed68	0.0089067
97	0xbdd0ec96	-0.10201375
98	0xbe9b9abe	-0.30391496
99	0x3e51b286	0.20478258

l2.weight f4 [100, 100]
0	0x3b25d4df	0.0025303883
1	0x3e282c9f	0.16423272
2	0x3cca0813	0.024662053
3	0xbe2cc00f	-0.1687014
4	0x3c8f9021	0.01752478
5	0xbe09065f	-0.13381337
6	0xbe0ef727	-0.13961469
7	0x3c4b901c	0.012424495
8	0xbe4918d7	-0.19638382
9	0x3d3703af	0.044681247
10	0x3e2eb676	0.17061791
11	0x3c1ea1ef	0.009682163
12	0x3e3ed205	0.18634804
13	0x3a0aaf8b	0.000529044
14	0xbd1ccbc2	-0.038280256
15	0xbd8767f1	-0.06611622
16	0x3d29eeeb	0.041487616
17	0xbe8b5172	-0.27210575
18	0x3d92be9d	0.07165263
19	0x3d84a2e5	0.06476382
20	0xbe2fd37f	-0.17170523
21	0xbc9a49bd	-0.01883399
22	0x3d8228f2	0.06355466
23	0xbdeea010	-0.11651623
24	0xbd9bc563	-0.07606008
25	0xbd9d3569	-0.07676203
26	0xbe046b02	-0.12931445
27	0xbde2886e	-0.11061178
28	0xbca4c3ba	-0.020112861
29	0x3daf608e	0.08563338
30	0xbd90d788	-0.07072359
31	0x3dba10a7	0.090852074
32	0x3cd10995	0.025517264
33	0x3ccd6c79	0.025076138
34	0x3e4264fb	0.18983833
35	0xbdcd07fd	-0.10011289
36	0x3cb738e3	0.022365993
37	0x3e36ba45	0.17844494
38	0xbe3916ed	-0.18075152
39	0x3dbfd55f	0.09366869
40	0x3d9c6280	0.07635975
41	0xbd2f867f	-0.042852875
42	0x3d75fb9b	0.060054403
43	0x3cdf1410	0.027231246
44	0x3e064924	0.13113838
45	0xbe35f1f2	-0.17768076
46	0x3d4978ea	0.04918758
47	0x3ca578b4	0.020199157
48	0x3d07c90c	0.033150718
49	0xbc14c420	-0.009079963
50	0xbdc64dac	-0.096827835
51	0x3e09a4f6	0.13441834
52	0x3d84da4e	0.06486951
53	0xbca0953f	-0.019602416
54	0x3e578702	0.21047595
55	0x3da9267f	0.08259296
56	0x3d94f56e	0.072733745
57	0x3cdc0d37	0.02686177
58	0xbd45d446	-0.048298143
59	0xbc8f112a	-0.01746424
60	0x3df0f4fc	0.11765477
61	0xbdc9e53b	-0.09858175
62	0x3dda1ade	0.10649656
63	0xbca268fc	-0.019825451
64	0xbd942138	-0.072328985
65	0xbdc3897f	-0.0954771
66	0x3e0c1e64	0.13683468
67	0xbe615fe3	-0.22009234
68	0x3d3ef9a3	0.04662479
69	0xbbba692a	-0.005688806
70	0xbe533678	-0.20626247
71	0x3cb83e26	0.022490572
72	0x3da9fd6d	0.0830029
73	0xbb94224b	-0.0045206896
74	0x3cec0b6f	0.028814046
75	0xbdd1a16a	-0.102358654
76	0x3d0620a8	0.032745987
77	0xbd1f8fce	-0.038955502
78	0xbbafb459	-0.0053620753
79	0xbd303046	-0.043014787
80	0x3dea98d5	0.11454932
81	0x3ca34c2a	0.019933779
82	0x3d2b6284	0.041842
83	0xbe2166be	-0.1576185
84	0xbe4755b6	-0.1946629
85	0x3d42c017	0.047546472
86	0xbd18082c	-0.03711717
87	0x3e0dca09	0.13846602
88	0xbd82a0c3	-0.06378319
89	0x3e041566	0.12898788
90	0x3ccf6c5f	0.02532023
91	0xbd56ed66	-0.052472495
92	0xbdad1ac7	-0.08452373
93	0x3cff9ad1	0.031201752
94	0xbe56a7df	-0.20962475
95	0x3c66d977	0.014089934
96	0x3e1430fb	0.1447181
97	0x3e4961a9	0.1966616
98	0x3d83b0d4	0.06430212
99	0x3d9f16b9	0.07768006
100	0xbe190004	-0.14941412
101	0x3e0063dd	0.12538095
102	0xbe278b18	-0.16361654
103	0x3e485f78	0.19567668
104	0xbe04ca43	-0.12967782
105	0x3d8f2ce5	0.06990985
106	0xbea0c899	-0.31403044
107	0xbdb57f1a	-0.08862133
108	0xbdace64b	-0.084423624
109	0x3e58db1c	0.21177334
110	0x3df10f15	0.11770455
111	0xbe4769c0	-0.19473934
112	0xbd2f5b64	-0.042811766
113	0x3e1ab528	0.15108168
114	0xbea338c4	-0.31879246
115	0x3e2bc87d	0.16775699
116	0xbd00ea7f	-0.031473633
117	0x3e597341	0.21235372
118	0x3d98d198	0.07461852
119	0x3e56ecba	0.20988742
120	0x3e2fc351	0.17164351
121	0x3e71187a	0.23544493
122	0x3e62df2d	0.22155447
123	0x3de48302	0.111578
124	0x3dfa4bc0	0.122214794
125	0x3eab1d64	0.3342086
126	0xbe163c83	-0.14671521
127	0x3debf22a	0.115207985
128	0xbe3afa4c	-0.18259543
129	0x3d37187f	0.044701096
130	0x3d63139f	0.055438634
131	0x3eb72a45	0.35774437
132	0xbdbd9657	-0.09257191
133	0x3c86be50	0.01644817
134	0x3ddb1b6b	0.10698589
135	0x3ee09bcf	0.43868873
136	0xbe8b9ec6	-0.27269572
137	0x3e60c638	0.21950614
138	0xbd923b9f	-0.07140278
139	0xbe31e5b8	-0.17372787
140	0x3daa62a3	0.08319595
141	0x3e4a1bfe	0.1973724
142	0x3d301d4f	0.0429967
143	0x3e15b3f9	0.14619435
144	0x3db6b312	0.08920874
145	0x3d86059b	0.06544038
146	0x3ec8f9c1	0.39253047
147	0xbddd66ec	-0.108106464
148	0x3e30e081	0.17273141
149	0x3d9d7802	0.07688905
150	0x3e117a19	0.14206733
151	0x3eface25	0.489854
152	0xbe219a10	-0.15781426
153	0x3dd4d0d8	0.10391396
154	0xbd3c5c8c	-0.045986697
155	0xbdb1adaf	-0.08675706
156	0xbe39c016	-0.18139681
157	0x3e00eff0	0.12591529
158	0xbd686130	-0.05673331
159	0xbd87cbf9	-0.066307016
160	0xbe9358d7	-0.28778717
161	0xbbe20a75	-0.006898219
162	0xbdc19c10	-0.09453595
163	0x3c8840c7	0.01663245
164	0x3e3cbcb6	0.18431363
165	0x3cdab604	0.02669812
166	0xbe1dd324	-0.15412575
167	0x3d256e8f	0.04038864
168	0xbe3427ad	-0.1759326
169	0xbc4954a7	-0.012288249
170	0x3e957840	0.29193306
171	0x3bbcfa8b	0.0057671717
172	0x3e4fbcd9	0.20286883
173	0xbe003d14	-0.125233
174	0x3ddea3ea	0.10871108
175	0xbcc114ab	-0.023569426
176	0x3ea8ef47	0.32995054
177	0x3e4c420d	0.19947071
178	0x3c96776d	0.018367494
179	0x3d4f3a7c	0.050592884
180	0x3e292eb2	0.16521719
181	0xbebc1420	-0.36734104
182	0x3e6324f4	0.22182065
183	0xbd9667a8	-0.073439896
184	0x3e07aad8	0.13248765
185	0xbcbda632	-0.023150537
186	0xbdd1a125	-0.10235814
187	0xbd13fad2	-0.036127873
188	0xbe547259	-0.20746745
189	0x3e9e2ccc	0.30893552
190	0xbb68ac69	-0.0035503155
191	0xbe10273c	-0.14077467
192	0xbe8d55f0	-0.27604628
193	0x3ef0abd5	0.47006097
194	0x3d91e8d6	0.07124488
195	0x3d1408b6	0.03614112
196	0xbeacfe9d	-0.33788005
197	0xbd98bd40	-0.074579716
198	0xbe090dfc	-0.13384241
199	0x3d165ce0	0.036709666
200	0xbe27706f	-0.16351484
201	0x3e212520	0.15736818
202	0x3dd8c734	0.1058487
203	0x3e6a6d77	0.2289332
204	0xbd66c11a	-0.0563365
205	0xbd91d38a	-0.07120426
206	0xbd263661	-0.040579204
207	0xbdec7e41	-0.115475185
208	0xbd9acffb	-0.075592004
209	0xbd9b2416	-0.07575242
210	0x3e19ca85	0.15018661
211	0xbd1f04d5	-0.038822968
212	0x3e714235	0.23560412
213	0xbd8425de	-0.06452535
214	0xbd2f1cb6	-0.04275199
215	0xbd941fc3	-0.072326206
216	0xbdfa9f24	-0.12237385
217	0xbc2e67c3	-0.010644856
218	0x3d34f2a1	0.0441767
219	0xbcf17c07	-0.029478086
220	0xbcf18c18	-0.029485747
221	0xbcafb6c5	-0.021449456
222	0xbcc23b6f	-0.02370998
223	0xbdb5e099	-0.08880729
224	0x3dbe7d59	0.09301252
225	0xbc346d5c	-0.011012401
226	0xbdd7c2ba	-0.10535188
227	0xbdd67f48	-0.10473496
228	0x3e9b6ebd	0.30357924
229	0x3e68d3e0	0.22737074
230	0xbdd697bc	-0.1047816
231	0xbe011c2b	-0.12608401
232	0xbbd52f0e	-0.0065058535
233	0xbd10e089	-0.035370383
234	0x3ca0b3ea	0.01961704
235	0xbe3381ed	-0.17530032
236	0x3dfb51d7	0.12271469
237	0x3d8d5f54	0.06902948
238	0x3d4b2507	0.04959586
239	0x3dab53de	0.08365606
240	0x3d409398	0.047015756
241	0x3d58373b	0.052787047
242	0x3dcd5c91	0.10027421
243	0x3d35c6cd	0.044379044
244	0x3e8fe039	0.28100756
245	0x3d175aa1	0.036951665
246	0xbe1da51b	-0.15395014
247	0xbde5f462	-0.11228253
248	0xbdeb30f0	-0.114839435
249	0x3d7c70e8	0.061631113
250	0x3de2d5bf	0.11075925
251	0x3e504b7f	0.203413
252	0xbd867649	-0.0656553
253	0xbdff1a58	-0.124561965
254	0x3da49608	0.08036429
255	0xbdfc2dfa	-0.12313457

l2.bias f4 [100]
0	0xbe2e5ef2	-0.17028406
1	0xbea9f040	-0.3319111
2	0xbe0db8f0	-0.1384008
3	0xbe072f73	-0.13201694
4	0xbde3da12	-0.11125578
5	0x3d9b9be6	0.07598095
6	0x3e93ecc4	0.28891575
7	0xbd847428	-0.064674675
8	0x3e22d45e	0.15901324
9	0xbcc50edd	-0.024054939
10	0x3d906304	0.07050136
11	0xbe03cadf	-0.12870358
12	0x3e9e5bb1	0.3092933
13	0x3d51da52	0.051233597
14	0x3e02e805	0.12783821
15	0x3c77eef6	0.015132656
16	0x3e4eb1fe	0.20185086
17	0x3e14d9f1	0.14536263
18	0x3ec28a2b	0.3799604
19	0xbd90662c	-0.07050738
20	0xbdc2ee92	-0.0951816
21	0x3d105e82	0.03524638
22	0x3e561b9e	0.20908973
23	0x3e02a7fe	0.12759396
24	0xbe397fee	-0.18115208
25	0x3cc2f820	0.023799956
26	0xbd8879eb	-0.06663879
27	0x3e0d10b8	0.13775909
28	0x3db51dd4	0.0884358
29	0xbccf6814	-0.025318183
30	0x3d4bb08b	0.04972891
31	0x3d852cb3	0.06502666
32	0x3da62811	0.08113111
33	0x3e29afd2	0.16570976
34	0xbdf64959	-0.12025709
35	0xbca0dcb8	-0.019636497
36	0x3d8da622	0.06916453
37	0x3d9865c2	0.07441284
38	0x3d2ad565	0.041707415
39	0xbb923164	-0.004461454
40	0xbe333f45	-0.17504604
41	0x3e57cf41	0.21075155
42	0x3e127bee	0.14305088
43	0x3cc8f62b	0.024531445
44	0x3de6880c	0.11256418
45	0xbd183ea5	-0.037169117
46	0xbd557317	-0.05211171
47	0xbdbc304f	-0.09188902
48	0xbc127f5e	-0.0089414995
49	0xbc82f8b8	-0.015987739
50	0xbe6110c6	-0.21979055
51	0x3ceb97dd	0.028758937
52	0xbe30a4d4	-0.17250377
53	0xbe9bd8c5	-0.3043882
54	0x3e28f7be	0.16500756
55	0x3db45eb9	0.088071294
56	0xbbfba3f2	-0.007679456
57	0xbe935ebd	-0.28783217
58	0x3e187039	0.1488656
59	0x3e6fa801	0.23403932
60	0x3dc483ef	0.09595477
61	0x3dc37697	0.095441036
62	0x3d42ce09	0.04755977
63	0x3cbc409d	0.022980029
64	0xbd8d6e00	-0.069057465
65	0xbd567d12	-0.05236537
66	0xbe666251	-0.22498442
67	0xbc9d7022	-0.019218508
68	0x3d912a65	0.07088164
69	0xbddcc999	-0.10780639
70	0xbd99d334	-0.07510987
71	0xbdc7cb6d	-0.09755597
72	0x3dbd2f68	0.09237558
73	0x3e99d9fd	0.30049124
74	0x3e2ea249	0.17054094
75	0x3da31d4c	0.07964572
76	0xbe319314	-0.17341262
77	0xbd8d0eba	-0.068875745
78	0xbd2bf53a	-0.041981913
79	0x3d53057f	0.051518913
80	0x3e1fb885	0.15597732
81	0xbe7578be	-0.2397184
82	0x3e00bd77	0.12572275
83	0xbc2b4398	-0.010453127
84	0x3df62644	0.12019017
85	0x3e221951	0.1582997
86	0xbca83beb	-0.020536384
87	0x3e358ab0	0.17728686
88	0xbde3379f	-0.11094593
89	0x3e69a728	0.22817671
90	0xbd72bb87	-0.05926087
91	0xbdba7f04	-0.091062576
92	0x3e094a73	0.13407306
93	0xbb6348e0	-0.0034680888
94	0x3d63b6f5	0.055594403
95	0xbe9763b5	-0.29568258
96	0x3dd78d72	0.105250254
97	0x3da603d3	0.08106198
98	0x3d91e7ee	0.07124315
99	0xbeb9b367	-0.36269686

l3.weight f4 [18, 100]
0	0xbd0d76e3	-0.034537207
1	0x3da92711	0.082594045
2	0x3dfb66c3	0.122754596
3	0xbe94c7c3	-0.29058656
4	0xbdc485ed	-0.09595857
5	0xbe9a3705	-0.30120102
6	0x3e5f2099	0.21789779
7	0x3de3759d	0.11106417
8	0xbbee7e62	-0.0072782496
9	0xbe0f295b	-0.1398062
10	0x3e02ba77	0.12766443
11	0xbe9c52af	-0.30531833
12	0x3ebf43e2	0.37356478
13	0x3e297a6b	0.16550605
14	0x3cd70d5e	0.026251491
15	0xbe174b86	-0.14774904
16	0x3e7db1a1	0.24774791
17	0xbe5e5e0c	-0.21715564
18	0xbea18430	-0.31546164
19	0xbe56cf20	-0.2097745
20	0xbe6013d1	-0.2188256
21	0x3d8f7a4a	0.07005747
22	0xbe24e19d	-0.1610169
23	0xbe9f9319	-0.31166914
24	0xbe9e7897	-0.30951378
25	0xbce03b1c	-0.027371936
26	0xbd300bdd	-0.042980064
27	0x3e4e98be	0.20175454
28	0xbdcf4c59	-0.10121984
29	0x3e9364bb	0.2878779
30	0xbdfdbb24	-0.1238921
31	0x3d1144fa	0.03546617
32	0xbdab7827	-0.083725266
33	0xbe53ce15	-0.20684083
34	0xbd347f93	-0.044066977
35	0x3ed1635e	0.40896124
36	0xbded9631	-0.11600912
37	0x3bb50e44	0.0055253822
38	0xbdef5a96	-0.116872
39	0xbd4171bc	-0.047227606
40	0x3e83d2bf	0.25746724
41	0xbddd3125	-0.10800389
42	0xbe234d47	-0.15947448
43	0xbd1a3bb5	-0.037654597
44	0x3d597fe5	0.053100485
45	0xbe511c2e	-0.20420906
46	0x3e7017dc	0.23446602
47	0x3da7d370	0.081946254
48	0x3df69675	0.12040416
49	0xbe99baf4	-0.30025446
50	0x3e2a5bc7	0.16636573
51	0xbe2d8a4d	-0.16947289
52	0x3eb4eb6f	0.35335872
53	0x3de1b5c2	0.11020996
54	0xbe1dda12	-0.15415218
55	0xbe263194	-0.1622985
56	0xbe340d09	-0.17583098
57	0x3d38ea85	0.04514553
58	0xbd0b15b1	-0.033956233
59	0x3c97dc82	0.018537764
60	0xbd94a3ad	-0.07257781
61	0xbe9318e4	-0.28729928
62	0xbe68b5f9	-0.22725667
63	0xbd6472c5	-0.055773515
64	0x3d8868bf	0.06660604
65	0xbdadca52	-0.08485855
66	0xbbccc587	-0.006249133
67	0xbdb09885	-0.08622841
68	0xbc968049	-0.018371718
69	0xbbffa30c	-0.007801419
70	0xbdd3391d	-0.10313628
71	0x3d13cc48	0.03608349
72	0xbe96bc89	-0.29440716
73	0xbe788944	-0.24271113
74	0xbe2b6379	-0.16737165
75	0x3e8eda64	0.27900994
76	0x3d951f0b	0.072813116
77	0xbdf059af	-0.11735856
78	0xbd40f537	-0.047108855
79	0x3e7d0e9a	0.24712601
80	0x3e2bd7c3	0.16781525
81	0x3d5401f9	0.051759694
82	0xbe086127	-0.1331831
83	0x3ddc1cf0	0.10747707
84	0x3e5c2866	0.21499786
85	0x3d2c269b	0.042029005
86	0x3e6cab45	0.23112209
87	0xbd44ea04	-0.048074737
88	0xbda51fd7	-0.080627136
89	0xbe2fd5be	-0.1717138
90	0x3dd531c6	0.10409884
91	0xbeae6646	-0.34062403
92	0x3d9872b0	0.0744375
93	0xbd83e9fb	-0.064411126
94	0xbe2b7c7e	-0.16746709
95	0x3d9adc69	0.07561571
96	0xbd351937	-0.0442135
97	0x3db177bd	0.086654164
98	0x3d90f073	0.07077112
99	0xbd5950e4	-0.05305566
100	0xbd481de7	-0.048856642
101	0x3d2a25b3	0.04153986
102	0x3ea51583	0.32242975
103	0x3e1c2799	0.1524948
104	0x3d4a65a4	0.04941334
105	0xbcc6601a	-0.024215747
106	0x3e1a813b	0.1508836
107	0xbd6659ed	-0.056238104
108	0x3ea213d4	0.31655753
109	0x3ca91463	0.020639604
110	0x3ecf666d	0.40507832
111	0xbbdc6562	-0.006725953
112	0x3db4d984	0.0883055
113	0x3d85d87e	0.06535433
114	0x3dff4992	0.12465204
115	0xbdde7cc3	-0.1086364
116	0x3d0a67ab	0.03379027
117	0xbe0d463e	-0.13796327
118	0xbe5a8c3b	-0.21342556
119	0xbd83a6ef	-0.064283244
120	0xbdd315f3	-0.10306921
121	0xbd1bb26f	-0.038011964
122	0xbea4ef31	-0.3221374
123	0xbe30e67a	-0.1727542
124	0x3cf36901	0.029713156
125	0xbb6589de	-0.0035024802
126	0xbe7a78c5	-0.24460132
127	0x3e34c2e5	0.17652471
128	0x3e22e88d	0.15909024
129	0x3e092a3b	0.13395016
130	0x3e4891c5	0.19586857
131	0xbce9d06a	-0.028541762
132	0xbe83e83e	-0.25763124
133	0xbe6e8c57	-0.23295723
134	0x3e825e0b	0.25462374
135	0x3a52de77	0.0008044014
136	0xbd277fbb	-0.040893298
137	0xbea24c3a	-0.3169878
138	0xbdad1f26	-0.08453207
139	0xbde303eb	-0.11084732
140	0x3e22a8dc	0.15884727
141	0x3e003349	0.12519564
142	0xbea3a58b	-0.31962237
143	0xbe271d5d	-0.16319795
144	0xbc855f56	-0.016280811
145	0xbe6890e1	-0.22711517
146	0x3df95417	0.12174242
147	0xbd6c54a9	-0.057697926
148	0x3ed6f877	0.4198644
149	0xbe38c25c	-0.18042892
150	0x3d018a0f	0.031625804
151	0xbeb6bf8d	-0.35693017
152	0xbe2c1c4e	-0.16807672
153	0x3d8689e7	0.065692715
154	0xbc6d09f3	-0.014467704
155	0xbd4dca69	-0.05024186
156	0xbe207d3c	-0.15672773
157	0x3dcee240	0.101017475
158	0xbe9243fd	-0.28567496
159	0xbe17c621	-0.14821674
160	0xbc407df2	-0.011748778
161	0xbe10e155	-0.14148457
162	0xbdad14c2	-0.08451225
163	0xbceed00a	-0.029151935
164	0x3eb24498	0.34817958
165	0xbeb21765	-0.34783474
166	0xbd141a32	-0.036157794
167	0xbe5548c6	-0.20828542
168	0xbe56eb8a	-0.20988289
169	0x3e2667c1	0.16250516
170	0x3e39356e	0.18086788
171	0x3d845a50	0.06462538
172	0xbddc29c0	-0.10750151
173	0xbe002354	-0.12513477
174	0xbdb08642	-0.08619358
175	0x396ddb21	0.00022683713
176	0x3e9a77d8	0.3016956
177	0x3e290510	0.16505837
178	0xbe38fa54	-0.18064243
179	0xbdb0ae9f	-0.08627056
180	0x3e1bc93d	0.15213485
181	0x3c1b837c	0.009491798
182	0xbd6d8d69	-0.057996187
183	0x3d5369dc	0.051614627
184	0x3ea3869c	0.31938636
185	0xbdd1b114	-0.10238853
186	0x3df21021	0.118194826
187	0xbd69e1c8	-0.057100087
188	0xbbc8ab4b	-0.0061239353
189	0xbe96b6e2	-0.29436404
190	0x3e1ec565	0.15504988
191	0xbd872cbb	-0.066003285
192	0xbe8126e7	-0.25224993
193	0x3b6b8417	0.0035936886
194	0xbe3ea99d	-0.1861939
195	0x3e492b6a	0.19645467
196	0xbe4a4e20	-0.19756365
197	0xbe359726	-0.1773344
198	0x3e80024d	0.25001755
199	0xbd8125e7	-0.063060574
200	0x3e54f9a9	0.20798363
201	0x3ea8bab9	0.32954958
202	0x3e9d72c2	0.30751616
203	0x3e0f0302	0.13965991
204	0x3e1c4cdf	0.15263699
205	0xbe2ed798	-0.1707443
206	0x3daa2c3e	0.0830922
207	0xbde6317c	-0.11239907
208	0xbd88082e	-0.06642185
209	0xbe1a6c16	-0.15080294
210	0xbc2b57cb	-0.010457943
211	0xbe777970	-0.24167418
212	0xbd86bf49	-0.065794535
213	0x3de01648	0.1094175
214	0xbdd32849	-0.10310418
215	0xbc594740	-0.013261616
216	0x3e0b82e9	0.13624157
217	0xbdf79426	-0.12088804
218	0xbd70c29a	-0.058779337
219	0xbe125d53	-0.14293413
220	0xbe4790bf	-0.1948881
221	0xbe1fef8f	-0.15618728
222	0xbe26ce66	-0.16289672
223	0xbe966923	-0.29377088
224	0xbe171aa6	-0.1475626
225	0x3e3cd05f	0.18438862
226	0xbecabd97	-0.3959777
227	0xbd8ac691	-0.06776155
228	0xbdad6330	-0.08466184
229	0x3d1cebd1	0.03831083
230	0xbda351c0	-0.07974577
231	0x3dd81871	0.10551537
232	0xbe975957	-0.29560348
233	0xbe10618c	-0.14099711
234	0x3e5b2583	0.21401028
235	0x3e5c9455	0.21540959
236	0x3d82276b	0.06355175
237	0xbd790edb	-0.060805183
238	0xbde8556b	-0.11344417
239	0x3e23c8dd	0.15994592
240	0x3e763ffe	0.24047849
241	0x3e1b765d	0.15181871
242	0x3d103b83	0.035213005
243	0x3d3a1e7a	0.04543922
244	0x3e2d51b2	0.16925696
245	0xbd7eaff9	-0.06217954
246	0x3e80be3b	0.25145134
247	0x3df46557	0.119333915
248	0x3dd399bc	0.10332057
249	0xbe5f119d	-0.21784063
250	0x3da9091d	0.08253691
251	0xbe9c1665	-0.30485836
252	0x3e32e7e2	0.17471269
253	0x3daa3c53	0.08312287
254	0xbe3d224a	-0.18470111
255	0xbe2dac20	-0.16960192

l3.bias f4 [18]
0	0x3ca0f954	0.019650139
1	0x3eba137a	0.36342984
2	0x3ebba693	0.36650524
3	0xbf065062	-0.52466404
4	0xbe021971	-0.12705018
5	0xbe927b07	-0.28609487
6	0xbeeee0d6	-0.4665591
7	0xbec954eb	-0.393226
8	0xbf949038	-1.1606512
9	0xbcb30010	-0.021850616
10	0xbebbe898	-0.36700892
11	0xbe94d334	-0.29067385
12	0xbcd3d52d	-0.025858486
13	0xbf0f8a50	-0.56070423
14	0x3d71901b	0.05897532
15	0x3d5bf9e0	0.053705096
16	0xbd2ec121	-0.04266465
17	0xbdea9681	-0.114544876
