LARA/data/result/d_310.pt (torch, 94638 bytes, 7 tensors)

D_attr_matrix.weight f4 [36, 5]
0	0x3d66287c	0.056190953
1	0xbeefceaa	-0.4683736
2	0xbe30d96e	-0.17270443
3	0x3db31677	0.08744519
4	0xbd823885	-0.063584365
5	0xbe9c8678	-0.30571342
6	0xbeace841	-0.33770946
7	0x3e244eea	0.16045728
8	0xbecd13a4	-0.40054047
9	0x3eb4fd8b	0.35349688
10	0x3e68750b	0.22700898
11	0x3c6e1944	0.014532391
12	0xbcf3ac5b	-0.029745271
13	0xbcbc7cfb	-0.023008814
14	0x3c95f8e5	0.018307159
15	0xbd9719a3	-0.07377937
16	0xbecf6750	-0.4050851
17	0x3e88c8c9	0.26715687
18	0x3da6e9d5	0.08150069
19	0xbe2b593f	-0.16733263
20	0x3c7d19b0	0.015448019
21	0xbe520db9	-0.20513047
22	0x3bb06fdd	0.005384429
23	0x3e475190	0.19464707
24	0x3df6f3c9	0.12058217
25	0xbf34a125	-0.7055839
26	0xbf4f8a2e	-0.8107022
27	0x3dc00d54	0.09377542
28	0x3f205e77	0.6264414
29	0xbed87b47	-0.42281553
30	0xbbb7a1e4	-0.0056040157
31	0xbdec20d1	-0.11529697
32	0xbd1676f2	-0.03673453
33	0x3f0b0982	0.5431138
34	0x3bf39fe2	0.007434831
35	0x3f19c25f	0.6006221
36	0xbe5f3f74	-0.21801549
37	0x3ef843ae	0.48489136
38	0xbe27cdb2	-0.1638706
39	0xbec2262c	-0.37919748
40	0xbee3ea8f	-0.44514892
41	0x3e26ae36	0.16277394
42	0x3dbc157b	0.091837846
43	0xbe8af150	-0.27137232
44	0x3d19c13b	0.037537795
45	0xbe4e5f6f	-0.20153593
46	0x3e0b0367	0.13575517
47	0xbea23350	-0.31679773
48	0xbdbf7955	-0.09349314
49	0x3e1b9230	0.15192485
50	0x3e4b747c	0.19868654
51	0x3e02db10	0.12778878
52	0x3daba400	0.0838089
53	0x3aa2e796	0.0012428637
54	0x3d9f5e21	0.077816255
55	0x3d21b48a	0.039478816
56	0x3eb503c2	0.3535443
57	0xbde02146	-0.109438464
58	0xbdf04d8a	-0.117335394
59	0xbe615db3	-0.220084
60	0xbdf41c71	-0.11919487
61	0x3d4b398a	0.04961542
62	0xbd88ff3b	-0.06689306
63	0xbccec54e	-0.025240567
64	0xbd350310	-0.044192374
65	0xbe75bae0	-0.23997068
66	0x3ed3b9c9	0.4135268
67	0x3d989824	0.074508935
68	0x3f3a4965	0.7276824
69	0x3f44cf83	0.7687914
70	0x3e20dcca	0.15709224
71	0x3e86de31	0.26341394
72	0x3c544b37	0.012957386
73	0xbd27b453	-0.040943455
74	0xbecf7475	-0.40518537
75	0xbde5e332	-0.11224975
76	0x3e6f98fe	0.23398206
77	0x3e4251f5	0.18976577
78	0x3d245714	0.040122107
79	0x3e6e8cab	0.23295848
80	0x3c069772	0.008214818
81	0x3d1907a4	0.037360802
82	0xbc64e2ef	-0.013970121
83	0x3e35a0a1	0.17737056
84	0xbd0510e8	-0.032486826
85	0xbe7bff46	-0.24609098
86	0xbf302cfd	-0.68818647
87	0x3ea81ef9	0.3283613
88	0x3ed3a360	0.41335583
89	0x3c068252	0.008209782
90	0x3d582e2d	0.05277841
91	0x3cdd3767	0.027003957
92	0x3d2a20b7	0.041535106
93	0xbd60101e	-0.05470287
94	0xbdcc5d26	-0.09978704
95	0xbf065da6	-0.52486646
96	0xbe1fb18f	-0.15595077
97	0x3ecacc15	0.39608827
98	0x3eb04bf6	0.34432954
99	0xbf1099c0	-0.56484604
100	0xbd5c33b2	-0.053760238
101	0xbcdbcd57	-0.026831312
102	0xbc116709	-0.008874663
103	0x3db85fea	0.09002669
104	0xbe88f817	-0.26751778
105	0x3ea12349	0.31472233
106	0x3efcb2c1	0.49355128
107	0x3f164d45	0.58711654
108	0x3dbfa8a9	0.09358341
109	0x3e42e7be	0.19033715
110	0xbe80f87c	-0.2518958
111	0x3d86ba43	0.06578495
112	0x3cbf87cb	0.02338018
113	0x3c9e95a4	0.019358464
114	0xbd44efee	-0.048080377
115	0xbd4a4b0c	-0.049387977
116	0x3f1bda1b	0.6087968
117	0xbed9a718	-0.42510295
118	0x3dadda84	0.08488944
119	0x3f1217e8	0.5706773
120	0xbe47033e	-0.1943483
121	0xbe05dd5f	-0.13072728
122	0x3cb6aa84	0.022298105
123	0xbec8fa19	-0.3925331
124	0xbc3e8268	-0.011627771
125	0x3d763932	0.06011314
126	0xbbd33b2c	-0.006446263
127	0xbec00181	-0.37501147
128	0xbe41dc1d	-0.18931623
129	0x3e88aecf	0.26695868
130	0x3d2e3952	0.042535134
131	0x3d501fc6	0.05081155
132	0xbe20b135	-0.15692599
133	0xbd95b6d2	-0.07310261
134	0xbd1eee95	-0.03880175
135	0xbe312e40	-0.17302799
136	0xbea32bea	-0.3186944
137	0xbd1c78e0	-0.038201213
138	0x3efd2fd9	0.49450567
139	0x3e8a7e8e	0.2704968
140	0x3ceaa89c	0.028644852
141	0x3bf74fac	0.0075473394
142	0xbbf1fb2f	-0.0073846797
143	0xbd2debd2	-0.042461224
144	0x3d1fd974	0.03902574
145	0xbeddee9d	-0.4334611
146	0xbe81951c	-0.25309074
147	0x3c748b09	0.014925727
148	0x3eca4290	0.39503908
149	0xbeae89b9	-0.3408945
150	0xbda77067	-0.08175736
151	0x3e1a2a02	0.15055087
152	0x3d8fcfa0	0.07022023
153	0x3d880716	0.066419765
154	0xbd45f0b7	-0.048325267
155	0x3eb0fc58	0.34567523
156	0x3e204444	0.15651041
157	0xbe713c95	-0.23558266
158	0xbe42264b	-0.1895992
159	0x3e02a5bb	0.12758534
160	0x3d9cdc2c	0.07659182
161	0xbdcb010f	-0.09912311
162	0x3e4a9a15	0.1978534
163	0x3dc6a0dd	0.09698651
164	0xbd2c2707	-0.042029407
165	0xba632144	-0.000866432
166	0xbe4ef1dd	-0.20209451
167	0xbef791bc	-0.48353374
168	0xbdd583cc	-0.10425529
169	0x3e35ebb9	0.17765702
170	0x3d1e868d	0.038702536
171	0x3e865f43	0.26244554
172	0xbbc68038	-0.0060577653
173	0xbe6c6cc2	-0.23088363
174	0xbe4e9eda	-0.20177785
175	0xbf441e5f	-0.7660884
176	0x3e5537e6	0.20822105
177	0x3ed2ebf5	0.41195646
178	0xbe9639dd	-0.2934102
179	0xbe998b54	-0.2998911

l1.weight f4 [100, 108]
0	0xbd41d311	-0.04732043
1	0x3dfba57e	0.122874245
2	0xbc9a740d	-0.018854165
3	0x3de8c59d	0.11365817
4	0x3e0a1179	0.13483228
5	0xbdcc8d1e	-0.099878535
6	0x3d06f45f	0.032947894
7	0x3d9413ca	0.07230337
8	0x3dac6515	0.08417717
9	0xbc0e7c76	-0.008696666
10	0xbe0d1aee	-0.13779804
11	0xbd667c73	-0.056271028
12	0xbda8dce5	-0.08245257
13	0x3eb03dca	0.3442214
14	0x3e1fe1c8	0.15613472
15	0xbe05bc99	-0.13060226
16	0x3da51b00	0.080617905
17	0x3e23cb7b	0.1599559
18	0x3d0d19b4	0.03444834
19	0x3d212b9c	0.03934823
20	0xbd58da54	-0.05294259
21	0x3c3a2ce5	0.011363243
22	0xbc46fc65	-0.0121451365
23	0x3c8a5735	0.016887287
24	0xbd3d6633	-0.046240043
25	0xbdb3f84b	-0.087875925
26	0xbd341574	-0.04396577
27	0x3c7405f8	0.014894001
28	0x3dce90d3	0.10086217
29	0x3e4371e6	0.19086418
30	0x3e6db44f	0.23213314
31	0xbd90068d	-0.070324995
32	0x3e4b56cb	0.19857328
33	0x3d9a7fe1	0.07543922
34	0xbc0fbffe	-0.008773802
35	0x3d958459	0.07300634
36	0xbe1fbb3b	-0.15598767
37	0x3dee7024	0.11642483
38	0x3cfaabb5	0.030599454
39	0x3e095c54	0.13414127
40	0xbd819902	-0.06328012
41	0xbc9e3e59	-0.019316839
42	0x3cb3365c	0.021876507
43	0x3ce0a29a	0.027421284
44	0xbdebda5c	-0.11516258
45	0xbe3b9a2c	-0.1832053
46	0x3cccfd63	0.025023168
47	0x3e4df7f8	0.20114124
48	0xbd1a981e	-0.037742727
49	0x3d8f5703	0.06999018
50	0xbdd8431d	-0.10559676
51	0xbd8c3810	-0.068466306
52	0xbd4d8631	-0.050176803
53	0xbddd70b1	-0.1081251
54	0xbc91deda	-0.01780646
55	0x3e6a52c0	0.22883129
56	0x3dbf631f	0.09345078
57	0x3cebc82a	0.02878197
58	0x3cc8a2a9	0.024491625
59	0xbd34fd0a	-0.04418663
60	0x3e298c51	0.16557433
61	0x3dc28077	0.09497159
62	0xbe63b704	-0.22237784
63	0x3d314d96	0.043286882
64	0xb9c2bfc0	-0.00037145428
65	0xbe16ea21	-0.1473775
66	0xbe492ce6	-0.19646034
67	0x3d04b4cc	0.032398984
68	0xbcef3d45	-0.02920402
69	0x3e021479	0.12703122
70	0xbd299103	-0.04139806
71	0xbe234a4c	-0.15946311
72	0x3dbafcd4	0.091302544
73	0x3be5d5ad	0.0070139975
74	0xbda95638	-0.08268398
75	0xbe1c03a2	-0.15235761
76	0xbe411209	-0.18854536
77	0xbe7dbd99	-0.24779357
78	0xbcd310cf	-0.02576485
79	0x3b1a0ecb	0.0023507352
80	0x3e11855f	0.14211033
81	0xbe4fd780	-0.2029705
82	0x3d07c92f	0.033150848
83	0xbdff70f0	-0.12472713
84	0x3debf82f	0.11521947
85	0xbdc12593	-0.09430995
86	0xbc8c06a2	-0.017093007
87	0xbdedb5a0	-0.11606908
88	0xbcbf3f2f	-0.023345558
89	0x3d57a665	0.05264892
90	0x3ddfdf45	0.10931257
91	0xbcc951dc	-0.024575166
92	0x3ea519b2	0.32246166
93	0x3eba722a	0.36415225
94	0x3e12cb70	0.14335418
95	0x3e979cfe	0.29611963
96	0x3ee38671	0.44438508
97	0x3e0c6015	0.13708527
98	0x3e902125	0.28150287
99	0x3eb3e9ff	0.35139462
100	0x3e0745ab	0.1321017
101	0xbe88b6c0	-0.26701927
102	0x3f1fd363	0.62431926
103	0x3ea236f4	0.3168255
104	0x3e8dfb3f	0.27730748
105	0x3e81d4b8	0.25357604
106	0x3eef45f7	0.46733066
107	0x3ddc0ac7	0.10744243
108	0x3eb97072	0.362186
109	0xbe1d3584	-0.15352446
110	0xbdbf30e8	-0.093355
111	0x3e72db07	0.23716365
112	0xbf0d48f6	-0.55189455
113	0xbdd9d602	-0.10636522
114	0xbf8e3b24	-1.1111798
115	0x3e4bec61	0.1991439
116	0x3ea034bd	0.31290236
117	0xbe2c5f1c	-0.16833156
118	0xbeabe663	-0.3357421
119	0xbe629440	-0.22126865
120	0x3e02a42c	0.12757939
121	0xbca78220	-0.02044779
122	0x3cc2888d	0.023746753
123	0xbea07034	-0.31335604
124	0xbd796af4	-0.060893014
125	0xbe97070b	-0.2949756
126	0x3e34c058	0.17651498
127	0x3ec1c7cc	0.37847745
128	0xbe65a976	-0.22427925
129	0xbdbdc545	-0.09266142
130	0xbdbdce8e	-0.09267913
131	0xbd70b37f	-0.05876493
132	0x3d9c5f8f	0.07635414
133	0x3e458bb7	0.19291578
134	0xbe2e42c6	-0.1701766
135	0x3e818849	0.2529929
136	0x3df8dd53	0.12151589
137	0x3e2ea7b5	0.17056163
138	0xbc65137f	-0.013981699
139	0x38a770ca	7.984189e-05
140	0xbe385897	-0.18002544
141	0xbeacde7e	-0.33763498
142	0xbeadea11	-0.3396764
143	0x3e6b2434	0.22963029
144	0xbe052d95	-0.1300567
145	0xbd9eefa5	-0.07760552
146	0xbe0da385	-0.13831909
147	0xbe9341e8	-0.2876122
148	0xbd4ed874	-0.050499395
149	0xbe03f526	-0.12886485
150	0x3dbd2dc8	0.09237248
151	0x3e1da5b3	0.1539524
152	0xbe04aaeb	-0.12955825
153	0x3f1eca9a	0.62027895
154	0x3e5c2155	0.2149709
155	0xbd00aa47	-0.03141239
156	0xbeaac28e	-0.33351558
157	0xbba01303	-0.004885079
158	0x3e238670	0.15969253
159	0x3eb1e891	0.34747747
160	0x3f741c00	0.95355225
161	0x3d0df081	0.03465319
162	0xbc9df588	-0.019282117
163	0xbdc1c5ee	-0.0946158
164	0x3e0f9c4f	0.14024471
165	0xbd0d7f15	-0.034545023
166	0x3b018a02	0.0019766097
167	0x3d3879da	0.04503808
168	0xbd6748fe	-0.056466095
169	0xbdace82a	-0.08442719
170	0x3efbd077	0.49182484
171	0xbdcc5544	-0.099772006
172	0xbee5d220	-0.44886875
173	0xbe3fb6d2	-0.18722084
174	0xbf223cda	-0.633741
175	0x3e1a8a91	0.15091921
176	0x3f6b17f1	0.91833407
177	0x3e0d8473	0.13820057
178	0x3e41a705	0.18911369
179	0x3e44f1d8	0.19232881
180	0xbdf11bce	-0.117728814
181	0xbdf20e7c	-0.11819169
182	0x3e20b012	0.15692165
183	0x3e981c8c	0.2970928
184	0xbd848ad0	-0.06471789
185	0xbf0149c4	-0.5050318
186	0xbe966e9b	-0.2938126
187	0x3df67827	0.12034636
188	0x3dd48766	0.10377388
189	0xbd5461ee	-0.051851206
190	0x3f5a36ef	0.8524007
191	0x3e52bccd	0.20579834
192	0xbe9ccc62	-0.30624682
193	0xbebf8a0f	-0.37410018
194	0x3e140d35	0.14458163
195	0x3ea6f9f7	0.32612583
196	0xbdd55fdb	-0.104186736
197	0xbe588bb0	-0.21147037
198	0xbde4166b	-0.111370884
199	0xbd9ba395	-0.0759956
200	0xbe6e26a4	-0.23256928
201	0x3d0a4e5b	0.03376613
202	0xbd511851	-0.05104858
203	0xbe766870	-0.24063277
204	0xbe50db7f	-0.20396231
205	0xbda6f451	-0.081520684
206	0x3e322f05	0.17400749
207	0xbd5c7fd7	-0.053832855
208	0x3e07c906	0.13260278
209	0x3e29ea2e	0.16593239
210	0xbebb8956	-0.36628217
211	0xbc2ff647	-0.010739869
212	0xbb6e9fba	-0.0036411122
213	0x3e2ec333	0.1706665
214	0xbde04224	-0.10950115
215	0xbb263ed3	-0.0025367036
216	0x3e360a88	0.17777455
217	0xbd56d271	-0.052446786
218	0xbe5db1c2	-0.2164984
219	0x3dc9103b	0.09817549
220	0xbd6e29d1	-0.058145348
221	0xbe1888bb	-0.14895909
222	0x3d28f843	0.041252386
223	0x3e6e8465	0.23292692
224	0x3d7df6ff	0.062003132
225	0xbc810ef5	-0.015754202
226	0xbe19681d	-0.14981122
227	0xbd643bf1	-0.055721227
228	0xbc245208	-0.010029323
229	0x3dddaca4	0.10823944
230	0xbcba17d0	-0.022716433
231	0xbe1ccf7e	-0.15313527
232	0xbe2bbd40	-0.16771412
233	0xbd68ad18	-0.0568057
234	0xbd11437d	-0.035464752
235	0x3ec0ac69	0.3763154
236	0x3ab00fe6	0.0013432472
237	0xbc220506	-0.009888893
238	0x3deb6834	0.114944845
239	0x3c65ff41	0.014037908
240	0x3d2b882b	0.041877907
241	0x3db9281b	0.09040853
242	0x3da4162b	0.08012041
243	0xbe23aec1	-0.15984632
244	0xbce0fbb5	-0.027463773
245	0x3df044d6	0.117318794
246	0xbc097403	-0.008389476
247	0x3b3b3ad2	0.0028568995
248	0x3e0bbd43	0.13646416
249	0x3df8ae98	0.12142676
250	0x3db143b5	0.08655492
251	0xbe30b7e6	-0.17257652
252	0xbd1ae3d2	-0.037814923
253	0x3daeea25	0.08540753
254	0x3db246ba	0.08704896
255	0x3c655bed	0.013998968

l1.bias f4 [100]
0	0xbdb467a8	-0.08808833
1	0xbb04a77a	-0.0020241425
2	0x3e8feb32	0.28109127
3	0xbe03854c	-0.12843817
4	0xbd8b1310	-0.06790745
5	0xbe06214e	-0.13098642
6	0x3cb789a5	0.022404501
7	0x3dc4df16	0.09612863
8	0xbd72dde8	-0.059293658
9	0xbe0c696d	-0.13712092
10	0x3e4bd346	0.19904813
11	0xbe0642a4	-0.13111359
12	0x3d78fbbd	0.06078695
13	0x3e8193af	0.25307986
14	0xbb6aba84	-0.0035816738
15	0xbdbfb52f	-0.0936073
16	0x3d5ccab4	0.05390425
17	0x3d2ad529	0.04170719
18	0xbe517741	-0.20455648
19	0x3e26804b	0.16259877
20	0xbe7d782c	-0.24752873
21	0xbe4059f7	-0.18784319
22	0xbddc1831	-0.10746802
23	0x3e9a0647	0.30082914
24	0x3c4989f2	0.012300955
25	0xbcaedf12	-0.021346603
26	0xbe297ba2	-0.16551068
27	0xbd545faf	-0.051849063
28	0x3dfa303f	0.122162335
29	0x3e20a171	0.15686585
30	0xbbc5211d	-0.0060159103
31	0xbe1e5001	-0.15460207
32	0xbe25c0c2	-0.16186813
33	0x3c1512dd	0.009098736
34	0xbe9041cf	-0.28175208
35	0x3d9fd136	0.07803576
36	0xbe7b4185	-0.24536712
37	0x3ddf7a2f	0.109119765
38	0xbdd478fe	-0.1037464
39	0xbdbabec7	-0.09118419
40	0x3cdac0f9	0.026703345
41	0x3e237279	0.15961637
42	0x3da4cbe3	0.08046701
43	0x3e9c7bda	0.3056324
44	0x3d8160fe	0.06317328
45	0x3dc4e0cf	0.09613191
46	0x3c15bdf5	0.009139528
47	0x3e1d7810	0.15377831
48	0x3d85a113	0.06524863
49	0xbde73468	-0.112892926
50	0xbdecf05b	-0.11569282
51	0xbdc1019b	-0.09424134
52	0x3ce46023	0.027877873
53	0xbe0c6aa1	-0.1371255
54	0x3ce6d5e7	0.028178168
55	0x3e9cdb57	0.30636093
56	0x3cb77fcb	0.022399804
57	0x3d9f569b	0.077801906
58	0x3d597634	0.053091243
59	0x3e3c2395	0.18372948
60	0x3e8755cc	0.26432645
61	0xbcfe46b4	-0.031039573
62	0xbd60d694	-0.054892138
63	0xbdf8402f	-0.12121617
64	0x3e17bce2	0.14818147
65	0xbe61dc9a	-0.22056809
66	0xbd9973c2	-0.07492782
67	0x3eb75673	0.35808143
68	0xbdc4c080	-0.09607029
69	0x3e4b9069	0.19879307
70	0xbc03d10b	-0.008045445
71	0x3d94ba54	0.07262102
72	0xbe03dc41	-0.12876989
73	0xbdfaa650	-0.12238753
74	0x3e43b60b	0.19112413
75	0x3c5ac209	0.013351926
76	0x3ce089e0	0.027409494
77	0x3de2b058	0.11068791
78	0xbe3243b9	-0.17408647
79	0x3e83110a	0.25598937
80	0xbe717a03	-0.235817
81	0xbda3663b	-0.07978483
82	0x3ddf62d4	0.10907522
83	0xbe02174a	-0.12704197
84	0xba2b9fd9	-0.00065469515
85	0x3e8cc552	0.27494293
86	0x3d9446a9	0.0724004
87	0xbd2cc359	-0.042178486
88	0x3d45f999	0.048333738
89	0x3e69d556	0.22835287
90	0x3e33775d	0.17526002
91	0x3e391994	0.18076164
92	0xbc2619da	-0.010137999
93	0xbb619e5f	-0.0034426672
94	0xbe3babb8	-0.18327224
95	0x3be6c5bf	0.007042616
96	0x3e6be4ec	0.23036546
97	0xbcd53564	-0.026026435
98	0xbda5b430	-0.08091009
99	0xbbbe1c9a	-0.0058017494

l2.weight f4 [100, 100]
0	0x3da16c24	0.07881954
1	0xbedea0cd	-0.43482056
2	0xbe93a19d	-0.2883424
3	0xbd3bee95	-0.045881826
4	0x3eb1b7f2	0.34710652
5	0xbdaa90db	-0.0832841
6	0xbe2e543b	-0.17024319
7	0xbd05a043	-0.03262354
8	0xbdf351a4	-0.11880806
9	0xbcab986f	-0.02094671
10	0x3d7edacb	0.062220376
11	0x3ebe085d	0.37115756
12	0xbcfc7a0a	-0.030819912
13	0xbd6a0500	-0.057133675
14	0x3e392d7c	0.18083757
15	0x3ea580e1	0.3232489
16	0xbda65ef0	-0.08123577
17	0xbe06c9d6	-0.13162932
18	0x3dcdf2af	0.10056054
19	0xbe201085	-0.15631302
20	0x3eaa818b	0.33301958
21	0x3d0bd3ec	0.03413765
22	0x3e3d2409	0.18470778
23	0xbe09b3c1	-0.13447477
24	0x3e3e46f7	0.18581758
25	0x3e36360a	0.17794052
26	0xbe10810d	-0.14111729
27	0x3e125ffc	0.14294428
28	0xbd1fc4c7	-0.03900602
29	0xbe5c1d63	-0.21495585
30	0x3d061a89	0.03274015
31	0xbca4fcd8	-0.020140097
32	0x3e9a41b6	0.30128258
33	0xbe44150a	-0.19148651
34	0xbba00e0d	-0.0048844875
35	0xbd9e99ab	-0.077441536
36	0x3c4ca373	0.012490141
37	0xbc96af74	-0.01839421
38	0x3e718a1b	0.2358784
39	0xbdd8e789	-0.10591037
40	0xbcaf00d7	-0.021362705
41	0xbdf55fd6	-0.1198117
42	0xbe9767c2	-0.29571348
43	0xbde2b8c6	-0.11070399
44	0xbcd71cd3	-0.026258862
45	0x3d21f6aa	0.039541878
46	0x3d0e5eca	0.034758367
47	0x3d43157f	0.047627922
48	0x3d78993e	0.06069302
49	0xbdaac984	-0.08339217
50	0x3dffbca6	0.12487154
51	0x3d07c541	0.0331471
52	0x3c74d518	0.014943384
53	0xbd971fe2	-0.07379128
54	0xbe6dd443	-0.23225503
55	0x3e35b346	0.17744169
56	0x3e500a03	0.20316319
57	0xbe8f1ab1	-0.2795005
58	0xbe849d76	-0.25901383
59	0x3b1736e8	0.0023073498
60	0x3e825607	0.2545626
61	0xbe2a954d	-0.16658516
62	0x3cf8f715	0.030391255
63	0xbe2b943c	-0.16755766
64	0xbd6b0140	-0.05737424
65	0x3de15d1c	0.11004087
66	0xbeadb221	-0.33924964
67	0xbe877cd2	-0.26462418
68	0x3d9ac328	0.07556754
69	0xbd90de84	-0.070736915
70	0xbe956848	-0.29181123
71	0xbdebc748	-0.11512619
72	0x3e44d5f1	0.19222237
73	0x3d94c828	0.07264739
74	0xbe3c3774	-0.18380529
75	0xbdbd8132	-0.09253158
76	0x3e5e889a	0.21731797
77	0xbec25539	-0.37955645
78	0xbd55f863	-0.052238833
79	0xbee142f3	-0.4399639
80	0x3e05701d	0.13031049
81	0x3e61ecc5	0.22062977
82	0x3d2c8df7	0.042127576
83	0x3dc35529	0.095377274
84	0x3e3923a4	0.18080002
85	0x3e2eec4c	0.17082328
86	0x3e4d4c17	0.20048557
87	0xbcf3deeb	-0.029769382
88	0x3ea97790	0.3309903
89	0xbe46a97f	-0.19400595
90	0x3e8363b0	0.25661993
91	0xbe56956f	-0.20955442
92	0xbe6526e7	-0.22378121
93	0xbdb478cd	-0.088121034
94	0xbde361e7	-0.11102658
95	0x3e2d13d6	0.16902098
96	0xbe0c515a	-0.13702908
97	0x3e174c6d	0.14775248
98	0x3b962f02	0.0045832405
99	0x3e4ee7b1	0.20205571
100	0x3c841e74	0.016127802
101	0x3ebd5e40	0.3698597
102	0x3e2d39fd	0.16916652
103	0xbe9a86e3	-0.30181035
104	0xbe3ee09d	-0.1864037
105	0x3d154cae	0.03645008
106	0xbc335dab	-0.010947625
107	0x3d85a618	0.065258205
108	0xbe1a1243	-0.15046029
109	0x3ca7fe66	0.020507049
110	0x3d560e66	0.052259825
111	0x3b2bc4b7	0.002620978
112	0xbd1cd7ff	-0.038291927
113	0x3e52e236	0.20594105
114	0xbd686952	-0.056741066
115	0xbeadd239	-0.3394945
116	0xbd1021fa	-0.035188653
117	0x3de78404	0.11304477
118	0xbe1b1fd2	-0.15148857
119	0x3e19b3e8	0.15010035
120	0xbe37f530	-0.17964625
121	0x3dc44486	0.09583382
122	0x3d026ce5	0.03184213
123	0x3dbc5c94	0.091973454
124	0xbd814752	-0.063124314
125	0xbe1c10b7	-0.15240751
126	0x3d8f0dbd	0.06985042
127	0xbe988e4f	-0.29796073
128	0x3e0c86a6	0.1372324
129	0x3dff83ef	0.12476336
130	0x3e17015b	0.14746611
131	0xbcec8dbd	-0.02887618
132	0xbe8b3933	-0.27192077
133	0x3e4a845a	0.1977705
134	0xbc882b60	-0.016622245
135	0x3e80c861	0.25152877
136	0x3dd8a706	0.10578732
137	0x3bb12433	0.0054059266
138	0xbe0ccf2e	-0.13750908
139	0x3e2bc676	0.16774926
140	0xbe1a3a85	-0.15061386
141	0x3e26304c	0.16229361
142	0x3e9a0a5b	0.30086026
143	0xbe006adc	-0.12540764
144	0xbd3ba0aa	-0.045807518
145	0x3e226f7d	0.15862842
146	0x3df289f3	0.11842718
147	0x3d3d8ec5	0.046278734
148	0xbe94542a	-0.28970462
149	0xbebb06af	-0.36528537
150	0xbd017c81	-0.031612877
151	0xbd303914	-0.043023184
152	0xbdd60c12	-0.10451521
153	0x3de7420f	0.112918966
154	0x3e0abc7f	0.13548468
155	0x3d29a4c4	0.0414169
156	0x3c889e63	0.016677087
157	0x3ea90b06	0.33016223
158	0x3e4cb3f3	0.1999052
159	0xbe1bd143	-0.15216546
160	0x3cbea32e	0.02327117
161	0x3c74e009	0.014945992
162	0x3e0e03f2	0.13868693
163	0xbc92eff4	-0.017936684
164	0x3ef192fc	0.47182453
165	0x3d962db5	0.07332937
166	0x3e9b55a9	0.3033879
167	0x3e884a05	0.26618972
168	0xbdd5dddd	-0.10442708
169	0x3d03a9b4	0.032144263
170	0x3dd62d3e	0.10457848
171	0xbdb11a68	-0.08647615
172	0xbeb9e684	-0.36308682
173	0xbd960977	-0.07326024
174	0x3ca1b76f	0.019740788
175	0xbdc3f3b1	-0.09567965
176	0xbe306330	-0.17225337
177	0xbec4a4d1	-0.38406995
178	0x3e28ef76	0.16497597
179	0x3e93a87d	0.28839484
180	0xbe25259a	-0.16127625
181	0xbde939c1	-0.11387969
182	0xbd571224	-0.052507535
183	0x3d81186a	0.06303485
184	0xbe435702	-0.1907616
185	0x3d16e2fa	0.036837555
186	0xbe95ccf9	-0.29257944
187	0x3df5daba	0.120046094
188	0x3d30717a	0.04307697
189	0x3edb63df	0.42849633
190	0x3c812113	0.015762841
191	0x3dddf1c9	0.108371325
192	0x3d4a4252	0.049379654
193	0x3d14262b	0.036169212
194	0x3d276645	0.040869016
195	0xbce92ced	-0.028463805
196	0x3e07f196	0.13275751
197	0xbe226689	-0.15859427
198	0xbd4880d4	-0.048950985
199	0x3d9f9fcc	0.07794151
200	0x3ef39597	0.47575065
201	0xbdc29793	-0.09501567
202	0xbedf85b1	-0.43656686
203	0x3d4d87ca	0.050178327
204	0xbe65a71d	-0.2242703
205	0x3e3dea34	0.18546373
206	0xbeb141f7	-0.3462064
207	0xbef20f01	-0.47277072
208	0x3e41d6a8	0.18929541
209	0x3eeadb95	0.45870653
210	0xbf293955	-0.66103107
211	0x3d0fab34	0.03507538
212	0xbe95f952	-0.2929178
213	0xbf337183	-0.7009508
214	0xbeacb81e	-0.3373422
215	0x3ddbce7a	0.10732742
216	0xbf4d5562	-0.8020841
217	0xbf4b1d43	-0.79341525
218	0xbd419dbe	-0.047269575
219	0xbe080b8b	-0.13285653
220	0xbdeeef20	-0.11666703
221	0x3e38a50f	0.18031715
222	0x3e902e54	0.28160346
223	0x3e55db4c	0.20884436
224	0xbf8401dd	-1.0313069
225	0x3ea0c812	0.31402642
226	0x3df31866	0.11869888
227	0x3dd912e0	0.10599303
228	0x3de1e4d6	0.11029975
229	0xbfb28df8	-1.3949575
230	0x3f5e392b	0.8680598
231	0x3e0f7469	0.1400925
232	0x3f54ddcd	0.8315094
233	0x3ec590f2	0.38587147
234	0x3e9cf661	0.30656722
235	0xbe80a7e4	-0.2512809
236	0x3c9d525d	0.019204313
237	0xbd9252ce	-0.071447
238	0x3e327377	0.17426859
239	0x3d9b85b8	0.07593864
240	0x3e77cb9c	0.24198765
241	0x3ca03a2a	0.019558985
242	0x3dc38b27	0.095480256
243	0xbf16d762	-0.589224
244	0xbdb72189	-0.08941943
245	0x3f47702e	0.7790555
246	0xbee96d04	-0.45590985
247	0xbe5fcb30	-0.21854854
248	0x3f4cf056	0.80054224
249	0x3f061673	0.52378005
250	0xbe9e812a	-0.3095792
251	0xbb9ff475	-0.0048814365
252	0x3f19f01d	0.6013201
253	0xbf0c4bb8	-0.5480304
254	0x3eaea3d4	0.34109366
255	0x3ea334b2	0.3187614

l2.bias f4 [100]
0	0xbea9102f	-0.3302016
1	0x3ece8898	0.40338588
2	0x3e1167f0	0.14199805
3	0xbe7d7f75	-0.24755652
4	0x3ab29bac	0.0013626716
5	0x3e1d28bc	0.1534757
6	0xbda0e7fd	-0.07856748
7	0x3e0f8c5b	0.14018385
8	0x3d4b1593	0.04958112
9	0x3dd9b40a	0.10630043
10	0x3db03af9	0.08604998
11	0x3ecee519	0.40409163
12	0x3edc2671	0.42998078
13	0xbe9c6d9c	-0.30552375
14	0x3e9d945d	0.30777255
15	0xbd378b8e	-0.044810824
16	0x3ecdc03b	0.40185723
17	0x3e278313	0.16358595
18	0xbe3a573b	-0.18197338
19	0xbd0d3900	-0.034478188
20	0x3e3b28db	0.18277304
21	0x3e985011	0.29748586
22	0x3e8f99ec	0.2804712
23	0x3e089894	0.13339454
24	0x3e15ff4c	0.1464817
25	0xbe823142	-0.25428206
26	0x3e42393e	0.18967149
27	0xbeca79aa	-0.39545947
28	0x3d1c809c	0.03820859
29	0xbd01863e	-0.031622164
30	0x3db8997d	0.090136506
31	0xbe1b854b	-0.15187566
32	0x3eac0681	0.33598712
33	0x3d6188ad	0.055061985
34	0xbd9039db	-0.07042285
35	0xbe3c4e45	-0.18389232
36	0xbdbadb54	-0.09123865
37	0x3dcc7246	0.099827334
38	0x3acee9c6	0.0015786223
39	0xbd04de34	-0.032438472
40	0xbeafec1e	-0.3435983
41	0x3dc8e079	0.0980844
42	0xbd7644c0	-0.06012416
43	0xbe65f78e	-0.22457716
44	0x3debe374	0.115179926
45	0xbd8fb381	-0.070166595
46	0x3ea00453	0.312533
47	0x3d7c56b2	0.061606117
48	0xbe1341ba	-0.14380541
49	0xbde77fdf	-0.11303686
50	0xbec1671e	-0.37773985
51	0x3e1090c5	0.14117725
52	0xbe8cfaec	-0.27535188
53	0x3caeffa7	0.021362139
54	0x3e700237	0.23438345
55	0xbd836034	-0.06414834
56	0x3ebe7832	0.37201077
57	0xbeb03bb6	-0.34420556
58	0x3ec4fcf2	0.38474232
59	0x3ea28322	0.3174067
60	0x3e0ff813	0.14059477
61	0xbd58c767	-0.05292454
62	0xbc9a1e27	-0.018813206
63	0xbdca17ed	-0.09867845
64	0xbea8a69a	-0.32939607
65	0xbe6b77f6	-0.2299498
66	0x3dec1f31	0.11529387
67	0xbe37b31e	-0.17939422
68	0x3d653a81	0.055963997
69	0xbd206af0	-0.039164484
70	0xbdb0a6a5	-0.08625535
71	0x3caefbbe	0.021360274
72	0xbcff69b4	-0.031178333
73	0xbe3c642b	-0.18397586
74	0x3d87406d	0.06604085
75	0x3cd4a19a	0.025955964
76	0x3ec823df	0.39089867
77	0xbd971a41	-0.073780544
78	0xbe4cadc2	-0.19988158
79	0xbe0878e8	-0.13327372
80	0xbe3383f0	-0.17530799
81	0x3c8c01a1	0.01709062
82	0x3d60616d	0.054780412
83	0x3d9537ee	0.07286058
84	0xbe05fcd9	-0.13084735
85	0xbeef8ec4	-0.4678861
86	0x3e50ab33	0.20377807
87	0x3e5b2005	0.21398933
88	0xbde5b508	-0.112161696
89	0xbe4dbc90	-0.20091462
90	0xbe3c27d1	-0.18374564
91	0xbd8f61ed	-0.070011
92	0x3e3d3fb2	0.18481329
93	0x3d25c34e	0.04046946
94	0x3e46b2f3	0.19404201
95	0x3e92717b	0.28602204
96	0xbdb86b3a	-0.09004827
97	0x3e5c0857	0.21487556
98	0x3eda791c	0.42670524
99	0xbe29289c	-0.16519397

l3.weight f4 [18, 100]
0	0xbdc779c6	-0.09740023
1	0xbe87fa81	-0.26558307
2	0xbf19161e	-0.59799373
3	0x3e662152	0.22473648
4	0x3ebd7b7b	0.3700827
5	0xbeaa1a2e	-0.332231
6	0x3e063442	0.13105872
7	0xbe414df9	-0.188774
8	0xbbbe9602	-0.005816222
9	0xbe88f49c	-0.26749122
10	0xbd6ec81d	-0.05829631
11	0xbeb33a2b	-0.35005316
12	0xbe302dd6	-0.17204985
13	0x3ef08aae	0.46980804
14	0xbd3fba7c	-0.046808705
15	0xbdbb85fa	-0.091564134
16	0xbe5c2339	-0.21497811
17	0xbdd2316b	-0.10263332
18	0xbd607bed	-0.054805685
19	0x3f26d3b9	0.65166813
20	0xbe8ff224	-0.28114426
21	0xbdc3e91e	-0.09565948
22	0xbd94b996	-0.0726196
23	0xbdba42fb	-0.09094807
24	0xbe7a98e5	-0.24472387
25	0x3e878fa0	0.26476765
26	0xbec46971	-0.38361695
27	0x3e9ffd9e	0.31248182
28	0xbe8df316	-0.27724522
29	0x3eb22ec2	0.34801298
30	0xbe9d8161	-0.3076277
31	0x3e6d0e02	0.23149875
32	0xbe645dda	-0.22301427
33	0x3ed673f9	0.41885355
34	0x3ea32567	0.31864473
35	0x3e623345	0.2208987
36	0x3e25bf55	0.16186269
37	0xbdb02d9c	-0.08602449
38	0x3d97c376	0.07410328
39	0xbe538562	-0.2065635
40	0x3eb90fd4	0.36144888
41	0xbe67a153	-0.22620134
42	0x3d901816	0.07035844
43	0x3de1feba	0.11034913
44	0xbe999a9a	-0.30000764
45	0x3ebee2b2	0.3728233
46	0x3e99c15c	0.30030334
47	0x3e40c4b0	0.1882503
48	0x3ec33d06	0.38132495
49	0x3e52c200	0.20581818
50	0x3e4eb730	0.20187068
51	0xbe7d7262	-0.24750665
52	0x3e7c86a9	0.24660744
53	0xbf17277b	-0.5904462
54	0xbebdcf01	-0.37071994
55	0x3e8cbe78	0.27489066
56	0xbe61608d	-0.22009487
57	0x3d9fd777	0.078047685
58	0xbe64690a	-0.22305694
59	0xbddaf33a	-0.10690923
60	0x3dab1d79	0.08355231
61	0xbee1461e	-0.43998808
62	0x3ece7485	0.40323272
63	0x3e6331df	0.22186993
64	0x3ebc7b37	0.36812755
65	0x3ec1a0e9	0.37818077
66	0xbeb6341d	-0.35586634
67	0x3e4380b2	0.19092062
68	0xbed707e3	-0.41998205
69	0xbed05adb	-0.40694317
70	0x3dd43962	0.103625074
71	0xbe080f5c	-0.13287109
72	0x3d782517	0.060582247
73	0x3de8c1dd	0.113651015
74	0xbe7fd3dd	-0.24983163
75	0xbdc14ef8	-0.0943889
76	0xbe228a8f	-0.15873168
77	0x3e416d05	0.18889244
78	0xbe46cb18	-0.19413412
79	0x3e78d0a7	0.24298345
80	0x3ee735fc	0.45158374
81	0x3c92af03	0.017905718
82	0xbefbcddf	-0.49180505
83	0xbeaaaa9d	-0.33333293
84	0x3e0c832b	0.13721912
85	0x3e22d264	0.1590057
86	0xbd97d11c	-0.07412931
87	0xbee94fb6	-0.45568627
88	0x3d10668c	0.035254046
89	0x3de51168	0.111849606
90	0x3cc5896d	0.024113381
91	0x3dccd952	0.10002388
92	0x3d9a8ec0	0.07546759
93	0xbe0f4270	-0.13990188
94	0xbe51964a	-0.20467487
95	0xbe043ba9	-0.12913384
96	0x3d43e817	0.04782876
97	0x3e68098d	0.22659893
98	0xbd5d05a3	-0.053960454
99	0x3ea31586	0.3185236
100	0x3db88984	0.09010604
101	0x3deab4c8	0.114602625
102	0xbef2b350	-0.4740243
103	0x3d377a05	0.0447941
104	0x3f04fcfd	0.5194853
105	0xbe2f9f81	-0.1715069
106	0x3e9b3456	0.30313367
107	0xbce551ee	-0.027993169
108	0xbe93dbc5	-0.28878608
109	0xbed41935	-0.4142548
110	0x3dd74d7e	0.10512827
111	0xbe3a1109	-0.18170561
112	0xbd9449d6	-0.072406456
113	0x3ea14205	0.3149568
114	0xbe8c58bb	-0.27411446
115	0x3da39788	0.07987887
116	0xbe9480ad	-0.29004422
117	0xbe99a319	-0.30007246
118	0x3d20766b	0.039175432
119	0x3ea0bfa7	0.3139622
120	0xbe81d313	-0.2535635
121	0xbe914d6d	-0.28379384
122	0xbeb505ac	-0.3535589
123	0xbdc20c25	-0.09474973
124	0xbe8fb106	-0.28064746
125	0x3d094f09	0.03352264
126	0xbeed2dde	-0.46324056
127	0x3e821d76	0.25413102
128	0xbd44460e	-0.04791837
129	0x3e9173eb	0.2840875
130	0xbef77b74	-0.48336375
131	0x3e73c1ed	0.23804446
132	0xbdc34a64	-0.09535673
133	0x3ed94543	0.42435655
134	0x3e31ee2a	0.17376009
135	0x3ddb74d0	0.107156396
136	0x3e3fc7e6	0.18728599
137	0x3ddce4bb	0.107858144
138	0x3e66003a	0.22461024
139	0xbef5ce06	-0.48008746
140	0x3e548ad5	0.20756085
141	0xbe97af70	-0.29626036
142	0x3d235f00	0.03988552
143	0x3e2cbadd	0.16868158
144	0xbe769b9d	-0.240828
145	0x3eb5688b	0.35431322
146	0x3ead0d47	0.33799192
147	0x3e0bef98	0.13665617
148	0x3ef55811	0.47918752
149	0x3e9557d0	0.29168558
150	0x3eeb7b9d	0.45992747
151	0xbe9dfa33	-0.3085495
152	0x3daa97b0	0.08329713
153	0xbe697086	-0.2279683
154	0xbf1f2dcd	-0.6217926
155	0x3e07abea	0.13249174
156	0xbe36c276	-0.17847618
157	0x3ea42108	0.3205645
158	0xbe7a64f2	-0.2445257
159	0xbecc60a2	-0.39917475
160	0x3e37d777	0.17953287
161	0xbf03d334	-0.51494145
162	0x3e004eaf	0.12530015
163	0x3d92fbac	0.07176909
164	0x3e98c4a6	0.2983753
165	0x3ec7dcbd	0.39035597
166	0xbe423163	-0.18964152
167	0x3ec85044	0.39123738
168	0xbeb63630	-0.35588217
169	0xbea2d7e8	-0.31805348
170	0x3e59b06b	0.21258704
171	0xbd8d29bf	-0.06892728
172	0xbe056503	-0.13026814
173	0x3e9a63e1	0.30154327
174	0xbe070891	-0.13186862
175	0xbe85c85d	-0.26129428
176	0xbd8a6f67	-0.067595296
177	0x3e907d73	0.2822071
178	0xbe6d9bd8	-0.23203981
179	0x3e326527	0.17421399
180	0x3ece31a6	0.40272254
181	0xbeb63f0a	-0.3559497
182	0x3d3dea08	0.046365768
183	0xbe8e8da0	-0.27842426
184	0x3c9a4db7	0.018835885
185	0x3ea668f1	0.3250194
186	0xbe711214	-0.23542053
187	0xbe11f52f	-0.14253686
188	0x3e28dbf0	0.1649015
189	0x3e8d5e22	0.2761088
190	0xbe09c82c	-0.13455266
191	0xbb980023	-0.004638688
192	0xbe388707	-0.18020259
193	0xbe2f14e7	-0.17097817
194	0xbda4f196	-0.08053891
195	0xbdd6bc24	-0.10485104
196	0xbc4fa01b	-0.012672449
197	0x3e4381d9	0.19092502
198	0xbe3c0f3b	-0.18365185
199	0x3ea22141	0.31665996
200	0x3e8bf2bf	0.27333638
201	0xbede22c0	-0.43385887
202	0xbf047ad5	-0.51749927
203	0x3d897f2d	0.0671371
204	0x3d3c4082	0.045959957
205	0xbe97ca1b	-0.29646382
206	0x3e808c9c	0.25107276
207	0xbe67fe5c	-0.22655624
208	0xbe9b2a14	-0.3030554
209	0xbe8235bd	-0.25431624
210	0xbc5df69b	-0.013547565
211	0xbd5b360b	-0.053518336
212	0x3de685e9	0.1125601
213	0x3ee27932	0.4423309
214	0xbe33ae9c	-0.17547077
215	0xbd4d43ae	-0.050113373
216	0xbe0889c7	-0.13333808
217	0xbe4675af	-0.1938083
218	0x3e43bfe9	0.19116177
219	0x3f26ccfc	0.6515653
220	0xbe581f72	-0.21105745
221	0xbde25d95	-0.110530056
222	0xbe676e9b	-0.22600786
223	0xbe8f91c1	-0.2804089
224	0xbd95e21a	-0.07318516
225	0xbdd3ef80	-0.103484154
226	0xbf1f6750	-0.6226702
227	0x3ed5beee	0.4174723
228	0xbe17262b	-0.14760654
229	0x3ebdd1ce	0.3707413
230	0xbe943da0	-0.28953266
231	0x3e43e82a	0.19131532
232	0xbe5d2fe9	-0.21600308
233	0x3e8a56b4	0.27019274
234	0x3eaf211f	0.34204957
235	0xbdc006b8	-0.093762815
236	0x3e40e7c2	0.18838409
237	0xbe87e040	-0.26538277
238	0x3c126475	0.008935084
239	0xbdce6953	-0.10078683
240	0xbdd5e646	-0.10444312
241	0xbdfa90ee	-0.122346744
242	0xbca92be4	-0.020650811
243	0x3e5c5c31	0.21519543
244	0xbe78943d	-0.24275298
245	0x3f057847	0.52136654
246	0x3e84fa4a	0.25972205
247	0x3ecd5cef	0.40109965
248	0x3eaa02e2	0.33205324
249	0x3e8f9a65	0.2804748
250	0x3e51f341	0.2050295
251	0xbec95ba5	-0.39327732
252	0xbe4abb97	-0.19798122
253	0xbe00fbe7	-0.12596093
254	0xbeb53fb1	-0.35400155
255	0xbc5a902d	-0.013340038

l3.bias f4 [18]
0	0x3d57f659	0.05272517
1	0xbdd410f0	-0.10354793
2	0xbefc9efc	-0.49340045
3	0xbeb4e7ff	-0.3533325
4	0x3ddc33d8	0.10752076
5	0xbd772704	-0.060339943
6	0xbca9e08b	-0.020736953
7	0xbecd776c	-0.40130174
8	0xbe1fb03e	-0.15594575
9	0xbe6bc0c2	-0.2302275
10	0x3ca07470	0.019586772
11	0xbeac9b4c	-0.33712232
12	0xbeb53b6d	-0.353969
13	0x3eaaf755	0.33391824
14	0xbdcddb5e	-0.100516066
15	0xbe8e6af4	-0.27815974
16	0xbedab4a0	-0.4271593
17	0xbeb4c5ef	-0.3530726
