LARA/data/result/d_320.pt (torch, 94638 bytes, 7 tensors)

D_attr_matrix.weight f4 [36, 5]
000000 b7 a6 67 3d 39 35 ef be 35 2c 32 be 46 97 b6 3d
       0.056555476 -0.46720293 -0.17399676 0.08915572
000010 5c 86 86 bd e2 6c a5 be 5c a6 ac be b7 09 24 3e
       -0.06568596 -0.32309633 -0.33720672 0.16019331
000020 30 10 cf be 80 b4 b6 3e 5a 3f 67 3e 4e c6 69 3c
       -0.40442038 0.35684586 0.2258276 0.014268471
000030 68 0b d3 bc 9b 6c d4 bc 8e d9 01 3c 50 34 96 bd
       -0.025762275 -0.025930693 0.007925404 -0.073341966
000040 80 8b d2 be e2 2d 94 3e 3f a1 ad 3d 51 ec 2f be
       -0.41122055 0.28941256 0.08478021 -0.17179991
000050 a9 6c 6a 3c 18 50 52 be 41 f1 98 bb c9 05 3d 3e
       0.014308133 -0.20538366 -0.0046674316 0.18459238
000060 2e c6 f5 3d 9d 11 37 bf f6 40 50 bf 3c 05 f4 3d
       0.120006904 -0.7151125 -0.8134912 0.11915061
000070 15 f4 1d 3f 36 fc da be 7f 03 ee bb 07 43 ed bd
       0.61700565 -0.42770547 -0.0072636004 -0.1158505
000080 9d b0 0e bd 43 23 0b 3f 80 31 16 3c cf 05 19 3f
       -0.0348364 0.5435068 0.009167075 0.5977449
000090 d3 e5 61 be 70 95 fa 3e c8 c4 25 be 70 9c c1 be
       -0.22060327 0.48942137 -0.16188347 -0.37814665
0000a0 c1 5f e3 be 0c 65 23 3e 50 e9 ca 3d cb 2d 8a be
       -0.44408992 0.15956515 0.09907782 -0.26988062
0000b0 61 e7 16 3d dc 77 4c be a8 8b 09 3e 9d ea a5 be
       0.036841754 -0.19967598 0.13432181 -0.32405558
0000c0 d8 83 bf bd ec 16 1d 3e 2a 12 47 3e 4d 3c 02 3e
       -0.09351319 0.15340775 0.19440523 0.12718315
0000d0 83 55 a9 3d 74 a0 ad 3b a5 4b a2 3d fd c0 1f 3d
       0.08268263 0.0052986685 0.07924584 0.039002407
0000e0 e7 a0 ba 3e d2 dc d5 bd 92 68 04 be 74 c0 5c be
       0.36450884 -0.10442509 -0.12930515 -0.2155779
0000f0 b2 47 f2 bd 1b a2 48 3d 4f 52 8a bd ee dd 7d bc
       -0.11830081 0.04898272 -0.0675398 -0.015494807
000100 e1 45 1e bd 4e 11 75 be f1 4d d4 3e b2 dc 9f 3d
       -0.03864086 -0.23932382 0.41465715 0.07805766
000110 dc 30 3a 3f fc 55 46 3f d5 da 19 3e b4 8d 86 3e
       0.72730803 0.7747495 0.15024884 0.26279986
000120 c2 8d 56 3c 9e 0f 0c bd e7 a5 d0 be ee e7 f0 bd
       0.013095321 -0.03419458 -0.40751573 -0.11762987
000130 21 8b 70 3e 79 8f 43 3e f0 4f 3b 3d 75 98 71 3e
       0.23490573 0.19097699 0.04573053 0.23593314
000140 67 2d 40 3c 5e ff 1c 3d 2e 4a 8b bc 3e 71 35 3e
       0.011729575 0.038329475 -0.017003145 0.1771898
000150 74 92 07 bd 02 70 82 be 7a e7 30 bf b0 72 af 3e
       -0.033098653 -0.2547608 -0.69103205 0.34267187
000160 4f 80 d3 3e da 06 c4 3b 04 c0 54 3d 99 18 d1 3c
       0.4130883 0.005982262 0.051940933 0.025524424
000170 8e 30 0b 3d bf 20 50 bd cc 5a cb bd 72 37 07 bf
       0.033981852 -0.05081248 -0.099294275 -0.5281898
000180 55 04 24 be 0a 6f c8 3e ce 02 b1 3e 5f 2c 10 bf
       -0.16017278 0.39147216 0.34572452 -0.56317705
000190 91 5f 55 bd f9 31 ba bc 8e f2 0c bc f8 4e b3 3d
       -0.052093092 -0.022728907 -0.008602751 0.087552965
0001a0 e9 16 88 be 84 8a a2 3e ac 92 04 3f 36 6f 19 3f
       -0.2657998 0.31746304 0.51786304 0.5993532
0001b0 28 d9 c1 3d 3f a4 3f 3e 02 ba 7e be b1 0f 81 3d
       0.094652474 0.18714999 -0.24875644 0.06301821
0001c0 d5 95 b1 3c 06 fe 85 3c 5e 82 42 bd 1f 5f 3e bd
       0.02167789 0.01635648 -0.04748761 -0.046477433
0001d0 f5 d2 1b 3f ed 15 dd be a0 a4 ab 3d 03 0a 12 3f
       0.6086877 -0.4318079 0.08381009 0.57046527
0001e0 98 56 41 be 4e ad 04 be 3d 74 c4 3c b0 59 c9 be
       -0.18880689 -0.12956735 0.023981208 -0.3932624
0001f0 52 71 68 bc d3 d2 9b 3d 95 4e a3 3b a9 70 d5 be
       -0.014187174 0.07608571 0.004983733 -0.41687515
000200 81 ac 3a be 04 2b 8f 3e 4f 50 0e 3d 1c 14 4b 3d
       -0.18229868 0.27962506 0.034744557 0.049579725
000210 42 d8 20 be 36 58 90 bd e6 69 40 bd f4 a7 3f be
       -0.15707496 -0.07048075 -0.046975993 -0.18716413
000220 d9 27 af be 17 7f 18 bd 37 c5 00 3f a4 7b 90 3e
       -0.3421009 -0.037230577 0.50300926 0.2821933
000230 79 db 5d 3d cd b7 f2 3c ee a5 4d bb 26 20 31 bd
       0.054164384 0.029628659 -0.003137942 -0.04324355
000240 6a 93 51 3d 50 f1 e1 be b1 d4 7b be b3 71 be 3c
       0.051165976 -0.4412942 -0.24592854 0.023247575
000250 b2 ea ce 3e 1a 85 af be ea 91 ad bd a1 71 1a 3e
       0.40413433 -0.34281236 -0.084750965 0.15082408
000260 d7 f8 77 3d 35 7f 46 3d c6 0b 29 bd 50 36 b9 3e
       0.060540047 0.048461158 -0.041270994 0.3617425
000270 24 a9 1e 3e a3 56 87 be e8 21 65 be 63 fc 09 3e
       0.1549421 -0.26433286 -0.22376215 0.13475184
000280 a7 0c 8d 3d 18 6d cc bd 4b 65 4a 3e c6 ba ca 3d
       0.06887179 -0.099817455 0.19765203 0.098989055
000290 5f f1 09 bd 33 54 14 bc 4d 48 4f be b8 20 fb be
       -0.033677455 -0.009053278 -0.20242424 -0.490484
0002a0 e5 f6 dc bd 68 6b 3b 3e 78 20 f7 3c fe 9d 86 3e
       -0.10789279 0.18302691 0.03016685 0.26292413
0002b0 17 79 1e bc 5b ea 6a be 1d 97 4c be 5a 13 48 bf
       -0.009672425 -0.22940962 -0.1997952 -0.7815453
0002c0 12 d6 56 3e 9e a1 dc 3e 9b 4f 96 be bb 2f 9b be
       0.20980099 0.43092054 -0.2935761 -0.30309853

l1.weight f4 [100, 108]
000000 62 f7 32 bd 25 79 00 3e 78 81 98 bc 85 3c f0 3d
       -0.043692954 0.12546213 -0.018616423 0.11730293
000010 8c 63 06 3e 3e 98 d1 bd a8 ef 0a 3d e8 ca 92 3d
       0.13123912 -0.10234116 0.03391996 0.071676075
000020 2a 0a ac 3d b0 47 1d bc dd 7f 08 be 92 f2 59 bd
       0.08400376 -0.009599611 -0.13330026 -0.05320985
000030 d6 fa b5 bd ba a6 ae 3e db 62 1e 3e a8 cd 07 be
       -0.08885734 0.34111577 0.15467398 -0.13262045
000040 06 6a aa 3d 2b 27 23 3e 1f 79 02 3d e8 df 27 3d
       0.083210036 0.1593291 0.03185379 0.040985018
000050 18 49 50 bd 3e ba 12 3c 9f dc b9 bb 8d bc 99 3c
       -0.050850958 0.008955536 -0.005672052 0.018766666
000060 94 06 4c bd ad 9d b7 bd 6a 6c 44 bd 53 c5 78 3c
       -0.04981096 -0.08965621 -0.047954954 0.0151837645
000070 0b f6 db 3d 37 27 46 3e a3 23 70 3e a3 11 93 bd
       0.10740288 0.19350897 0.23451094 -0.07181098
000080 02 b9 4d 3e 9c 91 a6 3d 93 21 c3 bb 03 03 95 3d
       0.20090106 0.081332415 -0.00595493 0.07275965
000090 d0 76 22 be 72 6d e9 3d 09 2c e5 3c a5 bd 0a 3e
       -0.15865636 0.11397828 0.0279751 0.13548906
0000a0 2d 71 7a bd 13 d6 98 bc 33 ab b9 3c 93 6a ca 3c
       -0.06114309 -0.018656766 0.022664642 0.024709022
0000b0 b5 39 e9 bd 95 0f 3f be de 71 ba 3c 70 2e 4d 3e
       -0.1138796 -0.18658288 0.022759374 0.20037246
0000c0 7e 77 0e bd a5 e6 92 3d 7f 42 df bd 88 c3 98 bd
       -0.034781925 0.07172898 -0.10901355 -0.074591696
0000d0 38 22 6a bd 64 15 e2 bd 48 53 85 bc f9 ee 6c 3e
       -0.05716154 -0.11039236 -0.016275063 0.23138036
0000e0 25 ee b9 3d c9 f8 04 3d 48 01 c4 3c 19 d4 3b bd
       0.090786256 0.032463823 0.023926392 -0.04585657
0000f0 38 d0 2c 3e d4 67 c8 3d a8 14 6d be 47 78 3d 3d
       0.16876304 0.09785429 -0.23152411 0.046257284
000100 8c 14 1b 3c c1 0d 1b be fd 19 4f be 69 df 10 3d
       0.009465348 -0.15141965 -0.20224757 0.03536931
000110 c3 14 c5 bc 89 67 06 3e 2d 4f 26 bd 8c 5a 21 be
       -0.024057752 0.13125433 -0.04060285 -0.15757197
000120 e3 a7 bf 3d 54 a9 d5 3b e4 90 a8 bd 84 3c 15 be
       0.09358194 0.0065204296 -0.08230761 -0.14573866
000130 57 a9 43 be 43 e6 82 be 46 60 04 bd 7a b0 01 3c
       -0.19107567 -0.255663 -0.032318376 0.00791561
000140 33 9a 0f 3e 4d 10 4d be 04 7e 01 3d c5 41 01 be
       0.14023666 -0.2002575 0.03161432 -0.12622745
000150 7d 0f ee 3d be 8e c7 bd 5d 53 a2 bc 64 ef e5 bd
       0.11624048 -0.09744023 -0.019815141 -0.11227301
000160 55 87 a9 bc 60 43 62 3d 7a 8d f5 3d 3b 5c 99 bc
       -0.020694414 0.055240035 0.11989875 -0.018720737
000170 56 5a cd 3e 06 29 be 3e b8 5a 23 3e 2d bd c2 3e
       0.40107983 0.37140673 0.15952575 0.38034955
000180 33 00 c2 3e a8 4e 14 3e 4e 16 8c 3e 55 b1 c0 3e
       0.37890777 0.1448313 0.27360767 0.37635294
000190 e0 6b 8f 3e 7b ab 4d be 30 2f e9 3e c8 5e 9d 3e
       0.2801199 -0.20084946 0.45543814 0.30736375
0001a0 d1 21 9c 3e c4 ff 66 3e fe a9 ef 3e 78 ab cf 3d
       0.3049455 0.22558504 0.4680938 0.10140127
0001b0 25 31 bd 3e 2a e7 1d be 1a ec d0 bd ac b3 7a 3e
       0.36951557 -0.15420213 -0.10201283 0.24482602
0001c0 6b 3d 0f bf 8b 1d dc bd 42 e7 8e bf 42 59 53 3e
       -0.5595309 -0.107478224 -1.1164324 0.20639518
0001d0 6d 54 a0 3e d8 3b 2d be fe aa b8 be 5f 9d 64 be
       0.31314412 -0.1691736 -0.36067957 -0.22325657
0001e0 0b b7 12 3e c0 7c 9b bc e1 34 9c 3c 57 33 ab be
       0.14327638 -0.018980384 0.019068183 -0.33437607
0001f0 e8 69 6d bd 3a ee a1 be 48 01 39 3e 55 a9 cc 3e
       -0.05796233 -0.31627065 0.18066895 0.3997294
000200 1b e9 65 be db 8e be bd f2 0e bc bd 99 02 73 bd
       -0.22452204 -0.09304591 -0.09182538 -0.05932865
000210 b5 1a 9a 3d 95 9b 44 3e ab 7b 2d be 9c 2d 80 3e
       0.07524625 0.19199975 -0.16941707 0.25034797
000220 57 be f5 3d 05 93 2b 3e 83 53 5e bc dd 7e 81 39
       0.11999195 0.16755302 -0.013569715 0.00024699318
000230 92 3a 37 be 79 8b ac be 28 32 ad be e0 50 6a 3e
       -0.17893437 -0.3370016 -0.3382733 0.22882414
000240 27 82 05 be e5 e0 9d bd dd 7a 09 be b0 07 93 be
       -0.1303793 -0.07708911 -0.13425775 -0.28716803
000250 8f fb 86 bd 7e 0e 10 be f4 96 cf 3d fe a3 1f 3e
       -0.0659095 -0.14068028 0.10136214 0.15589902
000260 fb 5f 01 be e1 2d 22 3f a6 33 64 3e cd c3 31 bd
       -0.1263427 0.63351256 0.22285327 -0.04339962
000270 b3 23 af be 78 b1 84 3a c4 77 1c 3e 6b ea a4 3e
       -0.34206924 0.0010123691 0.15280062 0.32210097
000280 41 9f 6d 3f 1d ac 08 3d 09 75 ac bc c8 86 c2 bd
       0.9282113 0.033367265 -0.0210519 -0.09498364
000290 02 fd 0a 3e 5e df e2 bc 10 bd 1b bb d9 85 12 3d
       0.13573077 -0.0276944 -0.0023763813 0.03577218
0002a0 85 e4 83 bd dd 1a b9 bd cc 1d 10 3f c6 5a d2 bd
       -0.06440071 -0.09038327 0.56295466 -0.1027122
0002b0 9a 34 05 bf f7 1b 54 be 05 fb 27 bf b7 ad 1c 3e
       -0.5203339 -0.20713793 -0.656174 0.15300642
0002c0 8f da 71 3f b4 ac 27 3e 5b ad 43 3e 99 8b 45 3e
       0.9447412 0.16374475 0.19109099 0.19291534
0002d0 a1 76 fc bd 00 13 f4 bd da f5 22 3e 14 91 9e 3e
       -0.12327314 -0.119176865 0.15914097 0.3097006
0002e0 1a 36 85 bd 3a 15 04 bf 86 9f 9c be ff 15 0a 3e
       -0.0650446 -0.5159489 -0.30590457 0.13484953
0002f0 2f 4d d9 3d 3f 2f 48 bd e9 e5 5c 3f 17 b2 58 3e
       0.10610425 -0.048873182 0.86288315 0.21161686
000300 ed 8d a3 be 9e 6e c4 be cb d3 13 3e 4a 0d aa 3e
       -0.31944218 -0.38365644 0.14436261 0.33213264
000310 34 3b d5 bd a5 4f 58 be e3 63 f2 bd 55 74 eb bd
       -0.10411683 -0.21124132 -0.11835458 -0.11496798
000320 bf 19 99 be 5d 70 8e 3b 04 67 3e bd 22 79 9e be
       -0.29902455 0.004346891 -0.046484962 -0.30951792
000330 41 48 0f be a6 89 b5 bd 78 b8 12 3e 37 ab ba bd
       -0.13992406 -0.08864145 0.14328182 -0.09114688
000340 cd 41 b7 3c 7a ce 1b 3e d3 d1 83 be 62 e6 05 bd
       0.022370243 0.15215483 -0.2574602 -0.032690413
000350 5a 04 c6 bb bd 05 4f 3e ab e8 d4 bd 24 4d 42 3b
       -0.006042999 0.20217033 -0.103959404 0.002964803
000360 f9 a6 30 3e b2 ff 56 bd df 3d 5b be 2a d3 bc 3d
       0.17251195 -0.052489944 -0.2141032 0.09219964
000370 77 88 58 bd 90 46 18 be da fc 28 3d 42 e3 6f 3e
       -0.052864518 -0.14870667 0.041256763 0.23426536
000380 f8 b7 79 3d 0a a5 69 bc cb 1e 20 be 31 7d 67 bd
       0.060966462 -0.01426054 -0.15636747 -0.056515876
000390 b6 0a 55 bc 41 f3 de 3d a3 23 c2 bc f7 61 1b be
       -0.013003042 0.10886241 -0.023698634 -0.1517409
0003a0 11 fd 2b be 3e bd 5f bd 97 59 10 bd ba cc bf 3e
       -0.16795756 -0.054623835 -0.03524169 0.3746088
0003b0 e2 a8 8d 3a 1a 34 20 bc 45 13 ea 3d 0c 60 5f 3c
       0.0010807777 -0.009778047 0.114294566 0.013633739
0003c0 29 e1 2b 3d 25 9a b7 3d ce 06 a8 3d c1 cb 26 be
       0.041962776 0.089649476 0.08204423 -0.16288663
0003d0 ae 04 10 bd e3 05 e6 3d 52 ba 0d bc d3 b0 70 3b
       -0.035160713 0.112315916 -0.008650379 0.003672649
0003e0 83 fa 0b 3e 4c 20 f7 3d 6f 04 b5 3d e3 34 2f be
       0.13669781 0.12066707 0.08838736 -0.17110018
0003f0 52 e3 19 bd 6f f3 ad 3d b7 d7 b3 3d db cd 52 3c
       -0.037570305 0.08493697 0.08781379 0.012866463

l1.bias f4 [100]
000000 7a 52 ba bd bd dc 05 bb 0c 12 90 3e 1b e8 03 be
       -0.090977624 -0.002042576 0.2813877 -0.1288151
000010 f4 e2 83 bd 17 77 03 be 6d 8c d0 3c 42 f0 c8 3d
       -0.06439772 -0.12838398 0.025457585 0.098114505
000020 17 e0 80 bd ed ff 0d be ab 1c 4d 3e ff 3b 07 be
       -0.06292742 -0.13867159 0.20030467 -0.1320648
000030 32 33 84 3d a9 23 82 3e b7 a0 11 b9 1d f8 c0 bd
       0.06455077 0.25417832 -0.00013888149 -0.09422324
000040 4a 1e 60 3d 90 37 2c 3d bd 1e 51 be ce 67 2d 3e
       0.054716386 0.042045176 -0.20421882 0.1693413
000050 74 d1 7e be 96 e7 42 be 46 76 d7 bd e2 c4 95 3e
       -0.24884588 -0.19033656 -0.10520606 0.29251772
000060 9a 7c 6a 3c f6 80 b5 bc a4 e6 2a be 3b 49 53 bd
       0.014311934 -0.02215622 -0.16689545 -0.05158351
000070 04 7b f4 3d 3a 76 22 3e 69 54 df bb a8 eb 1e be
       0.11937526 0.15865412 -0.0068154824 -0.15519583
000080 43 c2 25 be 8e 80 da 3b 7d 33 96 be d5 28 9d 3d
       -0.16187386 0.006668157 -0.29336157 0.07673804
000090 93 42 78 be 0b 32 e6 3d 22 90 cf bd 18 98 bb bd
       -0.24244146 0.11240014 -0.10134913 -0.09159869
0000a0 fd 9a e6 3c fa 33 2a 3e ab cc a6 3d d0 c9 9b 3e
       0.028150076 0.1662139 0.08144506 0.30427408
0000b0 dc c3 8d 3d 77 10 c1 3d 11 19 3b 3c 72 f2 1d 3e
       0.06922123 0.094269685 0.0114195505 0.15424517
0000c0 83 3b 80 3d 50 cd e6 bd 59 2b ed bd dd a4 bb bd
       0.06261351 -0.11269629 -0.115805335 -0.091623046
0000d0 fe 87 cc 3c 5a 80 0a be a7 9f d7 3c ad 31 9c 3e
       0.02496719 -0.13525525 0.026321245 0.3050665
0000e0 2c 7a c5 3c 68 4e 9f 3d aa 7a 5a 3d e3 5c 39 3e
       0.024106108 0.07778627 0.053339638 0.1810184
0000f0 f7 11 87 3e f5 9d 11 bd fc af 68 bd b8 35 f4 bd
       0.26380894 -0.03555103 -0.056808457 -0.119243085
000100 ca f0 17 3e c7 bd 5e be 88 88 94 bd d3 43 b9 3e
       0.14837947 -0.21752082 -0.07252604 0.36184558
000110 d0 01 c3 bd 30 c7 4a 3e 77 52 35 bc 0a e9 98 3d
       -0.0952183 0.19802547 -0.011067024 0.07466324
000120 f2 f2 06 be c8 3a f4 bd 70 9b 43 3e b2 3e 6c 3c
       -0.13178614 -0.11925274 0.19102263 0.014419245
000130 5f 37 d5 3c 92 6d e6 3d be 89 33 be 1f 84 83 3e
       0.02602738 0.11251368 -0.17533013 0.25686738
000140 07 46 74 be 9d 62 a5 bd 6c d3 de 3d 5f f6 ff bd
       -0.23854838 -0.080754496 0.10880169 -0.124981634
000150 9d 26 2d ba 3e ff 8c 3e fc 27 94 3d 1a 6e 1c bd
       -0.000660518 0.27538484 0.07234189 -0.03819094
000160 9c e6 49 3d b7 ac 69 3e d1 2f 34 3e 87 99 3e 3e
       0.049292192 0.22819792 0.17596366 0.18613254
000170 8e d2 2d bc 56 35 a9 bb d0 4f 3c be 36 51 79 ba
       -0.010609282 -0.005163829 -0.18389821 -0.00095106976
000180 08 d5 6b 3e 65 3c eb bc e4 97 a3 bd 93 21 d3 bb
       0.23030484 -0.028715322 -0.07987955 -0.0064432113

l2.weight f4 [100, 100]
000000 2b ca 9a 3d 1b ab dd be 6c f4 95 be 47 ef 47 bd
       0.07558092 -0.43294606 -0.29288042 -0.048812177
000010 4e bb af 3e af 60 ac bd 5a 85 28 be 3a 9d dd bc
       0.3432259 -0.084168784 -0.1645712 -0.02705251
000020 5c 90 ef bd de f7 16 bd e3 e5 8f 3d 77 c9 c0 3e
       -0.11697456 -0.03685748 0.07026269 0.37653705
000030 e1 cf 03 bd 7c 85 5f bd 7e ee 39 3e 43 da a2 3e
       -0.03218067 -0.05457066 0.18157384 0.31807145
000040 ab 89 83 bd cc bb 08 be 02 bd d3 3d 63 69 1e be
       -0.064227425 -0.13352889 0.10338785 -0.1546989
000050 c7 25 ac 3e e5 d0 12 3d 4a 6e 39 3e 51 f5 05 be
       0.33622572 0.03584375 0.18108478 -0.13081862
000060 b3 96 46 3e dd 8c 2e 3e b4 81 03 be c9 a8 0f 3e
       0.19393425 0.17045923 -0.12842447 0.1402923
000070 2b e9 21 bd 7d 05 60 be e5 df 30 3d b4 83 c5 bc
       -0.039529007 -0.21877094 0.043182272 -0.024110653
000080 54 a3 a0 3e 2a ed 45 be 81 10 8f b9 6f c0 a8 bd
       0.3137461 -0.19328752 -0.00027287382 -0.08239829
000090 cf b2 2d 3c 1a 9a 9c bc 4f 52 6e 3e 74 d2 d0 bd
       0.010601713 -0.01911645 0.23273586 -0.10196391
0000a0 40 a8 c4 bc 0e 89 00 be da d8 95 be 2e ed f4 bd
       -0.02400601 -0.12552282 -0.29267007 -0.11959301
0000b0 e7 d7 09 bd 09 88 75 3d 86 88 2f 3d 28 3d 41 3d
       -0.033653166 0.059944186 0.04285481 0.047177464
0000c0 ff b7 5c 3d 64 6d 9d bd c3 1f 00 3e 66 06 de 3c
       0.05388641 -0.0768688 0.12512116 0.02710266
0000d0 dd 4e 88 3c ba 23 a9 bd d9 e6 6b be 19 65 37 3e
       0.016639167 -0.082587674 -0.2303728 0.1790966
0000e0 8c 15 57 3e 31 f4 8c be f3 fd 82 be b2 30 98 3b
       0.21004313 -0.27530053 -0.25584373 0.004644477
0000f0 e4 22 82 3e fe 66 2b be 6c eb 88 3c f6 28 29 be
       0.25417244 -0.16738507 0.01671382 -0.16519532
000100 97 02 5f bd dc 8f db 3d 6e ec b6 be 59 03 87 be
       -0.05444583 0.107207984 -0.35727257 -0.26369742
000110 a5 53 a3 3d 2a 0e 86 bd 05 23 9a be aa 8c c3 bd
       0.07974938 -0.0654567 -0.30104843 -0.09548314
000120 f0 3e 5b 3e 9f 23 81 3d a1 3d 3e be f3 04 c8 bd
       0.21410728 0.06305622 -0.18578197 -0.09766569
000130 c3 e5 65 3e 6b 3e c7 be de 60 63 bd d9 6d e3 be
       0.22450928 -0.3891481 -0.0555123 -0.44419745
000140 a0 33 03 3e eb b2 60 3e 5d f5 34 3d 12 a5 bf 3d
       0.12812662 0.21943252 0.04417931 0.093576565
000150 13 fe 2c 3e d0 f7 2e 3e 26 be 50 3e 20 0a 19 bd
       0.16893797 0.1708672 0.20385036 -0.03736317
000160 a7 1b a8 3e 80 c5 44 be b0 04 86 3e 38 d1 57 be
       0.32833597 -0.19215965 0.2617545 -0.21075904
000170 cf 16 6c be 4c 76 b1 bd 27 3b cb bd e9 c7 25 3e
       -0.23055576 -0.086651415 -0.09923392 0.16189541
000180 ad 65 08 be b9 85 20 3e c0 9b a9 3b fe 1c 50 3e
       -0.13320036 0.15676011 0.0051760375 0.2032356
000190 71 b7 ea 3c 44 b6 c6 3e 62 c1 41 3e d0 33 9c be
       0.028651925 0.38810933 0.18921426 -0.3050828
0001a0 aa 2f 54 be c6 29 3b 3d ca 48 2e bb e5 0e 8a 3d
       -0.20721307 0.045694135 -0.0026593679 0.06741122
0001b0 47 2d 22 be 96 6d 66 3d 6a 83 97 3c f9 83 e7 3b
       -0.15837584 0.056256853 0.01849528 0.007065293
0001c0 79 b1 20 bd 97 63 45 3e a9 14 55 bd a3 27 b4 be
       -0.03923175 0.19276272 -0.052021656 -0.3518649
0001d0 3e df 86 bd e8 44 d0 3d d0 41 28 be 1c 0e 1c 3e
       -0.06585549 0.10169393 -0.16431355 0.15239757
0001e0 c1 b1 32 be b7 bd f2 3d c1 72 17 3d 5c 82 ae 3d
       -0.1745062 0.118525915 0.036974672 0.08520958
0001f0 66 76 8b bd ab 5d 20 be 6c bb c8 3d 17 25 93 be
       -0.06809692 -0.15660731 0.09801373 -0.28739235
000200 0a 9f 14 3e 9a be fc 3d 25 d2 1a 3e 1c f3 2e bd
       0.14513794 0.12341042 0.15119226 -0.042712316
000210 82 bb 9d be b5 af 6f 3e d7 02 d4 bc cc e6 80 3e
       -0.3080712 0.2340687 -0.02588026 0.25176084
000220 cd 7a e6 3d c0 0d 89 3b 0d 2b 04 be 3a 46 23 3e
       0.11253891 0.0041825473 -0.12907048 0.15944758
000230 a0 ab 1c be 34 3f 41 3e d8 5c 97 3e 7e ea ff bd
       -0.15299845 0.18871766 0.29563022 -0.12495898
000240 df 51 f9 bc f0 b9 1c 3e cb 2f ee 3d c3 a2 40 3d
       -0.030434547 0.15305305 0.116302095 0.04703022
000250 15 f1 92 be 78 48 c5 be 1b 0f 79 bc 44 6a 33 bd
       -0.28699556 -0.38531852 -0.015201355 -0.043802515
000260 74 53 f5 bd c1 6d e0 3d 14 1f 1b 3e 8e e6 fe 3c
       -0.11978808 0.10958434 0.15148574 0.031115796
000270 cd 87 fe 3c e5 5e ae 3e e2 f1 46 3e 35 85 21 be
       0.031070614 0.34056774 0.19428208 -0.1577347
000280 da bb 83 3c cd 42 70 3c 36 1e 11 3e 72 51 61 bc
       0.016080786 0.014664364 0.14171681 -0.013752328
000290 0e bd f0 3e 53 e6 94 3d 25 d9 a5 3e 22 f3 88 3e
       0.47019237 0.07270493 0.3239223 0.26747996
0002a0 c1 a1 c1 bd 38 66 ac 3c 5b 46 d5 3d 3f 7b ff bd
       -0.0945468 0.021044835 0.1041381 -0.12474679
0002b0 41 8b d2 be e7 67 bc bd a1 da cd 3c 92 65 ec bd
       -0.41121867 -0.09199505 0.025128664 -0.115428105
0002c0 e4 09 42 be 1e a9 cb be 91 f0 2b 3e cc ae 96 3e
       -0.18949085 -0.39777464 0.16790988 0.29430234
0002d0 63 3c 23 be 83 21 06 be 7b 8e 3f bd 06 db 89 3d
       -0.15941004 -0.13098721 -0.04676674 0.067312285
0002e0 3c e0 3a be 7c 6c 65 3c a2 b0 9d be 2e c4 00 3e
       -0.18249601 0.0140029155 -0.30798823 0.12574837
0002f0 5b 1b f1 3c 1c 8c e1 3e 2d 88 8e bc c7 66 e5 3d
       0.02943199 0.44052207 -0.017398918 0.11201244
000300 ce 4a 9a 3d e9 91 14 3d dc 6a 3b 3d aa a4 99 bc
       0.07533799 0.036271963 0.045756206 -0.018755276
000310 4e 47 ce 3d 87 67 2c be 74 e6 0e bd 2d 4a bf 3d
       0.10072194 -0.16836368 -0.034887746 0.0934032
000320 af f1 f3 3e e9 6e d0 bd 4e 1b e8 be c2 fd 54 3d
       0.47645327 -0.101774044 -0.45333332 0.051999815
000330 ac b1 63 be 5a 1f 55 3e 5f b6 b2 be 2f 57 05 bf
       -0.22235745 0.20812741 -0.34904763 -0.52086157
000340 18 59 45 3e 27 1d d8 3e f5 4a 33 bf 9f ee 21 3d
       0.19272268 0.4220974 -0.7003625 0.039534207
000350 65 2b 9f be 7b 8b 34 bf d6 38 ba be dc 4d df 3d
       -0.31087795 -0.7052533 -0.36371487 0.10903522
000360 1e bf 49 bf b4 d8 52 bf 14 eb 80 bd 9c b6 02 be
       -0.78807247 -0.8236191 -0.062948376 -0.12764972
000370 c1 b4 e7 bd 4e 45 4e 3e 31 c9 97 3e a7 34 44 3e
       -0.11313773 0.20143625 0.29645684 0.1916071
000380 b8 cf 83 bf 43 b0 9d 3e 6d 9d e6 3d 60 c2 d4 3d
       -1.0297766 0.3079854 0.11260495 0.103886366
000390 bf b4 ec 3d 6f 3a b6 bf 39 11 6f 3f 36 e8 cd 3d
       0.11557912 -1.4236583 0.93385655 0.10054056
0003a0 05 69 59 3f ce 98 c3 3e 49 ef 93 3e 1f 20 81 be
       0.8492587 0.38202518 0.28893498 -0.2521982
0003b0 9a aa e1 3c 51 a6 95 bd 3b f2 46 3e 08 4e 88 3d
       0.02754717 -0.07307113 0.19428341 0.06655508
0003c0 c3 e3 7c 3e e2 87 9e 3b fb c4 c4 3d 73 02 0f bf
       0.24696259 0.004837976 0.096078835 -0.5586311
0003d0 dc de be bd 9c 2d 65 3f 6c 5c f5 be 30 ba 6a be
       -0.09319851 0.8952272 -0.47922075 -0.22922587
0003e0 c0 02 59 3f 1b 49 10 3f 3b f7 92 be f7 80 32 bc
       0.8476982 0.5636155 -0.28704247 -0.010895005
0003f0 db c9 1d 3f 1e f6 25 bf b3 7f a2 3e 38 26 a4 3e
       0.6163613 -0.6482867 0.31738052 0.3206041

l2.bias f4 [100]
000000 94 64 a8 be 30 0f cd 3e b8 e5 0e 3e b1 94 81 be
       -0.32889235 0.4005065 0.13954818 -0.25308755
000010 2c a2 21 bb 20 09 19 3e 0c 57 a3 bd 29 35 11 3e
       -0.0024663312 0.14944887 -0.07975587 0.14180435
000020 be 65 4d 3d ac 3c d2 3d c5 92 ad 3d b3 a3 ce 3e
       0.050145857 0.102654785 0.0847526 0.40359268
000030 f6 b4 d9 3e 0d b2 9c be 0d 39 9d 3e fa 80 42 bd
       0.42520875 -0.30604592 0.3070759 -0.047486283
000040 b3 aa ce 3e 20 5f 2b 3e 42 ac 3e be dc 6b 18 bd
       0.40364608 0.16735506 -0.18620399 -0.037212238
000050 9e ed 3c 3e 96 66 99 3e fe de 8d 3e 0e 80 07 3e
       0.18450019 0.2996108 0.27709192 0.13232443
000060 3e 1f 16 3e a7 b2 81 be 8b 00 44 3e 58 17 cb be
       0.14660355 -0.25331613 0.19140832 -0.39666247
000070 0e aa 26 3d 10 d9 26 bd 70 fb b5 3d d4 89 1c be
       0.04068952 -0.04073435 0.088858485 -0.15286952
000080 56 cf ad 3e d8 15 55 3d 28 84 97 bd 09 e8 3c be
       0.33947247 0.052022785 -0.07398254 -0.1844789
000090 26 49 a9 bd 13 d0 cf 3d 65 a0 c1 ba 07 6f 0a bd
       -0.08265905 0.10147109 -0.0014772533 -0.03379729
0000a0 2a e0 b0 be 2f cf d0 3d 5d a8 84 bd 89 6d 69 be
       -0.34546024 0.10195767 -0.06477425 -0.2279569
0000b0 ed 3c f0 3d 37 a3 98 bd e3 a2 a1 3e e5 2a 67 3d
       0.11730371 -0.07453006 0.31569585 0.05643739
0000c0 75 6d 19 be ef ba f1 bd 55 05 c1 be 49 51 14 3e
       -0.14983161 -0.11803233 -0.3769938 0.14484133
0000d0 1a 67 8e be 85 31 b0 3c 24 de 6e 3e ad 4d 81 bd
       -0.27813035 0.021507988 0.23326927 -0.063136436
0000e0 05 9e bd 3e 2f cc b1 be d2 33 c3 3e ad fa a2 3e
       0.37034622 -0.34726092 0.38125473 0.31831875
0000f0 88 bf 0f 3e e9 bf 63 bd 9f 58 a0 bc 78 31 c6 bd
       0.14037907 -0.05560294 -0.019573508 -0.09677404
000100 98 eb a8 be 29 76 6b be 39 e1 f5 3d 38 95 39 be
       -0.32992244 -0.22994293 0.120058484 -0.18123329
000110 f5 e2 62 3d 18 d3 25 bd 65 ad b1 bd 3f 50 a7 3c
       0.055392224 -0.040484518 -0.086756505 0.020424007
000120 03 17 00 bd 39 0b 3a be 1d df 8a 3d 1e 9b 9c 3c
       -0.031271946 -0.18168344 0.06780837 0.019116934
000130 74 ba c8 3e ba 05 9d bd e2 be 46 be 10 d8 04 be
       0.39204752 -0.07667108 -0.19408754 -0.12973046
000140 36 fa 31 be 3d 08 79 3c 4d 6c 58 3d 18 ee 94 3d
       -0.17380604 0.015199718 0.05283766 0.07271975
000150 ea 4e 05 be 3b 52 ef be fc 0e 51 3e 24 fa 5c 3e
       -0.13018385 -0.46742424 0.20415872 0.21579796
000160 1a 00 d3 bd 37 48 54 be a5 e5 35 be 72 58 93 bd
       -0.10302754 -0.20730673 -0.17763384 -0.07194604
000170 63 0c 3f 3e 06 11 29 3d 15 1f 46 3e 7f 12 96 3e
       0.18657069 0.041276 0.19347794 0.29310986
000180 59 96 b5 bd 71 48 5c 3e 47 b2 db 3e 65 e8 2a be
       -0.08866567 0.21512009 0.42909452 -0.16690214

l3.weight f4 [18, 100]
000000 7d a5 c6 bd f0 37 88 be 44 54 1b bf c9 75 66 3e
       -0.09699533 -0.26605177 -0.60675454 0.22505869
000010 3d 90 c2 3e 5a d5 ad be c5 fb 07 3e f9 b4 41 be
       0.3800067 -0.33951837 0.13279636 -0.18916692
000020 22 61 cb bb 88 87 8a be e6 50 71 bd 49 72 b3 be
       -0.0062066475 -0.27056527 -0.05891504 -0.3504813
000030 4a 3c 31 be 8c d3 f3 3e 4d 86 56 bd 80 9e ba bd
       -0.17308155 0.47622335 -0.052374173 -0.09112263
000040 dd 8d 5c be 05 f6 d2 bd bb f3 5e bd 6b d1 27 3f
       -0.21538492 -0.10300831 -0.05443166 0.6555392
000050 5c 23 90 be fc af c4 bd 0e ec 95 bd d2 67 bb bd
       -0.28151977 -0.09603879 -0.073204145 -0.091506615
000060 0e 0f 7e be b6 c4 87 3e 15 b8 c8 be 31 ff a2 3e
       -0.2481043 0.26517266 -0.39202943 0.3183532
000070 87 24 8e be 8d 78 b5 3e e3 c2 9d be 9c c0 6d 3e
       -0.27762243 0.35443535 -0.3081275 0.23218006
000080 28 c0 64 be 04 31 da 3e 13 a2 a5 3e bb ac 5f 3e
       -0.22338927 0.4261552 0.32350215 0.21843235
000090 5c ea 23 3e 65 00 b1 bd d5 4e 99 3d d9 d7 56 be
       0.1600737 -0.086426534 0.07485739 -0.20980777
0000a0 84 41 b9 3e cd 69 6e be 65 9d 90 3d d3 1c e3 3d
       0.36182797 -0.23282547 0.070612706 0.11089482
0000b0 45 f1 99 be a4 83 c2 3e 16 cc 9d 3e 6f cc 4a 3e
       -0.30066887 0.3799106 0.30819768 0.19804548
0000c0 53 7a c7 3e 46 1f 53 3e c0 2e 4f 3e 50 a8 83 be
       0.38960513 0.20617399 0.20232677 -0.2571435
0000d0 6c e8 7c 3e c2 40 17 bf 4e 6e bf be f7 67 8f 3e
       0.24698037 -0.5908319 -0.37388843 0.28009006
0000e0 d8 d2 61 be 6d 8a a0 3d 67 01 65 be 9e 67 dc bd
       -0.22053087 0.078389026 -0.22363816 -0.10761951
0000f0 1c b2 b0 3d b9 1d e4 be e7 9a d1 3e 20 c1 62 3e
       0.08627722 -0.44553927 0.40938494 0.22143984
000100 74 b1 bc 3e 50 69 c5 3e f9 5f b6 be a5 e3 43 3e
       0.36854136 0.3855691 -0.35620096 0.19129808
000110 e9 6a d8 be 9d b3 d2 be 23 c3 c9 3d 8f 67 10 be
       -0.42269066 -0.4115266 0.098516725 -0.14102004
000120 30 7a 75 3d ab b7 e9 3d ae 0f 81 be ea a5 c2 bd
       0.05993098 0.11411985 -0.25207275 -0.09504302
000130 f1 ad 23 be 94 d7 41 3e bb 6d 4c be 90 3d 79 3e
       -0.15984322 0.18929893 -0.19963734 0.2433989
000140 8e 8b e8 3e e2 5d 80 3c 75 14 fc be 98 ee ac be
       0.45418972 0.015669767 -0.49234357 -0.33775783
000150 c7 7a 0c 3e 34 f8 24 3e fc 12 a3 bd a5 81 e9 be
       0.13718711 0.16110307 -0.07962605 -0.45606723
000160 8e 2d 12 3d e4 0d e6 3d e7 d6 f2 3c 8d cb cd 3d
       0.035687976 0.11233118 0.029643489 0.1004859
000170 09 cc 99 3d f2 62 15 be dc 81 52 be 5f 91 04 be
       0.0750962 -0.14588526 -0.2055735 -0.1294608
000180 06 d3 46 3d e6 0a 6d 3e ec 91 5e bd fb 46 a3 3e
       0.04854109 0.23148689 -0.05433838 0.3189009
000190 72 8c b8 3d f8 81 ea 3d c7 a1 f7 be 78 07 37 3d
       0.09011163 0.11450571 -0.48365614 0.044684857
0001a0 12 78 07 3f 0b cd 37 be cd 99 9c 3e ae bd e5 bc
       0.5291759 -0.17949311 0.3058609 -0.028044548
0001b0 c5 e8 93 be 89 39 d5 be 44 53 d4 3d 77 0b 3a be
       -0.28888527 -0.41645458 0.10367444 -0.18168436
0001c0 a7 53 96 bd 28 71 a4 3e 89 a1 8f be f1 cd a3 3d
       -0.07340174 0.3211758 -0.2805293 0.079982646
0001d0 71 89 94 be 3a ad 99 be d1 c0 20 3d 53 e8 a2 3e
       -0.2901111 -0.30014974 0.039246384 0.31817874
0001e0 fe dd 81 be 14 57 91 be 5d 04 b5 be 2c fa c1 bd
       -0.2536468 -0.28386748 -0.3535489 -0.094715446
0001f0 02 08 91 be 95 96 09 3d ae ef f1 be 08 3a 85 3e
       -0.28326422 0.03359087 -0.47253174 0.26020837
000200 4e 95 44 bd 04 ec 94 3e 46 78 f7 be ab da 73 3e
       -0.04799395 0.29086316 -0.4833395 0.23813884
000210 1f 75 c3 bd de 7f dd 3e 9c 12 36 3e b1 a6 d6 3d
       -0.095438235 0.43261617 0.17780536 0.104810126
000220 0b 68 3d 3e 81 bf dc 3d 04 42 66 3e 3c 23 f6 be
       0.1849672 0.10778714 0.2248612 -0.48073757
000230 c5 9e 54 3e f4 10 9b be 6e 1d 23 3d 96 00 2d 3e
       0.20763691 -0.30286372 0.03982299 0.16894755
000240 b4 8c 76 be 0f 96 b8 3e 32 bc b1 3e de 78 16 3e
       -0.24077111 0.36051986 0.34713894 0.14694545
000250 54 8e f9 3e 29 56 95 3e c5 85 eb 3e 80 c7 a2 be
       0.487414 0.29167297 0.46000496 -0.3179283
000260 cc bf aa 3d b0 84 69 be 09 26 20 bf ea 71 0e 3e
       0.083373636 -0.22804523 -0.6255804 0.13910642
000270 f8 c2 36 be 5f 27 a4 3e d1 7c 7a be d1 7a cc be
       -0.17847812 0.32061288 -0.24461676 -0.3993745
000280 6c 21 3b 3e d8 81 05 bf 62 a1 06 3e 4e 7c 93 3d
       0.18274468 -0.5215125 0.131475 0.072014436
000290 a9 ce 98 3e f9 ff cb 3e 7b 3c 42 be 3a 5a c8 3e
       0.2984517 0.3984373 -0.18968384 0.39131337
0002a0 d9 2d b8 be 9b ef a4 be ed 7f 55 3e 22 31 ad bd
       -0.3597248 -0.32214054 0.20849581 -0.08456637
0002b0 08 02 05 be 7e 69 9a 3e 12 e5 0a be 64 f1 85 be
       -0.12989056 0.3015861 -0.13563946 -0.2616073
0002c0 eb b9 8b bd da 84 90 3e c3 c9 73 be 36 72 32 3e
       -0.068225704 0.28226358 -0.23807435 0.1742638
0002d0 4b 2e d0 3e 4e 3a b7 be 71 8d 3d 3d dd a2 90 be
       0.4066032 -0.3578667 0.046277467 -0.28249255
0002e0 a8 8d 9f 3c 98 be a7 3e fa 19 74 be 72 07 12 be
       0.019476727 0.327626 -0.23838034 -0.14260653
0002f0 74 fc 28 3e 0d 6c 8d 3e 4c 04 03 be 2a 78 92 bb
       0.16502553 0.276215 -0.12794608 -0.004469891
000300 5c 9c 38 be 11 60 36 be 06 cf a5 bd fe bb d6 bd
       -0.18028396 -0.17810084 -0.08096127 -0.104850754
000310 6f bb 42 bc e3 96 49 3e 19 24 3c be 52 2b a2 3e
       -0.011885508 0.19686465 -0.18373145 0.31673676
000320 f7 08 8c 3e 8a 2d de be c3 a5 06 bf 3c 7e 89 3d
       0.2735059 -0.4339412 -0.5259668 0.067135304
000330 1c e1 6c 3d d8 64 9b be ed 69 81 3e 1a 1c 68 be
       0.05783187 -0.30350375 0.25276127 -0.2266697
000340 74 39 9b be b9 07 84 be 58 f9 5d bc de e9 5b bd
       -0.3031727 -0.25787142 -0.013548218 -0.05368983
000350 29 6a e5 3d 72 3b e6 3e e0 d1 37 be 38 c2 4c bd
       0.11201889 0.44967228 -0.17951155 -0.04998991
000360 13 b0 08 be e7 92 46 be 44 d7 43 3e dd 1d 28 3f
       -0.13348417 -0.19391976 0.19125086 0.6567057
000370 bb 3b 58 be da 9a e2 bd ce ab 67 be b3 a2 8f be
       -0.21116535 -0.11064692 -0.22624132 -0.28053817
000380 c8 50 9f bd aa c2 d3 bd ea 4a 21 bf 8f 05 d9 3e
       -0.0777908 -0.103398636 -0.63004935 0.42387053
000390 ee 43 17 be a0 e3 c1 3e cd 50 94 be 83 05 44 3e
       -0.14772007 0.37868977 -0.28967896 0.19142728
0003a0 49 4d 5d be 9c 34 8e 3e 8a 5c b2 3e 73 33 c1 bd
       -0.21611513 0.27774513 0.34836227 -0.09433641
0003b0 21 84 3f 3e 30 f2 87 be 34 41 1e 3c 89 b9 d6 bd
       0.18702747 -0.26551962 0.0096591 -0.10484607
0003c0 19 a7 d5 bd f1 fc 04 be 53 9d a9 bc 38 7f 5c 3e
       -0.10432262 -0.12987114 -0.0207049 0.21532905
0003d0 22 ae 78 be 42 42 07 3f 8c f9 88 3e bf af d1 3e
       -0.24285176 0.52835476 0.2675289 0.40954396
0003e0 43 d0 ae 3e 7e a0 8f 3e 8c 08 52 3e d5 c6 ce be
       0.34143266 0.28052133 0.20511073 -0.40386072
0003f0 32 a1 4a be a0 14 01 be 3a f2 b6 be 91 54 d9 bb
       -0.19788054 -0.12605524 -0.3573168 -0.0066323956

l3.bias f4 [18]
000000 29 6e 56 3d f1 3a d4 bd 7c ae fc be aa e0 b4 be
       0.05235115 -0.10362805 -0.4935187 -0.35327655
000010 31 23 dc 3d e6 80 75 bd 36 1d a8 bc 10 7c cd be
       0.107489 -0.05993738 -0.020521741 -0.40133715
000020 c3 4d 1f be 5a ab 6b be 88 61 9c 3c 4c cc ac be
       -0.15557007 -0.23014584 0.019089475 -0.33749616
000030 75 79 b5 be 3c 39 ab 3e 9c 7f ce bd 8a b2 8e be
       -0.35444227 0.33442104 -0.10082933 -0.2787059
000040 01 5d da be 31 09 b5 be
       -0.4264908 -0.35358575
