LARA/data/result/d_330.pt (torch, 94638 bytes, 7 tensors)

D_attr_matrix.weight f4 [36, 5]
0	0x3d6efd98	0.058347315
1	0xbeee77ec	-0.46575868
2	0xbe30a5e1	-0.17250778
3	0x3dba4db2	0.090968505
4	0xbd8ae462	-0.06781842
5	0xbeae61c6	-0.3405897
6	0xbeae112e	-0.33997482
7	0x3e22e867	0.15908967
8	0xbed3de5d	-0.41380587
9	0x3ebe39f1	0.3715358
10	0x3e68a2f0	0.22718406
11	0x3c4aeaae	0.012385054
12	0xbcc58eda	-0.024115968
13	0xbc60c962	-0.013719888
14	0x3c5d19de	0.013494937
15	0xbd99da28	-0.07512313
16	0xbed38dd5	-0.41319147
17	0x3e9c9a5b	0.30586514
18	0x3dbb28db	0.09138652
19	0xbe2c4293	-0.16822271
20	0x3bc509ea	0.0060131447
21	0xbe53c74f	-0.20681499
22	0x39929377	0.0002795716
23	0x3e3354f8	0.17512882
24	0x3df172e2	0.1178949
25	0xbf3aec7a	-0.73017085
26	0xbf4f6938	-0.81019926
27	0x3e0c6808	0.1371156
28	0x3f1c08af	0.6095075
29	0xbee17d25	-0.4404079
30	0xbbb79aad	-0.0056031556
31	0xbdf24ebf	-0.11831426
32	0xbce7430a	-0.028230209
33	0x3f0b4c06	0.5441288
34	0x3bbc6bc6	0.0057501523
35	0x3f187bf1	0.5956412
36	0xbe658a60	-0.22416067
37	0x3efb6e77	0.49107715
38	0xbe220eb5	-0.15825923
39	0xbec131ee	-0.37733406
40	0xbee3b821	-0.44476417
41	0x3e239e7d	0.15978427
42	0x3dcc9c81	0.09990788
43	0xbe8a6469	-0.27029732
44	0x3d241147	0.04005554
45	0xbe498b76	-0.19682106
46	0x3e069991	0.13144518
47	0xbea8330e	-0.32851452
48	0xbdbae7fc	-0.09126279
49	0x3e1ddf5b	0.15417235
50	0x3e45c906	0.19314966
51	0x3e0147da	0.12625065
52	0x3da98d0c	0.08278856
53	0x3be7e25d	0.007076545
54	0x3da030f6	0.078218386
55	0x3d15acee	0.03654187
56	0x3ebc97f2	0.36834675
57	0xbdd48e23	-0.10378673
58	0xbe0d4ecc	-0.1379959
59	0xbe5f9945	-0.21835811
60	0xbdf1b95d	-0.11802933
61	0x3d4b87a2	0.049689896
62	0xbd8dd04a	-0.069244936
63	0xbc65b925	-0.014021193
64	0xbd1c7a06	-0.038202308
65	0xbe769aaf	-0.24082445
66	0x3ed5fec8	0.41795945
67	0x3d9b3148	0.07577759
68	0x3f36cfe9	0.71410996
69	0x3f450549	0.7696119
70	0x3e17935e	0.1480231
71	0x3e860ca0	0.26181507
72	0x3c2df7fa	0.010618204
73	0xbd14e6e0	-0.036352992
74	0xbece7d59	-0.40330008
75	0xbdf5f151	-0.12008918
76	0x3e7445a1	0.23854686
77	0x3e44898c	0.19193095
78	0x3d464931	0.048409645
79	0x3e75b7dc	0.23995918
80	0x3c5266f3	0.012841928
81	0x3d26e1e4	0.04074277
82	0xbc80da8c	-0.015729211
83	0x3e3772d0	0.17914891
84	0xbd0bbbad	-0.03411453
85	0xbe81ee44	-0.25377095
86	0xbf30e081	-0.69092566
87	0x3eb44510	0.3520894
88	0x3ed299ab	0.41132864
89	0x3bbd0c3a	0.00576928
90	0x3d58da48	0.052942544
91	0x3cc6445c	0.024202518
92	0x3ce9a977	0.02852319
93	0xbd3d1a59	-0.046167705
94	0xbdcd5f66	-0.100279614
95	0xbf060d24	-0.523638
96	0xbe24d97d	-0.1609859
97	0x3ec582af	0.38576266
98	0x3eaf8f40	0.3428898
99	0xbf10be39	-0.56540257
100	0xbd56a61b	-0.052404504
101	0xbd0013b1	-0.03126878
102	0xbc07017c	-0.0082401
103	0x3dabe937	0.083940916
104	0xbe88eaba	-0.26741582
105	0x3ea48895	0.32135454
106	0x3efd3f6d	0.49462453
107	0x3f175a54	0.59122205
108	0x3dafb24a	0.08578928
109	0x3e480be4	0.19535786
110	0xbe78d467	-0.24299775
111	0x3d712478	0.05887267
112	0x3caaa5cc	0.020831011
113	0x3c4130ed	0.01179145
114	0xbd3b8ae8	-0.04578677
115	0xbd34978a	-0.04408983
116	0x3f1c57f0	0.6107168
117	0xbedfeb0c	-0.43734014
118	0x3da7539d	0.08170245
119	0x3f121af2	0.57072365
120	0xbe36d230	-0.17853618
121	0xbe072e04	-0.13201147
122	0x3cdc2bd9	0.026876377
123	0xbec99d0b	-0.39377627
124	0xbc64ea8d	-0.013971937
125	0x3db49695	0.08817784
126	0x3bedb568	0.0072542913
127	0xbeec361c	-0.46135032
128	0xbe373ad6	-0.17893538
129	0x3e9758aa	0.29559833
130	0x3d103f9f	0.035216924
131	0x3d269a41	0.04067445
132	0xbe232058	-0.15930307
133	0xbd879ab6	-0.06621306
134	0xbd4b085f	-0.04956853
135	0xbe48210b	-0.19543855
136	0xbeb65e9a	-0.3561905
137	0xbd23b0e2	-0.03996361
138	0x3f0251bb	0.5090596
139	0x3e973e0e	0.2953953
140	0x3d834baa	0.06410916
141	0x3d2bda44	0.0419562
142	0xbab5f528	-0.0013882266
143	0xbd4e760c	-0.050405547
144	0x3d6d0606	0.057867073
145	0xbee6dcc7	-0.45090315
146	0xbe792bfb	-0.24333183
147	0x3c970845	0.01843656
148	0x3ecefe6b	0.4042848
149	0xbeaef272	-0.34169346
150	0xbd978eb7	-0.074002676
151	0x3e1a47c5	0.1506644
152	0x3d6c33c2	0.057666548
153	0x3d06a901	0.03287602
154	0xbd0c8466	-0.034305952
155	0x3ec47d08	0.3837664
156	0x3e1ef756	0.15524039
157	0xbe8f326a	-0.2796815
158	0xbe6f3c6b	-0.23362891
159	0x3e1016a5	0.14071138
160	0x3d7ab256	0.06120523
161	0xbdcf8cfa	-0.10134311
162	0x3e481cca	0.19542232
163	0x3dbcba99	0.09215278
164	0xbd13aa0e	-0.03605085
165	0xbc3d818d	-0.011566532
166	0xbe569f32	-0.20959166
167	0xbefe6f89	-0.4969447
168	0xbddce51a	-0.10785885
169	0x3e3e35c0	0.18575191
170	0x3d06c9d2	0.032907315
171	0x3e8715e0	0.26383877
172	0xbc4f6a1c	-0.012659576
173	0xbe6bcb41	-0.23026754
174	0xbe4d2ff3	-0.20037822
175	0xbf4a8a28	-0.7911706
176	0x3e53be3a	0.20678034
177	0x3ee8efe6	0.45495528
178	0xbe94ddfa	-0.29075605
179	0xbe9b63f4	-0.30349696

l1.weight f4 [100, 108]
0	0xbd1691a6	-0.036759995
1	0x3e02e240	0.1278162
2	0xbca2b697	-0.019862456
3	0x3dff5160	0.12466693
4	0x3dfec83a	0.12440534
5	0xbdd79352	-0.10526146
6	0x3d024943	0.03180815
7	0x3d950b5a	0.07277556
8	0x3daf40e0	0.08557296
9	0xbc47e4e4	-0.012200568
10	0xbe0da78d	-0.13833447
11	0xbd538ff6	-0.051650964
12	0xbda8f378	-0.08249563
13	0x3eadb2b4	0.33925402
14	0x3e1a7a52	0.15085724
15	0xbe08f85d	-0.13375993
16	0x3daf4fd0	0.08560145
17	0x3e23434e	0.15943643
18	0x3cf01b01	0.029309751
19	0x3d29b399	0.041431043
20	0xbd44b153	-0.048020672
21	0x3bd52d3d	0.006505637
22	0xbbee81da	-0.007278663
23	0x3cb08170	0.021546096
24	0xbd520360	-0.05127275
25	0xbdbbecd3	-0.0917603
26	0xbd506279	-0.05087516
27	0x3c68766c	0.01418839
28	0x3ddbacff	0.10726356
29	0x3e46263a	0.1935052
30	0x3e7299e1	0.23691513
31	0xbd97787a	-0.07396026
32	0x3e4f9bab	0.20274226
33	0x3da97408	0.08274084
34	0xbbbdc9f5	-0.0057918974
35	0x3d9ba77a	0.07600303
36	0xbe24f45f	-0.16108845
37	0x3de143a7	0.10999232
38	0x3cafe46c	0.021471225
39	0x3e08ee7d	0.13372226
40	0xbd76b789	-0.060233627
41	0xbc98ed61	-0.018667879
42	0x3cb4a62f	0.022051899
43	0x3cb63517	0.022242112
44	0xbde673c1	-0.11252547
45	0xbe3c9995	-0.18417962
46	0x3cc91836	0.024547677
47	0x3e497051	0.19671752
48	0xbd13ddd5	-0.036100227
49	0x3d99c85f	0.07508921
50	0xbdcf1d94	-0.101130635
51	0xbd81bf94	-0.06335369
52	0xbd417927	-0.04723468
53	0xbde64b51	-0.11244834
54	0xbc496ee2	-0.012294503
55	0x3e6f5c73	0.2337511
56	0x3db461f8	0.088077486
57	0x3d149e9b	0.03628407
58	0x3cc24902	0.023716453
59	0xbd44b0d5	-0.048020203
60	0x3e2f09ae	0.17093536
61	0x3dccb9a6	0.09996347
62	0xbe6b01dd	-0.2294993
63	0x3d47b9df	0.048761245
64	0x3c09716f	0.008388861
65	0xbe182560	-0.14858007
66	0xbe4de542	-0.20106986
67	0x3d1a46da	0.037665226
68	0xbcce237c	-0.025163405
69	0x3e0589b9	0.13040818
70	0xbd1f8f23	-0.038954865
71	0xbe1f25ad	-0.15541716
72	0x3dbbe5a3	0.09174659
73	0x3ba86db6	0.0051400317
74	0xbda45125	-0.080232896
75	0xbe14a87d	-0.14517398
76	0xbe462319	-0.19349326
77	0xbe833528	-0.25626493
78	0xbd0356b9	-0.032065127
79	0x3be9adb7	0.007131304
80	0x3e0f35e8	0.13985407
81	0xbe4985bc	-0.19679922
82	0x3d0e5d22	0.034756787
83	0xbe00525d	-0.12531419
84	0x3dde16c2	0.108441845
85	0xbdd3ce60	-0.10342097
86	0xbcb7fa53	-0.022458231
87	0xbdd9b0ad	-0.10629401
88	0xbc956dd1	-0.018240841
89	0x3d6bdf80	0.057586193
90	0x3e6b396e	0.22971126
91	0xbb04ecaf	-0.0020282676
92	0x3e9c96ed	0.30583897
93	0x3eda7c48	0.42672944
94	0x3e22586a	0.1585404
95	0x3efc1f0b	0.49242434
96	0x3eb7e8bb	0.35919747
97	0x3e3156a8	0.17318213
98	0x3e87b3a9	0.26504257
99	0x3ec1789a	0.37787324
100	0x3e1a2fbf	0.15057276
101	0xbd6963d7	-0.05697998
102	0x3ef5df62	0.4802199
103	0x3ea2486b	0.31695876
104	0x3e920979	0.28522852
105	0x3e796150	0.24353528
106	0x3f189608	0.5960393
107	0xbd5bd042	-0.053665407
108	0x3ec2188d	0.37909356
109	0xbe1d9e61	-0.15392448
110	0xbde703e3	-0.11280038
111	0x3e8268c2	0.2547055
112	0xbf11beea	-0.56931937
113	0xbddbcdb8	-0.10732597
114	0xbf8e04e6	-1.1095245
115	0x3e4c564c	0.19954795
116	0x3e9bb51b	0.3041161
117	0xbe20be32	-0.15697554
118	0xbebfa3c3	-0.37429628
119	0xbe64652d	-0.2230422
120	0x3e13d385	0.14436157
121	0xbc9ff292	-0.019524846
122	0x3c7c5634	0.015401412
123	0xbeb2e914	-0.3494345
124	0xbd6153e2	-0.055011638
125	0xbea94ea6	-0.33067816
126	0x3e3a4df7	0.18193804
127	0x3ed457ea	0.41473323
128	0xbe657999	-0.22409667
129	0xbdc165ab	-0.0944322
130	0xbdb1c65b	-0.086804114
131	0xbd72f431	-0.05931491
132	0x3d93c6b6	0.072156355
133	0x3e4331e2	0.19061998
134	0xbe2ee4f1	-0.17079522
135	0x3e7edb12	0.24888256
136	0x3dfd0815	0.12355057
137	0x3e2bddaf	0.16783784
138	0xbc4944d2	-0.012284474
139	0x384502ef	4.6971192e-05
140	0xbe34f161	-0.17670204
141	0xbeab0550	-0.3340249
142	0xbeabc661	-0.3354979
143	0x3e6f92e1	0.23395874
144	0xbe06ae8d	-0.13152523
145	0xbdaa0648	-0.08301979
146	0xbe0de39f	-0.13856362
147	0xbe95504c	-0.29162824
148	0xbdb4b76b	-0.08824047
149	0xbe239056	-0.15973029
150	0x3df4d119	0.11953945
151	0x3e21447c	0.15748781
152	0xbdf97336	-0.12180178
153	0x3f231818	0.6370864
154	0x3e65bfae	0.22436401
155	0xbd4a7f56	-0.049437843
156	0xbeafd15e	-0.34339422
157	0x3b817a1c	0.003951324
158	0x3e152b90	0.14567399
159	0x3e9873e2	0.29775912
160	0x3f66dc65	0.90180045
161	0x3cff517e	0.031166788
162	0xbcb3eeb0	-0.021964401
163	0xbdc146c1	-0.09437323
164	0x3e047a18	0.129372
165	0xbc8f9728	-0.017528132
166	0xbc023270	-0.007946596
167	0x3ccb79c2	0.024838332
168	0xbd8f9b58	-0.07012051
169	0xbdc119f1	-0.09428776
170	0x3f1dbfe1	0.6162091
171	0xbdd4e6ed	-0.10395608
172	0xbf12a159	-0.57277447
173	0xbe62d1c5	-0.22150333
174	0xbf2a9da4	-0.6664679
175	0x3e1ecb8c	0.15507334
176	0x3f75477e	0.95812213
177	0x3e35da3a	0.17759028
178	0x3e405d8e	0.18785688
179	0x3e40f39d	0.18842931
180	0xbe004dc9	-0.12529673
181	0xbdec68be	-0.115434155
182	0x3e1fa038	0.15588462
183	0x3ea9052a	0.33011752
184	0xbd87f9df	-0.06639456
185	0xbf09317d	-0.5359114
186	0xbea6b930	-0.32563162
187	0x3e219578	0.15779674
188	0x3dd87abd	0.105702855
189	0xbd3e9ff1	-0.04653925
190	0x3f5def1e	0.8669299
191	0x3e5a25ac	0.21303433
192	0xbea69a26	-0.3253948
193	0xbec7d94e	-0.39032978
194	0x3e128caa	0.14311472
195	0x3eabb7df	0.3353872
196	0xbdd2a6ea	-0.102857426
197	0xbe56d013	-0.20977812
198	0xbe2c42e6	-0.16822395
199	0xbe0b2450	-0.13588071
200	0xbe8bda97	-0.27315208
201	0xbc134e6b	-0.008990864
202	0xbd3f55c8	-0.046712667
203	0xbeb3c0ca	-0.35108024
204	0xbe12bf2e	-0.14330742
205	0xbe021b67	-0.12705766
206	0x3e253162	0.1613212
207	0xbd961efc	-0.073301286
208	0x3dd55176	0.10415928
209	0x3d586894	0.05283411
210	0xbe9f77b8	-0.31146026
211	0xbc9e0fce	-0.019294646
212	0x3af7cce2	0.0018905664
213	0x3e3a7462	0.18208459
214	0xbe39c935	-0.1814316
215	0x3db8b302	0.09018518
216	0x3e2a4391	0.16627337
217	0xbd552e19	-0.052045915
218	0xbe589867	-0.21151887
219	0x3daf65d3	0.08564343
220	0xbd3f7123	-0.046738755
221	0xbe17ff87	-0.1484357
222	0x3d333f8b	0.04376177
223	0x3e6e192a	0.23251787
224	0x3d6b908e	0.057510905
225	0xbc102314	-0.008797426
226	0xbe1ececa	-0.15508571
227	0xbd647b20	-0.055781484
228	0xbc7fc9dc	-0.015612092
229	0x3ddd7f41	0.108152874
230	0xbcbd978d	-0.023143554
231	0xbe1a5b45	-0.15073879
232	0xbe2bb7dd	-0.16769357
233	0xbd5a0cc7	-0.05323484
234	0xbd118ff1	-0.035537664
235	0x3ebf4195	0.37354723
236	0x3a1d794e	0.00060071505
237	0xbc245f19	-0.010032439
238	0x3df615a1	0.12015844
239	0x3c534240	0.012894213
240	0x3d2391a2	0.03993381
241	0x3db60b5b	0.08888885
242	0x3da9230f	0.0825864
243	0xbe28c565	-0.1648155
244	0xbd18b692	-0.037283488
245	0x3de14901	0.110002525
246	0xbc09b1fe	-0.008404253
247	0x3b81e177	0.003963645
248	0x3e0cd448	0.13752854
249	0x3df89b85	0.12139038
250	0x3db96ea0	0.09054303
251	0xbe2fbc52	-0.17161682
252	0xbd1b13a5	-0.03786053
253	0x3daddcdb	0.084893905
254	0x3db4f136	0.0883507
255	0x3c5bbef8	0.01341223

l1.bias f4 [100]
0	0xbdbffb93	-0.09374156
1	0xbb520a3f	-0.0032049564
2	0x3e8ffe07	0.28123495
3	0xbe04dbc6	-0.12974462
4	0xbd805dee	-0.06267916
5	0xbe0102d2	-0.12598732
6	0x3cecf928	0.0289274
7	0x3dcf53ee	0.1012343
8	0xbd8ebb6c	-0.06969342
9	0xbe100ed5	-0.14068158
10	0x3e4e0de5	0.20122488
11	0xbe09914c	-0.13434333
12	0x3d867346	0.065649554
13	0x3e847c32	0.25876004
14	0x3b6f0af1	0.0036475027
15	0xbdc3ee1d	-0.09566901
16	0x3d74a291	0.059725348
17	0x3d3a5ff1	0.045501653
18	0xbe49bd1f	-0.1970105
19	0x3e2b691c	0.16739315
20	0xbe7f3e07	-0.24926005
21	0xbe46bcec	-0.19408005
22	0xbddc2290	-0.1074878
23	0x3e974678	0.2954595
24	0x3c94795c	0.018124275
25	0xbcc97755	-0.024593035
26	0xbe2d5039	-0.16925134
27	0xbd51eabe	-0.05124926
28	0x3deda6d5	0.11604086
29	0x3e268de1	0.1626506
30	0xbc1fb463	-0.009747597
31	0xbe224685	-0.15847214
32	0xbe26d493	-0.16292028
33	0x3b72798f	0.0036998724
34	0xbe94d700	-0.29070282
35	0x3d9b1e59	0.07574148
36	0xbe74ee31	-0.23918988
37	0x3de6dd11	0.11272634
38	0xbdd3647f	-0.103219025
39	0xbdc794fd	-0.09745214
40	0x3cdcdb17	0.026959939
41	0x3e25abbf	0.16178797
42	0x3da3e0c3	0.08001854
43	0x3e9d46a5	0.3071796
44	0x3d9a34ea	0.07529624
45	0x3db861d1	0.09003032
46	0x3c7fb275	0.015606512
47	0x3e227b69	0.1586739
48	0x3d73584a	0.05941037
49	0xbde92e08	-0.11385733
50	0xbde1c5c5	-0.1102405
51	0xbdab7e63	-0.08373716
52	0x3c9e751b	0.01934295
53	0xbe0752b4	-0.13215142
54	0x3cbbd860	0.022930324
55	0x3e988df0	0.2979579
56	0x3ca073f3	0.019586539
57	0x3da14242	0.07873966
58	0x3d529a17	0.051416483
59	0x3e3b2017	0.1827396
60	0x3e884675	0.26616254
61	0xbcf9e6cb	-0.030505558
62	0xbd7bebaf	-0.061504062
63	0xbdec9066	-0.11550979
64	0x3e19f9e9	0.1503674
65	0xbe5a687e	-0.21328923
66	0xbd95f451	-0.0732199
67	0x3ebb7e43	0.36619768
68	0xbdbe24fc	-0.09284398
69	0x3e4a8b02	0.1977959
70	0xbc05435d	-0.008133736
71	0x3d99d7c8	0.0751186
72	0xbdfe03c1	-0.1240306
73	0xbdf15e6e	-0.11785589
74	0x3e424998	0.18973386
75	0x3c8f445d	0.017488653
76	0x3cc16800	0.023609161
77	0x3dede43c	0.11615798
78	0xbe326e76	-0.1742495
79	0x3e858da8	0.26084638
80	0xbe6da032	-0.23205641
81	0xbdae338b	-0.08505925
82	0x3dd63ed5	0.10461203
83	0xbe068ff8	-0.13140857
84	0xbb67408a	-0.003528627
85	0x3e8e66ad	0.2781271
86	0x3d9288d3	0.071550034
87	0xbd0ad431	-0.033893768
88	0x3d5d0b70	0.053965986
89	0x3e696311	0.22791697
90	0x3e36b165	0.17841108
91	0x3e3e55a5	0.18587358
92	0xbc60c5da	-0.0137190465
93	0xbc134605	-0.008988862
94	0xbe3f16ba	-0.18661013
95	0xbac8f268	-0.0015331032
96	0x3e6b4bcd	0.22978134
97	0xbcf2a53c	-0.029619806
98	0xbdad1f90	-0.08453286
99	0xbb29e6be	-0.0025924887

l2.weight f4 [100, 100]
0	0x3df69730	0.120405555
1	0xbed95378	-0.42446494
2	0xbe8a8af3	-0.27059135
3	0xbd4de6d0	-0.050268948
4	0x3eb379dc	0.3505391
5	0xbd9f4eee	-0.077787265
6	0xbe1e0959	-0.15433253
7	0xbcaeeb6c	-0.021352492
8	0xbdfde858	-0.12397832
9	0xbd162799	-0.036658857
10	0x3d636048	0.055511743
11	0x3ec594c7	0.3859007
12	0xbd09692f	-0.033547577
13	0xbd57502a	-0.052566685
14	0x3e32a9d7	0.17447601
15	0x3ea35d30	0.31907034
16	0xbd541a07	-0.051782634
17	0xbe1006f5	-0.14065154
18	0x3dde57a2	0.108565584
19	0xbe1f9431	-0.15583874
20	0x3eb163db	0.34646496
21	0x3d14c923	0.03632463
22	0x3e3e5f90	0.18591142
23	0xbe08b144	-0.13348871
24	0x3e5edec3	0.21764664
25	0x3e21de0e	0.15807363
26	0xbe0270e3	-0.12738375
27	0x3e0f3dc3	0.13988404
28	0xbd3165d6	-0.04331001
29	0xbe735195	-0.2376159
30	0x3d0e5f4d	0.034758855
31	0xbd4dfccf	-0.050289925
32	0x3ea2c6c3	0.31792268
33	0xbe3b53d3	-0.18293695
34	0x3c1e2443	0.0096522
35	0xbdb8023b	-0.089848004
36	0x3c222d8a	0.009898553
37	0xbc8fe81f	-0.017566739
38	0x3e7d4e96	0.2473701
39	0xbdd1666e	-0.10224615
40	0xbc9ee113	-0.019394433
41	0xbdf11e29	-0.11773331
42	0xbe96d12b	-0.29456457
43	0xbe100238	-0.14063346
44	0xbd0f3945	-0.034966726
45	0x3d577522	0.05260194
46	0x3d803098	0.062592685
47	0x3d3a2e87	0.04545453
48	0x3da31681	0.07963277
49	0xbdd0ba98	-0.1019184
50	0x3e03f47c	0.12886232
51	0x3cb6e6e5	0.022326896
52	0x3c010340	0.00787431
53	0xbd9fcc62	-0.07802655
54	0xbe776deb	-0.24163024
55	0x3e35a1ba	0.17737475
56	0x3e6b74e3	0.22993807
57	0xbe8b8d50	-0.2725625
58	0xbe86deec	-0.2634195
59	0x3bdb8462	0.006699131
60	0x3e8350a9	0.25647476
61	0xbe2f0946	-0.17093381
62	0x3c01f38b	0.0079316
63	0xbe234571	-0.15944459
64	0xbd5d99e9	-0.05410186
65	0x3daf109c	0.0854809
66	0xbebb2dc4	-0.36558354
67	0xbe87475a	-0.26421624
68	0x3dc6dc25	0.09709958
69	0xbd88b4a7	-0.06675082
70	0xbe9d0970	-0.30671263
71	0xbddaf9c6	-0.10692172
72	0x3e5a13da	0.21296635
73	0x3d60c3ee	0.054874353
74	0xbe40d783	-0.18832211
75	0xbde43231	-0.11142386
76	0x3e72a2d4	0.23694927
77	0xbecc85e7	-0.3994591
78	0xbd66d4e4	-0.056355372
79	0xbee52987	-0.44758245
80	0x3e015c5f	0.12632893
81	0x3e4c6a4d	0.19962426
82	0x3d585f67	0.052825358
83	0x3dcb0624	0.099132806
84	0x3e1fe789	0.15615667
85	0x3e20436f	0.15650724
86	0x3e553317	0.2082027
87	0xbd077090	-0.033066332
88	0x3ea19dac	0.31565607
89	0xbe44d713	-0.1922267
90	0x3e8b59ce	0.27216953
91	0xbe5aff10	-0.21386361
92	0xbe57f5de	-0.21089885
93	0xbd8c8db8	-0.06862968
94	0xbdf557dd	-0.11979649
95	0x3e2b5d57	0.16734825
96	0xbe0a932b	-0.13532703
97	0x3e243913	0.16037397
98	0x3ba4a8fd	0.005025028
99	0x3e45ee37	0.19329153
100	0x3c3d3c75	0.011550059
101	0x3ed2d606	0.41178912
102	0x3e36ab45	0.17838772
103	0xbe9dded7	-0.30834076
104	0xbe7153ab	-0.23567073
105	0x3d3f671c	0.046729192
106	0xbb0bce52	-0.0021332693
107	0x3d9c3453	0.076271676
108	0xbe1d910a	-0.1538736
109	0x3d927b89	0.07152469
110	0x3cc65272	0.024209235
111	0x3bac747d	0.00526291
112	0xbd162496	-0.036655985
113	0x3e3ec8ca	0.18631282
114	0xbd43a430	-0.047764003
115	0xbeb5694a	-0.35431892
116	0xbd9e9252	-0.07742752
117	0x3dd1e13c	0.10248038
118	0xbe368061	-0.1782241
119	0x3e1fd44d	0.1560833
120	0xbe34091c	-0.175816
121	0x3e0c9d46	0.1373187
122	0x3d044208	0.032289535
123	0x3dbcf13b	0.092256986
124	0xbd99e9ba	-0.07515283
125	0xbe23e87c	-0.16006655
126	0x3e0e0bac	0.1387164
127	0xbe8cf4b0	-0.27530432
128	0x3e221214	0.15827209
129	0x3e0ca01e	0.13732955
130	0x3e18fe63	0.14940791
131	0xbd1b0173	-0.03784318
132	0xbea9aa5f	-0.33137795
133	0x3e79ac64	0.24382168
134	0xbd0556b5	-0.032553393
135	0x3e825da9	0.25462082
136	0x3de3449c	0.110970706
137	0x3b549f33	0.0032443523
138	0xbe0debf6	-0.13859543
139	0x3e258800	0.16165161
140	0xbe2a4dd4	-0.16631252
141	0x3e4896e8	0.19588816
142	0x3e95b9b4	0.29243243
143	0xbe0e6a86	-0.13907823
144	0xbcf11a86	-0.029431593
145	0x3e15be64	0.1462341
146	0x3ddbfa37	0.10741084
147	0x3d5cd95e	0.053918235
148	0xbe9ee3ad	-0.31033078
149	0xbec7064a	-0.38871986
150	0xbc26390b	-0.010145436
151	0xbd53416d	-0.051576067
152	0xbdfce1ca	-0.12347753
153	0x3dc99ba8	0.09844142
154	0x3e28d9af	0.1648929
155	0x3cbab094	0.022789277
156	0x3d1c7938	0.03820154
157	0x3eb3c660	0.35112286
158	0x3e495eee	0.19665119
159	0xbe24a6a0	-0.16079187
160	0x3c6dd4f1	0.014516101
161	0x3c26a941	0.010172189
162	0x3e118d0a	0.14213958
163	0xbc8e1ff4	-0.01734922
164	0x3ef18348	0.47170472
165	0x3db1a824	0.086746484
166	0x3eb09338	0.3448732
167	0x3e8cbcf8	0.27487922
168	0xbdc8f8c6	-0.09813075
169	0x3ceaf176	0.02867959
170	0x3ddcebc8	0.10787159
171	0xbe0d6ae4	-0.13810307
172	0xbeec51fb	-0.46156296
173	0xbdd1ead5	-0.10249869
174	0x3ce06591	0.02739218
175	0xbdd567c9	-0.10420186
176	0xbe418c13	-0.1890109
177	0xbed1b643	-0.40959367
178	0x3e277f25	0.16357096
179	0x3e949d85	0.29026428
180	0xbe24ee85	-0.16106613
181	0xbe03f609	-0.12886824
182	0xbd1d0203	-0.038331997
183	0x3d7f8415	0.062381823
184	0xbe3c15c0	-0.18367672
185	0x3c2789e0	0.010225743
186	0xbea50b07	-0.32234976
187	0x3deb36df	0.11485075
188	0x3d0abde7	0.03387251
189	0x3ee92a4b	0.4554008
190	0xbd184833	-0.03717823
191	0x3df27b90	0.11839974
192	0x3d9b7335	0.07590333
193	0x3d175bac	0.03695266
194	0x3d734615	0.059393007
195	0xbc815ef3	-0.015792346
196	0x3d9a427d	0.07532213
197	0xbe3411d5	-0.17584927
198	0xbd2c32fd	-0.042040814
199	0x3de6d891	0.112717755
200	0x3f03a668	0.5142579
201	0xbde380fe	-0.11108588
202	0xbee8d3c0	-0.45474052
203	0x3d629c37	0.05532476
204	0xbe4488ac	-0.19192761
205	0x3e8473c7	0.2586958
206	0xbeb6b1a7	-0.35682413
207	0xbf051687	-0.519875
208	0x3e5db89e	0.21652457
209	0x3ef64268	0.4809754
210	0xbf46d26a	-0.77664816
211	0x3d33463f	0.043768164
212	0xbea6ec2e	-0.32602066
213	0xbf36bd52	-0.7138263
214	0xbeba5608	-0.36393762
215	0x3de30b91	0.110861905
216	0xbf5d393f	-0.86415476
217	0xbf51bb3f	-0.8192634
218	0xbdd4de68	-0.10393983
219	0xbe0df2e3	-0.13862185
220	0xbde23bc6	-0.11046557
221	0x3e7209c7	0.23636542
222	0x3e8fbcab	0.2807363
223	0x3e41be00	0.18920135
224	0xbf72e936	-0.948871
225	0x3e913fde	0.2836904
226	0x3df37310	0.11887181
227	0x3dd03f5a	0.10168333
228	0x3dfbbf40	0.122923374
229	0xbfb9f534	-1.4527955
230	0x3f750326	0.9570793
231	0x3dd7ef6d	0.10543714
232	0x3f655e70	0.89597225
233	0x3ea618d1	0.32440808
234	0x3e981e13	0.29710445
235	0xbe8a8f41	-0.2706242
236	0x3ce65af9	0.028119551
237	0xbda2c4c5	-0.07947687
238	0x3e5465e8	0.20741999
239	0x3da2ca93	0.07948794
240	0x3e78dad7	0.24302231
241	0x3ae9782b	0.0017812302
242	0x3dc7af74	0.09750262
243	0xbf113693	-0.567239
244	0xbdeb3f2d	-0.11486659
245	0x3f71cb5f	0.94450945
246	0xbefce289	-0.49391583
247	0xbe7b6d7e	-0.24553487
248	0x3f57d274	0.843055
249	0x3f08b9c4	0.53408456
250	0xbea1104d	-0.3145775
251	0xbcafd344	-0.021463044
252	0x3f2fda2a	0.68692267
253	0xbf242487	-0.64118236
254	0x3ea74468	0.32669377
255	0x3eb377a5	0.3505222

l2.bias f4 [100]
0	0xbea93844	-0.3305074
1	0x3ece859a	0.40336305
2	0x3e0db850	0.13839841
3	0xbe80e65f	-0.2517576
4	0xbb4ffadc	-0.0031735217
5	0x3e19def0	0.1502645
6	0xbda2e3d4	-0.07953611
7	0x3e152340	0.14564228
8	0x3d45caee	0.048289232
9	0x3ddaf4b8	0.10691208
10	0x3dac17eb	0.084029995
11	0x3ed0a649	0.40751866
12	0x3edaacfb	0.427101
13	0xbe9c7b23	-0.30562696
14	0x3e9ca364	0.30593407
15	0xbd49f8f0	-0.04930967
16	0x3ed170ca	0.40906364
17	0x3e2d9e87	0.16955005
18	0xbe43958a	-0.19100013
19	0xbd18ced8	-0.037306637
20	0x3e3ef52b	0.18648212
21	0x3e9c5f43	0.3054143
22	0x3e8e3966	0.27778167
23	0x3e095b62	0.13413766
24	0x3e199bd5	0.15000851
25	0xbe811c98	-0.25217128
26	0x3e4312d5	0.19050153
27	0xbeccdfc8	-0.40014482
28	0x3d2d6de3	0.042341124
29	0xbd27a039	-0.040924285
30	0x3dbe886c	0.09303364
31	0xbe20bada	-0.15696278
32	0x3eadde59	0.339587
33	0x3d5885e8	0.052862078
34	0xbd9fa112	-0.077943936
35	0xbe3c89e8	-0.18411982
36	0xbdbb7c7c	-0.09154603
37	0x3dd3da02	0.10344316
38	0xba7800d2	-0.00094605715
39	0xbcff7fef	-0.031188933
40	0xbeb26726	-0.3484432
41	0x3dd49547	0.10380035
42	0xbd80cfd8	-0.06289643
43	0xbe69bb97	-0.22825466
44	0x3df49f18	0.11944407
45	0xbd92833d	-0.07153938
46	0x3ea2ad41	0.31772807
47	0x3d7bb184	0.06144859
48	0xbe196b98	-0.1498245
49	0xbdf90b76	-0.12160389
50	0xbec2b7f0	-0.38030958
51	0x3e147f86	0.14501771
52	0xbe8dcefe	-0.27696985
53	0x3cd49a8b	0.025952598
54	0x3e6be38a	0.23036018
55	0xbd82f0ad	-0.063935615
56	0x3ebfea27	0.37483332
57	0xbeb117ab	-0.3458837
58	0x3ec50168	0.38477635
59	0x3ea32a71	0.31868318
60	0x3e0cd551	0.13753249
61	0xbd65229a	-0.0559412
62	0xbcc1ebf1	-0.023672076
63	0xbdc3defb	-0.095640145
64	0xbeaa5e34	-0.33274996
65	0xbe69596b	-0.22788016
66	0x3df809bc	0.12111232
67	0xbe386a4a	-0.18009296
68	0x3d5ff4cb	0.054676812
69	0xbd1d0907	-0.038338687
70	0xbdacfdcd	-0.08446846
71	0x3ce6a832	0.028156374
72	0xbd00c3d4	-0.031436756
73	0xbe3ac21d	-0.18238111
74	0x3d8f9cad	0.070123054
75	0x3c9df374	0.019281127
76	0x3ec9f109	0.39441708
77	0xbda3fc1c	-0.080070704
78	0xbe4a2868	-0.19741976
79	0xbe05cf3a	-0.13067332
80	0xbe321a47	-0.17392837
81	0x3c9b8bed	0.01898762
82	0x3d58c94b	0.052926343
83	0x3da2e90b	0.07954606
84	0xbe0dd80f	-0.13851951
85	0xbeef423e	-0.46730226
86	0x3e4d7e3b	0.20067684
87	0x3e5fb4b6	0.2184628
88	0xbdce1384	-0.10062316
89	0xbe58ee90	-0.21184754
90	0xbe36b325	-0.17841776
91	0xbd980905	-0.07423595
92	0x3e3d1811	0.18466212
93	0x3d1d622e	0.03842371
94	0x3e47d278	0.19513881
95	0x3e969efa	0.29418164
96	0xbdb28c9b	-0.087182246
97	0x3e5ee475	0.21766837
98	0x3edeaff8	0.43493629
99	0xbe2f8ca9	-0.17143501

l3.weight f4 [18, 100]
0	0xbdc8259c	-0.097727984
1	0xbe87e118	-0.2653892
2	0xbf1d06a5	-0.61338264
3	0x3e65f5dc	0.22457069
4	0x3ec683e7	0.38772509
5	0xbeb5e950	-0.35529566
6	0x3e0ccc8e	0.13749906
7	0xbe40f0e0	-0.18841887
8	0xbbb3772c	-0.005476853
9	0xbe90592f	-0.28193042
10	0xbd6d09d5	-0.057870705
11	0xbeb313cf	-0.3497605
12	0xbe30a816	-0.1725162
13	0x3ef7d000	0.4840088
14	0xbd6fc9be	-0.058542006
15	0xbdbc0eb5	-0.09182493
16	0xbe5bc586	-0.21462068
17	0xbdd1681f	-0.10224938
18	0xbd621b59	-0.055201862
19	0x3f29373e	0.6609992
20	0xbe8fbf87	-0.2807581
21	0xbdc321e3	-0.09527948
22	0xbd94d061	-0.072663076
23	0xbdba38bf	-0.09092855
24	0xbe849c06	-0.25900286
25	0x3e8767f7	0.26446506
26	0xbeccd65e	-0.400073
27	0x3ea7d7d0	0.3278184
28	0xbe8dc14a	-0.2768653
29	0x3eb80c22	0.35946757
30	0xbe9d6c8e	-0.30746883
31	0x3e6d43ec	0.23170441
32	0xbe63f9c2	-0.22263244
33	0x3eddc7b8	0.43316436
34	0x3eaa7592	0.33292824
35	0x3e607a8b	0.21921746
36	0x3e2b341f	0.16719101
37	0xbdaf7545	-0.08567289
38	0x3d989542	0.07450344
39	0xbe610910	-0.21976113
40	0x3eb8dd8c	0.36106527
41	0xbe7b45f8	-0.2453841
42	0x3d8f2904	0.06990245
43	0x3de265d8	0.110545814
44	0xbe99b3aa	-0.30019885
45	0x3ec3f19b	0.38270268
46	0x3ea03536	0.31290597
47	0x3e502d49	0.20329775
48	0x3ecb7b71	0.39742616
49	0x3e525550	0.20540357
50	0x3e4e7e57	0.20165382
51	0xbe880416	-0.26565617
52	0x3e7c230b	0.24622743
53	0xbf170f3a	-0.5900761
54	0xbec212bf	-0.37904927
55	0x3e8ebf9e	0.27880567
56	0xbe61169b	-0.2198128
57	0x3d9f07eb	0.07765182
58	0xbe646c2c	-0.2230689
59	0xbddb5999	-0.10710449
60	0x3dbccbd5	0.092185654
61	0xbee934a0	-0.45547962
62	0x3ed6e908	0.41974664
63	0x3e65b95b	0.22433989
64	0x3ebc5186	0.36780947
65	0x3ecab8ba	0.3959406
66	0xbeb5ff24	-0.3554622
67	0x3e431e06	0.19054422
68	0xbeddec8d	-0.43344536
69	0xbed7c26c	-0.4214052
70	0x3dca8cdf	0.0989015
71	0xbde81057	-0.113312416
72	0x3d76ef51	0.060286824
73	0x3de851f0	0.11343753
74	0xbe83d1ac	-0.25745904
75	0xbdc17e18	-0.094478786
76	0xbe236c0b	-0.15959184
77	0x3e411b96	0.1885818
78	0xbe56193e	-0.20908067
79	0x3e787c86	0.24266252
80	0x3eea8676	0.4580571
81	0x3bf24206	0.0073931245
82	0xbefbbf60	-0.49169445
83	0xbeb18472	-0.3467136
84	0x3e12a31e	0.14320037
85	0x3e261a9b	0.16221087
86	0xbda14f67	-0.07876473
87	0xbee91e3f	-0.45530888
88	0x3d0f3730	0.03496474
89	0x3de4bbf7	0.11168664
90	0x3cc95712	0.024577651
91	0x3dcc4bf0	0.099754214
92	0x3d9b4b08	0.075826705
93	0xbe1a7aea	-0.1508595
94	0xbe5202a0	-0.20508814
95	0xbe03d536	-0.12874302
96	0x3d457fd6	0.048217617
97	0x3e75dcab	0.2400996
98	0xbd5b653b	-0.053563338
99	0x3ea2e316	0.31813878
100	0x3db7b5c8	0.08970219
101	0x3deb29cc	0.114825815
102	0xbefb51e7	-0.49085924
103	0x3d3678e8	0.0445489
104	0x3f08fef6	0.5351404
105	0xbe490ba7	-0.19633351
106	0x3e9f74e1	0.3114386
107	0xbce2d264	-0.027688213
108	0xbe93c419	-0.28860548
109	0xbeda3473	-0.4261814
110	0x3dd41175	0.10354892
111	0xbe399433	-0.1812294
112	0xbd96a71a	-0.07356091
113	0x3ea7ba82	0.32759482
114	0xbe92a9ac	-0.28645074
115	0x3da33a11	0.0797006
116	0xbe945a9d	-0.28975382
117	0xbe998375	-0.29983106
118	0x3d1f6373	0.0389132
119	0x3ea550c0	0.3228817
120	0xbe81b44b	-0.25332865
121	0xbe912bd2	-0.28353745
122	0xbeb4c408	-0.3530581
123	0xbdc0f8c5	-0.09422449
124	0xbe95a683	-0.292286
125	0x3d083d42	0.033261545
126	0xbef66a4c	-0.48127973
127	0x3e899425	0.26870838
128	0xbd4344d9	-0.04767308
129	0x3e96e028	0.29467893
130	0xbef739e9	-0.4828637
131	0x3e737d7f	0.23778342
132	0xbdc2d006	-0.095123336
133	0x3ee17f74	0.44042552
134	0x3e3d83cc	0.18507308
135	0x3dd6ef78	0.10494894
136	0x3e433bde	0.19065806
137	0x3ddd7238	0.10812801
138	0x3e664475	0.22487052
139	0xbef98627	-0.48735163
140	0x3e54489b	0.20730822
141	0xbea0a44d	-0.31375352
142	0x3d21e4eb	0.039524954
143	0x3e2d2c7d	0.16911502
144	0xbe760df2	-0.24028757
145	0x3eb9294c	0.3616432
146	0x3eb48553	0.35257968
147	0x3e1bf06a	0.1522843
148	0x3efcfb97	0.49410698
149	0x3e9526fe	0.2913131
150	0x3eeb597e	0.45966715
151	0xbea66249	-0.3249686
152	0x3daa1b17	0.08305948
153	0xbe692d9a	-0.22771302
154	0xbf218e62	-0.63107884
155	0x3e0e527e	0.13898656
156	0xbe365056	-0.17804083
157	0x3ea403ea	0.32034236
158	0xbe7a1f10	-0.24425912
159	0xbecc605a	-0.3991726
160	0x3e417de0	0.18895674
161	0xbf0851ec	-0.5325
162	0x3e100dd0	0.14067769
163	0x3d99df8b	0.075133406
164	0x3e98a2eb	0.29811797
165	0x3ed1a1ed	0.40943852
166	0xbe41f10d	-0.1893961
167	0x3ec83038	0.39099288
168	0xbebe4fba	-0.37170202
169	0xbea93488	-0.3304789
170	0x3e582049	0.21106066
171	0xbd837970	-0.06419647
172	0xbe0190e1	-0.12652923
173	0x3e9a3510	0.30118608
174	0xbe11f695	-0.1425422
175	0xbe85e0a1	-0.2614794
176	0xbd8c0fb3	-0.06838932
177	0x3e905864	0.28192437
178	0xbe7dbac0	-0.2477827
179	0x3e320d1f	0.17387818
180	0x3ed2ba88	0.41157937
181	0xbebaa881	-0.36456683
182	0x3d3ee106	0.046601318
183	0xbe948fae	-0.2901587
184	0x3cd659ca	0.026165862
185	0x3ea8fb74	0.33004344
186	0xbe70461c	-0.23464245
187	0xbe11aee7	-0.14226876
188	0x3e28b33e	0.16474625
189	0x3e8d48fe	0.2759475
190	0xbe074ce2	-0.13212922
191	0xbb9b2b68	-0.004735399
192	0xbe385212	-0.18000057
193	0xbe3c4c86	-0.18388566
194	0xbda59cfc	-0.08086583
195	0xbdd6231c	-0.10455915
196	0xbc3a91b0	-0.011387274
197	0x3e53711b	0.20648615
198	0xbe3bcc30	-0.1833961
199	0x3ea2008d	0.31641045
200	0x3e8c3147	0.27381346
201	0xbede4882	-0.43414694
202	0xbf084d71	-0.53243166
203	0x3d8a60d3	0.06756749
204	0x3d862c9d	0.06551478
205	0xbea350fe	-0.3189773
206	0x3e837a23	0.2567912
207	0xbe685f3f	-0.22692584
208	0xbe9b5da7	-0.3034489
209	0xbe89a1ea	-0.26881343
210	0xbc4c5fd5	-0.01247402
211	0xbd5d156a	-0.0539755
212	0x3de504f4	0.11182585
213	0x3ee9d576	0.4567067
214	0xbe3bf5f9	-0.1835555
215	0xbd4bb420	-0.049732327
216	0xbe08f4dd	-0.13374658
217	0xbe46d80f	-0.19418357
218	0x3e44136b	0.19148032
219	0x3f2968ea	0.6617571
220	0xbe587e94	-0.21142036
221	0xbde325bc	-0.11091182
222	0xbe67ffa9	-0.2265612
223	0xbe8fbd22	-0.28073984
224	0xbdb61884	-0.08891395
225	0xbdd34bbd	-0.1031718
226	0xbf230782	-0.6368333
227	0x3edd94fd	0.43277732
228	0xbe17898d	-0.14798565
229	0x3ec44a54	0.38337958
230	0xbe946ee8	-0.28990865
231	0x3e443909	0.19162382
232	0xbe5d9344	-0.21638209
233	0x3e9201ee	0.28517097
234	0x3eb7336f	0.35781428
235	0xbdbdf720	-0.09275651
236	0x3e460a8d	0.19339962
237	0xbe8814ed	-0.26578465
238	0x3c2cf11c	0.010555532
239	0xbdead913	-0.11467185
240	0xbdd51bff	-0.104057305
241	0xbe1155be	-0.14192864
242	0xbca7a649	-0.020465033
243	0x3e5cfb31	0.21580197
244	0xbe78e608	-0.243065
245	0x3f079ac4	0.5297053
246	0x3e8b548f	0.2721295
247	0x3ed39d5b	0.4133099
248	0x3eb2a0a2	0.34888178
249	0x3e8fba86	0.28071994
250	0x3e523e75	0.20531638
251	0xbed2dc75	-0.4118382
252	0xbe4a5dfc	-0.19762415
253	0xbe01527f	-0.12629126
254	0xbeb9998f	-0.36249968
255	0xbbe3cec2	-0.0069521377

l3.bias f4 [18]
0	0x3d598d20	0.053113103
1	0xbdd392a4	-0.10330704
2	0xbefcd1e8	-0.49378896
3	0xbeb50657	-0.353564
4	0x3ddcb8bd	0.107774235
5	0xbd76641f	-0.060154077
6	0xbca44e2e	-0.02005681
7	0xbecd342c	-0.40078866
8	0xbe1ee028	-0.15515196
9	0xbe6b701d	-0.22991987
10	0x3ca3f034	0.020011999
11	0xbeacaa51	-0.3372369
12	0xbeb579ac	-0.3544439
13	0x3eab77b8	0.33489776
14	0xbdcc7391	-0.0998298
15	0xbe8ea03e	-0.2785663
16	0xbeda6468	-0.4265473
17	0xbeb4d6b1	-0.35320047
