LARA/data/result/d_360.pt (torch, 94638 bytes, 7 tensors)

D_attr_matrix.weight f4 [36, 5]
0.058863305 -0.46275604 -0.16992092 0.09247464 -0.07238007 -0.37497103 -0.33310458 0.16632618
-0.42289737 0.3743712 0.22467768 0.011248168 -0.032101586 -0.024253557 0.023189258 -0.079293735
-0.41319907 0.31774536 0.08945462 -0.14806347 0.017375816 -0.20500952 -0.0043546953 0.1628795
0.1137535 -0.7514999 -0.8062553 0.16421328 0.5920831 -0.46119383 -0.0044637662 -0.11628891
-0.02659732 0.54247147 0.012823403 0.5881747 -0.2268475 0.4928105 -0.15459123 -0.3657134
-0.44300604 0.15299167 0.10723681 -0.26703212 0.03761568 -0.19021888 0.12523046 -0.33997625
-0.086831324 0.1534489 0.18943277 0.122518696 0.079726465 0.014289141 0.0766665 0.026548723
0.37521523 -0.10789196 -0.16021405 -0.25029513 -0.11515757 0.0445787 -0.06638708 -0.020303877
-0.033410795 -0.2357772 0.4187241 0.08487152 0.7193242 0.7878746 0.14660521 0.2575024
0.0048025143 -0.042871036 -0.41005233 -0.12686415 0.2377829 0.1873704 0.031205356 0.2509617
0.011836843 0.040971044 -0.015326986 0.17669839 -0.03039586 -0.24968451 -0.694506 0.35190055
0.4028835 0.010891537 0.052063577 0.009035906 0.021011997 -0.048764233 -0.09602001 -0.5206941
-0.15997447 0.37591147 0.33671445 -0.56093776 -0.05208076 -0.028846597 -0.006263573 0.07275498
-0.26329902 0.37251273 0.58328956 0.62744087 0.089580916 0.21233387 -0.23673567 0.050943486
0.01815624 0.006452771 -0.03866741 -0.03179851 0.61626995 -0.4755277 0.07363804 0.5882166
-0.16980739 -0.12392921 0.044405073 -0.3918205 -0.020480456 0.1031241 0.016944263 -0.54738975
-0.16905518 0.32873666 0.046043374 0.058094107 -0.15735272 -0.06855485 -0.05657048 -0.20485285
-0.3717323 -0.040411007 0.5099819 0.3206754 0.06254945 0.01900875 -0.007306862 -0.064745285
0.047239397 -0.4800313 -0.2653072 0.007448311 0.39191085 -0.37238178 -0.10576981 0.14851165
0.08427558 0.059669834 -0.041101076 0.42332646 0.15090463 -0.34801072 -0.24448799 0.15314363
0.053480305 -0.09973228 0.19309688 0.089767 -0.034021135 -0.025657777 -0.20040189 -0.5058032
-0.11364166 0.19051561 0.030844904 0.26259091 -0.018327296 -0.22810231 -0.1950633 -0.8276762
0.20545286 0.5209332 -0.28766966 -0.30255947
00000000: a61a 713d 5cee ecbe c0ff 2dbe 5863 bd3d
00000010: 013c 94bd 34fc bfbe af8c aabe 6951 2a3e
00000020: 0186 d8be 95ad bf3e e811 663e 3c4a 383c
00000030: f47c 03bd 65af c6bc 66f7 bd3c c164 a2bd
00000040: d48e d3be 85af a23e fc33 b73d f39d 17be
00000050: ba57 8e3c 04ee 51be d5b1 8ebb e2c9 263e
00000060: 98f7 e83d 4c62 40bf bf66 4ebf 8727 283e
00000070: c292 173f 9921 ecbe c944 92bb e128 eebd
00000080: 9fe2 d9bc 69df 0a3f 4019 523c 9e92 163f
00000090: b64a 68be a851 fc3e 2a4d 1ebe c93e bbbe
000000a0: b0d1 e2be d9a9 1c3e f99e db3d 6fb8 88be
000000b0: e612 1a3d bdc8 42be 6a3c 003e 5e11 aebe
000000c0: 9fd4 b1bd b521 1d3e aafa 413e 15eb fa3d
000000d0: a147 a33d 001d 6a3c 5303 9d3d b57c d93c
000000e0: 361c c03e 76f6 dcbd 270f 24be af26 80be
000000f0: bbd7 ebbd 2898 363d f3f5 87bd 5154 a6bc
00000100: c2d9 08bd 946f 71be 0163 d63e 1fd1 ad3d
00000110: a125 383f 26b2 493f ad1f 163e 5bd7 833e
00000120: 695e 9d3b 8a99 2fbd 61f2 d1be ade8 01be
00000130: 5c7d 733e 07de 3f3e 60a2 ff3c 0d7e 803e
00000140: 51ef 413c 41d1 273d 0a1e 7bbc 6cf0 343e
00000150: bd00 f9bc 4cad 7fbe 25cb 31bf 4f2c b43e
00000160: bf46 ce3e 6b72 323c 9e40 553d 560b 143c
00000170: 5a21 ac3c 01bd 47bd 24a6 c4bd 354c 05bf
00000180: 59d0 23be 7877 c03e d665 ac3e 9e99 0fbf
00000190: a352 55bd b34f ecbc a93e cdbb 9000 953d
000001a0: 21cf 86be fdb9 be3e 7752 153f f79f 203f
000001b0: 3376 b73d 0d6e 593e d66a 72be 1eaa 503d
000001c0: 65bc 943c c471 d33b b861 1ebd 283f 02bd
000001d0: dec3 1d3f 5e78 f3be 8acf 963d 5d95 163f
000001e0: fde1 2dbe 99ce fdbd 18e2 353d b29c c8be
000001f0: a1c6 a7bc ba32 d33d b2ce 8a3c bc21 0cbf
00000200: cd1c 2dbe 2c50 a83e fa97 3c3d 16f4 6d3d
00000210: 1221 21be 7c66 8cbd 73b6 67bd f2c4 51be
00000220: b253 bebe 0386 25bd 2c8e 023f 912f a43e
00000230: ed19 803d 3db8 9b3c 676e efbb 2d99 84bd
00000240: 197e 413d aac6 f5be 58d6 87be f610 f43b
00000250: 8aa8 c83e d3a8 bebe d89d d8bd 7013 183e
00000260: ad98 ac3d 5b68 743d 9a59 28bd 3fbe d83e
00000270: be86 1a3e 762e b2be 0f5b 7abe afd1 1c3e
00000280: 2a0e 5b3d 7040 ccbd 30bb 453e c3d7 b73d
00000290: bf59 0bbd 4230 d2bc 2736 4dbe 527c 01bf
000002a0: f5bc e8bd 8616 433e 74ae fc3c 5172 863e
000002b0: 2023 96bc a793 69be acbe 47be 96e2 53bf
000002c0: 3c62 523e e15b 053f 7049 93be 13e9 9abe

l1.weight f4 [100, 108]
-0.036789574 0.12907746 -0.021315403 0.124792896 0.124184966 -0.106421664 0.028749969 0.072053805
0.08728396 -0.012557212 -0.14056116 -0.051421568 -0.08206001 0.33904162 0.14868487 -0.1338671
0.0864882 0.1588499 0.02811467 0.0409838 -0.046862114 0.005775755 -0.008053755 0.02249468
-0.051534276 -0.092054494 -0.05296185 0.016404955 0.10563925 0.19742313 0.23717065 -0.07049107
0.20346044 0.09229833 0.0017134399 0.07558998 -0.1622936 0.11101126 0.023813054 0.13549359
-0.056791276 -0.02078661 0.023200808 0.021404399 -0.114032 -0.1816049 0.030196939 0.19705059
-0.03918045 0.07613346 -0.1136421 -0.073548466 -0.05718148 -0.11257492 -0.013814486 0.2351818
0.0901664 0.032794263 0.031441476 -0.04602521 0.17181265 0.100738175 -0.23010288 0.05014174
0.0125746885 -0.14553484 -0.2018191 0.03857488 -0.023701172 0.13144967 -0.0350484 -0.1519864
0.088821046 -6.721615e-05 -0.075277686 -0.13787735 -0.19436678 -0.26266268 -0.03748738 0.010201792
0.14026512 -0.19651662 0.03144331 -0.12613751 0.1149283 -0.113359414 -0.023844233 -0.096065395
-0.017233644 0.058371313 0.1694385 0.014171906 0.28173596 0.5199129 0.15931377 0.49244547
0.3153859 0.17701301 0.24297284 0.38613272 0.3094733 -0.09837732 0.55678546 0.3936655
0.36261466 0.23698187 0.5013427 0.049310375 0.4084402 -0.1665803 -0.16145928 0.28771636
-0.5992955 -0.09774711 -1.113694 0.19832768 0.29581606 -0.15103245 -0.4048753 -0.23443474
0.16544381 -0.009171135 0.018665649 -0.38018015 -0.06013587 -0.36433464 0.19689834 0.446704
-0.23439926 -0.085797384 -0.086618505 -0.0703904 0.0781112 0.20130956 -0.16555329 0.26304176
0.14522026 0.1916935 -0.020496367 0.005270969 -0.18555562 -0.34444985 -0.35190797 0.26539505
-0.12202478 -0.09504766 -0.16480783 -0.32033634 -0.13453798 -0.20036668 0.16086017 0.17328857
-0.1228274 0.65341514 0.23863557 -0.053724065 -0.3549954 -0.002305164 0.11818445 0.22949444
0.8421078 0.03775983 -0.036007673 -0.10541807 0.12025868 0.018128565 -0.017051905 -0.018293014
-0.09635652 -0.11590012 0.7318795 -0.11901025 -0.68379056 -0.25495005 -0.69885993 0.14878236
0.99898463 0.2110916 0.1847835 0.18281783 -0.12723665 -0.110208124 0.15358908 0.3635951
-0.057630513 -0.5704174 -0.3614045 0.19666179 0.11129984 -0.057553433 0.8755742 0.21950832
-0.3334948 -0.4169903 0.15204915 0.35471633 -0.112071164 -0.2187816 -0.16416544 -0.15155752
-0.22996263 -0.041995667 -0.091477096 -0.34581807 -0.15676466 -0.14201978 0.16595666 -0.09061716
-0.023220306 0.08756039 -0.35647604 -0.048480585 -0.05402822 0.19859312 -0.10015733 0.004329732
0.16439755 -0.051940218 -0.21079963 0.084384196 -0.045347657 -0.14790373 0.046993595 0.22802292
0.05457371 -0.0016160653 -0.14822145 -0.054463197 -0.012456112 0.10672825 -0.021369979 -0.15358713
-0.1670423 -0.05476137 -0.03518169 0.37815556 -0.0011191625 -0.0101698665 0.13605024 0.010566531
0.03521123 0.0868877 0.08545036 -0.17091706 -0.050680976 0.10142006 -0.00803944 0.0035795155
0.13870282 0.12151798 0.09167804 -0.17084205 -0.038141146 0.08423254 0.08111751 0.013075742
00000000: aab0 16bd e22c 043e a49d aebc 6b93 ff3d
00000010: b054 fe3d 9af3 d9bd 0e85 eb3c f290 933d
00000020: efc1 b23d c4bc 4dbc 44ef 0fbe 6c9f 52bd
00000030: 140f a8bd dd96 ad3e d940 183e 7514 09be
00000040: ba20 b13d 8ca9 223e bd50 e63c a1de 273d
00000050: 7df2 3fbd 8b42 bd3b e6f3 03bc c346 b83c
00000060: 9b15 53bd 1187 bcbd 86ee 58bd af63 863c
00000070: 6459 d83d 4a29 4a3e dddc 723e 9f5d 90bd
00000080: ef57 503e e806 bd3d 8195 e03a ebce 9a3d
00000090: 4b30 26be df59 e33d 9813 c33c d5be 0a3e
000000a0: f89d 68bd ae48 aabc 9f0f be3c 4758 af3c
000000b0: 9c89 e9bd a3f6 39be 925f f73c a1c7 493e
000000c0: ae7b 20bd dceb 9b3d 30bd e8bd 94a0 96bd
000000d0: 2137 6abd ae8d e6bd 2756 62bc 7fd3 703e
000000e0: 29a9 b83d 4753 063d c7c8 003d ee84 3cbd
000000f0: a8ef 2f3e d14f ce3d 17a0 6bbe 6d61 4d3d
00000100: 1106 4e3c 1607 15be aba9 4ebe b200 1e3d
00000110: f628 c2bc be9a 063e e98e 0fbd 53a2 1bbe
00000120: cfe7 b53d 65f6 8cb8 302b 9abd b82f 0dbe
00000130: 1608 47be b97b 86be 5e8c 19bd 6b25 273c
00000140: a9a1 0f3e a73b 49be b3ca 003d 312a 01be
00000150: 875f eb3d fb28 e8bd fb54 c3bc efbd c4bd
00000160: 922d 8dbc c216 6f3d 4981 2d3e 4831 683c
00000170: b23f 903e 0319 053f 2623 233e d021 fc3e
00000180: 437a a13e e642 353e dfcd 783e 30b3 c53e
00000190: 4973 9e3e 0c7a c9bd 7e89 0e3f 868e c93e
000001a0: a1a8 b93e 60ab 723e ff57 003f adf9 493d
000001b0: 131f d13e 0794 2abe 9555 25be 8f4f 933e
000001c0: 6e6b 19bf a32f c8bd 868d 8ebf 6916 4b3e
000001d0: 3475 973e 40a8 1abe d14b cfbe a90f 70be
000001e0: 1a6a 293e 8742 16bc b4e8 983c f9a6 c2be
000001f0: 0851 76bd 128a babe b89f 493e 63b6 e43e
00000200: 5c06 70be 8ab6 afbd 0b65 b1bd d828 90bd
00000210: c4f8 9f3d 1824 4e3e cd86 29be 69ad 863e
00000220: 9fb4 143e 4d4b 443e ffe7 a7bc 18b8 ac3b
00000230: 4b02 3ebe bb5b b0be 482d b4be dce1 873e
00000240: 21e8 f9bd 59a8 c2bd 62c3 28be 2003 a4be
00000250: 53c4 09be ec2c 4dbe 87b8 243e 8f72 313e
00000260: ef8c fbbd 3746 273f e25c 743e c40d 5cbd
00000270: f5c1 b5be 3c12 17bb b00a f23d 9700 6b3e
00000280: 6094 573f 0daa 1a3d c87c 13bd 6ee5 d7bd
00000290: 2f4a f63d 5b82 943c 70b0 8bbc 3bdb 95bc
000002a0: 9156 c5bd 0b5d edbd 745c 3b3f a5bb f3bd
000002b0: e60c 2fbf d088 82be 7ce8 32bf 675a 183e
000002c0: 75bd 7f3f 6528 583e e337 3d3e 9934 3b3e
000002d0: 534a 02be ccb4 e1bd 7546 1d3e 2329 ba3e
000002e0: f90d 6cbd e006 12bf 030a b9be b561 493e
000002f0: 2cf1 e33d 26bd 6bbd a125 603f cac6 603e
00000300: d5bf aabe c17f d5be c6b2 1b3e 619d b53e
00000310: 9185 e5bd 4908 60be fc1a 28be e531 1bbe
00000320: 537b 6bbe a603 2cbd 5858 bbbd 110f b1be
00000330: ea86 20be a26d 11be 8bf0 293e 7d95 b9bd
00000340: 8338 bebc dd52 b33d 0784 b6be 9493 46bd
00000350: b24c 5dbd ff5b 4b3e 491f cdbd 6de0 8d3b
00000360: d557 283e 44bf 54bd dcdb 57be 9fd1 ac3d
00000370: 77be 39bd 1374 17be 5b7c 403d d77e 693e
00000380: af88 5f3d 27d2 d3ba 5dc7 17be cd14 5fbd
00000390: b814 4cbc 5794 da3d 1810 afbc f245 1dbe
000003a0: 230d 2bbe 754d 60bd ad1a 10bd 9b9d c13e
000003b0: ddb0 92ba 839f 26bc c150 0b3e 3e1f 2d3c
000003c0: a739 103d 2ef2 b13d 9900 af3d e204 2fbe
000003d0: db96 4fbd 52b5 cf3d dbb7 03bc 4e96 6a3b
000003e0: 1d08 0e3e 6bde f83d b2c1 bb3d 38f1 2ebe
000003f0: e439 1cbd 1c82 ac3d f020 a63d a33b 563c

l1.bias f4 [100]
-0.09545832 0.0060621854 0.28128427 -0.1262818 -0.06117853 -0.12804252 0.032240715 0.10381121
-0.06902331 -0.14181137 0.2019393 -0.1405882 0.06924204 0.258558 0.008828129 -0.098068476
0.061104134 0.045713145 -0.20163289 0.17196663 -0.25262904 -0.19698241 -0.11047816 0.2918756
0.018903865 -0.02187964 -0.16547 -0.050587602 0.11466822 0.16485427 -0.013846111 -0.16003673
-0.16731918 0.0017051873 -0.28822988 0.07271579 -0.24362253 0.11541336 -0.10292252 -0.09441293
0.026102232 0.1736789 0.078178614 0.31145686 0.07216304 0.08767415 0.018920776 0.15312514
0.058404863 -0.11115238 -0.11260698 -0.08771176 0.017994275 -0.12759405 0.018604768 0.29662988
0.027738797 0.075855635 0.049917694 0.18521707 0.26907745 -0.039593622 -0.063716725 -0.11449876
0.15514258 -0.21353449 -0.064707726 0.3698285 -0.09258955 0.20254755 -0.008232692 0.073508315
-0.1346329 -0.113884695 0.19202343 0.019722162 0.01886004 0.11808983 -0.17188007 0.25801498
-0.24201386 -0.082090914 0.10424911 -0.13347504 -0.0029931415 0.27965617 0.073705465 -0.032353565
0.055363674 0.22347513 0.17828019 0.20336778 -0.011694213 -0.010937324 -0.19022813 -0.0022566894
0.22714153 -0.028703863 -0.08567661 0.0008427839
00000000: a77f c3bd 4ca5 c63b 7e04 903e 0450 01be
00000010: 5796 7abd 941d 03be d70e 043d f99a d43d
00000020: 185c 8dbd 0037 11be 2dc9 4e3e 5af6 0fbe
00000030: c5ce 8d3d b761 843e dba3 103c 20d8 c8bd
00000040: 5448 7a3d b53d 3b3d da78 4ebe 0518 303e
00000050: 9858 81be c2b5 49be 6042 e2bd b870 953e
00000060: 47dc 9a3c ee3c b3bc f870 29be f234 4fbd
00000070: 2cd7 ea3d 8fcf 283e ccda 62bc abe0 23be
00000080: b855 2bbe 9780 df3a de92 93be 04ec 943d
00000090: 2f78 79be d75d ec3d 0bc9 d2bd 915b c1bd
000000a0: 59d4 d53c e2d8 313e 1c1c a03d 4677 9f3e
000000b0: 37ca 933d 818e b33d beff 9a3c d6cc 1c3e
000000c0: f039 6f3d dca3 e3bd 7d9e e6bd 39a2 b3bd
000000d0: bb68 933c 04a8 02be 0769 983c dfdf 973e
000000e0: 793c e33c 335a 9b3d 7f76 4c3d 8ba9 3d3e
000000f0: 85c4 893e ec2c 22bd ea7d 82bd 537e eabd
00000100: b2dd 1e3e c9a8 5abe 7c85 84bd 295a bd3e
00000110: 979f bdbd a068 4f3e 6ae2 06bc 878b 963d
00000120: 35dd 09be 613c e9bd caa1 443e 5f90 a13c
00000130: 5f80 9a3c 15d9 f13d 5401 30be 8a1a 843e
00000140: 7bd2 77be 481f a8bd 8f80 d53d aead 08be
00000150: 9528 44bb 182f 8f3e e4f2 963d 2c85 04bd
00000160: 05c5 623d aad6 643e 158f 363e a53f 503e
00000170: 1699 3fbc 7632 33bc 2acb 42be f7e4 13bb
00000180: ca97 683e 5d24 ebbc 3877 afbd 45ee 5c3a

l2.weight f4 [100, 100]
0.1746624 -0.41936892 -0.26221332 -0.04988476 0.33805028 -0.07835801 -0.13292995 -0.017060377
-0.1453654 -0.043800894 0.065127075 0.41502002 -0.037889313 -0.06276523 0.1438956 0.32440692
-0.07004276 -0.15216328 0.1232454 -0.15773176 0.37203014 0.008253796 0.19453347 -0.12969233
0.23274803 0.13356254 -0.10491798 0.14008081 -0.04518129 -0.25010532 0.017281352 -0.065406404
0.33761296 -0.18325692 0.025333036 -0.10668767 0.014388197 -0.025578 0.2503409 -0.10769311
-0.0070906985 -0.127135 -0.29931217 -0.2079579 -0.02357051 0.089798346 0.0940606 0.076712176
0.08298041 -0.1339973 0.1374266 0.0060767415 -0.04909396 -0.09287298 -0.21602283 0.16404197
0.26396093 -0.2743323 -0.28495696 0.013515956 0.25392136 -0.17265174 -0.029832417 -0.1733616
-0.05632204 0.10504656 -0.39237657 -0.26584345 0.0796733 -0.06496493 -0.3603843 -0.135784
0.19423045 0.011795248 -0.1975234 -0.1133717 0.2563138 -0.4291567 -0.06349521 -0.461899
0.1314029 0.18864317 0.06960348 0.102936216 0.111654714 0.15607677 0.21467993 -0.027466586
0.31508663 -0.19316135 0.28914085 -0.21643236 -0.17725717 -0.046311438 -0.09850044 0.1828955
-0.13800445 0.17590179 -0.033807036 0.2016445 -0.00615851 0.48713663 0.17976588 -0.31401014
-0.26644725 0.041711614 0.030202711 0.090872705 -0.14063755 0.122783385 0.0144549925 -0.004895025
-0.03464736 0.1873004 -0.019664174 -0.3304024 -0.072848655 0.11868885 -0.2228628 0.16417377
-0.1818914 0.16139662 0.025714884 0.09780045 -0.05075405 -0.13819095 0.18807852 -0.23210034
0.18994395 0.18065402 0.13684063 -0.030128313 -0.37371117 0.27434662 -0.047929082 0.27372602
0.10070257 0.004764644 -0.12340459 0.17542276 -0.22139801 0.22225773 0.26013392 -0.13750167
-0.057533506 0.10906121 0.104013495 0.018573668 -0.2944855 -0.39377317 -0.014020736 -0.07800258
-0.10001134 0.08081134 0.1480855 0.008583948 0.05170201 0.38219202 0.17384906 -0.14490083
0.021035098 -0.005838742 0.15195626 -0.03322953 0.4746611 0.07699526 0.39926827 0.30276513
-0.04858018 0.022398446 0.12835506 -0.15874709 -0.5964833 -0.101836376 0.040572546 -0.11679056
-0.18107212 -0.4314419 0.16532353 0.2774603 -0.17865467 -0.20299804 0.006989184 0.060671706
-0.1678895 -0.015835816 -0.33949414 0.101955704 0.024946539 0.49316424 -0.068143085 0.12424286
0.06438585 0.085544266 0.070397116 -0.016629834 -0.0030641686 -0.17794731 -0.077971965 0.14286217
0.5901279 -0.12434548 -0.4576046 0.06910243 -0.153406 0.3284265 -0.40165684 -0.60646164
0.20237353 0.5731978 -0.91104984 0.054270934 -0.32652482 -0.7521392 -0.43259367 0.11352418
-0.84998494 -0.91553116 -0.046251506 -0.13238199 -0.1037016 0.2713994 0.30099916 0.19330972
-0.99058384 0.26923487 0.093427084 0.10044442 0.10931655 -1.4764197 0.99330175 0.11372056
0.89230025 0.39093122 0.30522865 -0.32097253 0.038325604 -0.08076855 0.20505837 0.07798435
0.2632591 0.0012593389 0.1024898 -0.5571996 -0.07508192 0.97150767 -0.53641105 -0.20594531
0.8793525 0.58151436 -0.27696204 -0.021340866 0.619391 -0.7102041 0.33214426 0.29545
00000000: b3da 323e 86b7 d6be d340 86be f653 4cbd
00000010: ed14 ad3e 2a7a a0bd ca1e 08be 34c2 8bbc
00000020: abda 14be 9168 33bd 5861 853d 817d d43e
00000030: d331 1bbd 0f8b 80bd 5e59 133e aa18 a63e
00000040: 9472 8fbd b1d0 1bbe 1668 fc3d 6f84 21be
00000050: bc7a be3e ee3a 073c c833 473e 11ce 04be
00000060: 8055 6e3e 9ec4 083e 3ddf d6bd 5871 0f3e
00000070: 0410 39bd ce0d 80be 9f91 8d3c cbf3 85bd
00000080: 9bdb ac3e b4a7 3bbe 3a87 cf3c 117f dabd
00000090: 79bc 6b3c f488 d1bc af2c 803e 358e dcbd
000000a0: 1759 e8bb ad2f 02be 723f 99be eaf2 54be
000000b0: f116 c1bc 32e8 b73d d8a2 c03d 461b 9d3d
000000c0: a2f1 a93d 9736 09be 8fb9 0c3e 671f c73b
000000d0: c016 49bd 3034 bebd 1735 5dbe 9efa 273e
000000e0: e325 873e 4975 8cbe e1e5 91be 0772 5d3c
000000f0: fb01 823e 9ecb 30be 1d63 f4bc b485 31be
00000100: f0b1 66bd a722 d73d 95e5 c8be a21c 88be
00000110: c12b a33d 550c 85bd 4a84 b8be f60a 0bbe
00000120: 59e4 463e db40 413c 9343 4abe 6c2f e8bd
00000130: 903b 833e 6dba dbbe c709 82bd 077e ecbe
00000140: 7b8e 063e ad2b 413e 458c 8e3d 39d0 d23d
00000150: 3aab e43d 97d2 1f3e 0ed5 5b3e 9b01 e1bc
00000160: 0953 a13e 17cc 45be 450a 943e 72a0 5dbe
00000170: e782 35be 10b1 3dbd 99ba c9bd f548 3b3e
00000180: 0a51 0dbe 991f 343e 3f79 0abd e57b 4e3e
00000190: 54cd c9bb f969 f93e 8c14 383e f0c5 a0be
000001a0: c66b 88be ccd9 2a3d ad6b f73c 781b ba3d
000001b0: 4a03 10be db75 fb3d a2d4 6c3c 7266 a0bb
000001c0: 64ea 0dbd adcb 3f3e c316 a1bc 812a a9be
000001d0: ad31 95bd 2413 f33d 2536 64be 2b1d 283e
000001e0: bd41 3abe 2845 253e 05a8 d23c 9a4b c83d
000001f0: 7be3 4fbd ee81 0dbe a897 403e b6ab 6dbe
00000200: ab80 423e 5efd 383e f31f 0c3e a7cf f6bc
00000210: 1257 bfbe 2977 8c3e 4951 44bd d125 8c3e
00000220: 263d ce3d bb20 9c3b 8cbb fcbd 06a2 333e
00000230: 29b6 62be 8897 633e 4630 853e 3dcd 0cbe
00000240: 41a8 6bbd 7c5b df3d 0705 d53d ce27 983c
00000250: cec6 96be a39c c9be 3bb7 65bc d1bf 9fbd
00000260: bfd2 ccbd 6a80 a53d baa3 173e b0a3 0c3c
00000270: 7dc5 533d acae c33e 7d05 323e e260 14be
00000280: cc51 ac3c eb52 bfbb 6c9a 1b3e b01b 08bd
00000290: c806 f33e b1af 9d3d e46c cc3e 0804 9b3e
000002a0: 03fc 46bd f27c b73c 826f 033e 998e 22be
000002b0: 21b3 18bf 978f d0bd 662f 263d e42f efbd
000002c0: f86a 39be f4e5 dcbe 924a 293e 470f 8e3e
000002d0: 40f1 36be b8de 4fbe 8605 e53b e582 783d
000002e0: 3aeb 2bbe 1dba 81bc 2dd2 adbe 27ce d03d
000002f0: af5c cc3c 0680 fc3e 9a8e 8bbd 0a73 fe3d
00000300: bbdc 833d d531 af3d 5d2c 903d 4a3b 88bc
00000310: 38d0 48bb d237 36be c4af 9fbd 764a 123e
00000320: 9f12 173f d8a8 febd 264b eabe 9385 8d3d
00000330: 7616 1dbe 8527 a83e f7a5 cdbe 1241 1bbf
00000340: 023b 4f3e 17bd 123f 903a 69bf 334b 5e3d
00000350: 432e a7be 328c 40bf eb7c ddbe 5e7f e83d
00000360: 9d98 59bf 4060 6abf 3872 3dbd 258f 07be
00000370: 8161 d4bd ddf4 8a3e 901c 9a3e fcf2 453e
00000380: e796 7dbf 27d9 893e b356 bf3d ceb5 cd3d
00000390: 5be1 df3d 52fb bcbf 0649 7e3f 53e6 e83d
000003a0: ca6d 643f 2328 c83e ee46 9c3e 8356 a4be
000003b0: 4ffb 1c3d fb69 a5bd d2fa 513e 42b6 9f3d
000003c0: e6c9 863e 6710 a53a 2ce6 d13d a2a4 0ebf
000003d0: 8dc4 99bd bab4 783f 3c52 09bf 54e3 52be
000003e0: 3f1d 613f 20de 143f f8cd 8dbe 0ad3 aebc
000003f0: 6990 1e3f f0cf 35bf d00e aa3e 3945 973e

l2.bias f4 [100]
-0.3375824 0.4143099 0.13473126 -0.25768977 -0.002598183 0.14803031 -0.0757608 0.15550134
0.052562263 0.10578737 0.08495027 0.41438723 0.43430805 -0.30707267 0.3110285 -0.064280644
0.4204057 0.17406441 -0.19948398 -0.044477955 0.19269538 0.3231685 0.26891026 0.13735911
0.15613066 -0.2556163 0.19308135 -0.397333 0.053502038 -0.04277374 0.10283481 -0.17399071
0.34282878 0.057883024 -0.08027247 -0.17936443 -0.09314308 0.11474922 -0.0035171972 -0.033909176
-0.35608667 0.10105978 -0.07388972 -0.23822127 0.13295029 -0.07175453 0.32023722 0.058773555
-0.1507417 -0.12567984 -0.39184216 0.14397375 -0.27990746 0.037139438 0.2307904 -0.06330572
0.38125497 -0.34631544 0.3967998 0.32507563 0.14188169 -0.05603192 -0.020727575 -0.08723567
-0.33390132 -0.22288549 0.12966987 -0.17726424 0.04967885 -0.037172172 -0.093944214 0.019550614
-0.03208546 -0.17953761 0.060292687 0.022614712 0.399708 -0.08545324 -0.19582696 -0.13423906
-0.17020145 0.0209433 0.051977918 0.08191243 -0.13452081 -0.46768606 0.20684475 0.21796197
-0.09250071 -0.21687177 -0.1814391 -0.08354977 0.18792357 0.038297225 0.19809656 0.31251493
-0.09353478 0.22071703 0.44814572 -0.18291938
00000000: 9ad7 acbe 6d20 d43e fef6 093e eaef 83be
00000010: 4746 2abb 4295 173e 7a28 9bbd be3b 1f3e
00000020: 874b 573d 0ca7 d83d 68fa ad3d 902a d43e
00000030: a05d de3e a138 9dbe 213f 9f3e 92a5 83bd
00000040: 6a3f d73e f13d 323e 8745 4cbe 842e 36bd
00000050: f051 453e 5776 a53e 9bae 893e dea7 0c3e
00000060: b7e0 1f3e 24e0 82be 1eb7 453e 3b6f cbbe
00000070: f424 5b3d 8433 2fbd 0f9b d23d 9f2a 32be
00000080: 4187 af3e c016 6d3d e565 a4bd 4fab 37be
00000090: cdc1 bebd a401 eb3d c780 66bb 59e4 0abd
000000a0: fe50 b6be 6ef8 ce3d 7e53 97bd 47f0 73be
000000b0: 1f24 083e 0af4 92bd 22f6 a33e 8abc 703d
000000c0: 085c 1abe 37b2 00be 899f c8be db6d 133e
000000d0: 0850 8fbe 861f 183d 5254 6c3e 6ea6 81bd
000000e0: da33 c33e 4250 b1be 5829 cb3e 5070 a63e
000000f0: 6f49 113e ba81 65bd e0cc a9bc 9da8 b2bd
00000100: 1df5 aabe 183c 64be 2ec8 043e c284 35be
00000110: 0d7c 4b3d d941 18bd d365 c0bd 9c28 a03c
00000120: 0b6c 03bd b5d8 37be 77f5 763d 7d42 b93c
00000130: 87a6 cc3e 1c02 afbd dd86 48be f775 09be
00000140: 4a49 2ebe 4991 ab3c cce6 543d b4c1 a73d
00000150: d3bf 09be 8c74 efbe 1ccf 533e 6c31 5f3e
00000160: 0371 bdbd a213 5ebe 2ccb 39be 241c abbd
00000170: 096f 403e 8ddd 1c3d d3d9 4a3e f501 a03e
00000180: 2a8f bfbd a503 623e 5b73 e53e 384f 3bbe

l3.weight f4 [18, 100]
-0.09310939 -0.27021345 -0.62281007 0.22950715 0.40331766 -0.3580728 0.13002338 -0.1928746
-0.009906722 -0.28355312 -0.06251889 -0.3544884 -0.17800954 0.49728757 -0.07269994 -0.08736604
-0.21905644 -0.10661225 -0.05079339 0.6765684 -0.28511736 -0.09963553 -0.07934814 -0.09636524
-0.26267418 0.26915824 -0.40917316 0.3343227 -0.28122693 0.37572214 -0.3124673 0.2370735
-0.22699207 0.4393068 0.34338215 0.21736911 0.16927193 -0.09007398 0.08012346 -0.22508462
0.36542624 -0.25247243 0.07412407 0.11557438 -0.3057927 0.38555878 0.3146558 0.22179945
0.40926313 0.2100414 0.20640345 -0.2749047 0.2506107 -0.5944829 -0.3932487 0.292525
-0.22455914 0.08223357 -0.22826058 -0.112219036 0.08925888 -0.4629872 0.42559683 0.2201415
0.37241548 0.39768395 -0.35991603 0.19492893 -0.44349077 -0.42777622 0.09171061 -0.14600459
0.061549544 0.11846618 -0.24747929 -0.099506766 -0.16547546 0.19327539 -0.22207782 0.24718799
0.45863077 0.0013408795 -0.49690774 -0.35336053 0.13967651 0.1726003 -0.098548934 -0.45976296
0.039911848 0.116710685 0.029718852 0.1043268 0.07143153 -0.15261261 -0.21056017 -0.13308455
0.053154893 0.24481747 -0.057914607 0.32248884 0.09324165 0.11118101 -0.49886668 0.048267815
0.5516976 -0.19860502 0.30508372 -0.03134278 -0.29238945 -0.43056318 0.099496216 -0.18467674
-0.0785339 0.34392 -0.2986386 0.08336031 -0.2934532 -0.30356267 0.042656332 0.34313333
-0.25705835 -0.28724277 -0.35660398 -0.09742028 -0.2971477 0.03692553 -0.48832083 0.27958003
-0.05138739 0.3137566 -0.48619944 0.24116491 -0.09885629 0.44547394 0.19537507 0.10586174
0.19361167 0.104484335 0.22956893 -0.4893451 0.21101707 -0.3229295 0.042916723 0.17309593
-0.2432861 0.36519253 0.35400844 0.16718738 0.5097511 0.29512185 0.46330997 -0.3367779
0.08678583 -0.23140387 -0.64318526 0.15736796 -0.18150362 0.32423577 -0.24777058 -0.40300035
0.18450405 -0.53915894 0.15040578 0.070796266 0.3017548 0.40958393 -0.19314791 0.39471954
-0.38248235 -0.33960885 0.20127629 -0.09607273 -0.12883961 0.3047371 -0.13656294 -0.26581213
-0.073870316 0.28557235 -0.2555452 0.17745888 0.41394123 -0.3725462 0.042335164 -0.30048844
0.022691624 0.33544415 -0.24764383 -0.14598885 0.1693573 0.2797905 -0.12403667 -0.0010976793
-0.18372765 -0.18550666 -0.085723646 -0.1081907 -0.0066866293 0.21103321 -0.18710965 0.32012323
0.276957 -0.4368838 -0.54149175 0.07076088 0.08605116 -0.32274166 0.25016087 -0.22987656
-0.3063904 -0.2737594 -0.012387263 -0.05704277 0.1086316 0.47259483 -0.18757495 -0.046841707
-0.1367573 -0.19711915 0.1943759 0.6811427 -0.21433872 -0.113839746 -0.23023997 -0.28346783
-0.099193424 -0.10038571 -0.63893944 0.44210395 -0.150918 0.40417796 -0.29279733 0.19425012
-0.21931252 0.29365602 0.37290347 -0.08726423 0.19762078 -0.26874655 0.015557464 -0.12486457
-0.10111655 -0.1523155 -0.017883245 0.21889026 -0.24576375 0.5336907 0.27472496 0.4238582
0.36425278 0.28370276 0.20808876 -0.42409357 -0.19472785 -0.12916401 -0.37804177 0.00830565
00000000: 23b0 bebd 6b59 8abe 7b70 1fbf ec03 6b3e
00000010: a77f ce3e 5155 b7be d924 053e eb80 45be
00000020: ce4f 22bc e02d 91be e709 80bd 817f b5be
00000030: 2248 36be 7a9c fe3e b5e3 94bd f7ec b2bd
00000040: 5550 60be 8657 dabd bb0c 50bd 9633 2d3f
00000050: e7fa 91be b60d ccbd 4781 a2bd 245b c5bd
00000060: 3b7d 86be 1ccf 893e 257f d1be 582c ab3e
00000070: fafc 8fbe a75e c03e b7fb 9fbe 65c3 723e
00000080: 9c70 68be d2ec e03e c9cf af3e 0296 5e3e
00000090: 9f55 2d3e b578 b8bd c517 a43d 957c 66be
000000a0: 2619 bb3e 1144 81be 5cce 973d 43b2 ec3d
000000b0: dc90 9cbe f667 c53e 911a a13e 651f 633e
000000c0: f08a d13e 1815 573e 6d5b 533e 4fc0 8cbe
000000d0: 0c50 803e 0830 18bf e557 c9be d6c5 953e
000000e0: d5f2 65be 136a a83d 24bd 69be 18d3 e5bd
000000f0: 5ccd b63d a90c edbe d4e7 d93e c66c 613e
00000100: 3ead be3e 3b9d cb3e ea46 b8be 739b 473e
00000110: 3911 e3be 7c05 dbbe c6d2 bb3d 3a82 15be
00000120: 601b 7c3d 669e f23d 366b 7dbe 34ca cbbd
00000130: 6672 29be fce9 453e 5e68 63be d91e 7d3e
00000140: a7d1 ea3e 73c0 af3a b16a febe aceb b4be
00000150: 5c07 0f3e 22be 303e 06d4 c9bd 0d66 ebbe
00000160: 9b7a 233d 0306 ef3d f374 f33c 4aa9 d53d
00000170: b24a 923d 7b46 1cbe 169d 57be 5147 08be
00000180: f2b8 593d 6eb1 7a3e de37 6dbd 421d a53e
00000190: 7af5 be3d dfb2 e33d 746b ffbe 79b4 453d
000001a0: 0e3c 0d3f 1d5f 4bbe ef33 9c3e 4961 00bd
000001b0: 12b4 95be c772 dcbe acc4 cb3d e61b 3dbe
000001c0: 62d6 a0bd 4816 b03e 29e7 98be cfb8 aa3d
000001d0: 7f3f 96be 916c 9bbe 68b8 2e3d 2caf af3e
000001e0: 279d 83be 7c11 93be cc94 b6be 4984 c7bd
000001f0: be23 98be 393f 173d 3005 fabe 1d25 8f3e
00000200: 957b 52bd b4a4 a03e 22ef f8be eff3 763e
00000210: 2b75 cabd 2915 e43e 6710 483e 0ace d83d
00000220: 2342 463e e2fb d53d 1e14 6b3e 718b fabe
00000230: dc14 583e 0457 a5be 72c9 2f3d 0f40 313e
00000240: fe1f 79be 84fa ba3e 9840 b53e 2b33 2b3e
00000250: 0c7f 023f 361a 973e f736 ed3e 276e acbe
00000260: c5bc b13d 23f5 6cbe caa7 24bf 1125 213e
00000270: 16dc 39be 3b02 a63e 92b7 7dbe 1056 cebe
00000280: a1ee 3c3e 5206 0abf f903 1a3e a2fd 903d
00000290: 9b7f 9a3e fcb4 d13e 91c8 45be ae18 ca3e
000002a0: bad4 c3be 36e1 adbe 5f1b 4e3e c8c1 c4bd
000002b0: 88ee 03be 8006 9c3e 28d7 0bbe 8718 88be
000002c0: 5249 97bd 8a36 923e d2d6 82be c8b7 353e
000002d0: 1bf0 d33e 60be bebe a367 2d3d 9fd9 99be
000002e0: c9e3 b93c 56bf ab3e 5896 7dbe 1a7e 15be
000002f0: 006c 2d3e b340 8f3e f006 febd 01e0 8fba
00000300: 1a23 3cbe 75f5 3dbe e18f afbd 1693 ddbd
00000310: 831b dbbb 1719 583e ac99 3fbe 31e7 a33e
00000320: 4fcd 8d3e 3caf dfbe 349f 0abf 15eb 903d
00000330: 973b b03d 653e a5be 1615 803e c364 6bbe
00000340: 34df 9cbe 312a 8cbe f2f3 4abc aea5 69bd
00000350: 3f7a de3d f3f7 f13e a613 40be 17dd 3fbd
00000360: 1b0a 0cbe 9ad9 49be 7a0a 473e 5e5f 2e3f
00000370: 9c7b 5bbe d024 e9bd 07c4 6bbe b222 91be
00000380: ec25 cbbd 0697 cdbd 8991 23bf 735b e23e
00000390: 408a 1abe 6af0 ce3e 88e9 95be 81e9 463e
000003a0: 7693 60be 155a 963e 34ed be3e 97b7 b2bd
000003b0: 1a5d 4a3e 2699 89be bce4 7e3c ffb8 ffbd
000003c0: 3216 cfbd 98f8 1bbe e27f 92bc c524 603e
000003d0: 7ea9 7bbe f49f 083f c0a8 8c3e f103 d93e
000003e0: 577f ba3e 7d41 913e 3815 553e cb22 d9be
000003f0: bd66 47be 9243 04be b18e c1be 6c14 083c

l3.bias f4 [18]
0.048775457 -0.10702537 -0.49672166 -0.35649338 0.10330026 -0.06287024 -0.02439357 -0.40525487
-0.15760258 -0.23282069 0.016218677 -0.34039432 -0.3582689 0.3315036 -0.104199626 -0.28301227
-0.42950168 -0.35683233
00000000: c6c8 473d 1e30 dbbd 4d52 febe 4d86 b6be
00000010: 168f d33d 1dc2 80bd 06d5 c7bc 917d cfbe
00000020: 9262 21be 8c68 6ebe 08dd 843c 2a48 aebe
00000030: 056f b7be d7ba a93e 9d66 d5bd fce6 90be
00000040: a5e7 dbbe bab2 b6be
