LARA/data/result/d_370.pt (torch, 94638 bytes, 7 tensors)

D_attr_matrix.weight f4 [36, 5]
0.056329943 -0.4629286 -0.16869797 0.091420405 -0.06541755 -0.39076394 -0.33281606 0.1685318
-0.43047455 0.3980647 0.22650757 0.008407058 -0.02623832 -0.004618814 0.009342806 -0.07804502
-0.4192633 0.32085663 0.09731736 -0.1684502 0.021464275 -0.20606503 -0.02108876 0.15641813
0.11705326 -0.760164 -0.8046774 0.17487967 0.5862041 -0.46737018 -0.0016562004 -0.11866075
-0.02256531 0.5444071 0.007661631 0.58905315 -0.22661193 0.49641615 -0.15700899 -0.37042877
-0.4437386 0.15298808 0.107919544 -0.26869398 0.03918464 -0.19006135 0.12625726 -0.35317972
-0.08763612 0.15649258 0.19015358 0.123091206 0.0803534 0.01535062 0.07697076 0.02963877
0.38392413 -0.104494534 -0.17426063 -0.25728253 -0.11565654 0.045017455 -0.06858253 -0.029656857
-0.037566092 -0.23752783 0.42140046 0.0836929 0.7191131 0.78438115 0.15389247 0.25817835
0.0048760083 -0.045562856 -0.4154352 -0.12627356 0.23917736 0.18721999 0.025516633 0.251584
0.017978331 0.03984142 -0.0148351295 0.17767686 -0.0305354 -0.25394362 -0.69921607 0.35307848
0.40599734 0.0099146245 0.05752974 0.016442046 0.012768437 -0.048780106 -0.097518474 -0.5144725
-0.14854929 0.3703139 0.33214504 -0.56354564 -0.048798285 -0.028012482 -0.0055485056 0.073074326
-0.26393878 0.37668577 0.6104319 0.6431654 0.09401233 0.20634101 -0.23649155 0.05001386
0.022477232 0.0018508445 -0.03960654 -0.027571406 0.6132982 -0.49249503 0.06724139 0.59643567
-0.1687582 -0.12644209 0.044531565 -0.3943898 -0.02118802 0.1054848 0.013448711 -0.5716513
-0.16877148 0.33608758 0.03884213 0.047689687 -0.15889469 -0.06302288 -0.048610132 -0.21675283
-0.39657173 -0.04043324 0.51961577 0.32739452 0.0767661 0.028633982 -0.0019630755 -0.07019023
0.060483422 -0.4966245 -0.26892608 0.019118218 0.40587196 -0.38454482 -0.10963166 0.14998515
0.10030233 0.07775627 -0.04601106 0.46444198 0.15165426 -0.36817902 -0.26225373 0.15676658
0.052128486 -0.09969423 0.19664134 0.08892927 -0.052315302 -0.019466769 -0.20540433 -0.50814986
-0.111355565 0.19089682 0.0365156 0.26409894 -0.018412862 -0.22888614 -0.19515732 -0.8448436
0.20388775 0.5671985 -0.28556558 -0.3039567
00000000: 3aba 663d fa04 edbe 29bf 2cbe 9f3a bb3d
00000010: a3f9 85bd 3612 c8be de66 aabe 9a93 2c3e
00000020: 2967 dcbe 23cf cb3e 9af1 673e c2bd 093c
00000030: bff1 d6bc 6c59 97bb 9212 193c 11d6 9fbd
00000040: aea9 d6be 5247 a43e 534e c73d 367e 2cbe
00000050: d9d5 af3c b602 53be 56c2 acbc 132c 203e
00000060: 9fb9 ef3d 1c9a 42bf 57ff 4dbf a813 333e
00000070: 7911 163f 254b efbe dd14 d9ba 6804 f3bd
00000080: e3da b8bc 445e 0b3f 6b0e fb3b 30cc 163f
00000090: f50c 68be 422a fe3e f7c6 20be d7a8 bdbe
000000a0: b531 e3be e8a8 1c3e ec04 dd3d 4292 89be
000000b0: 1380 203d 719f 42be 9549 013e f9d3 b4be
000000c0: 917a b3bd 973f 203e 9fb7 423e 3e17 fc3d
000000d0: 5390 a43d 2b81 7b3c d9a2 9d3d 01cd f23c
000000e0: b491 c43e 3b01 d6bd 6171 32be 89ba 83be
000000f0: 56dd ecbd 3964 383d ff74 8cbd f0f2 f2bc
00000100: e7de 19bd 7f3a 73be cdc1 d73e 2f67 ab3d
00000110: cc17 383f 34cd 483f fd95 1d3e f42f 843e
00000120: ecc6 9f3b 1ea0 3abd ecb3 d4be db4d 01be
00000130: e9ea 743e 99b6 3f3e 4208 d13c 9ecf 803e
00000140: 4b47 933c c230 233d 0b0f 73bc ecf0 353e
00000150: 6025 fabc e604 82be d3ff 32bf b4c6 b43e
00000160: e2de cf3e f370 223c 4ea4 6b3d 78b1 863c
00000170: b532 513c a6cd 47bd c4b7 c7bd 78b4 03bf
00000180: 4e1d 18be c999 bd3e ea0e aa3e 8744 10bf
00000190: b6e0 47bd 6f7a e5bc 3dd0 b5bb fea7 953d
000001a0: fc22 87be f5dc c03e 4445 1c3f 7da6 243f
000001b0: 8989 c03d 0f4b 533e d72a 72be 55db 4c3d
000001c0: 2c22 b83c 0998 f23a 783a 22bd 6edd e1bc
000001d0: 1c01 1d3f 4f28 fcbe dbb5 893d 02b0 183f
000001e0: f3ce 2cbe 097a 01be bb66 363d 76ed c9be
000001f0: 8092 adbc 6a08 d83d fb57 5c3c bd57 12bf
00000200: 6ed2 2cbe ac13 ac3e ed18 1f3d 4356 433d
00000210: 4ab5 22be 2412 81bd 6b1b 47bd 74f4 5dbe
00000220: 730b cbbe 539d 25bd 8a05 053f 41a0 a73e
00000230: 8c37 9d3d d091 ea3c f1a6 00bb e5bf 8fbd
00000240: 77bd 773d 9145 febe aeb0 89be cf9d 9c3c
00000250: 73ce cf3e 0fe3 c4be 9086 e0bd b595 193e
00000260: 4f6b cd3d ae3e 9f3d 1876 3cbd 57cb ed3e
00000270: 414b 1b3e f681 bcbe 1f46 86be 6b87 203e
00000280: ae84 553d 7d2c ccbd 595c 493e 8d20 b63d
00000290: 9248 56bd c678 9fbc 8355 52be 1c16 02bf
000002a0: 630e e4bd 757a 433e 6291 153d fa37 873e
000002b0: 92d6 96bc 2161 6abe 52d7 47be ac47 58bf
000002c0: f3c7 503e ec33 113f a735 92be 36a0 9bbe

l1.weight f4 [100, 108]
-0.036100984 0.13264136 -0.017999917 0.12468543 0.124161266 -0.10990541 0.0302677 0.07156978
0.08783415 -0.015022006 -0.14341648 -0.048635785 -0.0819507 0.33623317 0.14441364 -0.1328634
0.089592434 0.16195503 0.024290053 0.03875257 -0.043689948 0.0025243503 -0.004173826 0.025541563
-0.05519021 -0.09485357 -0.05742106 0.015277052 0.11169177 0.19850144 0.24043195 -0.07325772
0.20653687 0.09334266 0.0037106562 0.075035095 -0.1657336 0.10766069 0.021678036 0.13726093
-0.056761574 -0.020118611 0.023997318 0.01793216 -0.11167139 -0.18131019 0.03267943 0.19311535
-0.03854692 0.08009841 -0.12161575 -0.08723628 -0.071348876 -0.11584272 -0.012403873 0.23870236
0.08811285 0.03237585 0.03183992 -0.043757647 0.17517613 0.10404898 -0.23221748 0.053652212
0.015070753 -0.14911002 -0.20410612 0.042138007 -0.022012651 0.13462329 -0.03659772 -0.15254688
0.086060464 0.0006451497 -0.07664063 -0.13448697 -0.19773054 -0.26563665 -0.039187316 0.012507504
0.13841823 -0.19273308 0.031005245 -0.12754476 0.11125704 -0.117375046 -0.027373204 -0.09194286
-0.013833583 0.061658524 0.17951812 0.064486094 0.2817091 0.4488091 0.20440267 0.59011406
0.19342361 0.1863491 0.23216833 0.47342393 0.37567636 -0.086738124 0.51600885 0.3598242
0.33393937 0.23429298 0.56646776 -0.056930467 0.42667598 -0.16473807 -0.17731746 0.30730405
-0.6185852 -0.10287712 -1.1177565 0.20457624 0.30026945 -0.15504059 -0.40526918 -0.2309724
0.16856568 -0.012856366 0.015509937 -0.39452136 -0.055132084 -0.3774608 0.19615999 0.46073893
-0.23319335 -0.08877803 -0.07217154 -0.06987256 0.07079455 0.19901714 -0.17082979 0.26305693
0.15847853 0.19730785 -0.017126491 0.0023408963 -0.1819019 -0.34145898 -0.35032308 0.27972195
-0.12501577 -0.11099103 -0.17796686 -0.33139575 -0.13964692 -0.20402147 0.16288677 0.17056048
-0.11867707 0.646477 0.23058368 -0.053642876 -0.34816504 -0.0011346855 0.109690405 0.20072722
0.81155896 0.033507604 -0.03523446 -0.10290289 0.110926 0.02915985 -0.02868272 -0.029314592
-0.09506975 -0.11413015 0.74550575 -0.11636343 -0.6985167 -0.26582903 -0.70938605 0.15264188
1.0123093 0.2219615 0.1894979 0.1865843 -0.12945877 -0.11367678 0.1580991 0.3844474
-0.06102271 -0.590553 -0.38384473 0.22047766 0.1054902 -0.05610316 0.8696005 0.21352431
-0.3268025 -0.43515944 0.14865652 0.37050655 -0.108870365 -0.21555322 -0.16332415 -0.18665119
-0.26198533 0.014654756 -0.12369013 -0.36742523 -0.12010791 -0.15074731 0.19353257 -0.15589848
-0.08819475 0.108548805 -0.36348486 -0.0017351115 -0.026566152 0.17155011 -0.09174878 0.031267725
0.16066441 -0.050196555 -0.2074428 0.07996201 -0.041262507 -0.14985763 0.046322238 0.22935672
0.05533625 -0.0026829503 -0.14158608 -0.05206673 -0.015793411 0.10427874 -0.0211609 -0.15936674
-0.16519886 -0.060630005 -0.036319837 0.38418218 -0.0003729351 -0.011627229 0.14330329 0.011017937
0.031852864 0.084645204 0.08513441 -0.1745389 -0.05812994 0.09662767 -0.0065066577 0.0024284788
0.14049228 0.123760514 0.093821876 -0.17088759 -0.039723225 0.08267019 0.08142806 0.014093512
00000000: a0de 13bd 23d3 073e 9074 93bc 135b ff3d
00000010: 4348 fe3d 1616 e1bd f8f3 f73c 2d93 923d
00000020: 64e2 b33d dc1e 76bc c5db 12be 5136 47bd
00000030: c5d5 a7bd c126 ac3e 2be1 133e 580d 08be
00000040: 3d7c b73d 8ad7 253e effb c63c 04bb 1e3d
00000050: 3bf4 32bd 926f 253b 97c4 88bb 8a3c d13c
00000060: 210f 62bd 9742 c2bd 5832 6bbd 9a4c 7a3c
00000070: a8be e43d f643 4b3e cb33 763e 2508 96bd
00000080: 677e 533e 702a bf3d 7b2e 733b 00ac 993d
00000090: 12b6 29be 357d dc3d 2396 b13c 218e 0c3e
000000a0: d37e 68bd c9cf a4bc 0696 c43c 77e6 923c
000000b0: f8b3 e4bd 61a9 39be deda 053d 08c0 453e
000000c0: 60e3 1dbd a30a a43d ae11 f9bd efa8 b2bd
000000d0: 5c1f 92bd f33e edbd 9d39 4bbc 646e 743e
000000e0: 8374 b43d 8a9c 043d 936a 023d 383b 33bd
000000f0: 5f61 333e a217 d53d 6bca 6dbe 6cc2 5b3d
00000100: 52eb 763c 4cb0 18be 3201 51be e798 2c3d
00000110: e053 b4bc b0da 093e 7ee7 15bd 4035 1cbe
00000120: 7840 b03d 431f 293a c3f5 9cbd f4b6 09be
00000130: e079 4abe 8701 88be e182 20bd 46ec 4c3c
00000140: 82bd 0d3e d25b 45be b6fe fd3c 189b 02be
00000150: bbda e33d 5462 f0bd c53d e0bc 8a4c bcbd
00000160: 41a6 62bc a68d 7c3d 99d3 373e 4911 843d
00000170: 2d3c 903e 4eca e53e ef4e 513e b711 173f
00000180: d710 463e 4cd2 3e3e 89bd 6d3e 9f64 f23e
00000190: a758 c03e c2a3 b1bd 2819 043f e13a b83e
000001a0: 1afa aa3e 80ea 6f3e 0804 113f ec2f 69bd
000001b0: 4675 da3e 19b1 28be b592 35be f556 9d3e
000001c0: 9a5b 1ebf 3db1 d2bd a512 8fbf 6f7c 513e
000001d0: ebbc 993e f6c2 1ebe 717f cfbe 0784 6cbe
000001e0: 7b9c 2c3e 82a3 52bc 641d 7e3c b4fe c9be
000001f0: 2ed2 61bd 8b42 c1be 2ade 483e f9e5 eb3e
00000200: 3dca 6ebe 41d1 b5bd acce 93bd 5819 8fbd
00000210: bcfc 903d 26cb 4b3e 01ee 2ebe 66af 863e
00000220: 3248 223e 120b 4a3e db4c 8cbc b969 193b
00000230: 7e44 3abe b6d3 aebe 8c5d b3be b737 8f3e
00000240: 2204 00be 444f e3bd f23c 36be b4ac a9be
00000250: 9aff 0ebe 01eb 50be cacb 263e 68a7 2e3e
00000260: f70c f3bd 847f 253f 211e 6c3e a2b8 5bbd
00000270: b042 b2be bab9 94ba 5da5 e03d 708b 4d3e
00000280: 54c2 4f3f 453f 093d 0252 10bd c0be d2bd
00000290: 2c2d e33d a3e0 ee3c 06f8 eabc 2825 f0bc
000002a0: eeb3 c2bd 11bd e9bd 77d9 3e3f f34f eebd
000002b0: fed1 32bf be1a 88be 539a 35bf 274e 1c3e
000002c0: 5a93 813f e049 633e bd0b 423e f40f 3f3e
000002d0: d790 04be 5fcf e8bd bbe4 213e 4ad6 c43e
000002e0: f3f2 79bd 7b2e 17bf 4c87 c4be e5c4 613e
000002f0: 3f0b d83d 6dcc 65bd 239e 5e3f 1ea6 5a3e
00000300: a852 a7be 38cd debe 6a39 183e 09b3 bd3e
00000310: 6df7 debd fcb9 5cbe 723e 27be 7d21 3fbe
00000320: f122 86be 801a 703c 4051 fdbd 291f bcbe
00000330: 23fb f5bd 815d 1abe 672d 463e daa3 1fbe
00000340: 739f b4bd d64e de3d b01a babe ae6c e3ba
00000350: 42a1 d9bc d5aa 2f3e c9e6 bbbd 9612 003d
00000360: 3685 243e e79a 4dbd e36b 54be 1fc3 a33d
00000370: e002 29bd 4774 19be 63bc 3d3d 7ddc 6a3e
00000380: 44a8 623d 70d4 2fbb f1fb 10be ec43 55bd
00000390: 2f61 81bc 1890 d53d a059 adbc 0931 23be
000003a0: e429 29be 2b57 78bd 1cc4 14bd 87b3 c43e
000003b0: 8086 c3b9 2280 3ebc 19be 123e 9484 343c
000003c0: 2678 023d 775a ad3d f35a ae3d 53ba 32be
000003d0: a919 6ebd bae4 c53d cd35 d5bb 1d27 1f3b
000003e0: 35dd 0f3e 2776 fd3d af25 c03d 28fd 2ebe
000003f0: d2b4 22bd fd4e a93d c1c3 a63d 79e8 663c

l1.bias f4 [100]
-0.09906627 0.0028074074 0.27974242 -0.12489747 -0.059143726 -0.1299517 0.033673484 0.10653589
-0.069317535 -0.1448515 0.20923547 -0.14367007 0.071978286 0.26056197 0.011243978 -0.09681464
0.06346198 0.050947107 -0.19787097 0.17249717 -0.25211564 -0.19813132 -0.111219674 0.2970905
0.020497136 -0.019706339 -0.16710095 -0.052422073 0.114243165 0.16803275 -0.015916016 -0.16050215
-0.16706814 -0.0005137769 -0.29257324 0.07947626 -0.24027815 0.117787346 -0.103108704 -0.1006977
0.02767231 0.17059442 0.07755444 0.31461343 0.07671689 0.08533302 0.018871188 0.15673605
0.05474031 -0.114171 -0.11072381 -0.08114502 0.014574558 -0.12406563 0.01828605 0.29398087
0.01955025 0.078183115 0.05102283 0.18590045 0.2705851 -0.037230905 -0.06513644 -0.111331396
0.15792584 -0.20937788 -0.060340498 0.37346438 -0.0901708 0.20209153 -0.005076017 0.07761065
-0.1309427 -0.111938745 0.19385745 0.022654789 0.015260925 0.120637156 -0.17981483 0.2607633
-0.2320293 -0.08293661 0.10265132 -0.13685803 -0.0037935502 0.2817471 0.07278179 -0.029882187
0.058516007 0.22029428 0.1807331 0.20020503 -0.013745691 -0.013621905 -0.1938438 -0.004080581
0.22832683 -0.03278417 -0.09053307 -0.003023878
00000000: 42e3 cabd 7bfc 373b 663a 8f3e 3fca ffbd
00000010: b140 72bd 0f12 05be 35ed 093d 7d2f da3d
00000020: 5af6 8dbd f453 14be d341 563e 3f1e 13be
00000030: 5a69 933d 6168 853e a938 383c c146 c6bd
00000040: 5bf8 813d eaad 503d b09e 4abe 19a3 303e
00000050: 4d15 81be f0e2 4abe 24c7 e3bd 3f1c 983e
00000060: 9ce9 a73c 306f a1bc 831c 2bbe 87b8 56bd
00000070: 52f8 e93d c710 2c3e 4e62 82bc ad5a 24be
00000080: e913 2bbe fcae 06ba 29cc 95be 73c4 a23d
00000090: 7a0b 76be 7e3a f13d a82a d3bd 993a cebd
000000a0: 0ab1 e23c 4eb0 2e3e ddd4 9e3d 0315 a13e
000000b0: bf1d 9d3d 14c3 ae3d c097 9a3c 6a7f 203e
000000c0: 6037 603d 7cd2 e9bd 2ac3 e2bd 5c2f a6bd
000000d0: 20ca 6e3c 1f16 febd a0cc 953c a984 963e
000000e0: d927 a03c 781e a03d 51fd 503d b05c 3e3e
000000f0: 218a 8a3e 6f7f 18bd 4166 85bd b701 e4bd
00000100: 50b7 213e 2867 56be 9927 77bd b936 bf3e
00000110: 78ab b8bd 15f1 4e3e b854 a6bb 55f2 9e3d
00000120: d815 06be 2440 e5bd 9182 463e 8996 b93c
00000130: f508 7a3c 9d10 f73d 6121 38be c482 853e
00000140: 1799 6dbe abda a9bd db3a d23d 8324 0cbe
00000150: 369d 78bb 2841 903e 9e0e 953d 7dcb f4bc
00000160: 7bae 6f3d d394 613e 1912 393e 8c02 4d3e
00000170: 9b35 61bc 692e 5fbc fd7e 46be 65b6 85bb
00000180: 82ce 693e b248 06bd 6769 b9bd 412c 46bb

l2.weight f4 [100, 100]
0.20064302 -0.4161054 -0.26229495 -0.054984596 0.3492352 -0.07206676 -0.1172242 -0.009907717
-0.1465484 -0.038732186 0.057896562 0.4236809 -0.037443265 -0.047381584 0.17313975 0.31669185
-0.05582967 -0.1463874 0.10800192 -0.15834616 0.37980255 0.009196509 0.19171329 -0.13231532
0.26846808 0.12799977 -0.09310827 0.13433515 -0.045775443 -0.23988964 0.0052823294 -0.09833297
0.36192596 -0.17802875 0.032228325 -0.1192918 0.0059900093 -0.026691616 0.25468954 -0.095747925
-0.023881946 -0.117237486 -0.29567862 -0.19797705 -0.0370575 0.047520228 0.10538068 0.06713344
0.11852201 -0.112779275 0.13356857 -0.008570791 -0.052103475 -0.08692554 -0.23263408 0.16356246
0.29466835 -0.27136734 -0.28905803 0.015721845 0.2591205 -0.18193656 -0.05695783 -0.16236264
-0.05124425 0.08688896 -0.401108 -0.26082152 0.11607787 -0.056281023 -0.38020638 -0.13992131
0.19646676 0.01639867 -0.19025113 -0.13703558 0.29622805 -0.4455769 -0.06418667 -0.4670958
0.12244416 0.15230484 0.09038381 0.10380801 0.10253751 0.15297179 0.22115856 -0.034175504
0.30965427 -0.1870908 0.30727652 -0.21034804 -0.19878036 -0.020431405 -0.092409775 0.16853525
-0.13285407 0.20219752 -0.04918935 0.20481521 -0.0043738172 0.5165887 0.19222079 -0.3104036
-0.2932039 0.03984585 0.008233054 0.095603876 -0.14419432 0.12961179 0.025960527 -0.0010092399
-0.04094463 0.17557773 -0.031306658 -0.327921 -0.06398454 0.10763621 -0.20700932 0.16474813
-0.177935 0.16308556 0.03316512 0.10208482 -0.08159926 -0.13222724 0.1962447 -0.21765211
0.19700481 0.18631166 0.14732388 -0.029876914 -0.40342513 0.28156868 -0.056096885 0.2892525
0.10853447 0.0016498661 -0.12154917 0.16690768 -0.21000332 0.2124044 0.24945864 -0.15275566
-0.04893518 0.12802038 0.10113456 0.032820556 -0.30392918 -0.40557846 -0.0070900177 -0.07419213
-0.109126955 0.074812934 0.17500965 -0.0010972637 0.062379956 0.38508818 0.17102261 -0.13541026
0.014098555 0.00012083548 0.1543025 -0.047661424 0.4682193 0.10254658 0.4146876 0.30468866
-0.06070465 0.013550461 0.12729692 -0.17170723 -0.620386 -0.13915113 0.03210605 -0.08131972
-0.19903168 -0.450733 0.16877478 0.2769887 -0.17574914 -0.16427357 0.006932984 0.06599563
-0.16651349 -0.025564356 -0.34829202 0.11377139 0.024934463 0.49990526 -0.09821313 0.12083451
0.103518456 0.07988704 0.07272302 -0.0023601346 -0.027235437 -0.18571043 -0.07952165 0.13002904
0.58881843 -0.13014472 -0.47966176 0.07248415 -0.1592483 0.32184893 -0.41172698 -0.6344169
0.20218103 0.5251033 -0.90786415 0.053919315 -0.33136377 -0.779215 -0.48860753 0.11425545
-0.8701998 -0.92370075 -0.04517443 -0.13765563 -0.10198088 0.24329081 0.30544114 0.19071487
-0.97268206 0.25119075 0.08021287 0.100902416 0.1036363 -1.4780365 1.030158 0.100726314
0.941433 0.3348178 0.29921898 -0.292603 0.041991614 -0.08387604 0.20606726 0.08519985
0.26152572 -0.022235509 0.104772866 -0.59788543 -0.07945931 1.0507224 -0.5440282 -0.19517736
0.89895695 0.59869564 -0.28479955 -0.027520739 0.6546017 -0.7122636 0.36166182 0.29715362
00000000: 5d75 4d3e c40b d5be 864b 86be 8737 61bd
00000010: f5ce b23e bd97 93bd 3e13 f0bd fa53 22bc
00000020: c910 16be a4a5 1ebd f224 6d3d b4ec d83e
00000030: 1c5e 19bd 3113 42bd 8c4b 313e 6f25 a23e
00000040: a7ad 64bd 94e6 15be 1c30 dd3d 7f25 22be
00000050: 7b75 c23e f4ac 163c 7d50 443e ab7d 07be
00000060: a674 893e 5f12 033e 8caf bebd 278f 093e
00000070: 087f 3bbd a1a5 75be 6417 ad3b cc62 c9bd
00000080: 5c4e b93e 2b4d 36be d901 043d 424f f4bd
00000090: d747 c43b 60a8 dabc ab66 823e 7d17 c4bd
000000a0: 12a4 c3bc 351a f0bd 3063 97be 7fba 4abe
000000b0: 9bc9 17bd 92a4 423d d3d1 d73d 427d 893d
000000c0: abbb f23d d2f8 e6bd 33c6 083e 816c 0cbc
000000d0: 746a 55bd 0406 b2bd a137 6ebe eb7c 273e
000000e0: c5de 963e a9f0 8abe 6aff 93be 19cb 803c
000000f0: 71ab 843e 944d 3abe 9d4c 69bd 6442 26be
00000100: 7ee5 51bd d7f2 b13d 075e cdbe 668a 85be
00000110: 3cba ed3d ee86 66bd 69aa c2be 8847 0fbe
00000120: 952e 493e 8156 863c 31d1 42be 0e53 0cbe
00000130: 34ab 973e a822 e4be 4d74 83bd 2e27 efbe
00000140: 01c4 fa3d cdf5 1b3e 261b b93d 4b99 d43d
00000150: 30ff d13d a3a4 1c3e 6477 623e 9dfb 0bbd
00000160: 018b 9e3e bb94 3fbe 5953 9d3e 7a65 57be
00000170: 148d 4bbe c35f a7bc 5641 bdbd 8194 2c3e
00000180: e60a 08be de0c 4f3e c67a 49bd 14bb 513e
00000190: 3d52 8fbb 283f 043f 87d5 443e 38ed 9ebe
000001a0: d21e 96be 6735 233d eee3 063c f7cb c33d
000001b0: ada7 13be f4b8 043e 2cab d43c 7948 84ba
000001c0: 8eb5 27bd a6ca 333e 693b 00bd 43e5 a7be
000001d0: 540a 83bd 6070 dc3d 40fa 53be bcb3 283e
000001e0: 9834 36be e7ff 263e 26d8 073d d911 d13d
000001f0: 831d a7bd 9466 07be 5ff4 483e 32e0 5ebe
00000200: a1bb 493e 7cc8 3e3e 12dc 163e 6ec0 f4bc
00000210: bd8d cebe c529 903e d9c5 65bd e718 943e
00000220: 5247 de3d 5240 d83a c5ee f8bd d9e9 2a3e
00000230: 1c0b 57be 8a80 593e 1672 7f3e fb6b 1cbe
00000240: 4170 48bd c617 033e a31f cf3d d96e 063d
00000250: 9b9c 9bbe fba7 cfbe 6153 e8bb 0bf2 97bd
00000260: f47d dfbd 8637 993d bb35 333e 0fd2 8fba
00000270: 2082 7f3d 472a c53e 8d20 2f3e fda8 0abe
00000280: a0fd 663c 0e69 fd38 7901 1e3e a038 43bd
00000290: 71ba ef3e f103 d23d ef51 d43e 2700 9c3e
000002a0: 70a5 78bd c102 5e3c 205a 023e 05d4 2fbe
000002b0: 9ed1 1ebf a27d 0ebe a281 033d f48a a6bd
000002c0: f6ce 4bbe 7ac6 e6be 4cd3 2c3e 76d1 8d3e
000002d0: 95f7 33be 5537 28be 162e e33b b828 873d
000002e0: 8382 2abe 576c d1bc 5553 b2be f900 e93d
000002f0: 5c43 cc3c 95f3 ff3e f723 c9bd 1578 f73d
00000300: 7c01 d43d d19b a33d cfef 943d 7dac 1abb
00000310: da1c dfbc e02a 3ebe 3fdc a2bd 5526 053e
00000320: cebc 163f a844 05be 3a96 f5be 9272 943d
00000330: fd11 23be 62c9 a43e e1cd d2be 2569 22bf
00000340: 8b08 4f3e 2b6d 063f c969 68bf 80da 5c3d
00000350: 83a8 a9be a27a 47bf c42a fabe c3fe e93d
00000360: 6ac5 5ebf a777 6cbf d308 39bd 99f5 0cbe
00000370: 5adb d0bd 3a21 793e c862 9c3e c24a 433e
00000380: b101 79bf 139c 803e a546 a43d eda5 ce3d
00000390: 453f d43d 4d30 bdbf 38dc 833f 9949 ce3d
000003a0: c101 713f 3d6d ab3e 3b33 993e 0fd0 95be
000003b0: 66ff 2b3d 34c7 abbd 4c03 533e 427d ae3d
000003c0: b3e6 853e 3e27 b6bc 2893 d63d 050f 19bf
000003d0: 90bb a2bd 127e 863f 6f45 0bbf 93dc 47be
000003e0: 0b22 663f 1e44 193f 3fd1 91be 2c73 e1bc
000003f0: fa93 273f e856 36bf bd2b b93e 8524 983e

l2.bias f4 [100]
-0.33426547 0.41075805 0.13371661 -0.26014635 -0.006174161 0.1391291 -0.069423325 0.15734412
0.055251013 0.112477206 0.0868677 0.41689616 0.43639812 -0.30686232 0.3132729 -0.068825394
0.42831692 0.17913428 -0.20340388 -0.041263677 0.19838382 0.32493922 0.26969108 0.1366646
0.15802173 -0.25796378 0.19030328 -0.39960504 0.057923593 -0.042813078 0.100724146 -0.17197855
0.3480991 0.05938546 -0.08468765 -0.17604293 -0.09364514 0.11755188 -0.004278088 -0.040817857
-0.36135063 0.10783281 -0.06970638 -0.24054265 0.12992866 -0.06656615 0.31781852 0.06346563
-0.1482824 -0.13047542 -0.39417782 0.14714372 -0.2829856 0.045758046 0.22879814 -0.06821135
0.378065 -0.35485572 0.3947407 0.32303694 0.14419818 -0.056262396 -0.025926422 -0.09876709
-0.33418924 -0.22197117 0.1362314 -0.17039788 0.046893634 -0.036146965 -0.09308533 0.017986003
-0.03386519 -0.18024059 0.07180614 0.024132697 0.39986068 -0.08924984 -0.19933283 -0.12984915
-0.17306389 0.024204113 0.051758077 0.077448905 -0.124708466 -0.47108945 0.20309103 0.22605845
-0.09565327 -0.21258245 -0.18046975 -0.0886661 0.1869904 0.041906975 0.19870739 0.3167465
-0.099208005 0.22232635 0.4551249 -0.18867032
00000000: d824 abbe e14e d23e 02ed 083e e731 85be
00000010: 9e50 cabb dc77 0e3e d12d 8ebd d11e 213e
00000020: e34e 623d 735a e63d b1e7 b13d 6a73 d53e
00000030: 936f df3e 0f1d 9dbe 4e65 a03e 54f4 8cbd
00000040: 5b4c db3e fa6e 373e 1b49 50be 1a04 29bd
00000050: 2125 4b3e 6f5e a63e f314 8a3e cef1 0b3e
00000060: 73d0 213e d413 84be ddde 423e 0899 ccbe
00000070: 4a41 6d3d c45c 2fbd 7648 ce3d 251b 30be
00000080: 0c3a b23e 2b3e 733d b870 adbd 9944 34be
00000090: 06c9 bfbd 0abf f03d 342f 8cbb a030 27bd
000000a0: f302 b9be 73d7 dc3d 38c2 8ebd d050 76be
000000b0: 050c 053e d553 88bd 1cb9 a23e 45fa 813d
000000c0: 57d7 17be 599b 05be add1 c9be d8ac 163e
000000d0: 7de3 90be ca6c 3b3d 0f4a 6a3e 64b2 8bbd
000000e0: bc91 c13e a6af b5be 741b ca3e 1965 a53e
000000f0: b0a8 133e 6673 66bd a663 d4bc 6646 cabd
00000100: da1a abbe 694c 63be 3e80 0b3e c87c 2ebe
00000110: 8a13 403d d70e 14bd 86a3 bebd 6257 933c
00000120: 3ab6 0abd fd90 38be 190f 933d efb1 c53c
00000130: 8aba cc3e 9fc8 b6bd e81d 4cbe 2df7 04be
00000140: a937 31be b447 c63c 4700 543d 889d 9e3d
00000150: 2767 ffbd a332 f1be 18f7 4f3e de7b 673e
00000160: dde5 c3bd 37af 59be 10cd 38be 9296 b5bd
00000170: 697a 3f3e a6a6 2b3d f379 4b3e 992c a23e
00000180: 912d cbbd 85a9 633e 2206 e93e cb32 41be

l3.weight f4 [18, 100]
-0.08937134 -0.2740385 -0.6220029 0.23339593 0.41013563 -0.3597353 0.12446731 -0.1964731
-0.013482723 -0.28571874 -0.06750013 -0.35824335 -0.18216611 0.49727485 -0.08570961 -0.083736636
-0.22263023 -0.11015596 -0.047220968 0.6747554 -0.28865835 -0.10318056 -0.08490491 -0.10057396
-0.26665387 0.27287838 -0.41408658 0.3359981 -0.28477564 0.3755866 -0.31637886 0.24110363
-0.23053177 0.4382396 0.34564722 0.21406767 0.16841894 -0.09368402 0.08439617 -0.21731214
0.3689742 -0.25583598 0.07796916 0.11959095 -0.31000993 0.37928605 0.31484216 0.22252056
0.41087344 0.21372348 0.21008654 -0.27624083 0.2541686 -0.5980352 -0.38966617 0.28469753
-0.22835572 0.08575959 -0.23223841 -0.11645783 0.08746464 -0.46434158 0.42733994 0.22298172
0.3761 0.3986323 -0.36347035 0.19851361 -0.44112417 -0.42780522 0.10508807 -0.12156434
0.06540071 0.12248176 -0.25000933 -0.10350139 -0.16969784 0.19694474 -0.2234352 0.25089496
0.45582706 -0.0002224843 -0.500978 -0.34667835 0.1331888 0.17524233 -0.094081454 -0.46334827
0.04382525 0.12067689 0.030628825 0.10801534 0.0678169 -0.15408747 -0.21462171 -0.13667041
0.056793205 0.24365915 -0.061455857 0.32602993 0.097443216 0.106991835 -0.49837247 0.052565914
0.55658674 -0.20047435 0.30011272 -0.035510514 -0.29658183 -0.43221626 0.09242113 -0.18880549
-0.08331308 0.3432407 -0.3141728 0.08756192 -0.29759777 -0.30772883 0.04683342 0.34082362
-0.26121998 -0.29140282 -0.36082348 -0.101547465 -0.2990931 0.041082453 -0.492762 0.2813248
-0.055552702 0.3124364 -0.49034786 0.24534585 -0.103017785 0.44446856 0.19494128 0.1012944
0.19115198 0.100303106 0.2344332 -0.47935754 0.21517327 -0.32517612 0.04730194 0.17758243
-0.24745144 0.3580493 0.3549012 0.16665438 0.5109257 0.2993102 0.46746656 -0.3372086
0.09095122 -0.23555206 -0.6394461 0.15510443 -0.18567675 0.3283434 -0.251966 -0.40761665
0.1816802 -0.5406879 0.15145513 0.07303882 0.305896 0.40983164 -0.19730298 0.3989188
-0.38067678 -0.33882138 0.21691637 -0.07126174 -0.12084391 0.30889595 -0.14077501 -0.2704992
-0.07890923 0.28970927 -0.25349575 0.1816614 0.41230345 -0.37245783 0.037702408 -0.293716
0.016182208 0.33991596 -0.23807847 -0.150112 0.17418244 0.28411323 -0.120470025 0.0030618948
-0.18794598 -0.18738863 -0.09052553 -0.11237372 -0.0022387246 0.21030022 -0.19126849 0.32428217
0.2824466 -0.44221112 -0.5399345 0.07635565 0.09208761 -0.32286048 0.24335651 -0.23523492
-0.3117504 -0.27542827 -0.022048747 -0.06245329 0.102763906 0.471226 -0.20675957 -0.041440435
-0.14209989 -0.20245397 0.19971347 0.6784462 -0.2196694 -0.119172975 -0.23613903 -0.28885144
-0.10316409 -0.09508802 -0.6384039 0.44315213 -0.15625694 0.4029834 -0.29820004 0.19960392
-0.22464347 0.29138196 0.37378994 -0.09247533 0.19453928 -0.27413434 0.021802213 -0.11645957
-0.095782615 -0.15447506 -0.0122915 0.22463557 -0.2512277 0.5257444 0.27434623 0.4185625
0.36510107 0.2890806 0.21339908 -0.42437646 -0.18940191 -0.13448188 -0.37400585 0.010605586
00000000: 5208 b7bd c64e 8cbe 953b 1fbf 58ff 6e3e
00000010: 4cfd d13e 3a2f b8be b8e8 fe3d 3f30 49be
00000020: a4e6 5cbc ba49 92be 823d 8abd ac6b b7be
00000030: c189 3abe cf9a fe3e 8588 afbd 1d7e abbd
00000040: 2ef9 63be 7399 e1bd c66a 41bd c5bc 2c3f
00000050: 07cb 93be 5450 d3bd a0e2 adbd b8f9 cdbd
00000060: db86 88be b7b6 8b3e 2803 d4be f107 ac3e
00000070: 1dce 91be e34c c03e 69fc a1be dfe3 763e
00000080: 8510 6cbe f160 e03e acf8 b03e 8e34 5b3e
00000090: 0476 2c3e 68dd bfbd e6d7 ac3d 1387 5ebe
000000a0: 30ea bc3e effc 82be 4cae 9f3d 1aec f43d
000000b0: 9fb9 9ebe c831 c23e fe32 a13e 6edc 633e
000000c0: 015e d23e 54da 5a3e ed20 573e 706f 8dbe
000000d0: 6322 823e d618 19bf 5382 c7be e0c3 913e
000000e0: 15d6 69be b9a2 af3d e8cf 6dbe 7181 eebd
000000f0: a920 b33d 2ebe edbe 4dcc da3e 5255 643e
00000100: 2e90 c03e 8819 cc3e c918 babe 2747 4b3e
00000110: 07db e1be 4909 dbbe 6a38 d73d baf6 f8bd
00000120: cff0 853d b8d7 fa3d 3901 80be 89f8 d3bd
00000130: 45c5 2dbe e2ab 493e 32cc 64be 4e75 803e
00000140: 2a62 e93e ad4a 69b9 1840 00bf d37f b1be
00000150: a562 083e ba72 333e c7ad c0bd fc3b edbe
00000160: 1b82 333d 7225 f73d 4de9 fa3c 2637 dd3d
00000170: 96e3 8a3d 1bc9 1dbe cbc5 5bbe 54f3 0bbe
00000180: fe9f 683d c981 793e 23b9 7bbd 65ed a63e
00000190: 4f90 c73d 891e db3d ad2a ffbe 5b4f 573d
000001a0: 787c 0e3f 2649 4dbe 60a8 993e 7973 11bd
000001b0: 93d9 97be 734b ddbe 4a47 bd3d 3a56 41be
000001c0: 0ca0 aabd 3fbd af3e 42db a0be aa53 b33d
000001d0: bc5e 98be a28e 9dbe 66d4 3f3d 6f80 ae3e
000001e0: a0be 85be c032 95be dbbd b8be 1ef8 cfbd
000001f0: bb22 99be 1346 283d 4d4b fcbe ce09 903e
00000200: 3b8b 63bd aaf7 9f3e e00e fbbe f13b 7b3e
00000210: fdfa d2bd 6291 e33e b09e 473e 7073 cf3d
00000220: 58bd 433e b76b cd3d 420f 703e 5a6e f5be
00000230: 6256 5c3e 7c7d a6be aebf 413d 2bd8 353e
00000240: e963 7dbe 3d52 b73e 9cb5 b53e 72a7 2a3e
00000250: 07cc 023f 303f 993e c757 ef3e 9ba6 acbe
00000260: a244 ba3d 8f34 71be bdb2 23bf b2d3 1e3e
00000270: 0c22 3ebe a01c a83e b001 81be 21b3 d0be
00000280: 600a 3a3e 866a 0abf 0e17 1b3e 6095 953d
00000290: 679e 9c3e 74d5 d13e cb09 4abe 163f cc3e
000002a0: 11e8 c2be ff79 adbe 531f 5e3e adf1 91bd
000002b0: 037d f7bd 9c27 9e3e 5327 10be df7e 8abe
000002c0: 2a9b a1bd c654 943e 32ca 81be 7205 3a3e
000002d0: 7019 d33e cbb2 bebe d76d 1a3d f261 96be
000002e0: 8d90 843c 7709 ae3e d8ca 73be f6b6 19be
000002f0: e25c 323e 4a77 913e fdb8 f6bd 12aa 483b
00000300: e974 40be cee2 3fbe 7365 b9bd 3124 e6bd
00000310: 91b7 12bb f158 573e e3db 43be 5008 a63e
00000320: d79c 903e 7f69 e2be 2639 0abf 5a60 9c3d
00000330: 6e98 bc3d f84d a5be 7332 793e 6ce1 70be
00000340: c09d 9fbe ef04 8dbe 939f b4bc 05cf 7fbd
00000350: e275 d23d 8944 f13e c8b8 53be 72bd 29bd
00000360: a282 11be 1850 4fbe b081 4c3e a6ae 2d3f
00000370: 04f1 60be f610 f4bd 6ece 71be 56e4 93be
00000380: b247 d3bd 82bd c2bd 706e 23bf d6e4 e23e
00000390: d201 20be d753 ce3e adad 98be f864 4c3e
000003a0: f008 66be 0430 953e 6561 bf3e b563 bdbd
000003b0: 4e35 473e 565b 8cbe 8e9a b23c 5b82 eebd
000003c0: ad29 c4bd b62e 1ebe 4a62 49bc de06 663e
000003d0: eba0 80be 2f97 063f 1c77 8c3e d34d d63e
000003e0: 87ee ba3e 5f02 943e 4a85 5a3e df47 d9be
000003f0: 93f2 41be 9eb5 09be b27d bfbe 0dc3 2d3c

l3.bias f4 [18]
0.045240164 -0.11118448 -0.5020525 -0.36064753 0.099146016 -0.06823094 -0.027989678 -0.4100062
-0.16259818 -0.23726565 0.0129724005 -0.34469643 -0.3623767 0.32730073 -0.10834274 -0.28753647
-0.43516546 -0.36054218
00000000: c04d 393d b0b4 e3bd 8386 00bf cba6 b8be
00000010: 110d cb3d aabc 8bbd 9c4a e5bc 55ec d1be
00000020: 2380 26be c4f5 72be 318a 543c 0d7c b0be
00000030: 7089 b9be f693 a73e cce2 ddbd fb37 93be
00000040: 02ce debe fc98 b8be
