LARA/data/result/d_60.pt (torch, 94638 bytes, 7 tensors)

D_attr_matrix.weight f4 [36, 5]
-0.10514377 -0.57055336 -0.2375144 0.09476518 0.17554991 -0.1478517 -0.5137472 0.02126819
-0.17986403 0.35229394 0.3123043 0.010817211 0.087345116 -0.0072780196 -0.1776953 -0.038079955
-0.22832608 0.088858865 0.09025972 -0.3169524 -0.06226068 -0.28845403 0.22379416 0.30938905
0.32443047 -0.24956389 -0.9356465 0.0031628693 0.6641722 -0.08386515 -0.27304253 -0.15327042
-0.23562998 0.5810079 0.110597804 -0.009929046 -0.27547127 0.09935997 -0.065781444 -0.20176455
-0.4562682 0.24770187 0.10551587 -0.41760245 0.09127603 -0.31751132 0.23647387 0.07616826
-0.21464923 0.13560143 0.31406587 0.19792779 0.1503507 -0.13296671 0.14549619 0.20647922
0.35920796 0.07111572 -0.22778182 -0.027558036 -0.18890676 0.10520921 -0.094860926 0.14727212
-0.09291057 -0.264749 0.495078 0.06749666 0.45247677 0.5176244 0.11867404 0.35672262
0.10289819 -0.08771222 -0.4645601 -0.15483323 0.2721626 0.23263814 0.057479657 0.21757762
0.16339032 -0.099473774 0.0980785 0.21657783 -0.12997118 -0.073989786 -0.25077987 0.26976746
0.40689063 -0.036972582 0.052042417 0.19977452 0.1554295 -0.1082721 -0.17662084 -0.36829516
-0.152174 0.26323274 0.29436988 -0.57168263 -0.10641392 -0.07911901 0.006409052 0.25848618
-0.335849 0.12632275 0.05154184 0.150285 0.21024069 0.11644878 -0.5240914 0.33402842
0.10892657 0.12843864 -0.10666935 -0.1410193 0.40200502 -0.04217521 0.08917515 0.37393707
-0.34016007 -0.29037303 -0.14500831 -0.44180986 0.08564993 -0.048449673 -0.14521012 -0.098159015
-0.28978175 0.17919478 0.25891572 -0.0507228 -0.22375563 0.0015276942 -0.1057003 0.07035056
-0.09124029 -0.12320107 0.1637232 -0.05642387 0.11699562 0.16163214 0.09113941 -0.018022155
0.16514808 -0.21875913 -0.06659857 0.110733755 0.3344711 -0.04171391 0.10534684 0.19907314
-0.06408117 -0.15723822 -0.24148977 0.3784553 0.17237324 -0.1416159 -0.13645746 -0.01907922
0.27782235 -0.16152182 0.20609309 0.26860186 0.03867255 0.14545949 -0.116339915 -0.37491035
0.07592887 0.12163269 -0.16487753 0.43934485 0.10993484 -0.2727337 -0.2670666 -0.4694135
0.29249498 0.28903663 -0.4516054 -0.377435
00000000: 9e55 d7bd c90f 12bf fa36 73be 3f14 c23d
00000010: 5bc3 333e 7066 17be f084 03bf a13a ae3c
00000020: 472e 38be df5f b43e 59e6 9f3e ac3a 313c
00000030: ffe1 b23d 747c eebb c2f5 35be baf9 1bbd
00000040: 50ce 69be a3fb b53d 17da b83d 9647 a2be
00000050: 0e05 7fbd 3fb0 93be 4c2a 653e 3e68 9e3e
00000060: c01b a63e ad8d 7fbe 8786 6fbf 2448 4f3b
00000070: 3007 2a3f 7ec1 abbd 3bcc 8bbe ecf2 1cbe
00000080: fc48 71be efbc 143f 1a81 e23d 70ad 22bc
00000090: 920a 8dbe 3d7d cb3d 6cb8 86bd 5e9b 4ebe
000000a0: fc9b e9be 8fa5 7d3e b418 d83d fdcf d5be
000000b0: edee ba3d d890 a2be 3526 723e 1bfe 9b3d
000000c0: 02cd 5bbe 1adb 0a3e 3ecd a03e 95ad 4a3e
000000d0: 89f5 193e 6d28 08be f4fc 143e 4a6f 533e
000000e0: 1bea b73e 1ea5 913d a33f 69be 64c1 e1bc
000000f0: c670 41be ed77 d73d 7246 c2bd 81ce 163e
00000100: e647 bebd 2e8d 87be dd7a fd3e b03b 8a3d
00000110: 09ab e73e 0883 043f 600b f33d 59a4 b63e
00000120: 49bc d23d 77a2 b3bd d2da edbe 9a8c 1ebe
00000130: e558 8b3e b138 6e3e ca6f 6b3d abcc 5e3e
00000140: cb4f 273e e8b8 cbbd 61dd c83d 94c6 5d3e
00000150: 2a17 05be f587 97bd 3866 80be f61e 8a3e
00000160: f853 d03e 9070 17bd 6e2a 553d b191 4c3e
00000170: e928 1f3e c3bd ddbd 18dc 34be 2f91 bcbe
00000180: 80d3 1bbe 71c6 863e a6b7 963e cb59 12bf
00000190: 8bef d9bd 2609 a2bd 0603 d23b 4d58 843e
000001a0: 66f4 abbe c05a 013e 891d 533d 50e4 193e
000001b0: 5649 573e b37c ee3d db2a 06bf c605 ab3e
000001c0: e514 df3d 6b85 033e 7675 dabd 5d67 10be
000001d0: 9ad3 cd3e eabf 2cbd 76a1 b63d ae74 bf3e
000001e0: 7629 aebe c6ab 94be 0f7d 14be e734 e2be
000001f0: 3b69 af3d 2a73 46bd f6b1 14be 9807 c9bd
00000200: 465e 94be d67e 373e 9a90 843e b6c2 4fbd
00000210: 3220 65be e93c c83a 6679 d8bd f413 903d
00000220: 30dc babd d850 fcbd 0ea7 273e b71c 67bd
00000230: 669b ef3d e582 253e 4da7 ba3d 33a3 93bc
00000240: 941c 293e 6502 60be d564 88bd 61c8 e23d
00000250: cc3f ab3e 34dc 2abd 16c0 d73d d4d9 4b3e
00000260: fd3c 83bd 0e03 21be 1849 77be e5c4 c13e
00000270: 9c82 303e c203 11be 81bb 0bbe 064c 9cbc
00000280: bb3e 8e3e fa65 25be 110a 533e 2f86 893e
00000290: 1c67 1e3d 55f3 143e 9f43 eebd 40f4 bfbe
000002a0: 9880 9b3d 8f1a f93d a8d5 28be cff1 e03e
000002b0: 8425 e13d c0a3 8bbe f4bc 88be f756 f0be
000002c0: e7c1 953e 9cfc 933e d338 e7be 293f c1be

l1.weight f4 [100, 108]
-0.08188685 0.09638924 -0.024204953 0.12753585 0.13601093 -0.082056396 0.048133172 0.09745248
0.13854204 -0.023677304 -0.13852677 -0.07430767 -0.033101086 0.36977282 0.18410653 -0.140113
0.061649706 0.14820305 0.056867238 0.06983459 -0.0660648 0.031154219 -0.031825185 0.009233194
-0.0127879 -0.061752945 -0.029763386 0.030886339 0.10617633 0.21235561 0.21452396 -0.068732835
0.18054906 0.04696699 -0.06691368 0.0670883 -0.13392739 0.14255705 0.03757668 0.13734913
-0.08767227 -0.05163413 0.043786746 0.051545896 -0.11788347 -0.13609006 0.04275674 0.21518242
-0.07624003 0.060320087 -0.11651631 -0.091297746 -0.036321886 -0.08341438 -0.03613772 0.19803442
0.11566469 0.0075982143 0.02877196 -0.072024085 0.1359215 0.06431881 -0.21834521 0.018531105
0.020930618 -0.12102502 -0.1949951 0.00847618 -0.08864633 0.07242832 -0.01894707 -0.12104682
0.07324081 -0.012842523 -0.08083862 -0.17068657 -0.16716303 -0.18183629 -0.005450211 -0.01887334
0.16391715 -0.2295767 0.06167448 -0.10214021 0.081805915 -0.10089846 0.0068973526 -0.10837484
-0.042170968 0.03116216 -0.055965155 -0.6288653 0.04727246 0.28235725 -0.11476378 0.008552301
-0.06283914 -0.049079802 -0.21761678 0.2630687 -0.24180804 -0.024991719 0.4052542 0.17524627
0.09183355 -0.08590164 0.32689 -0.17367631 -0.18541756 -0.15860881 0.040855143 -0.14083672
-0.020253867 -0.021211257 -0.17674373 0.12654999 0.1382065 -0.1252141 -0.034455802 -0.22527516
0.12536886 -0.01210165 0.09934647 -0.0826007 -0.12758742 -0.12475581 0.11522517 0.09861165
-0.25597188 -0.067230225 0.047472846 -0.087574415 0.07637265 0.18822779 -0.09487404 0.2121398
0.013348332 0.044934478 -0.048273172 0.07785429 -0.1843897 -0.0103664985 -0.21645316 0.08974382
-0.11257307 -0.044882257 -0.25969848 -0.14582196 0.11198362 -0.10885975 0.08273542 0.16077179
-0.1690514 0.21172063 0.106240235 0.11141565 -0.15319489 -0.13100871 -0.046988226 0.011885138
-0.04515118 0.07245651 -0.10580299 -0.1308608 0.123374864 0.24990726 0.035489753 -0.1916978
-0.021096209 -0.06560953 -0.25522676 -0.09889089 0.113810875 -0.010048823 -0.05905352 0.07856531
0.093080685 -0.16828741 0.03810192 0.17593311 0.09651734 0.12849067 -0.0076190345 -0.0075942515
-0.03471984 -0.11426603 -0.027128909 -0.051931884 0.08215482 -0.1199565 0.40801397 0.10046333
0.12702346 -0.04746891 0.16990195 0.19550475 -0.12104887 -0.23133005 -0.048719253 0.119812265
-0.19134432 0.031425573 0.00044739913 -0.09102463 0.1813142 0.0405541 0.1483432 0.08467068
0.06987304 0.10894459 0.01961178 -0.0016005044 0.033783272 0.16405118 -0.1177462 0.115804575
0.12925369 -0.040235125 -0.17386119 0.02353753 -0.016606936 -0.16331512 0.021916306 0.26229343
0.05213261 -0.057391442 -0.029009266 -0.031482533 -0.04033256 0.08904825 -0.0165381 -0.11956154
-0.163909 -0.015862059 -0.050168492 0.33469683 0.025519343 -0.017432123 -0.042783905 0.045060046
0.07630153 0.089366436 0.06143383 -0.14440674 -0.007991759 0.13641624 -0.0027711638 -0.006003782
0.13384706 0.14630002 0.08497059 -0.18742853 -0.043171417 0.07409101 0.09837117 0.006459054
00000000: 4bb4 a7bd b967 c53d 7749 c6bc c298 023e
00000010: 7346 0b3e 2f0d a8bd 4a27 453d 2a95 c73d
00000020: f7dd 0d3e e8f6 c1bc f6d9 0dbe 9f2e 98bd
00000030: 0195 07bd dd52 bd3e 6c86 3c3e c879 0fbe
00000040: 6784 7c3d 8ac2 173e 9fed 683d 7005 8f3d
00000050: fb4c 87bd 2237 ff3c 205b 02bd d346 173c
00000060: 5784 51bc a8f0 7cbd 58d2 f3bc 5905 fd3c
00000070: fa72 d93d c073 593e 2bac 5b3e cdc3 8cbd
00000080: dae1 383e 7560 403d 0a0a 89bd 9765 893d
00000090: 4324 09be 7afa 113e 01ea 193d 40a5 0c3e
000000a0: 858d b3bd 4f7e 53bd bb59 333d ca21 533d
000000b0: e46c f1bd 315b 0bbe b121 2f3d c858 5c3e
000000c0: bc23 9cbd 3212 773d 1aa0 eebd 50fa babd
000000d0: 42c6 14bd 29d5 aabd 2505 14bd 89c9 4a3e
000000e0: 9ce1 ec3d 71fa f83b 2cb3 eb3c 5d81 93bd
000000f0: 012f 0b3e 95b9 833d e395 5fbe 8bce 973c
00000100: b076 ab3c f7db f7bd ccac 47be addf 0a3c
00000110: 358c b5bd 4d55 943d e336 9bbc 65e7 f7bd
00000120: 47ff 953d 7269 52bc b88e a5bd 76c8 2ebe
00000130: c92c 2bbe 4b33 3abe af97 b2bb 439c 9abc
00000140: e6d9 273e 2816 6bbe 619e 7c3d e32e d1bd
00000150: dc89 a73d daa3 cebd 3003 e23b a1f3 ddbd
00000160: 77bb 2cbd c947 ff3c b83b 65bd 51fd 20bf
00000170: c4a0 413d 2191 903e 4609 ebbd f31e 0c3c
00000180: cfb1 80bd e707 49bd efd6 5ebe f1b0 863e
00000190: 879c 77be 6fbb ccbc 7a7d cf3e c273 333e
000001a0: 3a13 bc3d 33ed afbd 205e a73e 34d8 31be
000001b0: 1ade 3dbe 596a 22be b957 273d 8037 10be
000001c0: 70eb a5bc 3bc3 adbc 4ffc 34be 5296 013e
000001d0: 0186 0d3e 2038 00be 8721 0dbd 88ae 66be
000001e0: b260 003e 0046 46bc 2976 cb3d 8e2a a9bd
000001f0: 47a6 02be f97f ffbd 2dfb eb3d e8f4 c93d
00000200: bf0e 83be 00b0 89bd e372 423d 375a b3bd
00000210: 4469 9c3d c9be 403e 524d c2bd 2d3b 593e
00000220: f6b2 5a3c 370d 383d 17ba 45bd 1272 9f3d
00000230: a7d0 3cbe 3fd8 29bc e6a5 5dbe 9ccb b73d
00000240: b68c e6bd 75d6 37bd 33f7 84be 5a52 15be
00000250: ab57 e53d dcf1 debd 3071 a93d 5ca1 243e
00000260: cf1b 2dbe 4bcd 583e 7b94 d93d e32d e43d
00000270: 1fdf 1cbe 2627 06be ba76 40bd e2b9 423c
00000280: 72f0 38bd 1464 943d 3daf d8bd 6000 06be
00000290: f6ab fc3d b0e7 7f3e b45d 113d 6e4c 44be
000002a0: f5d1 acbc 4a5e 86bd 15ad 82be 4f87 cabd
000002b0: ad15 e93d d2a3 24bc 1be2 71bd d9e6 a03d
000002c0: 16a1 be3d 8953 2cbe c210 1c3d cf27 343e
000002d0: e2aa c53d 0f93 033e 18a9 f9bb 33d9 f8bb
000002e0: 6436 0ebd 4f04 eabd 723d debc 87b6 54bd
000002f0: c940 a83d c1ab f5bd 35e7 d03e b8bf cd3d
00000300: 7012 023e c36e 42bd c7fa 2d3e 6632 483e
00000310: 78e8 f7bd c9e1 6cbe d78d 47bd 2260 f53d
00000320: c4ef 43be 1ab8 003d e590 ea39 1f6b babd
00000330: 6eaa 393e 0e1c 263d 48e7 173e d267 ad3d
00000340: 9919 8f3d 571e df3d e2a8 a03c 04c8 d1ba
00000350: 5460 0a3d 08fd 273e eb24 f1bd f32a ed3d
00000360: 145b 043e 96cd 24bd ab08 32be c7d1 c03c
00000370: 450b 88bc 143c 27be d389 b33c 534b 863e
00000380: 0189 553d 4a13 6bbd d7a4 edbc d4f3 00bd
00000390: c133 25bd ee5e b63d e97a 87bc aedc f4bd
000003a0: c3d7 27be 26f1 81bc 7a7d 4dbd 625d ab3e
000003b0: f10d d13c d0cd 8ebc 2d3e 2fbd e290 383d
000003c0: fa43 9c3d c005 b73d 0aa2 7b3d 5cdf 13be
000003d0: deef 02bc b3b0 0b3e 6a9c 35bb 60bb c4bb
000003e0: 340f 093e accf 153e 1005 ae3d 44ed 3fbe
000003f0: 83d4 30bd 07bd 973d d376 c93d 79a6 d33b

l1.bias f4 [100]
-0.059332207 0.019317962 0.27095413 -0.13204047 -0.17828645 -0.08687141 0.015349524 0.09397175
-0.050034855 -0.14907639 0.18024063 -0.12030893 0.028865231 0.23205435 -0.021766044 -0.066152744
0.05164224 0.06968019 -0.24768837 0.1274462 -0.21709532 -0.17338705 -0.07885335 0.26888987
-0.0091766985 -0.04517993 -0.17452462 -0.03949806 0.13459103 0.12650138 0.036223248 -0.04783284
-0.124431044 0.07147889 -0.25160217 0.06306626 -0.23148826 0.1207228 -0.11592513 -0.0698374
0.06780085 0.1354052 0.05023296 0.31241208 0.05536237 0.11863132 -0.018658271 0.14545321
0.07288203 -0.14241055 -0.1650696 -0.08745475 0.054178342 -0.14555252 0.071676604 0.33373323
-0.061164718 0.069355145 0.042162336 0.21206595 0.23769177 -0.02271124 -0.042763203 -0.096187055
0.12834091 -0.26023844 -0.05087441 0.33626765 -0.11941464 0.22824724 0.007111407 0.0618067
-0.17805235 -0.17819963 0.14673778 -0.022163356 0.044386584 0.16300227 -0.1481063 0.34193638
-0.19196402 -0.104740694 0.12002734 -0.1338059 -0.026754247 0.25358915 0.012445692 -0.07506123
0.020198014 0.19130385 0.1537323 0.16741078 -0.009984898 0.030415835 -0.15600462 0.009160829
0.24269533 -0.042970546 -0.053648483 -0.028615937
00000000: 5406 73bd b440 9e3c 80ba 8a3e 9e35 07be
00000010: b990 36be a3e9 b1bd 927c 7b3c 4374 c03d
00000020: 59f1 4cbd 7ba7 18be 0091 383e 8764 f6bd
00000030: c776 ec3c a89f 6d3e b44e b2bc 177b 87bd
00000040: d086 533d 7db4 8e3d 05a2 7dbe 4281 023e
00000050: 3c4e 5ebe 608c 31be dd7d a1bd efab 893e
00000060: dd59 16bc 970e 39bd 95b6 32be b8c8 21bd
00000070: 3bd2 093e 9489 013e d45e 143d 5eec 43bd
00000080: b4d5 febd 8663 923d 00d2 80be e228 813d
00000090: 420b 6dbe 843d f73d 286a edbd e906 8fbd
000000a0: 2cdb 8a3d a9a7 0a3e 14c1 4d3d 7af4 9f3e
000000b0: a7c3 623d faf4 f23d 3bd9 98bc b0f1 143e
000000c0: 2c43 953d 12d4 11be 0108 29be 7a1b b3bd
000000d0: 1cea 5d3d b80b 15be 2fcb 923d 15df aa3e
000000e0: db87 7abd 120a 8e3d 6ab2 2c3d d127 593e
000000f0: 7965 733e ec0c babc 7828 2fbd b8fd c4bd
00000100: cd6b 033e f93d 85be af61 50bd 462b ac3e
00000110: aa8f f4bd a5b9 693e ce06 e93b 0629 7d3d
00000120: 5b53 36be f779 36be 6e42 163e ed8f b5bc
00000130: b5ce 353d 11ea 263e 2ea9 17be 4912 af3e
00000140: 3792 44be 4a82 d6bd e5d0 f53d 6a04 09be
00000150: b92b dbbc 70d6 813e 04e9 4b3c b4b9 99bd
00000160: 4e76 a53c 28e5 433e 006c 1d3e bb6d 2b3e
00000170: b397 23bc a12a f93c adbf 1fbe 4d17 163c
00000180: 2085 783e e201 30bd 83be 5bbd f86b eabc

l2.weight f4 [100, 100]
-0.028847337 -0.19982193 -0.16199702 -0.08765949 0.19037335 -0.019473145 -0.030196406 -0.01501127
-0.044906944 0.14189285 -0.04475865 0.2598834 -0.06863914 -0.0037850668 0.16842031 0.20226495
-0.104879215 -0.20036069 -0.038155496 -0.06863574 0.20385629 0.13326861 0.100006975 -0.08548167
-0.0004179971 0.0837468 -0.0038734707 0.10491247 0.05264337 -0.22195002 -0.046543773 0.016245734
0.13213737 0.048739247 -0.06730442 -0.023045423 -0.0024699224 0.024677685 0.14415084 -0.06398554
-0.08102037 -0.074044876 -0.20905071 -0.18417355 0.030809624 0.08088629 -0.009864246 0.006929013
-0.05161272 -0.12675442 0.11532045 0.0042055696 -0.025384007 0.015337298 -0.082490996 0.08959535
0.2737826 -0.19623198 -0.15394384 0.08999979 0.14327288 -0.14016621 0.09776564 -0.13022883
-0.008532938 0.17513552 -0.100563295 -0.15319432 -0.047479272 -0.14630117 -0.18663998 -0.11075874
-0.07709575 0.014264931 -0.15142404 0.027774232 0.09930393 -0.4196754 0.008886958 -0.29500356
0.03330793 0.1954618 0.09419874 0.17254682 0.17003456 -0.015269179 0.04231683 0.07725047
0.08039175 -0.12301742 -0.048656754 -0.13884178 -0.112682566 0.043692492 -0.07345058 0.100030325
-0.12667927 0.04494231 0.07944906 0.08717912 0.066886514 0.22444835 0.03794264 -0.15044448
-0.11060236 0.05182641 -0.05092291 -0.09836938 -0.24140446 -0.015327491 0.055898782 0.10907285
-0.08039361 0.03254361 -0.2214808 -0.087969355 -0.17391306 0.036907952 -0.06189896 -0.005110921
-0.06746091 -0.041497532 0.19870763 -0.021601403 -0.101827085 0.05101786 -0.14798507 -0.17363164
-0.030334719 -0.091718 0.18207748 0.03114953 -0.040731214 0.014803895 0.0724376 0.13807271
0.22836299 -0.06531753 -0.022255797 0.11966348 -0.03222775 -0.03943709 0.07645304 -0.2452093
0.06430461 0.21217585 0.110060655 0.15528657 0.11316271 -0.16450262 0.0029568654 0.063649915
-0.046500094 0.05689625 -0.0049678646 0.020886311 -0.006003485 0.17500038 -0.0021701383 -0.10197644
-0.08401736 0.089640744 0.17619124 -0.15849362 0.32769927 0.014501722 0.24193658 0.11490574
-0.08692051 -0.067186385 -0.006258965 -0.08583983 -0.11662583 0.06582523 -0.06354667 -0.070687585
-0.03887823 -0.17199661 0.1600232 0.18689811 0.01427744 0.08498334 -0.000602489 0.045374613
0.053687215 0.068114765 -0.086160436 0.15828763 0.0393702 0.23802866 0.037675805 0.010925545
0.17262766 0.0070864563 -0.0059964955 0.07399588 0.09190272 -0.06177745 -0.03493146 0.10784092
0.3123996 0.0031193432 -0.30821905 0.07384605 -0.15248343 0.3447344 -0.39883935 0.14198703
0.3433897 -0.067712255 -0.17227909 -0.0244383 -0.21189886 -0.45187113 -0.12719767 0.14814678
-0.03162564 -0.18275407 0.01707896 -0.03309769 -0.13873404 0.36185917 0.23924926 0.119061545
-0.44918683 -0.05273463 0.14677455 0.14920259 0.23104191 -0.25163454 0.26504445 -0.145966
0.38772967 -0.008940202 0.18565392 0.014980404 -0.040237997 -0.037699457 0.042475402 -0.12450239
0.20703691 0.23894076 0.07362172 -0.034326345 -0.0008684886 0.10529927 -0.21915242 -0.04277754
0.16553253 0.19071269 -0.18250547 -0.008091854 0.360084 -0.046062622 0.17247304 0.37111455
00000000: 4051 ecbc 1f9e 4cbe 8ce2 25be d286 b3bd
00000010: 3bf1 423e 2586 9fbc 745e f7bc d4f1 75bc
00000020: 58f0 37bd 5c4c 113e d954 37bd 700f 853e
00000030: ad92 8cbd e20e 78bb 6076 2c3e 8b1e 4f3e
00000040: eaca d6bd 5a2b 4dbe f048 1cbd e590 8cbd
00000050: b4bf 503e 9177 083e 75d0 cc3d 0411 afbd
00000060: 9f26 dbb9 7183 ab3d 0eda 7dbb 59dc d63d
00000070: 93a0 573d de46 63be afa4 3ebd c615 853c
00000080: 054f 073e cea2 473d e6d6 89bd c1c9 bcbc
00000090: 6cde 21bb db28 ca3c 479c 133e da0a 83bd
000000a0: 02ee a5bd d7a4 97bd 6411 56be fe97 3cbe
000000b0: 7764 fc3c b6a7 a53d a59d 21bc c60c e33b
000000c0: dc67 53bd e9cb 01be 212d ec3d e0ce 893b
000000d0: 1ff2 cfbc 4a49 7b3c 0af1 a8bd c47d b73d
000000e0: 3c2d 8c3e 09f1 48be 74a3 1dbe cf51 b83d
000000f0: 20b6 123e bb87 0fbe 5a39 c83d b55a 05be
00000100: bccd 0bbc ba56 333e 21f4 cdbd f9de 1cbe
00000110: a079 42bd f9cf 15be 8d1e 3fbe 7ad5 e2bd
00000120: 60e4 9dbd 75b7 693c e70e 1bbe c986 e33c
00000130: dc5f cb3d b2df d6be 9a9a 113c b50a 97be
00000140: e56d 083d 2327 483e 45eb c03d 1db0 303e
00000150: 8a1d 2e3e 942b 7abc 6a54 2d3d 7f35 9e3d
00000160: 6ea4 a43d 8ff0 fbbd 4e4c 47bd 8a2c 0ebe
00000170: 1ec6 e6bd e6f6 323d 426d 96bd b3dc cc3d
00000180: 36b8 01be 6d15 383d 30b6 a23d f78a b23d
00000190: ccfb 883d cad5 653e be69 1b3d 1e0e 1abe
000001a0: 7d83 e2bd ee47 543d 8b94 50bd e375 c9bd
000001b0: bb32 77be 2820 7bbc 1ff6 643d 9661 df3d
000001c0: 68a5 a4bd 734c 053d ddcb 62be 4729 b4bd
000001d0: 4416 32be cb2c 173d c489 7dbd 8379 a7bb
000001e0: f228 8abd 51f9 29bd 037a 4b3e 6df5 b0bc
000001f0: b88a d0bd 1bf8 503d 6689 17be 7ecc 31be
00000200: 8480 f8bc a6d6 bbbd 8572 3a3e 4d2d ff3c
00000210: c6d5 26bd 098c 723c 2a5a 943d ef62 0d3e
00000220: fdd7 693e 32c5 85bd ca51 b6bc 2012 f53d
00000230: 3f01 04bd c988 21bd 6993 9c3d 2618 7bbe
00000240: 23b2 833d a044 593e 7b67 e13d 7103 1f3e
00000250: dac1 e73d 6073 28be f8c7 413b e35a 823d
00000260: e276 3ebd 0b0c 693d 78c9 a2bb c519 ab3c
00000270: e2b8 c4bb 4d33 333e e138 0ebb 06d9 d0bd
00000280: 4b11 acbd 9195 b73d 7a6b 343e 274c 22be
00000290: 33c8 a73e a198 6d3c 39be 773e b353 eb3d
000002a0: 6103 b2bd 0499 89bd 0118 cdbb cbcc afbd
000002b0: 86d9 eebd 61cf 863d c224 82bd a7c4 90bd
000002c0: c73e 1fbd e11f 30be 1fdd 233e 3862 3f3e
000002d0: eceb 693c bf0b ae3d 5af0 1dba bbda 393d
000002e0: 20e7 5b3d c17f 8b3d e274 b0bd 2716 223e
000002f0: a642 213d c9bd 733e f251 1a3d 0f01 333c
00000300: 4ec5 303e 8135 e83b 407e c4bb 278b 973d
00000310: 7e37 bc3d 5a0a 7dbd 4a14 0fbd b3db dc3d
00000320: d7f2 9f3e e56d 4c3b e3ce 9dbe 993c 973d
00000330: 9e24 1cbe 0781 b03e ac34 ccbe 0c65 113e
00000340: c6d0 af3e b9ac 8abd ee69 30be d432 c8bc
00000350: 04fc 58be a75b e7be 1b40 02be cab3 173e
00000360: e389 01bd e223 3bbe 2de9 8b3c 7291 07bd
00000370: 4c10 0ebe 9b45 b93e c2fd 743e 8ad6 f33d
00000380: d1fb e5be 4400 58bd 114c 163e 90c8 183e
00000390: 4096 6c3e 3ed6 80be e8b3 873e 1c78 15be
000003a0: 8184 c63e ed79 12bc 101c 3e3e 5e70 753c
000003b0: 99d0 24bd bf6a 1abd b0fa 2d3d 1cfb febd
000003c0: 7c01 543e e3ac 743e fcc6 963d c899 0cbd
000003d0: 49ab 63ba 25a7 d73d 7e69 60be 8037 2fbd
000003e0: 5c81 293e 304a 433e b7e2 3abe b293 04bc
000003f0: ee5c b83e 29ac 3cbd c69c 303e ba02 be3e

l2.bias f4 [100]
-0.27346727 0.27873117 0.16156079 -0.15717134 0.028502695 0.15524675 -0.09460681 0.06290885
-0.028485997 0.06561633 0.029633507 0.34215775 0.3534635 -0.27063197 0.26553124 0.04537618
0.3004984 0.04010321 -0.061745625 0.012258911 0.061671797 0.22078317 0.25764826 0.09926881
0.14048184 -0.16443442 0.21199277 -0.39201358 -0.032220513 -0.01864876 0.030732896 -0.121286735
0.23967758 0.031497326 -0.062508374 -0.20758702 -0.09316162 -0.019937655 0.020079069 -0.03583502
-0.22926402 0.10030654 0.034027945 -0.13864532 0.11552731 -0.03528153 0.31140727 0.030378679
-0.12743232 -0.029422235 -0.3318515 0.11789406 -0.17955124 -0.053504035 0.27831116 -0.03137624
0.3370734 -0.24966142 0.34429353 0.2420635 0.13237227 -0.040336274 -0.0013886793 -0.12128742
-0.23235892 -0.2557011 0.0035792699 -0.07632336 0.07833527 -0.063133076 -0.08452575 0.00914913
-0.031007601 -0.14924441 0.082943015 -0.046462435 0.37403542 0.0026240034 -0.16175224 -0.10275804
-0.21172577 -0.013051347 0.014341976 0.047158808 -0.13773008 -0.44755328 0.20582898 0.095996484
-0.008119285 -0.15409781 -0.14621484 0.00743699 0.038247384 0.06932356 0.15516454 0.18962777
-0.02561652 0.19588733 0.30240518 -0.08543562
00000000: e703 8cbe dab5 8e3e 3170 253e 86f1 20be
00000010: 7c7e e93c 01f9 1e3e 37c1 c1bd 5bd6 803d
00000020: 775b e9bc db61 863d f8c1 f23c 4d2f af3e
00000030: 2bf9 b43e 4690 8abe b6f3 873e 60dc 393d
00000040: edda 993e 4343 243d fbe8 7cbd 99d9 483c
00000050: 919b 7c3d fc14 623e 79ea 833e 724d cb3d
00000060: 79da 0f3e 7f61 28be a214 593e 01b6 c8be
00000070: a8f9 03bd 49c5 98bc 8ec3 fb3c 2e65 f8bd
00000080: 0a6e 753e 5703 013d 6404 80bd b191 54be
00000090: 85cb bebd 4b54 a3bc dc7c a43c bec7 12bd
000000a0: 30c4 6abe 846d cd3d e360 0b3d 0af9 0dbe
000000b0: 9599 ec3d 5e83 10bd c670 9f3e b5dc f83c
000000c0: 9e7d 02be e606 f1bc 71e8 a9be 7172 f13d
000000d0: 48dc 37be 0c27 5bbd cd7e 8e3e 5f84 00bd
000000e0: e294 ac3e 3ea7 7fbe 3e47 b03e 7fdf 773e
000000f0: 998c 073e a637 25bd 5804 b6ba 8a65 f8bd
00000100: 7fef 6dbe 41eb 82be 2f92 6a3b 6c4f 9cbd
00000110: 3e6e a03d ea4b 81bd d61b adbd 3ce6 153c
00000120: a703 febc 87d3 18be 07de a93d 654f 3ebd
00000130: 9281 bf3e 79f7 2b3b 61a2 25be cf72 d2bd
00000140: a4ce 58be 51d5 55bc 9bfa 6a3c 9829 413d
00000150: 1d09 0dbe b425 e5be d5c4 523e ce99 c43d
00000160: c006 05bc d1cb 1dbe 58b9 15be feb1 f33b
00000170: 4aa9 1c3d 83f9 8d3d 74e3 1e3e c82d 423e
00000180: bcd9 d1bc b096 483e dad4 9a3e dff8 aebd

l3.weight f4 [18, 100]
-0.15379436 -0.21072178 -0.37880188 0.17659555 0.20998412 -0.17380722 0.09991971 -0.13242345
0.050066654 -0.15372908 -0.075191274 -0.29337433 -0.11984432 0.2923217 -0.015402867 -0.14767615
-0.15954375 -0.04775098 -0.10976469 0.42787465 -0.22671397 -0.03983343 -0.015922308 -0.033440154
-0.22916646 0.2089602 -0.20573577 0.17813005 -0.22157373 0.2048438 -0.25083715 0.17255424
-0.16721803 0.29351145 0.21406317 0.26371396 0.10788938 -0.032424178 0.014050346 -0.09510146
0.30583647 -0.10426174 0.043138232 0.054605063 -0.24125603 0.26021957 0.14127646 0.006380726
0.21678543 0.15093939 0.1454913 -0.067796685 0.19102034 -0.534679 -0.13819723 0.30656746
-0.16359085 0.022637472 -0.16667219 -0.048907023 0.06372081 -0.26146606 0.25435853 0.23606235
0.31315672 0.3014014 -0.30321088 0.13500285 -0.26423338 -0.23816384 0.21017185 -0.17684436
0.11567758 0.057379227 -0.22259624 -0.03942487 -0.10089528 0.13264754 -0.0573158 0.1870605
0.30768195 0.15521912 -0.4355856 -0.21491162 0.11860345 0.13078398 -0.054681923 -0.40038946
-0.020365234 0.054870855 0.06882163 0.042575724 0.12268819 -0.0796204 -0.145709 -0.08403373
-0.005851751 0.0664706 0.0016678862 0.2627639 0.029113311 0.17402947 -0.27791935 -0.0077452003
0.36532563 -0.022703867 0.28119317 0.03309827 -0.2276541 -0.3107823 0.08654826 -0.12079655
-0.016019028 0.1222397 -0.27179137 0.020521162 -0.22964908 -0.23971629 -0.02050738 0.06568405
-0.1936917 -0.22273028 -0.29226372 -0.032852225 -0.27719373 -0.0276136 -0.3046718 0.11492146
0.0130376015 0.12871373 -0.42238918 0.17529659 -0.03438196 0.30918708 0.070098266 0.15158933
0.13694167 0.16668746 0.16189636 -0.39932925 0.14654338 -0.1762428 0.008716071 0.10943207
-0.17796408 0.24579684 0.19107687 -0.030362511 0.30360582 0.23443152 0.39862666 -0.119615935
0.022451669 -0.16702461 -0.41988584 0.13748042 -0.11739148 0.26066527 -0.18308173 -0.3374593
0.15608178 -0.34854048 -0.02378243 0.060066234 0.23817164 0.32240343 -0.13199075 0.3301798
-0.20505887 -0.14403194 0.32392615 -0.074785195 -0.13849427 0.24024428 -0.081702776 -0.20066878
-0.0050818226 0.2208013 -0.097018264 0.11308915 0.26465037 -0.22385013 0.1076402 -0.15688883
0.010154191 0.3046803 -0.23187742 -0.08224297 0.10379407 0.21391618 -0.12992254 -0.06492834
-0.12802222 -0.1226205 -0.01770389 -0.054147653 -0.07110484 0.040749576 -0.12339081 0.25553155
0.21404211 -0.3762119 -0.3332523 0.022967085 -0.09290515 -0.15824643 0.22807772 -0.16800764
-0.24487038 -0.16867857 -0.00061727845 0.0061433767 0.16550289 0.3085557 -0.086499244 -0.101750776
-0.07579024 -0.13592555 0.13507108 0.4640974 -0.15376055 -0.051650498 -0.16649956 -0.21946949
-0.02885366 -0.16223769 -0.4823269 0.3116305 -0.08912839 0.23945327 -0.23006815 0.13109583
-0.15747842 0.1456882 0.25727478 -0.03426348 0.14555448 -0.21000767 -0.049649876 0.013226739
-0.1630303 -0.014363098 -0.05453009 0.1646008 -0.18153481 0.44477007 0.12137648 0.25780532
0.19258855 0.22986259 0.14628905 -0.2531482 -0.25627467 -0.067701645 -0.13768755 -0.1423945
00000000: 457c 1dbe 73c7 57be 52f2 c1be 77d5 343e
00000010: 1406 573e 85fa 31be b4a2 cc3d 039a 07be
00000020: b112 4d3d 286b 1dbe e2fd 99bd 2935 96be
00000030: f070 f5bd 31ab 953e 4f5c 7cbc 6b38 17be
00000040: 705f 23be 8896 43bd 4fcc e0bd 6312 db3e
00000050: b527 68be 6128 23bd 806f 82bc 8bf8 08bd
00000060: 9daa 6abe aaf9 553e 66ac 52be b967 363e
00000070: 39e4 62be 93c2 513e ba6d 80be 0fb2 303e
00000080: 343b 2bbe 2247 963e 6033 5b3e 8405 873e
00000090: 1bf5 dc3d 37cf 04bd 6c33 663c 8ec4 c2bd
000000a0: 9996 9c3e 2e87 d5bd b7b1 303d 8fa9 5f3d
000000b0: d20b 77be 803b 853e c7aa 103e 6915 d13b
000000c0: 00fd 5d3e db8f 1a3e acfb 143e fdd8 8abd
000000d0: d69a 433e b9e0 08bf 9383 0dbe 69f6 9c3e
000000e0: 5c84 27be 3872 b93c 1dac 2abe bb52 48bd
000000f0: 0e80 823d e1de 85be 483b 823e 54ba 713e
00000100: 1456 a03e 4951 9a3e 753e 9bbe 303e 0a3e
00000110: 9949 87be 39e1 73be 4a37 573e b016 35be
00000120: 5ee8 ec3d 7b06 6b3d 45f0 63be f97b 21bd
00000130: 2fa2 cebd c2d4 073e f9c3 6abd ca8c 3f3e
00000140: 7d88 9d3e c3f1 1e3e 1305 dfbe cb11 5cbe
00000150: 5ee6 f23d 3cec 053e 27fa 5fbd d9ff ccbe
00000160: fed4 a6bc 43c0 603d 5bf2 8c3d e263 2e3d
00000170: f243 fb3d 0510 a3bd bd34 15be e019 acbd
00000180: 0cc0 bfbb bd21 883d f99c da3a fd88 863e
00000190: 0a7f ee3c c834 323e 724b 8ebe 73cb fdbb
000001a0: f60b bb3e 76fd b9bc 8df8 8f3e 0d92 073d
000001b0: 281e 69be dc1e 9fbe 3740 b13d 2e64 f7bd
000001c0: 563a 83bc cf58 fa3d 3d28 8bbe ff1b a83c
000001d0: 2129 6bbe 3078 75be 18ff a7bc 5c85 863d
000001e0: 1e57 46be 6813 64be 97a3 95be 0e90 06bd
000001f0: 56ec 8dbe eb35 e2bc f1fd 9bbe f15b eb3d
00000200: aa9b 553c 88cd 033e 6543 d8be f380 333e
00000210: 19d4 0cbd c54d 9e3e ae8f 8f3d 3c3a 1b3e
00000220: 703a 0c3e 1eb0 2a3e 29c8 253e e274 ccbe
00000230: 780f 163e fe78 34be dacd 0e3c ec1d e03d
00000240: 373c 36be 2bb2 7b3e a8a9 433e cdba f8bc
00000250: 3972 9b3e d10e 703e cb18 cc3e 33f9 f4bd
00000260: 90ec b73c 8008 2bbe 47fb d6be abc7 0c3e
00000270: f26a f0bd eb75 853e c779 3bbe 77c7 acbe
00000280: e7d3 1f3e e673 b2be 5fd3 c2bc 0308 763d
00000290: 44e3 733e 1012 a53e 9528 07be 540d a93e
000002a0: f4fa 51be 1c7d 13be a6d9 a53e fb28 99bd
000002b0: 71d1 0dbe 9902 763e c953 a7bd 1e7c 4dbe
000002c0: 6b85 a6bb bc19 623e 83b1 c6bd 499b e73d
000002d0: 4180 873e f838 65be 7772 dc3d 77a7 20be
000002e0: c45d 263c 0eff 9b3e 4671 6dbe 016f a8bd
000002f0: fc91 d43d d80c 5b3e 6a0a 05be 26f9 84bd
00000300: 4218 03be 7520 fbbd c007 91bc eec9 5dbd
00000310: 6a9f 91bd 07e9 263d 52b4 fcbd 08d5 823e
00000320: db2d 5b3e d99e c0be 0ca0 aabe 7825 bc3c
00000330: 0e45 bebd 5a0b 22be 358d 693e 320a 2cbe
00000340: 4dbf 7abe 13ba 2cbe dbd0 21ba 614e c93b
00000350: 9779 293e 03fb 9d3e 8426 b1bd b662 d0bd
00000360: ea37 9bbd 1130 0bbe 1350 0a3e 2d9e ed3e
00000370: 6873 1dbe 798f 53bd dc7e 2abe 9cbc 60be
00000380: 835e ecbc a321 26be 8df3 f6be 088e 9f3e
00000390: f288 b6bd 3d33 753e fc96 6bbe fc3d 063e
000003a0: 0642 21be 4a2f 153e 85b9 833e dd57 0cbd
000003b0: 3c0c 153e 400c 57be ab5d 4bbd f7b4 583c
000003c0: 6af1 26be 3353 6bbc f25a 5fbd 1d8d 283e
000003d0: 43e4 39be e7b8 e33e 3b94 f83d 0fff 833e
000003e0: ef35 453e 1961 6b3e cccc 153e a49c 81be
000003f0: 6f36 83be 29a7 8abd f7fd 0cbe ddcf 11be

l3.bias f4 [18]
0.10829636 -0.042370792 -0.4342391 -0.2945981 0.17381158 -0.0024247745 0.041874245 -0.34033588
-0.10078629 -0.17296053 0.0818199 -0.2770336 -0.2961895 0.39951214 -0.040780593 -0.21812157
-0.37073895 -0.29085875
00000000: 7bca dd3d ff8c 2dbd 9654 debe 90d5 96be
00000010: aafb 313e f7e8 1ebb 5484 2b3d 8140 aebe
00000020: 0b69 cebd 911c 31be 3191 a73d 59d7 8dbe
00000030: 26a6 97be db8c cc3e 8d09 27bd 435b 5fbe
00000040: 7fd1 bdbe 70eb 94be
