LARA/data/result/d_70.pt (torch, 94638 bytes, 7 tensors)

D_attr_matrix.weight f4 [36, 5]
00000000: 2791 a8bd 538f 11bf 4be8 69be cac3 c13d
00000010: 0d06 253e 85bf e4bd a2d5 febe c2e6 ed3c
00000020: b64b 4ebe f284 a53e b9f5 9a3e 2056 3d3c
00000030: 8e2b a93d 8c97 23bb f164 2fbe e77b 2abd
00000040: efb9 71be 9c5c a33d 408b d23d 7c42 9fbe
00000050: 4a69 0dbd f625 8ebe 0b16 513e abe5 993e
00000060: a373 9d3e 5f69 6fbe e248 6ebf 8e2e 22bc
00000070: ccdd 2b3f aa02 b5bd 938b 87be 4364 1bbe
00000080: 5bf7 62be 192b 133f 386c db3d 1ed7 273d
00000090: 5c92 8ebe 8cf6 023e 0b5e 92bd 692f 58be
000000a0: 327e eabe 5b04 6f3e 0306 cf3d 9827 cdbe
000000b0: cc3d a43d 07af 9cbe eb24 663e 2cdc 183d
000000c0: 2930 68be b606 0a3e ee30 973e f01a 4b3e
000000d0: bff9 0d3e c2c6 e8bd 053c 173e d3d7 3c3e
000000e0: 5157 b13e 7aa5 3f3d 424a 5abe 6228 1cbd
000000f0: cf90 3cbe 46d8 cd3d f7c8 bbbd a907 073e
00000100: 427e afbd 7094 69be b929 ed3e 2997 b73d
00000110: 1e9c eb3e 6f39 fd3e 35a6 0e3e ed16 b43e
00000120: 56d5 c13d 7603 bfbd 1aac edbe 6521 21be
00000130: 85aa 843e 3ba5 6b3e fcb6 263d 3943 623e
00000140: e863 223e d1fe b8bd c7f6 b63d cfa8 603e
00000150: afed 01be c2bb c7bd eaf8 79be 791a 8a3e
00000160: 063b c83e 8ff3 a1bc 027d 493d 9736 3e3e
00000170: caf2 143e 5ecf cabd 4cae 2fbe 6d48 c2be
00000180: 7c4e 24be 9a64 843e a6af 983e 2484 0ebf
00000190: e841 ccbd f6d3 92bd a4e1 63bb 76de 803e
000001a0: 057f aabe 2d9f 073e ad4b 703d c3be 1b3e
000001b0: 4b1a 413e bcb1 df3d ba0e f6be f90a a53e
000001c0: ea3c 8e3d 6fc1 f83d 501c c7bd 05d2 dfbd
000001d0: c890 cb3e 2563 95bd 8a24 af3d 19a3 c73e
000001e0: b7ce a8be 714c 90be 29a2 0abe 6078 dfbe
000001f0: d0ac a13d e0e7 a1bc 6aa5 02be 7127 a5bd
00000200: cabe 99be f629 293e 7c96 483e 7fe8 01bd
00000210: cda7 66be 2597 483b 5391 dabd e7db d83c
00000220: 170a cdbd 967e dbbd 1faa 263e ba77 7dbd
00000230: c05e ca3d 47a9 1f3e 95fe a93d ba62 bebc
00000240: db26 1e3e 5d31 68be 641c acbd 2ac7 d03d
00000250: 217d b13e c389 a0bd a7da c33d 8a3b 483e
00000260: 82cc 5dbd 1bfe e4bd de14 6abe 9cd8 bc3e
00000270: 8773 343e 0a49 12be fb55 dabd 206c c3bc
00000280: ea30 823e adaf 25be 986c 513e 4cc7 843e
00000290: f866 1c3d 8962 083e d488 04be 38c5 c0be
000002a0: 4a4a 863d 0ce2 f93d e200 11be 1410 ba3e
000002b0: 4f42 cf3d 4dd3 8cbe b8f8 87be 2e37 edbe
000002c0: a9d6 9f3e a1d3 963e ded5 e0be 434d bcbe
-0.082308106 -0.5685932 -0.22842519 0.09461172 0.1611559 -0.11169342 -0.49772364 0.029040698
-0.20146069 0.32327992 0.30265597 0.011556178 0.082602605 -0.0024962155 -0.1712835 -0.04162207
-0.23606084 0.07976648 0.10280466 -0.3110541 -0.03452424 -0.27763337 0.20418565 0.30058035
0.30752286 -0.2338004 -0.9307996 -0.009898795 0.6713531 -0.08838399 -0.26473674 -0.15174966
-0.22164671 0.57487637 0.107140005 0.040976636 -0.27846038 0.12789363 -0.071468435 -0.21111836
-0.45799404 0.23341505 0.101085685 -0.4006927 0.08019599 -0.30602285 0.2247502 0.037319347
-0.22674622 0.13479123 0.29529518 0.19834495 0.13864802 -0.11366035 0.1476899 0.18441705
0.3463693 0.04678867 -0.2131739 -0.03812445 -0.18414615 0.100510165 -0.091691904 0.13186516
-0.08569004 -0.2281053 0.46320894 0.089643784 0.46017545 0.4945788 0.1393059 0.3517374
0.09464519 -0.09326832 -0.46420366 -0.15735395 0.25911346 0.23012249 0.04070185 0.22095956
0.15858424 -0.09032977 0.08933788 0.21939395 -0.12688325 -0.09752609 -0.2441136 0.26973322
0.3910753 -0.019769458 0.049191482 0.18575512 0.14545742 -0.099028334 -0.17156333 -0.3794588
-0.16045564 0.25858003 0.2982151 -0.5567038 -0.09973508 -0.071693346 -0.0034771943 0.25169724
-0.33300033 0.13244314 0.05866592 0.15209489 0.18857686 0.10922572 -0.4805811 0.32234934
0.06945212 0.121462695 -0.09722197 -0.1092873 0.39758897 -0.07294301 0.08551891 0.3899162
-0.3297021 -0.2818332 -0.13538422 -0.43646526 0.078942895 -0.019763887 -0.12758413 -0.080641635
-0.30028373 0.16519913 0.19588655 -0.031715866 -0.22524948 0.0030607667 -0.1067225 0.026472045
-0.1001169 -0.10717504 0.16275834 -0.06188176 0.098813534 0.15591918 0.08300511 -0.023240436
0.1544451 -0.2267508 -0.084038526 0.101942375 0.34665778 -0.07838776 0.09563189 0.19553962
-0.054150112 -0.11181279 -0.22859523 0.3688401 0.17622195 -0.14285675 -0.10660931 -0.023855269
0.25427943 -0.16180296 0.20451581 0.259333 0.038184136 0.13318838 -0.12942821 -0.37650466
0.06557138 0.12201318 -0.14160493 0.36340392 0.10120069 -0.2750496 -0.26556945 -0.4633116
0.3121846 0.29458335 -0.43913168 -0.36777696

l1.weight f4 [100, 108]
00000000: 48de 9bbd e635 ce3d 5a19 d5bc a708 1b3e
00000010: 4395 023e d4df afbd 4895 4d3d 67f4 bc3d
00000020: 041f fc3d 0680 96bc d78c 0cbe 0c30 90bd
00000030: 1694 1ebd eb0b bb3e d33c 373e d6c2 0cbe
00000040: 69b9 883d 7f69 1a3e dcda 5c3d 0c06 8f3d
00000050: ca87 83bd bdcb dc3c 1ef0 04bd 104c 183c
00000060: b528 a9bc 964d 89bd 04f1 05bd 4fb5 d33c
00000070: dfa9 e03d 6dd1 523e 48d4 5f3e 64a6 8fbd
00000080: 2b38 3e3e 6914 343d 520e 67bd 5c78 673d
00000090: 20f0 0dbe 6b16 0e3e 2849 3d3d caa9 143e
000000a0: 3bf4 bfbd 5ada 46bd d2e1 253d abf7 443d
000000b0: 5e1a e7bd a157 16be 3a41 183d ced3 573e
000000c0: 7673 8bbd 9359 813d 89df f4bd 6b5c bebd
000000d0: a106 92bd 2b53 b3bd ae88 13bd 535a 4f3e
000000e0: e8e1 e23d 8fa5 793b 4ed7 ca3c 8c39 8ebd
000000f0: 4e6f 0f3e 9114 8d3d ed90 5abe c2ca ba3c
00000100: a9b8 733c 1685 02be c724 44be 0d8e 653c
00000110: f29d 98bd 8ad3 a03d a7bf 4dbc 7bbf f9bd
00000120: 9b4e 8b3d b2c7 f5bc 821e a7bd a699 34be
00000130: 3e7c 2fbe 6a49 35be 28cb 5bba 7468 74bc
00000140: 1f7a 223e 9ba8 66be e0d5 603d 3a06 dcbd
00000150: fe77 a23d ec45 c6bd 025c 213b 3553 e6bd
00000160: 8536 1cbd 8208 113d 78b1 bf3d 54b0 03bf
00000170: 7103 97bc 4786 9c3e 2647 4e3a 7f4b 8b3d
00000180: 1f63 36be 9eb6 c5bd d607 3cbd 3de7 a03e
00000190: 90cf a0bd be22 95bd acde 103f c5ee 343d
000001a0: ff76 383e 0aa1 263b a5eb bf3e e52a 5cbe
000001b0: f0ce 3cbe e2c0 1ebe 1ea8 4b3d 5d2a 2cbe
000001c0: fa32 9ebc ca44 e5bc 48dc 65be 20fb fc3d
000001d0: 4724 3d3e 1a26 ffbd 46e9 f3bc 3e7c 61be
000001e0: 45f9 fc3d 702b 85bc 53da c73d 0f38 adbd
000001f0: 362f f8bd 7e10 04be 54b8 f03d e366 e23d
00000200: 74ea 80be 30ed 8fbd 7a2a 303d e5f8 a9bd
00000210: 2fba 993d bf2f 3f3e a4a2 cdbd 48e9 583e
00000220: 109b 9b3c dffc 403d a9d4 38bd 2ae1 963d
00000230: c0af 3abe b3dc 65bc 4f4a 5dbe 657a 0f3e
00000240: d0c1 e7bd d991 5cbd 7091 9bbe 6b55 3dbe
00000250: 79fe dc3d 1581 dbbd 8ff2 a53d b509 223e
00000260: 38a9 29be 7895 6b3e 054f db3d 4717 db3d
00000270: 7383 22be 78e9 fdbd 0dd3 0fbd 728b ad3c
00000280: 942b ea3a 9da1 8c3d b3ae c7bd a015 03be
00000290: 936b f63d 7dc4 7d3e f118 063d 8c73 41be
000002a0: 44bb 9cbc ce50 81bd cc4e 81be d211 c5bd
000002b0: be7a e03d 8611 88bc bd53 7cbd 2e55 ac3d
000002c0: a571 f03d 13b4 26be 96ed 053d 35cc 2f3e
000002d0: 3b1e c03d d6fd 0b3e 427b 3dbc 205f 9fbb
000002e0: f507 1cbd 32fa eabd a0f4 c7bc 03a2 3bbd
000002f0: 42fe a83d 57a5 f2bd 4d80 de3e 60d9 d23d
00000300: a81c ea3d 5adc 40bd 93eb 2a3e 7c62 473e
00000310: 7e36 f3bd 3249 6abe 0ad3 58bd 9cda db3d
00000320: 1aec 55be fe4d 163d b2bd 27bc dcd5 93bd
00000330: 952a 323e ef53 553d ad63 143e f9b4 853d
00000340: af08 593d fa42 b73d 2a06 903c 7fe3 48bb
00000350: 86ef a33c c223 2c3e ba38 dcbd e2fd 0a3e
00000360: b1d7 fb3d 71e3 3fbd 06db 38be 1217 d93c
00000370: 1753 28bc a806 20be 3a84 b33c 286b 893e
00000380: d998 4f3d 121b 82bd 7fb2 12bd 81c8 21bd
00000390: 101d 0ebd ca8d c53d a2a0 32bc 710e 00be
000003a0: 0588 2ebe 26be adbc 0a69 36bd 4c1e ad3e
000003b0: c7d8 a23c 5096 38bc f948 1abd 193b 233d
000003c0: f911 aa3d 5a97 c43d 1798 893d 894e 0dbe
000003d0: e6e5 61bc 7a67 133e 5702 13bc 681a 9839
000003e0: a266 033e 4a9f 1c3e 61af a03d b472 41be
000003f0: 1d8c 18bd 8716 a73d 459e c43d e766 773b
-0.07610756 0.10068874 -0.026013065 0.1514002 0.12752251 -0.08587614 0.050191194 0.092263035
0.12310603 -0.018371593 -0.13725601 -0.07040414 -0.038715445 0.3653253 0.17894296 -0.13746199
0.06675989 0.15079306 0.053919658 0.06983575 -0.06422384 0.026952619 -0.032455556 0.009295478
-0.020649293 -0.067042515 -0.032700554 0.02584329 0.109699 0.20587702 0.21858323 -0.07014158
0.18576114 0.043964777 -0.05641014 0.056511268 -0.13861132 0.1387574 0.046212345 0.14517894
-0.09372755 -0.04854808 0.040498562 0.048087757 -0.11284326 -0.14681865 0.03717158 0.21076891
-0.06809132 0.06315913 -0.119566984 -0.09294971 -0.071301706 -0.087560974 -0.03601902 0.202493
0.110782444 0.0038093065 0.024760868 -0.0694457 0.14007303 0.06888688 -0.21344347 0.02280176
0.014875569 -0.12746081 -0.19154654 0.014010918 -0.07452001 0.07852848 -0.0125579005 -0.12194725
0.06802102 -0.030002449 -0.08160116 -0.17636737 -0.17137238 -0.17703786 -0.00083844597 -0.014917482
0.15866898 -0.22525255 0.054891467 -0.10743375 0.07933043 -0.09681305 0.0024621491 -0.11246339
-0.03813793 0.035408504 0.09360021 -0.5144093 -0.018434258 0.30571195 0.00078688783 0.06801509
-0.17811249 -0.09653972 -0.04590591 0.3142642 -0.078520894 -0.07282017 0.5658977 0.04417302
0.18014143 0.0025425577 0.3748447 -0.21500738 -0.18438315 -0.15503266 0.049720876 -0.16813035
-0.019311417 -0.027986903 -0.22447312 0.12352586 0.1847087 -0.12458439 -0.02977432 -0.22020051
0.12352232 -0.016256064 0.09758439 -0.08457958 -0.1211838 -0.12896916 0.11753908 0.1105478
-0.25178874 -0.07027662 0.04300926 -0.08299426 0.07506215 0.18670557 -0.10040787 0.2118274
0.018994838 0.047116157 -0.045124684 0.073671654 -0.18231106 -0.01402967 -0.21610378 0.14011534
-0.11316264 -0.05385003 -0.30384398 -0.18489616 0.10790724 -0.1071798 0.08102905 0.15824015
-0.16568458 0.23006237 0.10708431 0.10697799 -0.15870456 -0.12398046 -0.035113383 0.021184657
0.001786577 0.06866763 -0.09750118 -0.12801218 0.12032237 0.24781986 0.03273863 -0.18891734
-0.019132264 -0.063142404 -0.2525543 -0.096225396 0.10960911 -0.016609918 -0.061603297 0.08414684
0.11740426 -0.1627963 0.032697283 0.17167743 0.09380766 0.1367105 -0.0115650315 -0.0048636347
-0.038093526 -0.11473502 -0.024408638 -0.045808803 0.08251621 -0.11847942 0.4345726 0.10295367
0.11431247 -0.047085144 0.16691427 0.19471163 -0.11875628 -0.22879484 -0.052935638 0.10735056
-0.20890847 0.036695473 -0.010238098 -0.07218525 0.17399056 0.052082 0.14491148 0.065286584
0.052986797 0.08948322 0.017581064 -0.0030653176 0.020011675 0.16810516 -0.10753007 0.13573411
0.12296999 -0.046847764 -0.18052301 0.026500259 -0.010273716 -0.15627539 0.021913636 0.26839566
0.050682876 -0.063528195 -0.03581476 -0.039497856 -0.034695685 0.09646185 -0.010902556 -0.12505509
-0.17044075 -0.021208834 -0.044533767 0.33812177 0.019878758 -0.011266306 -0.03766725 0.03985128
0.08304209 0.095991805 0.06718462 -0.1379949 -0.013787722 0.14394942 -0.008972726 0.00029011373
0.1283212 0.15295139 0.07845951 -0.18891412 -0.037242997 0.081585936 0.096005 0.0037750544

l1.bias f4 [100]
00000000: 670f 83bd 8aca 843c 7e20 8e3e 0923 07be
00000010: 21af 27be 650a bbbd a440 9b3c 2c3d d23d
00000020: 84d3 59bd 3272 19be 911e 353e d563 f8bd
00000030: 3262 063d e763 6d3e 307b 9bbc c0fc 7dbd
00000040: 9ec9 3e3d 70b2 493d 4a23 78be 331d 023e
00000050: afcb 5fbe 6a01 34be 48e8 a1bd 3c82 8d3e
00000060: 9c14 93bb e43a 2ebd ec05 37be f26a 2ebd
00000070: 8090 063e 31ec fe3d d5f7 f23c fb52 68bd
00000080: 19f4 04be d8fd 9a3d df2d 82be 316f 773d
00000090: d804 6fbe c84d e63d 2a25 e7bd b15e 7ebd
000000a0: 951e 623d d4b6 0a3e 3b61 423d e886 9c3e
000000b0: 0496 793d cf87 ee3d aed6 01bc ec50 143e
000000c0: 7691 9e3d 7cd6 fabd d695 1cbe c363 a1bd
000000d0: d33e 483d 4654 13be dff3 683d 6eb9 a83e
000000e0: ad80 6bbd a9d2 923d 4c88 2c3d 7cac 5a3e
000000f0: d2da 753e 2354 70bc 62d5 3abd c22b fabd
00000100: b781 063e 5551 83be 8902 4bbd aeb4 ab3e
00000110: 7689 cebd fd31 623e 5bb5 803b 2ed1 873d
00000120: c2b8 33be d1bb 32be 0469 1a3e 3ed9 64bc
00000130: 8e9d 3f3d 844a 223e 7e6a 17be ae98 ad3e
00000140: 3349 40be 889f d8bd 7915 013e 0328 01be
00000150: c0a1 d2bc 85c1 823e 97dd 943c 504b a0bd
00000160: cf90 cf3c de0b 4a3e e1bf 1e3e 7d4f 3b3e
00000170: c974 a9ba 5637 cb3c db21 26be 37f1 a83b
00000180: b407 7a3e bd16 d8bc 968d 95bd 5bc3 bbbc
-0.06399422 0.01620986 0.27759165 -0.13196959 -0.163754 -0.09132842 0.018951721 0.10265574
-0.053180233 -0.14984968 0.17687441 -0.121284164 0.03280849 0.23182641 -0.018979639 -0.06200862
0.046578996 0.049242437 -0.24232212 0.12706451 -0.21855043 -0.17578664 -0.07905632 0.27638423
-0.004488541 -0.04253663 -0.17873353 -0.04258246 0.1314106 0.12447394 0.029659191 -0.05671976
-0.12983741 0.07567948 -0.25425622 0.060408775 -0.23341691 0.11245304 -0.11286385 -0.062102024
0.055204947 0.13546306 0.047456007 0.30571675 0.06093408 0.11646997 -0.007924719 0.14483994
0.07742588 -0.12247941 -0.15291533 -0.07880356 0.04888804 -0.14387617 0.0568732 0.32953972
-0.05749576 0.071690865 0.04212217 0.2135486 0.24009255 -0.014668497 -0.045613654 -0.122153774
0.1313542 -0.2564799 -0.049562965 0.33536285 -0.10084812 0.22089382 0.0039278693 0.06631695
-0.17550948 -0.17454459 0.15079123 -0.01396781 0.046781115 0.15848738 -0.14786717 0.33905548
-0.18777923 -0.10577303 0.12605847 -0.1261292 -0.025711894 0.2553827 0.018172069 -0.07826865
0.025337605 0.1973109 0.15502883 0.18292041 -0.0012928481 0.02480666 -0.16223852 0.005155708
0.24417001 -0.02637803 -0.07302396 -0.022920301

l2.weight f4 [100, 100]
00000000: 8f64 02bd eee3 55be d206 2fbe ade6 a1bd
00000010: 5a34 4c3e 5b43 05bc ec5d 10bd f9b7 85bc
00000020: 3333 63bd 4cfc 143e f067 3cbd 7d7a 893e
00000030: 3e45 a0bd 4ea4 d1bb 6f8d 2d3e f215 583e
00000040: b291 d6bd f48b 55be f1eb c4bc 02bd 8fbd
00000050: a376 593e 8bb7 0d3e 8b6b df3d a624 c6bd
00000060: 9f59 38bc 63ad b33d a53b 38bc 174d e83d
00000070: 92da 393d 2a74 5ebe e994 5fbd 6684 f23b
00000080: 3165 fe3d 1215 2a3d d1b9 74bd 382d efbc
00000090: 9f32 173c 4cbf 893c 1c50 0e3e c7ce 9cbd
000000a0: 351c 8fbd d504 93bd d70d 5fbe 69e6 3ebe
000000b0: f3b8 1c3d 3457 b23d fd31 a23b 6dd1 863c
000000c0: 53a9 62bd d244 01be 784f 033e ca36 603c
000000d0: d41a 32bd 8171 a63b 8a26 c1bd d769 a63d
000000e0: 9479 903e e5e7 51be 968f 26be 164f be3d
000000f0: 2d23 163e 7561 08be 6aab c13d d569 07be
00000100: cfb9 8dbc a1cf 3f3e c468 e3bd 7fb9 25be
00000110: b7b8 6cbd d3c7 1dbe 95f1 47be 9155 fabd
00000120: 4b06 8cbd 315a c23c f2c3 1dbe 002e bd3c
00000130: 41f8 d23d 7d2a dbbe bb5b 8a3c 7582 9bbe
00000140: 2482 203d 8797 523e 30c9 b23d 4a16 343e
00000150: 9dc5 353e 2fd4 91bb fbea 523d cfbf 923d
00000160: 16a3 963d bdac 06be 2317 37bd 90d1 16be
00000170: a010 eebd 081d fe3c 0f72 87bd b598 e43d
00000180: 0bb0 0abe e10e 603d 8fdf bd3d 1db4 c93d
00000190: 1428 8e3d 5a87 6e3e dd6c 2b3d ada8 22be
000001a0: fe3b f4bd 29ed 0a3d e4e1 46bd d5c3 b8bd
000001b0: 8ef0 6cbe ce5c acbc 5b21 7b3d 23ed cd3d
000001c0: f40a 8dbd 2b5e 673d 5be0 47be 769b c5bd
000001d0: c66e 2bbe 7694 3c3d 4b1f 93bd c2e5 9cbb
000001e0: 66f3 9abd f3e3 6ebd 07eb 433e eb7f 33bc
000001f0: ae89 bdbd e01b 4f3d ed6a 19be 4454 3abe
00000200: e23c 11bd e88d a4bd cfdb 2a3e e3de 223d
00000210: 0f7e 6fbd 29d6 bb3c 57b2 8a3d 34c9 133e
00000220: 0e72 5f3e bfcb 72bd a1b7 51bb a289 033e
00000230: edbf 22bd 70b6 12bd 12d5 ad3d b3e4 6fbe
00000240: ee0d 833d 16bf 4a3e c413 d43d 8c82 163e
00000250: 805b e03d 4c31 2cbe cfd2 89bb d898 7d3d
00000260: 9b3e 34bd 302d 873d c930 e8bb dab0 d43c
00000270: 305b 67bc ccdc 3b3e 072d cb3b 56c2 dabd
00000280: 82b5 61bd 3de2 b23d 00c7 313e 54b1 1bbe
00000290: 1a18 ac3e dd51 843b 50d3 803e 6ca5 fc3d
000002a0: 3b2f a7bd 02d8 82bd d8f8 193b 251c 96bd
000002b0: 7f03 00be 611b 753d 398a 14bd 3a3f 99bd
000002c0: 68d7 45bd 3d08 27be a29d 1f3e c80f 483e
000002d0: 0874 c43a b737 993d 60ef 80bb ce8b 433d
000002e0: de12 3f3d aa6f ad3d dc18 c2bd 2ae7 203e
000002f0: 6ccf 3a3d 9f3d 7c3e 0433 713d 5c87 783c
00000300: 6039 253e 67bb a73b fef9 09bc afc4 803d
00000310: 6bfb cc3d 4d58 84bd d67e 1bbd 84d6 ce3d
00000320: e712 b53e 421a 453b 23cb 90be 46fa 9b3d
00000330: e61f 1cbe 9873 9e3e 5c69 b5be c772 8f3d
00000340: 8f4d ab3e 4c87 08bd c4c6 6abe 2e45 aebc
00000350: 01e2 69be dca3 0dbf 8854 44be 9e77 193e
00000360: 7fe5 d2bd 4b03 46be f25e 48bc f4f4 49bd
00000370: 88c5 0cbe 93a9 b03e ddd2 743e 121b 013e
00000380: 6a51 dabe 06f4 67bd d79b 2c3e 85d2 1a3e
00000390: 7371 733e 8a73 c0be d6ce b63e 98d5 15be
000003a0: 8fd8 043f 819a a3bc d2c5 2c3e 9e3e 933c
000003b0: 4f7f 55bd 0e88 e7bc 24e5 1a3d 349c c2bd
000003c0: 7983 3a3e c834 3f3e 6e5a 943d e7aa 00be
000003d0: 9554 ecbc 36ee ee3d d56b 92be f3d1 4abd
000003e0: 44ed 733e 6643 723e 1476 6cbe 0bc1 8bbd
000003f0: b834 db3e 0fef 25bd 44d8 853e f5f3 c73e
-0.03183418 -0.2088773 -0.17092445 -0.07905326 0.19941846 -0.008133735 -0.03524582 -0.016323077
-0.05546875 0.14549369 -0.04599756 0.26851264 -0.07825707 -0.0063977605 0.16948484 0.21102121
-0.10477008 -0.20854169 -0.024038287 -0.07018472 0.21236663 0.13839547 0.10909184 -0.09674959
-0.011251836 0.08773305 -0.011244689 0.11342829 0.04537446 -0.21724 -0.05458537 0.007401037
0.124216445 0.041524 -0.05974752 -0.029196367 0.009228378 0.01681485 0.13897747 -0.07656627
-0.06987802 -0.07178656 -0.21782623 -0.18642582 0.03826232 0.08708039 0.0049498067 0.016457284
-0.05533726 -0.12623909 0.12823284 0.013684938 -0.043482617 0.0050794487 -0.09431179 0.08125656
0.28217757 -0.20498617 -0.16265711 0.09292428 0.14661856 -0.13318427 0.09456523 -0.13223965
-0.017300515 0.18731548 -0.11103967 -0.16184042 -0.057793345 -0.15408258 -0.1952575 -0.12223352
-0.06837138 0.023724647 -0.15406778 0.023093224 0.10301257 -0.42805853 0.016889444 -0.30372968
0.03918661 0.20565616 0.0872978 0.17586628 0.17751165 -0.004450343 0.051493626 0.07165491
0.07355325 -0.13151832 -0.0446998 -0.14728379 -0.11624265 0.031019703 -0.06613552 0.11161939
-0.13543718 0.05470169 0.09271156 0.09848807 0.06941238 0.2329382 0.041851867 -0.15884657
-0.11925505 0.03391758 -0.04855527 -0.09021727 -0.2313864 -0.021040346 0.061311107 0.10054996
-0.06886855 0.05648629 -0.19519179 -0.096487924 -0.16741475 0.04604002 -0.07183703 -0.0047881315
-0.07565956 -0.058322858 0.19132625 -0.010955791 -0.09254776 0.050563693 -0.14982195 -0.18196207
-0.035458453 -0.08034879 0.16685413 0.039763343 -0.05846983 0.022929268 0.06772297 0.14432222
0.21820852 -0.05927634 -0.003200032 0.12845472 -0.039733816 -0.035818517 0.084879056 -0.23427086
0.06399141 0.19799456 0.103553325 0.14698237 0.10954952 -0.1681568 -0.0042060385 0.06191334
-0.044005018 0.06600416 -0.007085894 0.025963236 -0.014120862 0.18345946 0.006200436 -0.10681598
-0.05510474 0.08734558 0.17361069 -0.15204364 0.33612138 0.004038079 0.2516122 0.12336239
-0.08163305 -0.063888565 0.002349427 -0.07329587 -0.12501334 0.059840564 -0.036264632 -0.07482763
-0.04830113 -0.16311736 0.15587476 0.1953727 0.0014988193 0.0748133 -0.0039347857 0.04774075
0.046648853 0.08468564 -0.09477398 0.15713182 0.04560797 0.24632882 0.058886543 0.015168991
0.16135168 0.0051187756 -0.008421419 0.062875144 0.10008892 -0.064621545 -0.037962757 0.10099509
0.35365984 0.0030075465 -0.2827998 0.07616095 -0.15246543 0.30947566 -0.35431945 0.07004314
0.3345761 -0.033332154 -0.22927386 -0.021273222 -0.2284012 -0.55328155 -0.19172871 0.14987037
-0.10297679 -0.19337194 -0.012229668 -0.04930587 -0.13747227 0.34504375 0.23908563 0.12607983
-0.4264024 -0.056629203 0.16856323 0.1511937 0.23773746 -0.3758815 0.35704678 -0.14632261
0.5189294 -0.019971134 0.16872337 0.017974194 -0.052123364 -0.028263118 0.03781618 -0.0950245
0.18214215 0.18672478 0.072438106 -0.12565194 -0.028848926 0.11666529 -0.28597894 -0.04951663
0.23820978 0.23658523 -0.23091918 -0.068239294 0.4281366 -0.040511187 0.2614156 0.39053312

l2.bias f4 [100]
00000000: 5054 90be 38fb 923e f965 233e 6e0d 26be
00000010: 0432 e23c 4ee8 1e3e e3a9 bcbd 662a 8c3d
00000020: a6d4 afbc c57b 8c3d 235f ee3c 7c4a b23e
00000030: abd9 b83e 860e 8bbe 9855 883e f940 263d
00000040: 4c28 9c3e 2845 3b3d 9172 8ebd 64df 5e3c
00000050: 87e7 873d b15e 693e 1fa0 873e f238 d93d
00000060: cae4 0f3e 2601 2fbe 2422 553e 1f5d cabe
00000070: 1119 aabc 0408 9cbc 28a7 1b3d 7610 07be
00000080: 6aef 7f3e 3946 0a3d 9ed9 82bd 89c6 53be
00000090: 8c8e bcbd 96ef 72bc 106f 7a3c 2e1f febc
000000a0: b580 6fbe 5f79 d13d a202 dd3c 9843 14be
000000b0: 522e 033e e67b 26bd 65b5 9e3e 2c49 013d
000000c0: 1821 07be 0234 15bd ee53 aebe 5d06 f73d
000000d0: c5cf 40be d0a7 2bbd 52d5 8b3e 9937 fcbc
000000e0: 8291 b03e 548e 81be 2333 b33e 7bf7 7b3e
000000f0: 2107 0f3e e560 23bd 28d8 cfbb be23 f8bd
00000100: ab72 72be 30ed 81be c327 3f3c 0eeb a9bd
00000110: 7ef2 9b3d def2 80bd a7cf 9fbd 7662 293c
00000120: d711 dcbc ed8f 21be 8cbf a53d cb30 21bd
00000130: 5fc8 c43e ef79 9abb 40f8 28be 7eee eabd
00000140: ff0b 55be 271f 78bc 85ec b93c 89a5 4b3d
00000150: a280 06be 20b8 e6be bdb2 553e 5bee d13d
00000160: ee3a 80bc 36b2 29be 5117 11be 3e8e e93a
00000170: 8bf5 323d a21b 813d 5247 283e b0a6 453e
00000180: cc6f edbc 22aa 4c3e 7133 9d3e 637c c1bd
-0.28189325 0.2870729 0.15956868 -0.1621606 0.02761174 0.15518305 -0.09212091 0.06844024
-0.021463703 0.06859545 0.0290981 0.34822452 0.36103567 -0.27159518 0.26627803 0.040589307
0.30499494 0.04572025 -0.069554456 0.013603065 0.06635957 0.22790028 0.2648935 0.106065646
0.1405212 -0.17090282 0.20813805 -0.3952417 -0.020763906 -0.01904679 0.03800121 -0.13189873
0.24993673 0.033758376 -0.063891634 -0.20681204 -0.09206876 -0.01482763 0.015285268 -0.031020727
-0.23388942 0.10228228 0.026978794 -0.1447891 0.12810639 -0.040645503 0.30997768 0.031563923
-0.13196218 -0.03642655 -0.34048408 0.120617606 -0.18829258 -0.041908085 0.27311188 -0.03078823
0.34486014 -0.253039 0.34999952 0.24606125 0.13967563 -0.039887328 -0.0063429065 -0.12116192
-0.23676555 -0.25376272 0.011667195 -0.08296786 0.07614611 -0.06296323 -0.078032784 0.010338416
-0.026863975 -0.1577756 0.08093175 -0.039353173 0.3843412 -0.0047142426 -0.1650095 -0.1147127
-0.20805357 -0.015144146 0.02269579 0.049718414 -0.13135007 -0.4506235 0.20868964 0.10250541
-0.0156531 -0.16571888 -0.14169051 0.0017818881 0.0436912 0.06304099 0.16433457 0.19301867
-0.028983973 0.19986776 0.3070331 -0.09447553

l3.weight f4 [18, 100]
00000000: 0ae1 18be 6e8b 5bbe eba3 cbbe 27eb 363e
00000010: 7dc2 5f3e 42eb 3cbe 7d45 d33d 3635 0cbe
00000020: 35a6 3a3d 7745 2abe 6a87 8fbd b782 98be
00000030: 3977 fcbd 36f1 9d3e e17f 47bc 53aa 12be
00000040: 24fb 27be 2c7f 55bd a41a d8bd e74e e33e
00000050: 0ebe 6cbe c295 35bd 7d48 a7bc b065 1bbd
00000060: d43b 74be ae8f 5a3e 7dcd 64be 805e 443e
00000070: ea7e 67be 59a3 623e 53bb 82be 2c4d 353e
00000080: 31d6 2fbe bc64 9c3e d7e2 613e fd14 843e
00000090: db38 eb3d eeee 15bd 55f5 973c 52a1 cebd
000000a0: a7e3 9e3e 80c4 e9bd 7d4c fd3c 8ef6 6b3d
000000b0: 97a6 7bbe 68ce 8a3e a23a 1e3e 3184 b43c
000000c0: 8c49 6b3e ee9a 1e3e e296 193e 96be a7bd
000000d0: f733 483e 6b07 0abf 895a 25be 6e54 a23e
000000e0: 8f1f 2cbe 4520 e13c 7647 2fbe 01f6 5abd
000000f0: db6d 603d 09ec 8bbe 2d84 863e b0ec 7b3e
00000100: 60a6 a23e d5e0 9c3e e9fd 9cbe 50d9 0e3e
00000110: 3e6b 92be 74a3 80be ebb0 5e3e bd5e 2fbe
00000120: 5572 ff3d 6273 7d3d 19a8 6abe 62a5 32bd
00000130: 7bd8 d7bd 3d6e 0c3e 8713 9fbd dd27 443e
00000140: 3f6a a43e 5830 1a3e 2852 e1be de58 68be
00000150: 8e33 ed3d 000f 043e 25d0 6cbd 7528 cfbe
00000160: 962f 82bc 542a 733d 6217 8d3d a60b 403d
00000170: 04c4 f53d d4f1 b9bd bacd 19be 90ce b2bd
00000180: 9f06 b4ba 0990 b33d 55ac 38bb b0d6 883e
00000190: 5174 0c3d 2003 2e3e f365 97be 3c80 86bb
000001a0: 0c23 c13e 6006 04bd 6819 913e b7ba e43c
000001b0: 1c6b 6ebe 648f a7be 7c16 b83d 05ff 00be
000001c0: 1d62 a2bc 11d0 123e 6a34 8abe 0b8e d23c
000001d0: 6d7b 70be deae 7abe ed4c 80bc 956f b23d
000001e0: 9395 4bbe 8260 69be 1b4a 98be 78c4 1bbd
000001f0: 4c87 94be a9fe b7bc 2e4f a4be 9127 083e
00000200: 22d3 003c 93b2 193e 00ea dabe ebcd 383e
00000210: 6607 22bd 01f8 a33e 95f5 a23d 5617 173e
00000220: ec4e 173e 298f 253e 7415 2b3e 2b94 d0be
00000230: d25c 1b3e b34f 42be 94e6 8abb f3da e73d
00000240: d588 3bbe 7c2f 853e 8722 503e 556a 82bc
00000250: e724 a43e f8a2 743e 66bf ce3e fc58 0dbe
00000260: 6f45 e23c 1455 30be d21a e2be 315f 1b3e
00000270: c304 fbbd b724 883e 05c7 40be de72 afbe
00000280: 412d 163e 81d1 b7be 2733 47bc 51ad 8c3d
00000290: 4713 793e 6c07 a73e fa50 0bbe 6bb3 ab3e
000002a0: 74ef 66be 370f 25be f1ce a63e 1c6d 89bd
000002b0: b072 08be 794f 7b3e 019e b2bd 879b 52be
000002c0: 3411 28bc 7765 673e bf5d edbd 0135 f23d
000002d0: 4fb1 8d3e 6db9 6cbe c1da d13d 48c6 30be
000002e0: 377c ca3b 90f2 983e 9912 73be 0860 b2bd
000002f0: 2919 df3d e158 603e a04e 01be 5284 76bd
00000300: 3ece 05be e05b 07be d95b bbbc 2b0c 6ebd
00000310: 2a19 87bd 7b16 783d 8f73 03be a97b 853e
00000320: 598f 5f3e 5b8a c2be f275 b3be 7b22 cd3c
00000330: 76be aebd f031 2cbe 8df6 6c3e 3c6b 30be
00000340: 8020 7fbe ce7a 38be c375 243b 83c4 f43a
00000350: ccd1 253e 8363 a53e 4601 adbd 638d c7bd
00000360: db4f a4bd d18b 0fbe 1e8a 0e3e 16f7 f43e
00000370: 86ef 21be 5c15 65bd 2de0 2ebe 221e 65be
00000380: 2c67 1bbd 91c5 21be 5d46 ffbe 8fde a53e
00000390: 9b4a bfbd c49f 823e 4df8 6fbe 5c9f 0a3e
000003a0: 3ea3 25be 4554 213e 0bcf 863e 52f7 26bd
000003b0: 5c68 1b3e 1b6b 5bbe a7d7 39bd 0ac8 023c
000003c0: 5291 22be 17fc bebc 097a 80bd 0f55 2c3e
000003d0: 2d45 3ebe c5b0 e83e 9a17 093e ec7b 8b3e
000003e0: 606e 513e 9387 6f3e 6c2e 1a3e af11 88be
000003f0: 8d06 81be 2e69 93bd 02f3 23be 03c7 06be
-0.14929596 -0.21439907 -0.39773497 0.17863141 0.21851535 -0.18449119 0.10315988 -0.13692173
0.045568664 -0.16628061 -0.0700825 -0.29787228 -0.123274274 0.30848092 -0.012176485 -0.14322786
-0.16404396 -0.052123234 -0.10551956 0.44396135 -0.23119375 -0.044332273 -0.020420307 -0.037938774
-0.23850948 0.21343872 -0.22344013 0.19176674 -0.22607008 0.22132625 -0.25533542 0.1770522
-0.17171551 0.30545604 0.22059189 0.25797263 0.11485454 -0.036604814 0.0185496 -0.10089363
0.3103306 -0.114144325 0.030920262 0.05760818 -0.24575268 0.271106 0.15452054 0.02203569
0.22977275 0.15488788 0.14998963 -0.08190648 0.19551073 -0.5391757 -0.16147818 0.3170504
-0.16808914 0.027481208 -0.17117104 -0.053457264 0.054792266 -0.27328518 0.26272717 0.24602008
0.3176756 0.30640283 -0.30662468 0.13950086 -0.28597444 -0.25124705 0.21747176 -0.17125984
0.12472979 0.061877616 -0.22915687 -0.043614753 -0.10539337 0.13713928 -0.077673964 0.19155832
0.3211231 0.15057504 -0.44007993 -0.2269015 0.11582099 0.12896347 -0.05781569 -0.40460554
-0.015891831 0.05936654 0.068892255 0.04688611 0.12000278 -0.09079328 -0.15019885 -0.08730805
-0.0013734883 0.08767707 -0.002817889 0.26726294 0.034290615 0.1699338 -0.2956997 -0.004104642
0.3772205 -0.032232642 0.28339696 0.027921064 -0.23283046 -0.32726586 0.089886636 -0.12597282
-0.019822175 0.14337184 -0.26993114 0.025702497 -0.23484583 -0.24480769 -0.015661681 0.08712689
-0.19881277 -0.22790721 -0.29744038 -0.038029164 -0.29009473 -0.022460299 -0.3209166 0.13296343
0.007862838 0.15009527 -0.42756653 0.18047301 -0.039557837 0.3202515 0.07956997 0.14754996
0.147762 0.16167893 0.16707402 -0.40738043 0.15172127 -0.18975715 -0.004238913 0.11321058
-0.18313916 0.2601279 0.20325671 -0.015919844 0.32059404 0.23890293 0.403804 -0.13803476
0.027621 -0.17219955 -0.44161087 0.15173031 -0.122567676 0.2659051 -0.1882592 -0.34267324
0.146657 -0.35902026 -0.012158192 0.06868995 0.2432376 0.3262285 -0.13605109 0.33535323
-0.22552282 -0.16119085 0.3257976 -0.06710264 -0.13325 0.24542035 -0.08721543 -0.20567141
-0.010258008 0.225973 -0.11590146 0.11826516 0.27674338 -0.2311761 0.10246802 -0.17263138
0.0061793583 0.2987256 -0.23737563 -0.08709723 0.10893471 0.21908905 -0.1262765 -0.060184784
-0.13066956 -0.13218641 -0.022870945 -0.058117073 -0.065965965 0.060568314 -0.12837051 0.26070908
0.21832027 -0.37996182 -0.35050923 0.025040856 -0.08532421 -0.16815925 0.23140927 -0.17228407
-0.24914742 -0.18015596 0.0025094606 0.0018674288 0.16193312 0.32302484 -0.084475085 -0.09743764
-0.08023044 -0.1401818 0.13919875 0.47844762 -0.15814027 -0.055928573 -0.17077704 -0.22374776
-0.03794019 -0.15798022 -0.4985837 0.3239636 -0.09340402 0.25512516 -0.23434563 0.13537353
-0.16175553 0.15754803 0.26329836 -0.040763207 0.15176529 -0.21427576 -0.045371678 0.007982263
-0.15875748 -0.023313565 -0.06273276 0.16829322 -0.18581076 0.45447364 0.1338791 0.27242982
0.20452261 0.23391561 0.15056771 -0.26575992 -0.2520031 -0.07197796 -0.16010669 -0.13161854

l3.bias f4 [18]
00000000: 7593 d43d 47c2 42bd 7c85 e0be f7f5 98be
00000010: 4dc2 2b3e 8efd 04bc 01a9 143d ffc4 b0be
00000020: 2c46 d7bd d0a5 36be a087 9c3d 0fc0 8fbe
00000030: 6517 9abe 3a42 c93e 9d67 37bd d02e 64be
00000040: 7460 c0be 49d7 96be
0.10379688 -0.04754856 -0.4385184 -0.29875156 0.16773339 -0.008117093 0.036293987 -0.34525296
-0.10511431 -0.1783669 0.07643056 -0.28076217 -0.30095974 0.3930834 -0.044776548 -0.22283483
-0.37573588 -0.29461125
