LARA/data/result/d_90.pt (torch, 94638 bytes, 7 tensors)

D_attr_matrix.weight f4 [36, 5]
0	0xbda8fa79	-0.08250899
1	0xbf0da991	-0.5533686
2	0xbe61a9e8	-0.2203747
3	0x3dc0281c	0.0938265
4	0x3e04f158	0.1298269
5	0xbde0e4e3	-0.10981157
6	0xbef82a66	-0.48469847
7	0x3d25e234	0.040498927
8	0xbe591562	-0.21199563
9	0x3e98de4b	0.29857096
10	0x3e962a1d	0.29329005
11	0xb9371c04	-0.00017462677
12	0x3d83af90	0.0642997
13	0x3d22225d	0.039583553
14	0xbe233c98	-0.15941083
15	0xbd27bc73	-0.040951204
16	0xbe8af91f	-0.2714319
17	0x3d9047ac	0.0704492
18	0x3e11a3eb	0.14222686
19	0xbe9bfd21	-0.3046656
20	0xbb1a607d	-0.0023556047
21	0xbe8a44c2	-0.27005583
22	0x3e071a09	0.13193525
23	0x3e94053d	0.28910246
24	0x3e95c386	0.29250735
25	0xbe68b1c1	-0.22724058
26	0xbf6445d7	-0.8916907
27	0xbcbeb2c6	-0.023278605
28	0x3f27ee5d	0.6559809
29	0xbdddeb20	-0.10835862
30	0xbe46aff6	-0.19403061
31	0xbe194ebe	-0.14971444
32	0xbe4adaa9	-0.19809975
33	0x3f118cd9	0.5685554
34	0x3db55436	0.088539526
35	0x3e2cefa6	0.16888294
36	0xbe840184	-0.25782406
37	0x3e2315c0	0.15926266
38	0xbdafeb09	-0.08589751
39	0xbe68fa4f	-0.22751735
40	0xbee7cbe2	-0.45272738
41	0x3e6468b8	0.22305572
42	0x3db654b4	0.089028746
43	0xbec24736	-0.37944955
44	0x3d8fcc0d	0.070213415
45	0xbe98707b	-0.29773316
46	0x3e5b0a88	0.21390736
47	0x3c6badff	0.014384746
48	0xbe48b5a1	-0.19600536
49	0x3e0b992a	0.13632646
50	0x3e8e0a4e	0.27742237
51	0x3e4244fe	0.18971631
52	0x3e052243	0.13001351
53	0xbdc49240	-0.095982075
54	0x3e08ab30	0.13346553
55	0x3e29cb35	0.16581424
56	0x3eada2f4	0.33913386
57	0x3d1417a8	0.036155373
58	0xbe37b456	-0.17939886
59	0xbd523c52	-0.051327057
60	0xbe323d86	-0.17406282
61	0x3dc29eaf	0.09502923
62	0xbdab22d7	-0.083562545
63	0x3de0b7c3	0.1097255
64	0xbd9c978f	-0.07646095
65	0xbe5e00a9	-0.2167994
66	0x3ee28d34	0.44248354
67	0x3dd9cec5	0.10635141
68	0x3efb4e47	0.49083158
69	0x3f010073	0.5039131
70	0x3e316e72	0.17327288
71	0x3eaf2911	0.3421102
72	0x3db13f3f	0.08654641
73	0xbdb68005	-0.089111365
74	0xbee8f4d2	-0.45499283
75	0xbe19b380	-0.1500988
76	0x3e80a01e	0.2512216
77	0x3e60581f	0.21908616
78	0x3cb119ed	0.021618808
79	0x3e5dcf92	0.21661213
80	0x3e0bb26e	0.13642284
81	0xbd9c48c0	-0.076310635
82	0x3da076db	0.0783517
83	0x3e59d980	0.21274376
84	0xbddc0ff6	-0.10745232
85	0xbdc59eb8	-0.09649414
86	0xbe82342e	-0.25430435
87	0x3e79bfda	0.24389592
88	0x3ed33672	0.41252476
89	0xbd26960d	-0.040670443
90	0x3d3b6b67	0.045756724
91	0x3e25738e	0.16157362
92	0x3e067bd9	0.13133182
93	0xbdbee748	-0.09321457
94	0xbe264ed4	-0.16241008
95	0xbec460b2	-0.38355023
96	0xbe105d25	-0.14098032
97	0x3e7d9954	0.24765521
98	0x3e98135c	0.2970227
99	0xbf0c9485	-0.5491412
100	0xbdb68460	-0.08911967
101	0xbd84d030	-0.06485021
102	0xbcbe533c	-0.023233049
103	0x3e7be4df	0.24599026
104	0xbea49f80	-0.3215294
105	0x3e0af58a	0.13570228
106	0x3d98e67e	0.07465838
107	0x3e3a90c5	0.18219288
108	0x3e3c4622	0.18386129
109	0x3dea55eb	0.11442169
110	0xbee7cc5e	-0.45273107
111	0x3e977acf	0.29585883
112	0x3cdc5f5c	0.02690094
113	0x3dea007a	0.11425872
114	0xbdaec548	-0.08533722
115	0xbe004f06	-0.12530145
116	0x3edaed91	0.42759374
117	0xbd83e3dc	-0.06439945
118	0x3daafe54	0.083492905
119	0x3ec48f87	0.38390753
120	0xbea2a223	-0.31764325
121	0xbe8a9f47	-0.27074644
122	0xbdfab0c1	-0.122407444
123	0xbeda49a0	-0.42634296
124	0x3d8fd24a	0.07022531
125	0xbbb661c3	-0.0055658533
126	0xbde8c818	-0.1136629
127	0xbda6dbcb	-0.08147391
128	0xbe9b763d	-0.30363646
129	0x3e288203	0.16455846
130	0x3e39a18b	0.1812803
131	0x3bac410b	0.005256777
132	0xbe5a86a7	-0.21340428
133	0xbc6ef1c6	-0.0145840105
134	0xbdb2434d	-0.08704243
135	0x3c8f9bbb	0.017530313
136	0xbdee3dad	-0.116328575
137	0xbdc3f60b	-0.09568413
138	0x3e536bac	0.20646542
139	0xbd5bdcf0	-0.0536775
140	0x3d9f184f	0.07768308
141	0x3e17f4ec	0.14839524
142	0x3d8b044b	0.06787928
143	0xbd34ceee	-0.044142656
144	0x3e12aa8f	0.14322875
145	0xbe83885d	-0.25689974
146	0xbdcd9f65	-0.10040168
147	0x3daf0b96	0.08547132
148	0x3eae7bcb	0.34078822
149	0xbde1c0b4	-0.11023083
150	0x3db4f267	0.08835297
151	0x3e3fa173	0.18713932
152	0xbd167167	-0.036729243
153	0xbd2560f5	-0.04037567
154	0xbe547d7c	-0.20750993
155	0x3eb2c461	0.3491545
156	0x3e35ac12	0.17741421
157	0xbe14bf88	-0.14526188
158	0xbd91190f	-0.07084858
159	0xbcd39893	-0.025829589
160	0x3e74f5ff	0.23921965
161	0xbe20c910	-0.157017
162	0x3e4c5f44	0.19958216
163	0x3e78d6e8	0.2430073
164	0x3cba4caa	0.022741634
165	0x3de1fbb3	0.11034336
166	0xbe198c85	-0.1499501
167	0xbec3b6a2	-0.38225275
168	0x3d1a8e3d	0.037733305
169	0x3ddcdada	0.1078393
170	0xbdfdecd1	-0.12398685
171	0x3eaf9486	0.34293002
172	0x3dbe1952	0.09282173
173	0xbe8aed2b	-0.2713407
174	0xbe864ae4	-0.26229012
175	0xbeec5f07	-0.4616625
176	0x3e94a27c	0.29030216
177	0x3ea2ddda	0.31809884
178	0xbeca1070	-0.39465666
179	0xbea9f98e	-0.33198208

l1.weight f4 [100, 108]
0	0xbd9e1f7d	-0.0772085
1	0x3dcc6bda	0.099815086
2	0xbce73b90	-0.028226644
3	0x3e1d066f	0.15334485
4	0x3e0276ea	0.12740675
5	0xbda948a5	-0.08265809
6	0x3d57b298	0.052660555
7	0x3dbddaa3	0.09270217
8	0x3e012547	0.12611876
9	0xbc90cf07	-0.017676843
10	0xbe12d7c3	-0.14340119
11	0xbd959cb3	-0.07305279
12	0xbd1e63c0	-0.038669348
13	0x3ebbd3d8	0.3668506
14	0x3e371ef3	0.178829
15	0xbe0e3298	-0.13886487
16	0x3d83ffcc	0.06445274
17	0x3e19d6f8	0.1502341
18	0x3d5feaa4	0.05466713
19	0x3d8eadd4	0.06966749
20	0xbd851c0b	-0.064994894
21	0x3ce8c402	0.028413776
22	0xbd11cbfe	-0.035594933
23	0x3c08fc86	0.0083609875
24	0xbc8bc866	-0.01706333
25	0xbd870ca5	-0.06594209
26	0xbcfbd868	-0.030742839
27	0x3ce3b8a3	0.027798003
28	0x3ddc9de7	0.10772305
29	0x3e53e4bc	0.20692724
30	0x3e5dfb50	0.216779
31	0xbd8583d4	-0.06519285
32	0x3e3dad0e	0.18523046
33	0x3d4237fb	0.04741667
34	0xbd4d2994	-0.05008848
35	0x3d96c7d2	0.073623314
36	0xbe0b444c	-0.13600272
37	0x3e0b726a	0.13617864
38	0x3d0ec1a2	0.03485263
39	0x3e07fbd4	0.13279659
40	0xbdb6a6b2	-0.08918513
41	0xbd435fe5	-0.047698874
42	0x3d1e575d	0.038657535
43	0x3d45fa3c	0.048334345
44	0xbdee5b41	-0.11638499
45	0xbe1dfaeb	-0.15427749
46	0x3d13f638	0.036123484
47	0x3e590472	0.21193102
48	0xbd834dab	-0.06411298
49	0x3d755e57	0.059904423
50	0xbdf9aed3	-0.12191548
51	0xbdc57200	-0.096408844
52	0xbd92bce3	-0.071649335
53	0xbdb1622a	-0.086613014
54	0xbd19f6ba	-0.037588812
55	0x3e4e994c	0.20175666
56	0x3de4c5af	0.11170518
57	0x3b9c8031	0.004776024
58	0x3cdee069	0.027206616
59	0xbd8750c5	-0.066072024
60	0x3e0ecd75	0.13945563
61	0x3d8c89c4	0.06862214
62	0xbe5a7a1c	-0.21335644
63	0x3cb02a8a	0.02150466
64	0x3c839ea5	0.016066859
65	0xbe00355d	-0.12520356
66	0xbe48c766	-0.19607314
67	0x3c46a7ad	0.012124938
68	0xbd8c8946	-0.0686212
69	0x3d9cd341	0.07657481
70	0xbbe2eb0d	-0.006924993
71	0xbdf5da09	-0.120044775
72	0x3d8ee548	0.06977326
73	0xbcfd79ba	-0.030941833
74	0xbda13f60	-0.07873416
75	0xbe36e673	-0.17861347
76	0xbe2d89b3	-0.1694706
77	0xbe35aff2	-0.17742899
78	0xb8ee05a1	-0.00011349773
79	0xbc952dfd	-0.018210405
80	0x3e23d6f5	0.15999968
81	0xbe68374c	-0.22677344
82	0x3d6694de	0.056294315
83	0xbdd9f632	-0.10642661
84	0x3dab15a7	0.08353739
85	0xbdd1feb3	-0.10253658
86	0x3b83458b	0.004006093
87	0xbddd8543	-0.10816433
88	0xbd2661ae	-0.0406205
89	0x3d08caff	0.033396717
90	0x3d6d3d1c	0.057919607
91	0xbf1488ad	-0.5802105
92	0x3d00ffae	0.031493835
93	0x3e64e7e6	0.22354087
94	0xbd700ebf	-0.058607813
95	0x3db3c8de	0.08778547
96	0xbeaf67d4	-0.34258902
97	0x3c90ad02	0.017660622
98	0x3e52a723	0.2057157
99	0x3e74d5a2	0.2390962
100	0xbe03d760	-0.12875128
101	0xbdde0cfb	-0.108423196
102	0x3eecbae8	0.46236348
103	0xbc6bb998	-0.014387511
104	0x3e844a73	0.2583805
105	0x3c88404e	0.016632225
106	0x3ee87ba6	0.45406836
107	0xbe4675b9	-0.19380845
108	0xbe37648f	-0.17909454
109	0xbe15eb80	-0.14640617
110	0x3d834c44	0.06411031
111	0xbe52148e	-0.20515653
112	0xbcb97b28	-0.022641733
113	0xbd2c5a43	-0.042078268
114	0xbea8443c	-0.3286456
115	0x3ded267f	0.11579608
116	0x3e71db71	0.23618867
117	0xbdf75ccb	-0.12078246
118	0xbc8a9e22	-0.016921107
119	0xbe5606b2	-0.20900992
120	0x3df252af	0.11832177
121	0xbcd5f2db	-0.02611678
122	0x3dbb79c3	0.091540836
123	0xbdc841cc	-0.09778175
124	0xbdd5ce4f	-0.10439741
125	0xbe144080	-0.1447773
126	0x3e0058b6	0.1253384
127	0x3e1c0c4d	0.15239067
128	0xbe77a15c	-0.24182647
129	0xbd9ffd3c	-0.078119725
130	0x3cfc3b91	0.030790122
131	0xbd9555ca	-0.072917536
132	0x3d921822	0.07133509
133	0x3e3a8b4e	0.18217203
134	0xbde8e425	-0.1137164
135	0x3e56ea5e	0.20987841
136	0x3d0460ac	0.032318756
137	0x3d4f7e5a	0.050657608
138	0xbd17da21	-0.03707326
139	0x3d8194b7	0.06327193
140	0xbe349e1d	-0.1763844
141	0xbcc275bb	-0.023737779
142	0xbe5b4197	-0.2141174
143	0x3e386fea	0.18011442
144	0xbdf383be	-0.11890362
145	0xbd887ff9	-0.06665034
146	0xbea68720	-0.32524967
147	0xbe62a594	-0.22133476
148	0x3dcd3551	0.10019935
149	0xbdccb4c2	-0.09995414
150	0x3d964510	0.073373914
151	0x3e19f92f	0.15036462
152	0xbe2200a7	-0.15820561
153	0x3e838e77	0.2569463
154	0x3dd771e0	0.10519767
155	0x3dc6ae68	0.09701234
156	0xbe283459	-0.16426219
157	0xbde0ff10	-0.10986149
158	0xbc4eb370	-0.012616023
159	0x3d269cea	0.04067699
160	0x3dd5c16a	0.104372814
161	0x3d72fb6d	0.05932181
162	0xbda6906c	-0.08133015
163	0xbdf6cd1b	-0.120508395
164	0x3de5fb01	0.11229516
165	0x3e78d2c6	0.24299154
166	0x3ccd98bb	0.025097242
167	0xbe3d070f	-0.18459724
168	0xbc5fca21	-0.013659031
169	0xbd6811b7	-0.05665752
170	0xbe7b9d55	-0.24571736
171	0xbdb61f28	-0.08892661
172	0x3dca73ca	0.09885366
173	0xbd159d81	-0.03652716
174	0xbddbbc9f	-0.10729336
175	0x3dcb8e19	0.09939212
176	0x3e4e7575	0.20161994
177	0xbe1922cd	-0.14954682
178	0x3d0f8629	0.035040054
179	0x3e2b104b	0.16705434
180	0x3db025a2	0.08600928
181	0x3ddeecbe	0.10884999
182	0xbc80965d	-0.015696699
183	0x3b443250	0.0029937215
184	0xbd3f3fac	-0.04669158
185	0xbdf39e60	-0.11895442
186	0xbca10ee8	-0.019660428
187	0xbcf5c969	-0.030003266
188	0x3da516b0	0.08060968
189	0xbde3ddb5	-0.11126272
190	0x3ef28c3a	0.4737261
191	0x3dd5c4ce	0.10437928
192	0x3db6a1b0	0.08917558
193	0xbd413ac4	-0.047175184
194	0x3e22436c	0.15846032
195	0x3e469ebc	0.1939649
196	0xbde6068d	-0.11231718
197	0xbe630b94	-0.22172385
198	0xbd99fdab	-0.075190865
199	0x3db465da	0.08808489
200	0xbe4dd96d	-0.20102473
201	0x3c7e14ea	0.015507916
202	0xbd059784	-0.0326152
203	0xbd8294ed	-0.063760616
204	0x3e321cc6	0.17393789
205	0x3cb3eb0b	0.021962663
206	0x3df85b40	0.121267796
207	0x3d8a6908	0.06758314
208	0x3d0c02dc	0.034182414
209	0x3d9add42	0.07561733
210	0xbaae647e	-0.0013305095
211	0xbc9b7563	-0.018976873
212	0x3d433ce2	0.047665484
213	0x3defa223	0.11700847
214	0xbded6e19	-0.11593265
215	0x3dfeb6d8	0.124372184
216	0x3e0a8d2f	0.1353042
217	0xbd0bc5f4	-0.03412433
218	0xbe2a5290	-0.16633058
219	0x3c3cdb61	0.011526913
220	0xbcad3453	-0.021143114
221	0xbe2edc0b	-0.17076127
222	0x3ca0ef51	0.019645365
223	0x3e827cea	0.25485927
224	0x3d25ffce	0.040527157
225	0xbd5534fd	-0.052052487
226	0xbcdc4ffc	-0.026893608
227	0xbcd9c354	-0.026582398
228	0xbd3cb5b4	-0.046071723
229	0x3dab6cd1	0.083703645
230	0xbcbec930	-0.023289293
231	0xbde34a5b	-0.110981666
232	0xbe22316e	-0.15839168
233	0xbbbf617b	-0.005840478
234	0xbd71560c	-0.05891995
235	0x3ea36f68	0.31920934
236	0x3d024368	0.031802565
237	0xbcc6f8e0	-0.024288595
238	0xbd3b3315	-0.045703012
239	0x3d50a773	0.050940942
240	0x3d8abc05	0.06774143
241	0x3daa5979	0.08317847
242	0x3d604c8e	0.05476051
243	0xbe1aa4a7	-0.15101872
244	0xba37122e	-0.0006983605
245	0x3e06eca3	0.13176207
246	0x3b84ddeb	0.004054775
247	0xbc4a2ff8	-0.012340538
248	0x3e112fbb	0.14178364
249	0x3e1046d2	0.14089516
250	0x3db97cbe	0.09056996
251	0xbe3a7c3b	-0.18211453
252	0xbd4a42f0	-0.049380243
253	0x3d881c22	0.06645991
254	0x3dcc6d90	0.09981835
255	0x3c002704	0.007821802

l1.bias f4 [100]
0	0xbd811c37	-0.0630421
1	0x3c04c50d	0.008103621
2	0x3e87c0c8	0.26514268
3	0xbe09d190	-0.13458848
4	0xbe10483a	-0.14090052
5	0xbdbba27f	-0.09161853
6	0x3c8c3bee	0.01711842
7	0x3ddd72da	0.10812922
8	0xbd668966	-0.056283377
9	0xbe148a98	-0.14505994
10	0x3e3c81ef	0.1840894
11	0xbdf3615e	-0.11883806
12	0x3cf95855	0.030437628
13	0x3e7226e3	0.23647647
14	0xbc94b913	-0.018154657
15	0xbd875c77	-0.06609433
16	0x3d447088	0.04795888
17	0x3d1c5740	0.038169146
18	0xbe698008	-0.22802746
19	0x3e055aed	0.13022967
20	0xbe5fe88f	-0.21866058
21	0xbe317a61	-0.1733184
22	0xbda37804	-0.079818755
23	0x3e8da272	0.27662998
24	0xbba23060	-0.0049496144
25	0xbd2e4a9b	-0.042551618
26	0xbe2fb5aa	-0.17159143
27	0xbd4a1edb	-0.049345832
28	0x3e07098e	0.13187239
29	0x3dffa754	0.12483087
30	0x3cdc3ee8	0.026885465
31	0xbd7dfd7b	-0.062009316
32	0xbe056dcc	-0.13030165
33	0x3d9ddb34	0.07707825
34	0xbe860497	-0.26175377
35	0x3d7f4625	0.062322754
36	0xbe6adfe6	-0.22936973
37	0x3de79973	0.11308565
38	0xbdec6839	-0.115433164
39	0xbd98e2e4	-0.07465151
40	0x3d589c16	0.05288323
41	0x3e12d98f	0.14340805
42	0x3d6be36c	0.057589933
43	0x3ea5ae4b	0.32359537
44	0x3d83559f	0.06412815
45	0x3de50f4c	0.11184558
46	0xbba40309	-0.0050052446
47	0x3e10f5af	0.14156221
48	0x3d9dc5ef	0.077037685
49	0xbddd9a21	-0.108204134
50	0xbe16a89d	-0.14712758
51	0xbda251dc	-0.0792577
52	0x3d3f6bd0	0.046733677
53	0xbe1836d5	-0.14864667
54	0x3d4b0127	0.049561646
55	0x3ea776fa	0.3270796
56	0xbd0148cd	-0.03156357
57	0x3d8f4921	0.0699637
58	0x3d256b5f	0.0403856
59	0x3e5b13ce	0.21394274
60	0x3e74cb24	0.23905617
61	0xbc27d7e8	-0.010244347
62	0xbd3d23ec	-0.046176836
63	0xbdfafaf0	-0.12254894
64	0x3e05de74	0.1307314
65	0xbe7f9163	-0.24957804
66	0xbd4e844d	-0.05041914
67	0x3ea94e9c	0.33067787
68	0xbdb08259	-0.08618612
69	0x3e5c6983	0.21524625
70	0x3ae6c6d0	0.0017606858
71	0x3d909925	0.0706046
72	0xbe2f074b	-0.17092626
73	0xbe348ef3	-0.17632656
74	0x3e1b8e1a	0.15190926
75	0xbc7895ba	-0.015172416
76	0x3d3b5af5	0.04574104
77	0x3e2000b4	0.15625268
78	0xbe170786	-0.14748964
79	0x3ea4ec83	0.32211694
80	0xbe3f7f1b	-0.1870083
81	0xbdb3626c	-0.08759007
82	0x3df237c6	0.11827044
83	0xbe029589	-0.12752356
84	0xbcae1b5c	-0.02125328
85	0x3e8294e8	0.2550423
86	0x3ce0bffb	0.027435293
87	0xbd926782	-0.07148649
88	0x3cca263f	0.02467644
89	0x3e4987ce	0.19680712
90	0x3e1f91ea	0.15583006
91	0x3e2d76f3	0.16939907
92	0x3aeee876	0.0018227238
93	0x3cc82c95	0.02443532
94	0xbe23ec21	-0.16008045
95	0x3bb1a665	0.005421447
96	0x3e792405	0.24330147
97	0xbcbf3180	-0.023339033
98	0xbd845a2e	-0.06462513
99	0xbc801ada	-0.015637804

l2.weight f4 [100, 100]
0	0xbae73506	-0.0017639704
1	0xbe6381b3	-0.22217445
2	0xbe379fa3	-0.1793199
3	0xbd894145	-0.06701902
4	0x3e5a33e5	0.21308859
5	0xbc8ea042	-0.017410401
6	0xbd529bd1	-0.05141813
7	0xbd0523ba	-0.032504775
8	0xbd952749	-0.07282884
9	0x3e14b7ab	0.14523189
10	0xbd27b7c7	-0.040946748
11	0x3e8fe691	0.28105596
12	0xbdaddaf1	-0.084890254
13	0xbd045c5a	-0.032314636
14	0x3e25fcf4	0.16209775
15	0x3e65a139	0.22424783
16	0xbddd778f	-0.108138196
17	0xbe616489	-0.22011007
18	0xbb0ec05a	-0.002178213
19	0xbd9f7e74	-0.07787791
20	0x3e65e2b4	0.22449762
21	0x3e04d6c0	0.12972546
22	0x3e052048	0.13000596
23	0xbddac58a	-0.10682209
24	0xbcac19eb	-0.021008452
25	0x3dae36f6	0.08506577
26	0xbce0c295	-0.027436534
27	0x3e001ef3	0.12511806
28	0x3ce86eb6	0.028373104
29	0xbe6863b3	-0.22694282
30	0xbd46e860	-0.048561454
31	0xbb873bc4	-0.0041269977
32	0x3e16a84e	0.1471264
33	0x3cda0317	0.026612801
34	0xbd6ad715	-0.057334024
35	0xbd10033e	-0.035159342
36	0x3ca8a9b3	0.020588731
37	0x3b2a8ebc	0.0026025018
38	0x3e20d953	0.15707903
39	0xbdb6274d	-0.08894215
40	0xbd633172	-0.055467077
41	0xbdb141ae	-0.086551055
42	0xbe6b5a63	-0.22983699
43	0xbe3d6047	-0.18493758
44	0x3d4a38c3	0.04937054
45	0x3da94c78	0.082665384
46	0x39761f0d	0.00023471956
47	0x3cd9cd1b	0.02658706
48	0xbd1d13f9	-0.038349126
49	0xbdeb07e7	-0.114761166
50	0x3e08a575	0.13344367
51	0x3c1ca080	0.009559751
52	0xbd756be9	-0.059917364
53	0xbbc7b9f9	-0.0060951677
54	0xbdaf8145	-0.08569578
55	0x3db25e6a	0.08709414
56	0x3e971d94	0.29514754
57	0xbe5f607e	-0.21814153
58	0xbe338d1f	-0.17534302
59	0x3dcf862b	0.101330124
60	0x3df3fc87	0.119134
61	0xbe01010c	-0.12598056
62	0x3dbecbe9	0.093162365
63	0xbe19a67a	-0.15004912
64	0xbcf3b2be	-0.029748317
65	0x3e4ed0ef	0.2019689
66	0xbe034965	-0.12820967
67	0xbe324e9c	-0.174128
68	0xbd835432	-0.06412543
69	0xbe231aad	-0.15928145
70	0xbe545de1	-0.20738937
71	0xbe0aa3ed	-0.13539095
72	0xbd6474a1	-0.05577529
73	0x3d126854	0.035744026
74	0xbe486ed9	-0.19573535
75	0x3c582d89	0.01319445
76	0x3dd67cf8	0.10473055
77	0xbee273b9	-0.44228914
78	0x3cf4365a	0.029811073
79	0xbea2d23b	-0.31801018
80	0x3d33bde1	0.043882255
81	0x3e5eebb4	0.21769601
82	0x3dce279a	0.10066147
83	0x3e400634	0.18752366
84	0x3e400330	0.18751216
85	0xbcbdbc9e	-0.023161229
86	0x3d8925a3	0.06696632
87	0x3db7f18d	0.08981619
88	0x3dbcecf2	0.09224881
89	0xbe1318aa	-0.14364877
90	0xbd052685	-0.03250744
91	0xbe1eb1ca	-0.15497509
92	0xbdc7055e	-0.097178206
93	0x3cb02175	0.021500329
94	0xbd903cb1	-0.07042826
95	0x3dfc1a72	0.123097315
96	0xbe172aa2	-0.14762357
97	0x3d7bb198	0.061448663
98	0x3dc778f5	0.097398676
99	0x3dc62758	0.09675473
100	0x3d730a27	0.059335854
101	0x3e7f5df1	0.2493818
102	0x3d362790	0.044471323
103	0xbe32f29d	-0.17475362
104	0xbe0b104d	-0.13580437
105	0x3d05f3fd	0.03270339
106	0xbd8ae2f4	-0.06781569
107	0xbd950751	-0.07276786
108	0xbe5b74da	-0.21431294
109	0xbce5b695	-0.028041163
110	0x3d91a868	0.07112199
111	0x3dabe9e9	0.08394224
112	0xbd714a13	-0.058908533
113	0x3dad7512	0.08469595
114	0xbe3e512c	-0.18585652
115	0xbde6c097	-0.11267202
116	0xbe22211d	-0.15832944
117	0x3d85ce0d	0.06533442
118	0xbdbfb1e0	-0.09360099
119	0x3b3edb41	0.0029122385
120	0xbdbc681b	-0.09199544
121	0xbd6506ee	-0.05591481
122	0x3e335c23	0.17515616
123	0x3990c826	0.00027614943
124	0xbdbdfe2d	-0.09276996
125	0x3d5f23e6	0.054477595
126	0xbe0f74f2	-0.14009455
127	0xbe4a5899	-0.1976036
128	0xbbb710b3	-0.0055867075
129	0xbd87a9de	-0.066241965
130	0x3e2dc6f9	0.16970433
131	0x3d62a288	0.055330783
132	0xbd795fe7	-0.060882475
133	0x3d27b3dc	0.04094301
134	0x3d68e530	0.056859195
135	0x3e1fb9a5	0.15598162
136	0x3e50ae8e	0.20379087
137	0xbd2d6887	-0.042336013
138	0xbcc725ea	-0.024310071
139	0x3e0e34ed	0.13887377
140	0xbd63814d	-0.055543233
141	0xbc66ade0	-0.014079541
142	0x3dce0fee	0.10061632
143	0xbe65482c	-0.22390813
144	0x3d49a4f3	0.049229573
145	0x3e464c61	0.19365074
146	0x3dbb32de	0.091405615
147	0x3e0850de	0.13312098
148	0x3dc028b5	0.09382764
149	0xbe330e8f	-0.17486022
150	0xbc9dba6c	-0.019253932
151	0x3d87ccd5	0.066308655
152	0xbd0108ad	-0.031502414
153	0x3d9f9110	0.0779134
154	0xbc3bb972	-0.011457788
155	0x3d222447	0.039585378
156	0xbcffdd75	-0.031233529
157	0x3e4cd72b	0.20003955
158	0x3cb3501f	0.02188879
159	0xbdff6150	-0.12469733
160	0xbc8cc532	-0.017183874
161	0x3d9bb656	0.07603137
162	0x3e42d9c6	0.19028386
163	0xbe09ab5c	-0.13444275
164	0x3eb4732b	0.35244116
165	0xbc38950f	-0.011266007
166	0x3e8a9fd4	0.27075064
167	0x3e0ed2d1	0.13947608
168	0xbd956e96	-0.07296483
169	0xbd4e457b	-0.05035923
170	0x3c98651a	0.018602896
171	0xbd704988	-0.058663875
172	0xbe109020	-0.1411748
173	0x3d413fcc	0.047179982
174	0x3a32d808	0.00068223523
175	0xbd8f520b	-0.0699807
176	0xbd64d7e8	-0.055869967
177	0xbe14d98c	-0.14536113
178	0x3e107d04	0.1411019
179	0x3e59735c	0.21235412
180	0xbb6e0724	-0.0036320174
181	0x3d805ec8	0.06268078
182	0xbc9c97c8	-0.019115344
183	0x3d131bf9	0.03591535
184	0x3d151492	0.03639657
185	0x3dbe3563	0.092875265
186	0xbde75104	-0.112947494
187	0x3e0f6a88	0.14005482
188	0x3d15d00c	0.036575362
189	0x3e864bf2	0.26229817
190	0x3d29fe23	0.04150213
191	0x3cd207f0	0.02563855
192	0x3e1d895f	0.15384434
193	0x3d01751e	0.031605832
194	0x3ae63efb	0.0017566377
195	0x3d557079	0.052109215
196	0x3debf288	0.115208685
197	0xbd9a6776	-0.07539265
198	0xbd2f34a7	-0.042774823
199	0x3dd8fa01	0.105945595
200	0x3edeaf06	0.43492907
201	0x3b29473d	0.0025829815
202	0xbeb12fc8	-0.34606767
203	0x3d98be26	0.07458143
204	0xbe21fda7	-0.15819417
205	0x3ea40b9c	0.32040107
206	0xbeedb775	-0.4642903
207	0x3d774976	0.060372792
208	0x3ec47810	0.3837285
209	0xbd5bc6d1	-0.053656403
210	0xbe664bcf	-0.22489856
211	0xbcbb0907	-0.022831453
212	0xbe4f748a	-0.202593
213	0xbf113ac5	-0.567303
214	0xbe5b20d6	-0.21399245
215	0x3e17d5ad	0.14827605
216	0xbdfb68e4	-0.12275866
217	0xbe508f50	-0.2036717
218	0xbdbb74fe	-0.09153174
219	0xbdc0bc99	-0.09410972
220	0xbe0f2659	-0.13979472
221	0x3eb42964	0.3518783
222	0x3e799884	0.24374586
223	0x3e052689	0.13002981
224	0xbef7221a	-0.48268205
225	0xba495add	-0.0007681081
226	0x3e36a2ab	0.1783549
227	0x3e19f678	0.15035427
228	0x3e839a89	0.25703838
229	0xbec5adab	-0.3860906
230	0x3ef62220	0.4807291
231	0xbe13df99	-0.14440764
232	0x3f26708c	0.6501548
233	0xbcbb2ace	-0.02284756
234	0x3e206f40	0.15667439
235	0x3af3074f	0.0018541607
236	0xbd85263d	-0.06501434
237	0xbc84907e	-0.01618218
238	0x3d1ccf97	0.03828391
239	0xbda49d72	-0.08037843
240	0x3e3a658d	0.18202801
241	0x3e3475cf	0.17623065
242	0x3d970ad1	0.0737511
243	0xbdea79af	-0.114489906
244	0xbdab2fdc	-0.08358738
245	0x3e228291	0.1587012
246	0xbec99841	-0.39373973
247	0xbd85277c	-0.06501672
248	0x3e8e58d9	0.2780216
249	0x3e9e6649	0.30937412
250	0xbe8d10e5	-0.27551952
251	0xbd05080b	-0.032478373
252	0x3f095dfa	0.5365902
253	0xbda9e66d	-0.08295903
254	0x3ea04155	0.31299844
255	0x3f0a1b5b	0.5394799

l2.bias f4 [100]
0	0xbe9652a0	-0.29359913
1	0x3e9b089c	0.30280006
2	0x3e24f59e	0.1610932
3	0xbe346786	-0.17617616
4	0x3ceca229	0.028885918
5	0x3e2388ad	0.15970106
6	0xbdb7445b	-0.08948585
7	0x3daa185a	0.08305426
8	0xbc272354	-0.010201294
9	0x3d824767	0.06361275
10	0x3cce4997	0.025181575
11	0x3eb746f8	0.35796332
12	0x3ec0f47c	0.37686527
13	0xbe8a5137	-0.27015087
14	0x3e84d0d4	0.25940573
15	0x3ceefa3d	0.029172057
16	0x3ea256d3	0.31706867
17	0x3d6c6dec	0.057722017
18	0xbda1741f	-0.078834765
19	0x3c22ef98	0.009944819
20	0x3da3c207	0.07995992
21	0x3e763916	0.24045214
22	0x3e8ea59d	0.27860728
23	0x3df804df	0.12110304
24	0x3e14fcc2	0.14549544
25	0xbe3a1d00	-0.18175125
26	0x3e4e08b6	0.2012051
27	0xbec9e883	-0.39435205
28	0xbc476fc9	-0.012172648
29	0xbc879d7a	-0.016554583
30	0x3d55169e	0.052023523
31	0xbe0d195e	-0.13779208
32	0x3e86ffc6	0.26367015
33	0x3cf4e05b	0.029892137
34	0xbd852f39	-0.06503148
35	0xbe4e658e	-0.20155928
36	0xbdad8156	-0.084719345
37	0xbadc35d8	-0.0016800715
38	0x3b411065	0.0029459235
39	0xbd11e3a2	-0.03561748
40	0xbe7bc269	-0.2458588
41	0x3dcde915	0.100542225
42	0x3c6274c8	0.013821788
43	0xbe20d7dc	-0.15707344
44	0x3e0c5b34	0.13706666
45	0xbd01b303	-0.03166486
46	0x3e9c9fd9	0.30590704
47	0x3cebf3e4	0.02880282
48	0xbe0668b4	-0.13125879
49	0xbd36dc88	-0.04464391
50	0xbeb3eb35	-0.35140386
51	0x3df3ecc9	0.119103976
52	0xbe48cb29	-0.1960875
53	0xbccd1786	-0.02503563
54	0x3e8a61eb	0.2702783
55	0xbd1d6cae	-0.038433723
56	0x3eb7c454	0.35891974
57	0xbe859688	-0.2609141
58	0x3eba3592	0.36368996
59	0x3e830b00	0.2559433
60	0x3e093d24	0.1340223
61	0xbd203fa3	-0.03912319
62	0xbbd408bd	-0.0064707682
63	0xbdf4bd1a	-0.11950131
64	0xbe815120	-0.25257206
65	0xbe80ca6a	-0.2515443
66	0x3c9e18f7	0.019299014
67	0xbdbea8c3	-0.093095325
68	0x3d98f2f7	0.07468217
69	0xbd8765a8	-0.06611186
70	0xbd9842b8	-0.074346006
71	0x3c834601	0.016024591
72	0xbce8e12f	-0.028427688
73	0xbe2b4b1e	-0.16727874
74	0x3da2eb05	0.07954983
75	0xbcbb6c74	-0.022878863
76	0x3ec846f6	0.3911664
77	0xbcac3158	-0.021019623
78	0xbe29f919	-0.1659893
79	0xbdff5b6e	-0.12468611
80	0xbe539cf2	-0.20665339
81	0xbc99e398	-0.018785283
82	0x3d169ac2	0.036768682
83	0x3d5e61b0	0.05429238
84	0xbe09c7f3	-0.13455181
85	0xbeea666a	-0.4578126
86	0x3e564cc2	0.20927718
87	0x3de3b9d1	0.11119426
88	0xbcec2e36	-0.028830629
89	0xbe373822	-0.17892507
90	0xbe14393d	-0.1447496
91	0xbb12556f	-0.0022328754
92	0x3d658a24	0.056039944
93	0x3d68dded	0.05685227
94	0x3e341ecd	0.17589875
95	0x3e4d11c4	0.20026308
96	0xbd2dd416	-0.04243859
97	0x3e4c5b99	0.19956817
98	0x3ea22c3c	0.31674373
99	0xbdd6c597	-0.10486906

l3.weight f4 [18, 100]
0	0xbe119b63	-0.14219432
1	0xbe624e3f	-0.22100161
2	0xbedce155	-0.43140665
3	0x3e3cb01b	0.18426554
4	0x3e821c39	0.25412157
5	0xbe5cad6a	-0.21550527
6	0x3df4ab3a	0.119467214
7	0xbe1379fc	-0.14402002
8	0x3d1d9139	0.038468573
9	0xbe44dc7e	-0.19224736
10	0xbd8e165a	-0.06937857
11	0xbe9c2542	-0.30497175
12	0xbe04279b	-0.12905733
13	0x3ead5eba	0.33861333
14	0xbc714041	-0.014724792
15	0xbe0bb63c	-0.13643736
16	0xbe2ee1f1	-0.17078377
17	0xbd705f99	-0.05868492
18	0xbdc9db57	-0.09856289
19	0x3ef52240	0.47877693
20	0xbe737285	-0.23774154
21	0xbd52ac9d	-0.051434148
22	0xbce1737c	-0.027520888
23	0xbd387bad	-0.04503982
24	0xbe82eef3	-0.2557293
25	0x3e61ce46	0.22051343
26	0xbe7f6b35	-0.2494324
27	0x3e60fe73	0.21972065
28	0xbe6ec498	-0.23317182
29	0x3e7b519f	0.24542855
30	0xbe865e1c	-0.26243675
31	0x3e3c931c	0.18415493
32	0xbe371bb4	-0.17881662
33	0x3ea9b172	0.33143193
34	0x3e766437	0.24061666
35	0x3e83de07	0.2575533
36	0x3e05d38e	0.13068983
37	0xbd2e9003	-0.04261781
38	0x3cd22222	0.025651041
39	0xbdda398e	-0.10655509
40	0x3ea2819a	0.31739503
41	0xbe117e02	-0.14208224
42	0x3cf4468d	0.029818797
43	0x3d82b4de	0.06382154
44	0xbe817637	-0.25285503
45	0x3e9530aa	0.2913869
46	0x3e3bfe60	0.18358755
47	0x3d5a5dbd	0.053312052
48	0x3e85e646	0.26152247
49	0x3e256d64	0.1615501
50	0x3e20dcac	0.1570918
51	0xbde128b2	-0.1099409
52	0x3e4f78f9	0.20260991
53	0xbf0bd8db	-0.5462777
54	0xbe3afe59	-0.18261088
55	0x3eaa442a	0.3325513
56	0xbe336500	-0.17518997
57	0x3d0af474	0.033924535
58	0xbe368ce4	-0.17827183
59	0xbd76974c	-0.06020288
60	0x3d866f26	0.06564169
61	0xbe99d37c	-0.30044162
62	0x3e91eac8	0.28499436
63	0x3e8093a1	0.25112632
64	0x3ea5f41a	0.32412797
65	0x3ea2b492	0.3177839
66	0xbea06616	-0.31327885
67	0x3e161e65	0.14660032
68	0xbe9e98dd	-0.30976
69	0xbe8d38fb	-0.27582535
70	0x3e4c196b	0.19931571
71	0xbe26c7bc	-0.1628713
72	0x3dcdeaa0	0.10054517
73	0x3d8d4552	0.068979874
74	0xbe8038ff	-0.25043485
75	0xbd4e7b6a	-0.050410666
76	0xbde6643c	-0.11249587
77	0x3e13b031	0.1442268
78	0xbdc00974	-0.09376803
79	0x3e4b6d91	0.19866015
80	0x3eb23e05	0.34812942
81	0x3e004864	0.12527615
82	0xbee4f459	-0.44717672
83	0xbe7c80df	-0.24658535
84	0x3df4d22b	0.11954149
85	0x3e08059c	0.1328339
86	0xbd88aea3	-0.06673934
87	0xbed2b4b2	-0.41153485
88	0xbc109161	-0.0088237235
89	0x3d88205d	0.06646798
90	0x3d9a37c2	0.07530166
91	0x3d5d5615	0.054037172
92	0x3dee2ad4	0.116292626
93	0xbdd0cf46	-0.10195784
94	0xbe211222	-0.15729573
95	0xbdbb1791	-0.09135354
96	0x3ba5241b	0.0050397045
97	0x3de6dae5	0.112722196
98	0xbc1f4272	-0.009720432
99	0x3e8c79b4	0.27436602
100	0x3d2fb813	0.042900156
101	0x3e25aec5	0.1617995
102	0xbea91b8d	-0.33028832
103	0x3b4b39e5	0.003100985
104	0x3ed2f14b	0.41199717
105	0xbd83c7e0	-0.064346075
106	0x3e99ae7d	0.30015936
107	0x3c9e3ad4	0.01931516
108	0xbe773b74	-0.24143773
109	0xbeb40acd	-0.3516449
110	0x3dbd4103	0.092409156
111	0xbe09cf62	-0.13458017
112	0xbcdd5054	-0.027015842
113	0x3e30dadb	0.17270987
114	0xbe8aa9fd	-0.27082816
115	0x3d0b6842	0.034034975
116	0xbe78f355	-0.24311574
117	0xbe8173f4	-0.25283778
118	0xbbebf225	-0.0072004967
119	0x3df998e7	0.12187367
120	0xbe53d7f9	-0.20687856
121	0xbe72314e	-0.23651621
122	0xbe9cb26b	-0.30604872
123	0xbd3f0677	-0.046637025
124	0xbe9c54e6	-0.30533522
125	0xbc634772	-0.013872014
126	0xbeb21169	-0.34778908
127	0x3e240760	0.16018438
128	0xba43b7c0	-0.00074660406
129	0x3e30a992	0.17252186
130	0xbedf524b	-0.43617472
131	0x3e419efb	0.18908302
132	0xbd454a00	-0.048166275
133	0x3eb249b7	0.34821865
134	0x3dc93d25	0.098261155
135	0x3e151749	0.14559664
136	0x3e263ff7	0.16235338
137	0x3e1dc9c9	0.15409006
138	0x3e33e60f	0.17568229
139	0xbed24f29	-0.4107602
140	0x3e242617	0.16030155
141	0xbe5d68ae	-0.21621963
142	0xbb3e3ce7	-0.0029028
143	0x3df7d5ae	0.12101303
144	0xbe4459e7	-0.1917492
145	0x3e8ec223	0.2788249
146	0x3e6ef1da	0.23334447
147	0x3c8a56d1	0.0168871
148	0x3eb407a0	0.35162067
149	0x3e7ceb87	0.24699222
150	0x3ed327d8	0.41241336
151	0xbe2918e0	-0.16513395
152	0x3d146483	0.036228668
153	0xbe392596	-0.18080744
154	0xbeed6e2a	-0.4637311
155	0x3e29ca0f	0.16580985
156	0xbe06530b	-0.13117616
157	0x3e8c2d48	0.27378297
158	0xbe499797	-0.19686733
159	0xbeb3b479	-0.35098627
160	0x3e2160a2	0.15759519
161	0xbec63403	-0.38711557
162	0x3c16856c	0.009187084
163	0x3d9b838a	0.075934485
164	0x3e80985a	0.25116235
165	0x3ead8286	0.33888644
166	0xbe13db01	-0.14439012
167	0x3eb01b7e	0.34395975
168	0xbe808674	-0.2510258
169	0xbe3d0aff	-0.18461226
170	0x3e9fb8df	0.31195733
171	0xbd857cda	-0.06517954
172	0xbe18bf1a	-0.1491665
173	0x3e821028	0.2540295
174	0xbde2f18b	-0.11081227
175	0xbe5b22ca	-0.2139999
176	0xbc9a9066	-0.018867683
177	0x3e703286	0.23456773
178	0xbe08a5cb	-0.13344495
179	0x3e01eb7e	0.1268749
180	0x3e9c450b	0.30521426
181	0xbe829a01	-0.2550812
182	0x3dc03b6e	0.09386335
183	0xbe43f2fd	-0.19135661
184	0x3c2752d7	0.010212622
185	0x3e9b8bd2	0.30380112
186	0xbe78ad43	-0.24284844
187	0xbdc3c9bd	-0.09559963
188	0x3df0ab48	0.11751419
189	0x3e692997	0.22769772
190	0xbdf8cc0b	-0.12148293
191	0xbd52e6e2	-0.05148972
192	0xbe0b63b0	-0.13612247
193	0xbe1460b3	-0.14490013
194	0xbd00ea99	-0.03147373
195	0xbd832bda	-0.064048484
196	0xbd6d585b	-0.05794559
197	0x3db1e430	0.086861014
198	0xbe0c1623	-0.1368032
199	0x3e89e410	0.2693181
200	0x3e67192f	0.225682
201	0xbec62931	-0.38703302
202	0xbec32ecd	-0.38121644
203	0x3cfef323	0.031121796
204	0xbd664370	-0.056216657
205	0xbe4965cb	-0.19667737
206	0x3e7d52ff	0.24738692
207	0xbe37f3a0	-0.1796403
208	0xbe8354f3	-0.2565075
209	0xbe4c2dc3	-0.19939332
210	0x3aec8b54	0.0018046894
211	0xbbb3e6ee	-0.0054901754
212	0x3e1f5627	0.15560208
213	0x3eb15d4d	0.34641495
214	0xbdb009d3	-0.08595624
215	0xbdb8ed83	-0.09029677
216	0xbdb2f238	-0.08737606
217	0xbe16a011	-0.14709498
218	0x3e1608c3	0.1465178
219	0x3f01bffc	0.5068357
220	0xbe290a48	-0.16507828
221	0xbd819e1c	-0.06328985
222	0xbe366990	-0.17813706
223	0xbe6ca796	-0.23110804
224	0xbd5f88f0	-0.054573953
225	0xbe1a435e	-0.15064761
226	0xbf05d25d	-0.52274114
227	0x3eb11532	0.34586483
228	0xbdce5e02	-0.10076524
229	0x3e8d12f6	0.2755353
230	0xbe7781eb	-0.24170654
231	0x3e122947	0.14273559
232	0xbe2d2cc8	-0.16911614
233	0x3e3c61ce	0.18396685
234	0x3e8f2499	0.2795761
235	0xbd35aed6	-0.04435619
236	0x3e26fc9f	0.16307305
237	0xbe6249be	-0.22098443
238	0xbd1bb173	-0.038011026
239	0x3b8e5ff2	0.0043449337
240	0xbe1b1101	-0.15143205
241	0xbd3b93b3	-0.045795154
242	0xbd78e788	-0.06076768
243	0x3e335943	0.1751452
244	0xbe45cf02	-0.19317248
245	0x3eef3403	0.4671937
246	0x3e250856	0.16116461
247	0x3e9a7407	0.30166647
248	0x3e6d6f09	0.23186888
249	0x3e76eaf4	0.24113065
250	0x3e21b854	0.15792972
251	0xbe932792	-0.28741127
252	0xbe7a8444	-0.24464518
253	0xbda27c2c	-0.0793384
254	0xbe3a4928	-0.1819197
255	0xbde998cb	-0.11406096

l3.bias f4 [18]
0	0x3dc60791	0.09669412
1	0xbd66069d	-0.05615865
2	0xbee44aa3	-0.44588193
3	0xbe9ceb3f	-0.3064823
4	0x3e22dacf	0.15903781
5	0xbc775032	-0.015094804
6	0x3ced71a4	0.028984852
7	0xbeb4ec6c	-0.35336626
8	0xbde655b8	-0.11246818
9	0xbe3f812a	-0.18701616
10	0x3d8e6d1c	0.06954405
11	0xbe936a81	-0.28792194
12	0xbe9db570	-0.30802488
13	0x3ec5c551	0.38627103
14	0xbd534a6b	-0.051584642
15	0xbe6abf06	-0.22924432
16	0xbec4849a	-0.38382417
17	0xbe9a27ed	-0.30108586
