LARA/data/result/g_110.pt (torch, 87406 bytes, 7 tensors)

G_attr_matrix.weight f4 [36, 5]
0.11092086 -0.09801116 -0.42073703 0.15909567 0.048194565 -0.12591524 0.13814706 0.19532284
0.038596142 -0.097745694 -0.11287541 0.01356843 -0.00287477 0.081886716 -0.019058462 -0.044637777
-0.06169359 -0.061696354 -0.016601259 -0.034940887 0.06667891 -0.22213194 -0.0040010465 0.009321061
0.104434036 0.119319364 -0.057919398 -0.030337011 0.16338274 -0.08196358 -0.021274457 -0.031903762
0.055177838 0.14229886 0.30660895 0.30225387 0.121398926 0.23516491 0.20419563 0.035901412
0.039373823 0.009131053 0.0021809884 -0.049835924 -0.15609974 0.03375417 -0.023753677 0.002956237
0.1001373 0.22700706 0.3651519 0.023418687 0.012653593 -0.19196172 -0.02116876 0.06192339
-0.18161982 -0.24999999 -0.001226583 0.18058163 -0.0044762613 0.17815305 0.005414424 -0.0008688266
0.13353592 -0.15479153 0.032997444 -0.060764637 -0.10993214 0.14083588 -0.021930503 -0.085330606
0.19551028 0.038736813 0.04062001 -0.3632241 0.24958314 -0.14806427 0.27434117 -0.1936046
0.28039122 0.00047607537 -0.1749459 0.27337074 -0.15515272 -0.06802775 0.36646536 0.52934194
0.18378367 0.11214451 -0.044121206 -0.36518392 0.0030405598 0.17665869 -0.16801615 -0.12816022
-0.025044309 -0.15474628 0.27200532 -0.05490548 -0.26689076 -0.008051629 0.017746907 -0.015915949
-0.013695843 -0.19826438 0.12839992 -0.18055713 0.14905386 0.030510664 0.03669809 -0.009731848
0.004579975 0.011753692 0.07899991 0.0651722 0.18546692 0.131749 -0.12910491 0.021816172
0.59702945 -0.014942632 0.0669888 -0.3177265 -0.036760174 0.29923332 -0.18280801 -0.021655872
-0.30200136 0.12414519 0.04407865 0.061595477 -0.029633604 0.20633239 -0.031527806 -0.2607375
-0.45362338 0.22409117 0.41326472 0.33716515 -0.03515423 0.0014297434 0.009733903 0.002098833
-0.05727583 0.12630369 -0.013349618 -0.034009963 -0.01486631 0.14585894 -0.0044221864 -0.09295145
0.01883439 -0.07660758 -0.14035645 0.036756516 -0.13749671 -0.045582246 0.2185375 0.28149742
-0.032185253 -0.010269158 0.15597235 0.0035191262 -0.012470881 0.108329415 0.2045057 -0.2688256
0.03521331 0.2028999 0.13180962 -0.0043461644 0.20047054 0.36748537 0.21662886 0.15361094
0.07581601 -0.12937705 -0.14943194 0.21018106
00000000: 7a2a e33d 13ba c8bd d86a d7be fae9 223e
00000010: aa67 453d edef 00be 6c76 0d3e b602 483e
00000020: fd16 1e3d e52e c8bd 392b e7bd 1f4e 5e3c
00000030: a366 3cbb 39b4 a73d 7e20 9cbc 1ad6 36bd
00000040: 6bb2 7cbd 51b5 7cbd 5dff 87bc 2d1e 0fbd
00000050: f48e 883d 8e76 63be 361b 83bb 5db7 183c
00000060: 83e1 d53d b65d f43d e43c 6dbd 5385 f8bc
00000070: ce4d 273e 85dc a7bd c547 aebc 85ad 02bd
00000080: 2802 623d cbb6 113e d9fb 9c3e 05c1 9a3e
00000090: 00a0 f83d 12cf 703e a918 513e 5c0d 133d
000000a0: 7246 213d 6a9a 153c eaee 0e3b c120 4cbd
000000b0: 9cd8 1fbe d041 0a3d 1297 c2bc 6dbd 413b
000000c0: c914 cd3d 8a74 683e 31f5 ba3e 8cd8 bf3c
000000d0: 0451 4f3c 9d91 44be 1b6a adbc 61a3 7d3d
000000e0: 8cfa 39be ffff 7fbe 4cc5 a0ba 64ea 383e
000000f0: 9aad 92bb c16d 363e 7b6b b13b f7c1 63ba
00000100: a4bd 083e ac81 1ebe 5428 073d 57e4 78bd
00000110: 1a24 e1bd 4837 103e 99a7 b3bc d0c1 aebd
00000120: d933 483e 7eaa 1e3d 2b61 263d 82f8 b9be
00000130: b992 7f3e 299e 17be 7276 8c3e 4940 46be
00000140: 708f 8f3e c199 f939 0525 33be 40f7 8b3e
00000150: 5be0 1ebe 2252 8bbd 59a1 bb3e f482 073f
00000160: c931 3c3e 05ac e53d 70b8 34bd 63f9 babe
00000170: 2144 473b 04e6 343e 6d0c 2cbe 6f3c 03be
00000180: b929 cdbc cf75 1ebe 4844 8b3e 92e4 60bd
00000190: e8a5 88be fbea 03bc f661 913c 2a62 82bc
000001a0: 8764 60bc d105 4bbe 457b 033e f8e3 38be
000001b0: 93a1 183e 80f1 f93c bd50 163d 5472 1fbc
000001c0: 9d13 963b 8f92 403c b4ca a13d 0179 853d
000001d0: 0aeb 3d3e 36e9 063e 1434 04be d4b7 b23c
000001e0: ecd6 183f f1d1 74bc 6d31 893d 0cad a2be
000001f0: d691 16bd 1c35 993e 0632 3bbe a867 b1bc
00000200: ec9f 9abe d53f fe3d d18b 343d 8a4b 7c3d
00000210: 2cc2 f2bc cc48 533e 4d23 01bd 637f 85be
00000220: 5341 e8be 2878 653e 6f97 d33e e9a0 ac3e
00000230: e2fd 0fbd 3a66 bb3a f37a 1f3c 938c 093b
00000240: 109a 6abd c155 013e 5bb8 5abc 084e 0bbd
00000250: d391 73bc 0c5c 153e fde7 90bb 545d bebd
00000260: 944a 9a3c 6fe4 9cbd 9ab9 0fbe 008e 163d
00000270: f0cb 0cbe 73b4 3abd 4bc8 5f3e 6e20 903e
00000280: afd4 03bd f83f 28bc 37b7 1f3e 24a1 663b
00000290: ab52 4cbc d0db dd3d f169 513e 82a3 89be
000002a0: d53b 103d fec4 4f3e 1af9 063e 456a 8ebb
000002b0: 2648 4d3e 0b27 bc3e f5d3 5d3e 304c 1d3e
000002c0: 6d45 9b3d 6b7b 04be b004 19be b439 573e

l1.weight f4 [100, 90]
0.18828098 -0.009856075 0.09287164 0.10057093 0.07023457 0.051543087 0.09610348 0.04259097
-0.25509435 -0.17768584 0.03196609 -0.19023187 -0.12972303 0.04201553 -0.031661447 0.042801846
0.006462418 -0.04974792 -0.039897665 0.08863166 0.2160189 0.017154384 0.038060702 -0.06110349
0.055405047 0.050896175 0.17275901 0.037367165 0.16995844 -0.0065033855 0.20258394 -0.14629729
-0.20509166 -0.09652096 -0.09734331 0.043498993 0.1692089 -0.0419873 -0.10258593 0.16717814
-0.026333412 -0.09220161 0.124040745 0.025812436 0.0122471005 0.08027411 -0.11195211 -0.014310908
0.040689886 -0.05986014 0.12615635 -0.3491687 0.15554148 -0.042554215 -0.09805549 0.048416506
-0.006489654 -0.05242854 0.014923615 0.119196355 -0.038026143 -0.02877793 -0.0045581525 0.045991797
-0.07755974 -0.09969112 0.037426226 -0.15236732 -0.01776417 -0.17876625 -0.18628547 0.08336046
0.09576878 0.24775143 -0.215875 -0.034365516 -0.19738434 -0.04190053 -0.10877354 0.013820792
-0.027268123 -0.120662495 0.05853754 0.013497946 -0.254009 0.06003599 -0.117200024 -0.07630392
0.043705802 0.16020244 0.28578484 -0.111981094 -0.08212766 -0.022833258 -0.13125294 0.027444046
0.21817103 -0.035764765 0.08012056 0.040670194 0.050973043 -0.041700732 -0.13081278 -0.04445114
-0.09418362 -0.1300682 0.07111925 -0.18015388 0.0721953 0.06631879 0.064707436 -0.038060993
-0.0040939106 -0.02875551 0.044727564 0.05406631 0.1283124 -0.0088772345 -0.038027212 -0.06525235
0.06035337 -0.022117862 0.04247043 0.0037726383 -0.15731825 -0.014117097 -0.057620566 0.084774286
0.042133715 0.055697292 -0.025879534 0.0720916 -0.1407315 0.021384798 -0.21527082 -0.091302335
0.05732781 -0.051970135 0.011157016 -0.03251631 0.07835024 -0.09176126 -0.24175711 -0.1084845
-0.090331234 0.14975613 0.07863535 0.059386726 0.08130489 -0.08619939 -0.018412042 0.003967903
-0.06518649 -0.038148478 -0.012668771 -0.091061465 -0.03776736 -0.0065293326 0.03314215 0.15107249
-0.18943548 0.09954561 -0.10648129 -0.05254053 0.037000988 -0.005970308 0.021489544 -0.13048714
0.14202617 0.041223235 0.0359613 -0.06856306 -0.027964953 0.04301236 -0.056564223 -0.10451489
-0.26933545 0.13162926 -0.08891583 -0.020284826 -0.000388692 0.13396885 0.020199116 -0.2073579
-0.021515619 -0.16620867 -0.09645926 0.05111456 0.027869152 -0.08685476 0.08618213 -0.18383469
-0.111104235 0.142695 -0.030507812 -0.015934909 -0.009093786 0.11692273 0.05095159 0.03892536
-0.15261006 0.10618565 -0.17599514 0.14586559 0.3141786 0.008558277 0.00034357942 -0.05079278
-0.09053144 0.07079246 0.063351855 0.0049226223 0.04391741 0.068076536 0.009931535 0.14511603
0.044260386 -0.06416364 -0.031417746 -0.024061214 -0.11092967 -0.14072305 0.050270543 -0.025278805
0.23032054 -0.088197336 0.14066365 0.040420536 0.0660508 0.049844068 0.17674176 -0.10890071
-0.008328825 0.022168383 0.02309931 0.091256425 -0.11054769 0.016706845 0.18878192 -0.01800233
0.031827606 -0.11596325 0.11796201 0.06458323 -0.12238678 -0.23379995 -0.13296893 -0.081556134
-0.11605787 0.081876904 0.12177332 0.08652235 -0.1596679 -0.13969316 0.07182508 0.07161674
00000000: bbcc 403e 607b 21bc 7d33 be3d 22f8 cd3d
00000010: 24d7 8f3d d81e 533d e7d1 c43d de73 2e3d
00000020: ba9b 82be 47f3 35be e0ee 023d 25cc 42be
00000030: 1dd6 04be 7a18 2c3d 6faf 01bd fd50 2f3d
00000040: b1c2 d33b 7ac4 4bbd bc6b 23bd 8484 b53d
00000050: 0f34 5d3e 5a87 8c3c 8ae5 1b3d a747 7abd
00000060: 67f0 623d 8278 503d bde7 303e 500e 193d
00000070: 9609 2e3e 5a1a d5bb 2a72 4f3e f5ce 15be
00000080: 8c03 52be c8ac c5bd ee5b c7bd 002c 323d
00000090: 1945 2d3e e0fa 2bbd 9218 d2bd bf30 2b3e
000000a0: 2bb9 d7bc 33d4 bcbd 1309 fe3d 9a74 d33c
000000b0: 10a8 483c c166 a43d 2647 e5bd 4c78 6abc
000000c0: 70aa 263d e82f 75bd 212f 013e 3dc6 b2be
000000d0: 4446 1f3e 544d 2ebd 51d1 c8bd 6350 463d
000000e0: 2aa7 d4bb 4fbf 56bd 2e82 743c 381d f43d
000000f0: 4dc1 1bbd b2bf ebbc 8e5c 95bb e561 3c3d
00000100: a4d7 9ebd dc2a ccbd 3e4c 193d 2e06 1cbe
00000110: 2a86 91bc 800e 37be 9ec1 3ebe e4b8 aa3d
00000120: 6c22 c43d 8db2 7d3e 560e 5dbe dbc2 0cbd
00000130: 1f1f 4abe e49f 2bbd a9c4 debd 9a70 623c
00000140: 6661 dfbc e61d f7bd 0fc5 6f3d 7d26 5d3c
00000150: 780d 82be 4ce8 753d 9106 f0bd 3b45 9cbd
00000160: db04 333d 1c0c 243e 6452 923e 5856 e5bd
00000170: 8c32 a8bd d00c bbbc 2c67 06be 56d2 e03c
00000180: 3a68 5f3e 137e 12bd 4016 a43d ca95 263d
00000190: 1cc9 503d 63ce 2abd c9f3 05be 6612 36bd
000001a0: 57e3 c0bd 9930 05be f8a6 913d 427a 38be
000001b0: 21db 933d 25d2 873d 5585 843d d8e5 1bbd
000001c0: 3626 86bb ad90 ebbc 4034 373d a374 5d3d
000001d0: 5364 033e d271 11bc 6cc2 1bbd 06a3 85bd
000001e0: 1835 773d 8530 b5bc 79f5 2d3d 5e3e 773b
000001f0: 0918 21be 654b 67bc 8b03 6cbd 249e ad3d
00000200: 6794 2c3d d822 643d 5101 d4bc c3a4 933d
00000210: eb1b 10be 2c2f af3c f46f 5cbe b8fc babd
00000220: 91d0 6a3d a3de 54bd ebcb 363c d32f 05bd
00000230: 1776 a03d 54ed bbbd 2d8f 77be 1f2d debd
00000240: 95ff b8bd ac59 193e 920b a13d 7f3f 733d
00000250: 2e83 a63d 4e89 b0bd dad4 96bc 2f05 823b
00000260: 7f80 85bd 9441 1cbd ad90 4fbc 6f7e babd
00000270: f3b1 1abd 03f4 d5bb 10c0 073d bfb2 1a3e
00000280: 60fb 41be 92de cb3d dd12 dabd bd34 57bd
00000290: 598e 173d 93a2 c3bb d70a b03c 6c9e 05be
000002a0: 4f6f 113e b2d9 283d 284c 133d ca6a 8cbd
000002b0: c216 e5bc ba2d 303d e3af 67bd e70b d6bd
000002c0: 56e6 89be d2c9 063e 8119 b6bd 5d2c a6bc
000002d0: 5bc9 cbb9 212f 093e 9e78 a53c a155 54be
000002e0: 8641 b0bc 9b32 2abe 6f8c c5bd 805d 513d
000002f0: d94d e43c e9e0 b1bd 4280 b03d 293f 3cbe
00000300: 9e8a e3bd a31e 123e 85eb f9bc ed89 82bc
00000310: 1afe 14bc 2f75 ef3d 9db2 503d 3370 1f3d
00000320: d045 1cbe dd77 d93d 1238 34be ca5d 153e
00000330: 04dc a03e 0438 0c3c 7322 b439 170c 50bd
00000340: 8c68 b9bd a3fb 903d 9ebe 813d f34d a13b
00000350: bee2 333d b66b 8b3d e1b7 223c 4c99 143e
00000360: 614a 353d 3a68 83bd e5af 00bd 061c c5bc
00000370: 182f e3bd b419 10be 7ce8 4d3d 7f15 cfbc
00000380: 26d9 6b3e cea0 b4bd 220a 103e 0190 253d
00000390: a445 873d 4b29 4c3d cbfb 343e 5607 dfbd
000003a0: a075 08bc 789a b53c c43a bd3c a6e4 ba3d
000003b0: d466 e2bd cbdc 883c 0c50 413e 9f79 93bc
000003c0: aa5d 023d 247e edbd 1196 f13d 3644 843d
000003d0: eca5 fabd 4169 6fbe 0229 08be e706 a7bd
000003e0: c0af edbd 14af a73d 4a64 f93d a132 b13d
000003f0: fb7f 23be b90b 0fbe 0719 933d ccab 923d

l1.bias f4 [100]
-0.038831823 0.028739013 0.17015152 0.072472945 0.1602068 0.00042271565 0.22678976 -0.05810752
-0.03383512 -0.068886414 -0.07177655 -0.12894255 -0.016747218 0.015811535 -0.049443346 0.12593497
0.03471138 0.044499386 -0.097472586 -0.010118097 0.19697592 -0.035669483 -0.023346094 0.15218048
0.032981507 0.17844696 -0.051935907 -0.12879346 -0.0122216465 -0.36975002 0.05862461 0.11555174
-0.18306792 -0.27615932 -0.21951845 -0.014193312 0.017505668 0.16803071 -0.020905497 -0.05272419
-0.25659955 0.2651441 -0.14726794 0.0049207495 -0.06514594 -0.023038447 -0.01309478 -0.023704233
-0.07608902 -0.20517634 0.0080497665 0.18668374 0.11940296 -0.19449118 -0.009667941 -0.0626577
-0.030928422 0.06263427 -0.03265477 -0.07354207 -0.16525683 0.082816325 -0.020542996 0.120217845
0.12650134 -0.14758407 -0.003767084 0.100705534 -0.040964406 0.013432641 0.11822461 -0.089588486
-0.13719971 0.20906313 0.094128534 0.05034427 -0.18835233 -0.06715276 -0.24759041 -0.10476325
0.04753816 -0.1225892 -0.05201286 0.04726979 0.04267737 0.023920929 -0.08513272 0.028183043
-0.14888258 -0.034399945 0.16010228 0.07888567 -0.03307355 0.046634115 0.13219753 -0.060693
0.010333404 -0.12447833 -0.16517296 0.015593898
00000000: 1e0e 1fbd 146e eb3c 333c 2e3e b26c 943d
00000010: 400d 243e ef9f dd39 933b 683e 2702 6ebd
00000020: b296 0abd 5214 8dbd 95ff 92bd 8409 04be
00000030: 7631 89bc 3187 813c 1b85 4abd 19f5 003e
00000040: 852d 0e3d fd44 363d b59f c7bd 60c6 25bc
00000050: 0eb4 493e 2a1a 12bd 4f40 bfbc 33d5 1b3e
00000060: 9e17 073d cdba 363e bfba 54bd 6fe2 03be
00000070: 4d3d 48bc e04f bdbe 5c20 703d 64a6 ec3d
00000080: 2876 3bbe c164 8dbe 72c9 60be 118b 68bc
00000090: 0c68 8f3c 3e10 2c3e 0142 abbc 52f5 57bd
000000a0: 0461 83be f8c0 873e 68cd 16be 3d3e a13b
000000b0: 3c6b 85bd 20bb bcbc 7d8b 56bc 612f c2bc
000000c0: 8fd4 9bbd bf19 52be 2be3 033c 062a 3f3e
000000d0: 8a89 f43d b228 47be 4966 1ebc ae52 80bd
000000e0: 9a5d fdbc 6546 803d 02c1 05bd 3a9d 96bd
000000f0: 1639 29be 9b9b a93d c949 a8bc c634 f63d
00000100: 9189 013e 4720 17be 2fe1 76bb b43e ce3d
00000110: 4bca 27bd 9414 5c3c bf1f f23d 2b7a b7bd
00000120: 157e 0cbe a514 563e 76c6 c03d cb35 4e3d
00000130: 6fdf 40be 6387 89bd 5788 7dbe 1d8e d6bd
00000140: 60b7 423d 0c10 fbbd 700b 55bd f89d 413d
00000150: 77ce 2e3d d3f5 c33c 105a aebd 20e0 e63c
00000160: ad74 18be f5e6 0cbd daf1 233e cf8e a13d
00000170: 2178 07bd 6a03 3f3d ca5e 073e 3999 78bd
00000180: 704d 293c 7fee febd 1a23 29be 8c7d 7f3c

l2.weight f4 [100, 100]
0.026375862 0.16030537 -0.06781397 -0.06165055 -0.075867616 0.12786433 -0.004334407 0.07021934
-0.104730226 -0.087537885 0.02680513 -0.052227534 -0.00869308 -0.0062909485 0.011754833 0.0059670997
-0.21207868 -0.086347006 0.030313868 0.18631855 0.017670693 0.11644397 0.054258175 0.040187605
0.060604993 0.042856753 -0.23838165 -0.159051 -0.1417738 -0.14021957 0.13523285 -0.11617951
0.10616852 -0.017212462 0.05134317 0.025535932 -0.033120364 0.0075439657 -0.083910614 0.061693117
0.015476213 0.081631735 -0.03892504 -0.050516758 0.0973352 -0.07809557 -0.08178265 0.21403094
-0.03796008 0.08349962 -0.06414981 0.04489782 0.027373603 -0.087954804 0.15267652 0.048638564
-0.07593815 0.06115798 -0.07113106 -0.015847215 0.020971382 0.088436946 0.0068700793 0.010013973
-0.016016334 -0.10868884 0.074250236 -0.085935034 0.14430682 0.05120761 -0.09758537 0.045085136
0.14135751 0.077559695 0.10831897 0.050934587 0.25443944 0.06939683 -0.016288368 -0.02496866
0.18265912 -0.004410985 -0.05981418 -0.009370352 0.0503237 -0.09602278 -0.05767985 -0.13270652
-0.12399661 -0.07939586 -0.08456652 -0.0059412117 0.007319087 -0.109019995 -0.038584307 -0.0006736458
-0.07055457 0.2209113 0.0099941455 0.051035278 -0.032207113 0.04885529 -0.13627337 0.03733549
0.16536967 0.013247584 0.22046448 -0.12850448 0.07426719 0.076380014 0.09304553 0.14286193
0.045919504 -0.023430552 -0.043535642 -0.06469534 0.042500623 -0.104705386 0.0659549 0.12864663
-0.02995655 -0.061685234 0.03885421 0.038310617 0.06984194 0.067433566 -0.039923742 -0.0934721
0.09754608 -0.07645757 -0.04322123 -0.05557521 0.12705821 -0.049980056 0.18013848 0.08073018
-0.03431849 -0.09485055 -0.026627693 -0.05268072 0.08849648 0.00841724 0.024931218 -0.036931727
-0.017708693 0.14897612 -0.0069768038 0.12179947 -0.046062443 0.031213447 -0.053009868 0.012002373
0.056226417 0.08499312 0.17244276 0.044023193 -0.1314945 0.03207002 -0.15212403 -0.014138113
0.033812787 0.052349754 -0.06211285 -0.011416847 0.03366439 0.029792255 0.16432032 -0.0055112536
0.070568025 -0.16381836 0.026190378 0.07671132 -0.07262632 -0.013064831 0.08115104 0.06626796
-0.06455049 -0.0042568757 -0.07965275 -0.115824424 -0.08977601 -0.15748629 0.12600774 -0.13971008
-0.036260568 -0.025807127 -0.097044855 -0.00069854676 -0.051495068 -0.016089642 0.16443296 0.020999635
-0.11267699 0.08256505 0.13040714 0.06836479 0.10955088 -0.07216946 -0.06728755 -0.050728887
0.08741326 0.018880423 0.1394905 0.045811523 -0.061590303 0.18139891 -0.054697957 -0.14026822
-0.0019220411 -0.09679175 0.23842964 0.15201943 -0.1422605 -0.17032145 0.055898383 -0.20903762
-0.090666935 -0.15160735 0.013341656 0.17153485 0.13307786 0.03205303 -0.18207932 0.14037222
-0.059824906 0.094130106 -0.012021963 0.037436694 -0.0628955 -0.16522922 -0.100117765 -0.0009382298
0.02701798 0.14313826 -0.15124367 -0.048903085 0.14459908 0.11588222 0.21156941 0.009325103
0.0040475186 -0.096549146 -0.0028826979 -0.05447841 -0.086736 -0.0026108632 0.036513016 -0.109422155
0.066973306 0.10779689 0.23021139 -0.09724707 0.08968389 -0.0046237125 -0.0727793 -0.00033559374
00000000: 3112 d83c 1727 243e 0de2 8abd 4a85 7cbd
00000010: 7b60 9bbd deee 023e a407 8ebb 28cf 8f3d
00000020: cd7c d6bd 1047 b3bd 6f96 db3c 8aec 55bd
00000030: 6c6d 0ebc 4d24 cebb 5897 403c a987 c33b
00000040: 272b 59be b3d6 b0bd ca54 f83c 4aca 3e3e
00000050: 21c2 903c 2d7a ee3d d23d 5e3d c29b 243d
00000060: f13c 783d 908a 2f3d 521a 74be 44de 22be
00000070: 272d 11be b895 0fbe 7b7a 0a3e 86ef edbd
00000080: e26e d93d 2601 8dbc 374d 523d bb30 d13c
00000090: 38a9 07bd 5f33 f73b 54d9 abbd ecb1 7c3d
000000a0: f18f 7d3c 8a2e a73d dd6f 1fbd a9ea 4ebd
000000b0: ad57 c73d 92f0 9fbd a97d a7bd ed2a 5b3e
000000c0: 077c 1bbd d901 ab3d fa60 83bd c7e6 373d
000000d0: 9b3e e03c a621 b4bd 3c57 1c3e 3b39 473d
000000e0: 7685 9bbd ca80 7a3d 29ad 91bd 05d2 81bc
000000f0: 2dcc ab3c 6e1e b53d 671e e13b a611 243c
00000100: b034 83bc 4198 debd 8210 983d b5fe afbd
00000110: 2bc5 133e 12bf 513d d7da c7bd 31ab 383d
00000120: 06c0 103e 9ed7 9e3d 56d6 dd3d c9a0 503d
00000130: e345 823e ed1f 8e3d 2f6f 85bc 138b ccbc
00000140: fe0a 3b3e 068a 90bb b7ff 74bd 1b86 19bc
00000150: 3920 4e3d 97a7 c4bd b541 6cbd 38e4 07be
00000160: eff1 fdbd 4c9a a2bd 3631 adbd 7fae c2bb
00000170: f4d4 ef3b e045 dfbd 940a 1ebd 9b97 30ba
00000180: ea7e 90bd 9236 623e 7cbe 233c 5e0a 513d
00000190: 9beb 03bd 7c1c 483d 3f8b 0bbe 19ed 183d
000001a0: ab56 293e 650c 593c 71c1 613e ae96 03be
000001b0: 6619 983d 206d 9c3d a88e be3d 664a 123e
000001c0: 1716 3c3d 6ef1 bfbc 6e52 32bd fe7e 84bd
000001d0: 2215 2e3d c76f d6bd 5d13 873d f1bb 033e
000001e0: 7067 f5bc a8a9 7cbd 9825 1f3d 98eb 1c3d
000001f0: 4b09 8f3d 9c1a 8a3d 1487 23bd 4d6e bfbd
00000200: 3dc6 c73d c995 9cbd bf08 31bd d5a2 63bd
00000210: 8c1b 023e e3b7 4cbd 3976 383e dd55 a53d
00000220: 8c91 0cbd 0141 c2bd 5222 dabc bdc7 57bd
00000230: a43d b53d 77e8 093c 8e3c cc3c b945 17bd
00000240: d211 91bc 328d 183e ac9d e4bb 0072 f93d
00000250: f9ab 3cbd 58b3 ff3c e020 59bd 9aa5 443c
00000260: ac4d 663d df10 ae3d d694 303e aa51 343d
00000270: 7fa6 06be da5b 033d 67c6 1bbe 8ba3 67bc
00000280: 477f 0a3d b26c 563d 0b6a 7ebd ba0d 3bbc
00000290: ace3 093d e30e f43c 9643 283e bf97 b4bb
000002a0: f885 903d 00c0 27be 348d d63c d31a 9d3d
000002b0: 1cbd 94bd df0d 56bc 8432 a63d 7fb7 873d
000002c0: 0c33 84bd 437d 8bbb fb20 a3bd 5b35 edbd
000002d0: 7cdc b7bd 1644 21be 2c08 013e 2910 0fbe
000002e0: f685 14bd 7869 d3bc 74bf c6bd ae1e 37ba
000002f0: 7eec 52bd 6dce 83bc 1d61 283e 6d07 ac3c
00000300: 32c3 e6bd dd17 a93d 7389 053e d702 8c3d
00000310: 365c e03d 95cd 93bd 0ece 89bd 18c9 4fbd
00000320: b905 b33d 1eab 9a3c 99d6 0e3e dda4 3b3d
00000330: 1d46 7cbd a3c0 393e f70a 60bd 79a2 0fbe
00000340: ffec fbba c13a c6bd e626 743e fbaa 1b3e
00000350: bdac 11be bf68 2ebe b4f5 643d f50d 56be
00000360: 96af b9bd f53e 1bbe f696 5a3c d5a6 2f3e
00000370: 9045 083e 0a4a 033d 0073 3abe bcbd 0f3e
00000380: f60a 75bd 49c7 c03d c4f7 44bc 3857 193d
00000390: 5bcf 80bd d931 29be 8b0a cdbd 89f3 75ba
000003a0: d054 dd3c d692 123e 9fdf 1abe 9a4e 48bd
000003b0: c811 143e a853 ed3d a7a5 583e 51c8 183c
000003c0: 0ca1 843b 8fbb c5bd a5eb 3cbb c124 5fbd
000003d0: a5a2 b1bd 041b 2bbb ac8e 153d b918 e0bd
000003e0: 4d29 893d 9ec4 dc3d 89bc 6b3e 7929 c7bd
000003f0: 30ac b73d 8382 97bb 500d 95bd a1f2 afb9

l2.bias f4 [100]
0.042514186 -0.15820982 0.175465 0.050333038 -0.12918591 0.22295533 0.055329643 -0.17232895
-0.16358463 -0.036803473 0.044483982 0.22282068 0.055133235 0.06922669 0.101312906 0.16769427
0.010366879 0.039709218 0.31046206 0.023033675 0.1470437 -0.10900218 0.08738906 0.09052135
-0.09065607 0.028832663 -0.021345375 -0.15652353 0.076701246 -0.13710429 -0.017148882 -0.03360222
0.031634636 0.0057146205 -0.14415397 0.058873974 0.1755782 -0.020231033 0.056210864 -0.060530923
-0.02764666 -0.09168688 -0.04976748 0.0574154 -0.086008646 -0.06494706 0.008440962 -0.13671808
-0.0033948412 0.048744496 0.017584851 -0.07756824 0.07766642 0.07889381 -0.0053940685 0.004948788
-0.11518831 0.108674444 -0.06818049 0.15674482 -0.17467462 -0.21223639 0.15837789 0.18710625
-0.025769485 -0.03903318 -0.040695447 0.10682089 0.08720713 -0.06007917 -0.1851329 0.024242241
0.079880685 -0.069457434 0.059539706 0.090707295 -0.21442696 0.17412889 0.0376169 0.018893462
0.07240953 -0.04786719 0.022048363 0.15911315 -0.040372442 0.025916535 -0.06358267 0.011709041
-0.0037576095 0.03402159 -0.30900094 0.09892334 -0.009533311 -0.087045856 -0.033282965 -0.0009047711
-0.14405978 -0.076575056 -0.19602813 0.0987192
00000000: 5b23 2e3d c101 22be 19ad 333e 042a 4e3d
00000010: 5049 04be 674e 643e 56a1 623d 0077 30be
00000020: bb82 27be 3dbf 16bd d634 363d 1b2b 643e
00000030: 63d3 613d b9c6 8d3d 247d cf3d 0cb8 2b3e
00000040: d8d9 293c 22a6 223d e2f4 9e3e 1eb1 bc3c
00000050: a092 163e 893c dfbd 09f9 b23d 4263 b93d
00000060: e4a9 b9bd 7a32 ec3c 7fdc aebc b447 20be
00000070: 8b15 9d3d 1165 0cbe d07b 8cbc 7ba2 09bd
00000080: 5293 013d b641 bb3b 199d 13be d625 713d
00000090: c6ca 333e 8dbb a5bc 5d3d 663d 46ef 77bd
000000a0: 407b e2bc 55c6 bbbd fcd8 4bbd 692c 6b3d
000000b0: 4d25 b0bd f702 85bd f64b 0a3c d3ff 0bbe
000000c0: fc7b 5ebb 4fa8 473d 1b0e 903c 19dc 9ebd
000000d0: 920f 9f3d 1493 a13d bac0 b0bb 7129 a23b
000000e0: d9e7 ebbd b590 de3d 36a2 8bbd b781 203e
000000f0: e7dd 32be 7f54 59be d02d 223e c898 3f3e
00000100: 871a d3bc 41e1 1fbd 45b0 26bd e9c4 da3d
00000110: a799 b23d 9315 76bd 7b93 3dbe aa97 c63c
00000120: 7c98 a33d b33f 8ebd e8df 733d bfc4 b93d
00000130: be92 5bbe d84e 323e 2e14 1a3d 76c6 9a3c
00000140: 734b 943d 6310 44bd c59e b43c 8fee 223e
00000150: 935d 25bd ea4e d43c a237 82bd 47d7 3f3c
00000160: 3a42 76bb 395a 0b3d 5f35 9ebe 5298 ca3d
00000170: 9b31 1cbc 1945 b2bd b853 08bd 292e 6dba
00000180: 6884 13be 62d3 9cbd 99bb 48be 4b2d ca3d

l3.weight f4 [18, 100]
0.03821379 -0.08114319 0.019048385 0.14867811 -0.14719069 0.07702786 -0.084312886 -0.03399134
-0.03351473 -0.02003892 0.04521566 0.09857774 0.08005774 0.034739163 -0.091634765 0.13031209
0.033976063 -0.039914943 -0.0849102 0.08586396 0.035768274 0.029569993 0.15987378 -0.05569451
-0.30116725 -0.02996419 -0.028694818 -0.2142592 0.11584564 0.1077493 -0.0958786 0.040818315
0.22421701 -0.24878466 -0.09846816 -0.14059904 0.09809932 0.06556966 0.17451523 -0.034607347
0.022905918 0.16018236 -0.029281162 0.18021052 -0.06971722 0.043382 0.20137931 0.04937848
0.14563239 -0.19106847 0.09492671 -0.22307922 -0.08804421 -0.11278868 -0.04970783 -0.1700165
-0.0763608 -0.04848761 -0.10262575 -0.034259006 0.24568763 0.17557791 0.041277353 -0.041470394
0.12201882 -0.14759292 0.20759012 0.15330578 -0.072978005 0.16565546 -0.23081282 0.07956918
0.05244334 0.1614182 0.048895985 -0.12832092 0.14690837 0.011571304 -0.3463547 -0.11027585
0.20694184 -0.1429657 0.10967142 0.031950604 -0.1391504 0.10505469 -0.2219106 -0.14271437
-0.09831965 -0.19976044 0.19086035 0.09544654 0.10266552 0.114109136 0.039569963 -0.06346471
0.02080379 0.0062114457 -0.0077850255 -0.17494218 -0.03193814 -0.141639 0.076808766 0.07008142
0.08667302 0.03168156 0.13439122 -0.29008126 -0.20327258 0.063993275 -0.041391272 0.030068927
0.1362392 0.063292675 0.36561066 -0.02493805 -0.12017932 -0.045290742 0.13187277 -0.12777828
0.12691084 0.08096535 0.13147806 -0.044467516 -0.19437109 0.14077002 -0.12508604 0.104564175
-0.1727789 -0.038888343 0.15832692 0.0016820392 0.0835699 0.09982721 0.0653112 0.065906934
0.02343998 0.05930973 -0.028610816 0.110286444 -0.045159515 -0.12551278 -0.10378303 0.3418047
0.0837096 0.08100556 0.021426467 0.060598895 0.051565528 -0.164737 0.119147725 -0.0999135
0.32970303 0.058157817 0.3273578 -0.009946328 -0.19152206 0.009450417 0.014102187 0.17091967
-0.06313189 0.03531501 0.18644156 -0.21851377 0.02680655 0.14261071 -0.061977666 -0.20858407
0.2885644 0.09321199 -0.116121344 0.11763498 0.1584049 0.00523611 0.10160372 0.045024313
-0.2715649 -0.13853116 -0.04371937 0.07925568 -0.029731354 0.23397516 -0.11884582 0.19474441
0.038855206 0.1176775 -0.14692505 0.0069764866 0.12864646 -0.07055061 -0.12696894 0.037551526
-0.059093356 0.043370355 -0.10159952 -0.1988037 0.013663999 -0.18366629 -0.13652423 0.18826796
-0.20096506 0.083660506 0.16338937 -0.058405872 -0.053504054 0.2309196 -0.0051360615 -0.0581749
0.21218424 0.0042854445 -0.0727099 -0.03467715 0.14251125 -0.11887413 -0.0088741025 -0.051827807
0.11584204 0.10649223 0.18056281 -0.004331021 -0.026225843 0.05931894 0.18082225 -0.063787654
-0.08210932 0.13100745 0.0040148934 0.08931466 -0.044966515 0.019241188 -0.1508656 -0.01619534
-0.14623769 -0.18782847 0.11573814 -0.025278926 -0.032445937 0.08210578 -0.016661534 -0.117564715
0.121165685 0.17176332 -0.034023587 -0.10918283 -0.030063866 -0.032532934 -0.14411895 -0.0780285
-0.067103855 0.02675474 -0.100286014 0.05762433 -0.0143534085 -0.20815192 -0.16350716 0.024163796
00000000: 1086 1c3d 672e a6bd 5c0b 9c3c 133f 183e
00000010: 28b9 16be c8c0 9d3d 3cac acbd 813a 0bbd
00000020: be46 09bd a928 a4bc 0e34 393d 20e3 c93d
00000030: 50f5 a33d a74a 0e3d 02ab bbbd 8870 053e
00000040: 7c2a 0b3d da7d 23bd 66e5 adbd 72d9 af3d
00000050: c181 123d c53c f23c f4b5 233e ed1f 64bd
00000060: 9832 9abe 7677 f5bc 6511 ebbc c466 5bbe
00000070: 7b40 ed3d aaab dc3d 005c c4bd 1b31 273d
00000080: 2599 653e 68c1 7ebe ada9 c9bd 32f9 0fbe
00000090: 4ce8 c83d 6349 863d 1fb4 323e 6fc0 0dbd
000000a0: 31a5 bb3c d806 243e 0cdf efbc 1b89 383e
000000b0: e7c7 8ebd 53b1 313d 6136 4e3e 1741 4a3d
000000c0: a820 153e 74a7 43be ef68 c23d e16e 64be
000000d0: 8650 b4bd c0fd e6bd 709a 4bbd ce18 2ebe
000000e0: 0d63 9cbd f29a 46bd 732d d2bd 2c53 0cbd
000000f0: 8a95 7b3e b2ca 333e 7112 293d dcdc 29bd
00000100: 01e5 f93d 9922 17be 8192 543e 31fc 1c3e
00000110: 7e75 95bd 96a1 293e 325a 6cbe 2bf5 a23d
00000120: d4ce 563d d04a 253e 2847 483d 8f66 03be
00000130: 266f 163e 9195 3d3c 6755 b1be 4ed8 e1bd
00000140: 90e8 533e 9a65 12be 699b e03d a3de 023d
00000150: 717d 0ebe ea26 d73d 883c 63be b723 12be
00000160: d05b c9bd 008e 4cbe e570 433e 7a79 c33d
00000170: 4d42 d23d 0db2 e93d 1d14 223d c9f9 81bd
00000180: b66c aa3c 6289 cb3b 8719 ffbb 0b24 33be
00000190: 91d1 02bd d009 11be ea4d 9d3d d986 8f3d
000001a0: a081 b13d 86c4 013d da9d 093e 8885 94be
000001b0: b026 50be e80e 833d e589 29bd 1c53 f63c
000001c0: 4a82 0b3e 979f 813d 5231 bb3e e24a ccbc
000001d0: 9320 f6bd c982 39bd a809 073e 4fd8 02be
000001e0: eaf4 013e 29d1 a53d 2fa2 063e 9223 36bd
000001f0: 3709 47be 0426 103e 8e16 00be be25 d63d
00000200: f4ec 30be 6249 1fbd 7420 223e df77 dc3a
00000210: b226 ab3d 3572 cc3d e1c1 853d 37fa 863d
00000220: 3305 c03c c2ee 723d 3b61 eabc dcdd e13d
00000230: 2ff9 38bd 6c86 00be 328c d4bd 0701 af3e
00000240: f06f ab3d 3ee6 a53d 8f86 af3c 8c36 783d
00000250: 6036 533d d1b0 28be b903 f43d 739f ccbd
00000260: d6ce a83e e436 6e3d 719b a73e ecf5 22bc
00000270: 5c1e 44be ecd5 1a3c dc0c 673c 9105 2f3e
00000280: 4b4b 81bd 79a6 103d 89ea 3e3e 13c2 5fbe
00000290: 6999 db3c 8b08 123e 4bdc 7dbd 1097 55be
000002a0: b7be 933e eee5 be3d 07d1 edbd 9cea f03d
000002b0: e534 223e ad93 ab3b 9c15 d03d 6a6b 383d
000002c0: 8e0a 8bbe 1ddb 0dbe 1513 33bd cd50 a23d
000002d0: 2b8f f3bc 2f97 6f3e 7065 f3bd 146b 473e
000002e0: a326 1f3d e700 f13d 8573 16be 039b e43b
000002f0: e6bb 033e d77c 90bd 2504 02be a1cf 193d
00000300: e00b 72bd 1da5 313d 6913 d0bd 3293 4bbe
00000310: f7de 5f3c 0413 3cbe 02cd 0bbe 51c9 403e
00000320: c9c9 4dbe 3356 ab3d 8b4f 273e ff3a 6fbd
00000330: 1127 5bbd 3076 6c3e 684c a8bb ce48 6ebd
00000340: d346 593e ea6c 8c3b eee8 94bd a109 0ebd
00000350: 78ee 113e 4874 f3bd af64 11bc 6549 54bd
00000360: 973e ed3d 9918 da3d 75e5 383e 3deb 8dbb
00000370: 94d7 d6bc 6bf8 723d 7829 393e 1aa3 82bd
00000380: ee28 a8bd d126 063e 5e8f 833b 9bea b63d
00000390: cf2e 38bd b29f 9d3c 837c 1abe 17ac 84bc
000003a0: 55bf 15be 1b56 40be 1e08 ed3d c015 cfbc
000003b0: 08e6 04bd 1327 a83d c57d 88bc c5c5 f0bd
000003c0: b725 f83d b9e2 2f3e 515c 0bbd 3f9b dfbd
000003d0: 7f48 f6bc 4141 05bd eb93 13be 68cd 9fbd
000003e0: bf6d 89bd c22c db3c c162 cdbd 7d07 6c3d
000003f0: 8f2a 6bbc c725 55be 6c6e 27be 27f3 c53c

l3.bias f4 [18]
0.26797512 -0.4970963 -0.038210906 0.65673155 -0.13608405 -0.3539441 0.16595483 -0.3999535
0.21764176 0.30296245 0.26859555 0.0380187 0.33434978 -0.43604264 0.33118337 0.22307962
-0.062003195 -0.0034624692
00000000: 0934 893e 6883 febe 0a83 1cbd 8f1f 283f
00000010: 9e59 0bbe 2938 b5be 10f0 293e b5c6 ccbe
00000020: 7bdd 5e3e e51d 9b3e 5b85 893e 7fb9 1b3d
00000030: e52f ab3e fb40 dfbe de90 a93e fc6e 643e
00000040: 10f7 7dbd 98ea 62bb
