LARA/data/result/g_120.pt (torch, 87406 bytes, 7 tensors)

G_attr_matrix.weight f4 [36, 5]
000000 36 01 d5 3d 1e 9b b1 bd 40 f1 d7 be 61 f1 26 3e
       0.104006216 -0.086721644 -0.42176247 0.16303016
000010 85 fa 6a 3d 2f 62 03 be d2 05 17 3e 8a 49 42 3e
       0.05736782 -0.12830423 0.14748314 0.18973365
000020 5f c7 41 3d 4a c6 a0 bd c2 9c d9 bd c7 05 f0 3a
       0.047309276 -0.07850321 -0.10625602 0.0018312269
000030 b8 a9 9f bb 91 83 b4 3d 5c cb 97 bc 36 85 47 bd
       -0.004872527 0.08814157 -0.018529586 -0.048711024
000040 e8 ae 8e bd a4 04 81 bd 8e 90 5b bc 9b c5 0f bd
       -0.069669545 -0.06299713 -0.013401164 -0.03510056
000050 74 0a 8b 3d 7b 3d 5e be df 0e b1 3b f3 a7 fc 3b
       0.06789103 -0.2170314 0.005403384 0.007710451
000060 67 ba e2 3d 74 d3 f2 3d 19 b3 5e bd 1a e8 db bc
       0.1107071 0.11856738 -0.05437002 -0.026844073
000070 b8 1d 24 3e 40 e6 8c bd 17 90 fc bc d6 0c fc bc
       0.16026962 -0.06879854 -0.030830426 -0.03076784
000080 81 bc 84 3d 04 68 08 3e 7a 1f 9f 3e bc b7 94 3e
       0.06481267 0.13320929 0.31078702 0.29046428
000090 55 0a 04 3e 2a 0c 7f 3e 76 f9 43 3e 4c 99 20 3d
       0.12894566 0.24906984 0.1913813 0.039208695
0000a0 09 de 12 3d ee 8d 77 3b 63 f9 85 bb af c8 7f bd
       0.03585628 0.0037773806 -0.004088567 -0.062447246
0000b0 94 d9 15 be 0f 4c 00 3d bb 1a e2 bc 38 24 a9 bb
       -0.1463378 0.031322535 -0.027600637 -0.0051617883
0000c0 ab d8 af 3d f6 e4 72 3e 89 75 bc 3e e0 28 3e 3c
       0.08586248 0.23720154 0.36808422 0.011606425
0000d0 ed 89 77 3c d3 89 4a be 6e 81 2f bc 99 e4 90 3d
       0.015108568 -0.19779138 -0.010712011 0.070748515
0000e0 5e 5a 4a be a6 1a 82 be da e0 33 bc a2 39 43 3e
       -0.19761035 -0.25410956 -0.010978902 0.19064954
0000f0 2a 6a 46 bb 1f 73 31 3e 66 bf 87 3b ee 82 d3 3b
       -0.003027568 0.17329071 0.0041426895 0.006454817
000100 25 83 08 3e f4 b4 10 be 7b 91 11 3d d7 38 88 bd
       0.13331278 -0.14131528 0.03553913 -0.06651466
000110 5c f1 bf bd 66 a0 0c 3e c7 79 79 bc 3c 74 8d bd
       -0.093722075 0.13733062 -0.015226788 -0.069069356
000120 5a b2 31 3e d0 63 3a 3d 71 6f 54 3d 43 a4 b6 be
       0.17353192 0.045505345 0.05186409 -0.35672197
000130 f0 f3 83 3e f5 c7 2b be d0 fc 8a 3e 5c 22 40 be
       0.25772047 -0.16775496 0.27146006 -0.18763107
000140 85 59 97 3e 2c 50 1b bc 5a 21 24 be 1b 4c 8a 3e
       0.29560485 -0.009479564 -0.16028348 0.2701119
000150 a0 21 1d be 2f 9e 3c bd e5 f2 b2 3e 16 f8 0a 3f
       -0.15344858 -0.046049293 0.3495094 0.542848
000160 7c bd 37 3e 30 0a df 3d 96 36 4a bd 36 31 b8 be
       0.17943376 0.10890615 -0.049368463 -0.35975045
000170 5d c6 83 3a ca 95 33 3e ac da 2d be 79 2a 10 be
       0.0010053624 0.17537609 -0.16977948 -0.14078702
000180 e0 26 7f bc ea 48 32 be 4d e1 89 3e a6 7d 45 bd
       -0.015573233 -0.17410627 0.26929703 -0.04821553
000190 45 fd 8c be ae 08 9e bc 04 65 0f 3d c6 b9 0a bd
       -0.2753698 -0.019291248 0.035008445 -0.033868574
0001a0 11 78 13 bc 94 5d 4c be b5 f3 e4 3d 34 29 1e be
       -0.009000794 -0.19957572 0.11179296 -0.15445405
0001b0 0e 3d f7 3d 70 e7 0b 3d 63 df 21 3d e0 46 52 3a
       0.12072192 0.034156263 0.03951968 0.00080214255
0001c0 f4 1c 4c 3c 21 10 6c 3c b1 23 91 3d b8 c1 a5 3d
       0.012458075 0.014408142 0.07086886 0.080935895
0001d0 79 9c 42 3e a9 3e 19 3e 22 33 f6 bd e0 1b 66 3c
       0.19005002 0.14965309 -0.120214716 0.014044732
0001e0 79 45 18 3f 0c c1 5a bc 74 1a 8e 3d b7 57 98 be
       0.59481007 -0.01335169 0.06938639 -0.2975442
0001f0 8b ab 3b bd 8f 49 a8 3e 2d fc 53 be f3 80 d8 bc
       -0.045817893 0.3286862 -0.20701666 -0.026428675
000200 37 b6 8b be af fb fe 3d ef 5a e8 3c 01 77 82 3d
       -0.27287456 0.124503486 0.028363673 0.063703544
000210 71 82 de bc 37 06 55 3e ac 5c 26 bd 86 c9 8a be
       -0.027161809 0.20803152 -0.040615723 -0.27106875
000220 b2 e9 e6 be 28 df 66 3e 50 30 d2 3e 14 fe a6 3e
       -0.4510017 0.22546065 0.41052485 0.3261572
000230 2d 5a 18 bd d6 90 1f bc 98 3a 91 3c 5c 45 89 3b
       -0.037195373 -0.009739121 0.017728135 0.0041891765
000240 72 ee 49 bd 13 7c 08 3e 05 db 07 bd cf 4e 04 bd
       -0.049299665 0.1332858 -0.033167858 -0.03230172
000250 f3 7b bd bc d7 99 1f 3e c0 65 4b bc bd 0e af bd
       -0.023130393 0.15586029 -0.012414396 -0.08547733
000260 b1 ba d7 3c 14 4f 90 bd 5e b7 06 be 49 6d ef 3c
       0.026334139 -0.07046333 -0.13155887 0.029226916
000270 90 90 06 be e0 cc 22 bd f0 f9 66 3e e4 85 91 3e
       -0.13141084 -0.039746165 0.22556281 0.28422463
000280 62 b1 ac bc 6e 29 6b 3b 02 0f 2a 3e 97 da 83 3b
       -0.021080676 0.0035882848 0.16607288 0.0040238607
000290 f7 80 6c 3b 4d 2b e2 3d 42 f5 5d 3e 03 9c 88 be
       0.0036087611 0.11043415 0.2167559 -0.26681527
0002a0 50 64 fe 3c 29 06 5b 3e ad 81 0b 3e 2a 15 b7 ba
       0.031053692 0.21389069 0.13623686 -0.0013968099
0002b0 b2 99 4e 3e b3 7e b8 3e b2 ba 5c 3e ba fd 25 3e
       0.20175818 0.36034164 0.21555594 0.1621007
0002c0 6d 0c 8f 3d f4 d1 dd bd b7 53 17 be 49 d4 5a 3e
       0.06984792 -0.10831061 -0.14778028 0.21370043

l1.weight f4 [100, 90]
000000 0f 6c 43 3e e4 f8 2f bc 3a 2b b2 3d 9b 2e db 3d
       0.1908419 -0.0107404925 0.08699651 0.10702249
000010 7b 39 a7 3d 32 c0 3d 3d 50 79 b7 3d a4 9a 00 3d
       0.081652604 0.04632587 0.089586854 0.031397477
000020 59 18 7f be 72 83 40 be 48 cf 1c 3d 5f 9d 49 be
       -0.24911632 -0.18800142 0.038283616 -0.19688939
000030 16 b4 0b be 36 7b 45 3d a3 66 c6 bc 77 54 1a 3d
       -0.13642916 0.048213206 -0.024218863 0.03767821
000040 d2 91 87 3b b5 c7 26 bd b3 b5 07 bd ad fd c2 3d
       0.004137256 -0.0407178 -0.033132266 0.09521041
000050 50 01 64 3e 93 29 99 3c de dd a5 3c 20 56 94 bd
       0.22266126 0.018696582 0.020247396 -0.072429895
000060 e1 59 6c 3d fa d7 6d 3d c1 cf 24 3e f2 85 72 3d
       0.057702903 0.0580673 0.16094877 0.05920977
000070 69 c5 26 3e c3 f5 5a 3c f1 ed 47 3e 05 3d 0f be
       0.16286243 0.013364258 0.19524361 -0.13988121
000080 c0 f9 49 be 4b d0 97 bd fa f1 b8 bd 7f ea 26 3d
       -0.19724178 -0.074127756 -0.09030528 0.040750977
000090 c8 83 29 3e 15 29 de bc 59 38 ca bd ce 2a 30 3e
       0.16554177 -0.027119199 -0.09874029 0.17203829
0000a0 2a 37 9e bc f1 26 a5 bd 27 1a f2 3d d4 42 05 3d
       -0.019313414 -0.08064068 0.118213944 0.032534435
0000b0 e0 3f b8 3b 30 61 95 3d 9d 63 f3 bd 00 5e c4 bc
       0.005622849 0.07293928 -0.11884234 -0.023970604
0000c0 c3 68 42 3d 06 1b 89 bd cd a5 f4 3d 1d 8a b3 be
       0.04746319 -0.066946074 0.119456865 -0.3506631
0000d0 74 3e 22 3e 39 47 b4 bc b0 0d da bd 66 a9 65 3d
       0.15844136 -0.022006618 -0.10647142 0.056069754
0000e0 2b 0f b5 3c fa 2c f8 bc d6 bd ba 3c fb 7b ff 3d
       0.02210196 -0.030294884 0.022795599 0.12474819
0000f0 be 18 00 bd b9 1e 0a bd 66 1a 48 3b 23 3b 23 3d
       -0.031273596 -0.033720706 0.0030533313 0.03985132
000100 27 ee b0 bd a3 28 e0 bd 2e be 12 3d c4 08 16 be
       -0.08639174 -0.10945251 0.0358259 -0.14651781
000110 b9 b6 35 bc ec 30 32 be a6 74 4f be d7 0d 84 3d
       -0.011090928 -0.17401475 -0.20259342 0.06447952
000120 63 cc 06 3e 50 2b 8e 3e 8a 0d 64 be ec f3 5d bd
       0.13163905 0.2776742 -0.2227079 -0.0541877
000130 16 76 51 be 39 95 f3 bc 76 ae e3 bd 83 f5 47 3c
       -0.20455202 -0.02973424 -0.1111726 0.012204531
000140 cb 63 ef bc 08 c4 ec bd d7 0e 89 3d a6 4f 0e 3d
       -0.02922239 -0.115608275 0.066922836 0.034743927
000150 85 f2 77 be ee a9 8a 3d 23 9e e3 bd 73 ad 8f bd
       -0.24213608 0.06770693 -0.111141466 -0.07015505
000160 21 53 4c 3d 1f e6 2a 3e 79 a1 8c 3e 54 bc d2 bd
       0.049883965 0.16689347 0.27466944 -0.10289827
000170 0c 7a 88 bd cb b2 20 bd 3c db 14 be 31 0b 34 3d
       -0.066639036 -0.03923301 -0.14536756 0.043955985
000180 de 99 65 3e 8e b7 a3 bc 6b b4 7e 3d e5 04 80 3d
       0.22421977 -0.019984987 0.06218378 0.062509336
000190 73 67 03 3d 33 53 be bc 12 41 fa bd 37 a5 5a bd
       0.03208108 -0.023233032 -0.122194424 -0.053380217
0001a0 3a 80 e6 bd 7d 2f e0 bd 50 a9 b7 3d bf 0b 4b be
       -0.11254926 -0.10946558 0.08967841 -0.198287
0001b0 fe 1a 60 3d db a4 44 3d a1 34 4f 3d 05 b8 b3 ba
       0.05471324 0.04800878 0.0505873 -0.0013711458
0001c0 9e 05 72 bb 9a b3 24 bd 0c f7 1b 3d 1b 7d 12 3d
       -0.0036929618 -0.040210344 0.0380774 0.03576384
0001d0 96 f8 e0 3d a0 b2 33 3c 22 29 a1 bc 3c c3 6b bd
       0.10984914 0.0109678805 -0.019672934 -0.057559237
0001e0 29 25 9b 3d 46 07 24 bd 6c c2 bb 3c 37 0c d4 3b
       0.07575447 -0.040046 0.022919856 0.0064711827
0001f0 09 e4 33 be 8a 5a 94 ba 9b 4d 7a bd f8 5d 59 3d
       -0.17567457 -0.0011318487 -0.061109167 0.05306813
000200 27 12 f2 3c 1f 9a 81 3d 38 64 36 bd 8b 05 76 3d
       0.029549671 0.063282244 -0.04452917 0.06006388
000210 1a fe f9 bd 2d 1d 80 3b 68 ba 4a be 33 ef 95 bd
       -0.12206669 0.003909728 -0.19797671 -0.07321014
000220 b4 b9 99 3d cd e9 40 bd ae bc bf bb e1 c7 5d bc
       0.07506123 -0.04709797 -0.00585135 -0.013536424
000230 80 22 c6 3d 42 60 c4 bd 11 61 81 be b5 68 e1 bd
       0.09674549 -0.09588672 -0.25269368 -0.110062994
000240 49 c9 93 bd 5a b5 08 3e 27 3e 9f 3d d2 f3 13 3d
       -0.072161265 0.1335043 0.077755265 0.036121197
000250 ca 17 25 3d 5f c1 d3 bd f5 e7 15 bd d6 ef 97 3c
       0.04030589 -0.10339617 -0.036598165 0.01854698
000260 6c a0 ad bd 23 8f a3 bc 42 75 22 3b 7c 0a b9 bd
       -0.08477864 -0.019965714 0.002478913 -0.09035203
000270 a6 02 f7 bc 30 20 85 bc 8c 2b 79 3c 2b 8d 10 3e
       -0.03015263 -0.0162507 0.015208136 0.14116351
000280 6b 9f 40 be 9d 59 01 3e c6 1b fe bd 6a ac 14 bd
       -0.18810813 0.12631841 -0.12407641 -0.03629724
000290 73 ac 31 3d 2c e0 4e bc a4 ed 23 3d 0c d1 18 be
       0.04337735 -0.012626689 0.040021554 -0.14923495
0002a0 fc 52 25 3e 61 71 6d 3d 71 66 6f 3d b1 76 b5 bd
       0.16144937 0.057969455 0.058447305 -0.08860529
0002b0 2e b8 45 bd 46 78 1a 3d 5b cb 96 bd dc 80 fb bd
       -0.04827135 0.037712358 -0.07363006 -0.12280437
0002c0 69 54 8c be 47 eb e9 3d 51 dc d9 bd ce b3 1d bd
       -0.2740815 0.11421829 -0.10637725 -0.038501553
0002d0 b0 51 15 bb d9 1c 0b 3e 2c 02 c0 3c 9e 5f 57 be
       -0.0022784285 0.13585223 0.023438536 -0.21032569
0002e0 55 96 c5 bc 1d 6a 27 be 8d b7 af bd 05 7f 58 3d
       -0.024119535 -0.16349073 -0.085799314 0.05285551
0002f0 a4 bd c9 3c 1a 93 a6 bd a1 c2 a8 3d 30 e5 38 be
       0.02462656 -0.08133526 0.082402475 -0.18056178
000300 09 be e3 bd b9 c8 10 3e 95 fd 08 bd a3 78 b6 bc
       -0.11120231 0.1413907 -0.03344496 -0.022274321
000310 31 0b c1 bb 8e 15 e7 3d 0b cb 42 3d 76 24 12 3d
       -0.0058912267 0.11283408 0.047556918 0.035679303
000320 c2 6f 1e be 13 97 e9 3d 67 9f 37 be 2c d6 10 3e
       -0.1547232 0.11405768 -0.17931901 0.141442
000330 8c f3 a0 3e d4 77 a7 3b ca 9e 15 ba b8 18 07 bd
       0.31435812 0.00511072 -0.00057075603 -0.032982558
000340 27 7d b2 bd 12 54 a2 3d 36 3c 8a 3d 3a 2e dc 3a
       -0.08715277 0.079261914 0.067497656 0.0016798445
000350 37 49 0c 3d 23 d2 9b 3d 34 f7 cc 3b 9b c7 17 3e
       0.03424951 0.0760844 0.006255055 0.14822237
000360 76 e4 31 3d 04 fd 8e bd 0d 96 09 bd ec 14 a9 bc
       0.043430768 -0.06981853 -0.033590365 -0.02063986
000370 8b 54 ea bd 63 68 15 be 0e 83 5c 3d fc 39 e8 bc
       -0.114419065 -0.14590602 0.05383592 -0.028347962
000380 1d d5 6e 3e 64 63 ac bd 87 3b 13 3e 60 20 2d 3d
       0.23323484 -0.08417395 0.14378177 0.042267203
000390 87 5e 81 3d d4 49 5b 3d 2f c2 38 3e 29 a4 dc bd
       0.06316858 0.053537205 0.18042825 -0.107734986
0003a0 5b 49 8e bc 16 18 c5 3c 40 89 05 3d b7 0a b7 3d
       -0.017368963 0.024059337 0.032601595 0.089375906
0003b0 13 b6 d7 bd fd 81 3b 3c 68 45 37 3e 6b 6e a9 bc
       -0.10532775 0.011444566 0.1789757 -0.020682534
0003c0 c3 e5 ea 3c 87 70 df bd 5e 21 eb 3d 06 46 8b 3d
       0.028674012 -0.10910135 0.11480974 0.06800465
0003d0 60 69 ff bd 16 0f 79 be f6 b6 06 be 98 92 a7 bd
       -0.124712706 -0.24322161 -0.13155732 -0.081822574
0003e0 aa 8d f4 bd 48 13 a2 3d e5 90 e0 3d 47 ab c1 3d
       -0.11941083 0.07913834 0.109651364 0.09456497
0003f0 46 b5 1a be 91 e1 00 be 5a c4 85 3d a6 71 93 3d
       -0.15108213 -0.12586047 0.06531592 0.07199411

l1.bias f4 [100]
000000 0e 5d 03 bd 36 e9 2a 3c 36 b1 2a 3e b0 10 90 3d
       -0.032071166 0.010431578 0.16669163 0.07034433
000010 e9 be 1a 3e 20 e0 28 3c 18 29 6c 3e f9 47 68 bd
       0.15111889 0.010307342 0.23062551 -0.056709263
000020 cb 02 0b bd d2 e8 65 bd fd 88 5c bd 64 fa f9 bd
       -0.03393821 -0.056130238 -0.05384158 -0.12205961
000030 43 b2 58 bc 42 cd 6d 3c 61 57 25 bd 6a 81 0f 3e
       -0.013226095 0.014514269 -0.040366534 0.14014211
000040 ba 66 3b 3d 68 f3 08 3d b6 2b ab bd bc 94 1c bc
       0.045752265 0.033435255 -0.083579466 -0.009556945
000050 2d e9 4a 3e fe fe 46 bd 8b 61 10 bd 1f 2b 10 3e
       0.19815512 -0.048583023 -0.035249274 0.1407895
000060 0a 0a e5 3c ac 11 2f 3e 8d ef 4e bd 36 92 04 be
       0.027958889 0.17096585 -0.050521422 -0.129464
000070 b8 f3 1a 3c 3e d3 ba be a7 f5 54 3d 40 bb d7 3d
       0.009457521 -0.3648929 0.051992085 0.10533762
000080 c9 f1 3d be 2b 0f 96 be 77 56 6e be a9 21 22 bc
       -0.18549265 -0.29308447 -0.23275171 -0.0098957205
000090 09 b4 e3 3c 55 f1 2c 3e 42 79 0a bc bb 89 58 bd
       0.027795808 0.16888936 -0.008451762 -0.052865725
0000a0 b3 78 79 be 70 0d 8f 3e 1f 36 20 be 1d a1 14 bb
       -0.2436245 0.2793994 -0.15645646 -0.0022679039
0000b0 b4 bc 89 bd 48 01 8f bc ea 26 c0 bc 68 1c 00 bd
       -0.067254454 -0.017456666 -0.023456056 -0.03127709
0000c0 68 0f 9e bd 68 1c 3e be c4 b7 f5 b9 a8 89 3c 3e
       -0.07717782 -0.18565524 -0.00046866958 0.18411887
0000d0 43 7a e9 3d 54 db 41 be e0 95 29 bc c5 f1 82 bd
       0.11400273 -0.18931323 -0.010350674 -0.0639377
0000e0 71 3e 00 bd 5a b0 7b 3d 24 5d 14 bd 3a 9e 71 bd
       -0.03130955 0.06144748 -0.03622164 -0.058988787
0000f0 27 83 30 be f0 c6 ac 3d 39 e1 4b bc 55 e1 ef 3d
       -0.1723753 0.08436382 -0.012443834 0.117129005
000100 74 65 e3 3d 16 7b 23 be 68 c0 22 ba a2 51 c5 3d
       0.11103335 -0.15964922 -0.00062084803 0.09634711
000110 09 84 0a bd b9 03 00 3c de d5 e3 3d e3 c8 99 bd
       -0.033817325 0.007813388 0.11124776 -0.07509019
000120 a9 32 05 be 12 44 54 3e 18 15 b3 3d b5 9f 56 3d
       -0.13007607 0.20729092 0.08744258 0.052398402
000130 51 eb 3e be e5 ef 99 bd 39 b8 68 be 49 41 de bd
       -0.18644454 -0.075164594 -0.22726525 -0.10852296
000140 75 19 44 3d 01 28 f5 bd 32 7f 24 bd 73 d0 42 3d
       0.04787584 -0.11970521 -0.040160365 0.047562074
000150 7e 14 45 3d 33 a7 1b 3c fb a5 93 bd 5a d5 e1 3c
       0.048115246 0.009500313 -0.07209393 0.027567554
000160 10 73 13 be 4e 79 a7 bc 3d 91 16 3e cf fb 8f 3d
       -0.14399362 -0.020443585 0.14703842 0.070304506
000170 e6 08 1a bd 16 e5 74 3d b2 3c 05 3e 86 80 4b bd
       -0.037606142 0.059788786 0.13011435 -0.049683116
000180 6b 3b 3e ba 62 0d e6 bd a4 7e 23 be 3c 24 a6 3b
       -0.0007256779 -0.11233021 -0.15966278 0.0050702374

l2.weight f4 [100, 100]
000000 64 65 48 3c 6c 7b 20 3e a8 ae a6 bd af d6 8e bd
       0.012231205 0.15672082 -0.08138782 -0.069745414
000010 49 56 a2 bd d7 09 f8 3d 3e 98 94 ba 96 7f 87 3d
       -0.07926614 0.12111252 -0.0011336876 0.06616132
000020 d5 2b e9 bd 79 bc a0 bd f1 e9 eb 3c d8 f5 66 bd
       -0.113853134 -0.07848448 0.028798075 -0.0563868
000030 bd ca 14 bc 3a a4 b6 3b 4b ab 15 3c 11 05 ba 3b
       -0.00908154 0.0055737766 0.009135078 0.0056768735
000040 61 29 51 be b8 00 b6 bd 7e c3 be 3c 2e c9 3f 3e
       -0.20425941 -0.08886856 0.023286577 0.18729088
000050 64 ef 9f 3c 53 82 eb 3d ce 8e 7b 3d 08 42 1f 3d
       0.01952333 0.11499467 0.061415486 0.03888133
000060 4d 77 72 3d fb d5 2d 3d 93 ad 78 be 4c ab 26 be
       0.059195805 0.042440396 -0.24284963 -0.16276282
000070 81 a1 0d be 88 96 07 be 22 8b 10 3e b4 6c e2 bd
       -0.1383114 -0.13241017 0.14115575 -0.1105589
000080 4f a4 de 3d 7c 0c 71 bc 7a 2a 2c 3d 87 18 70 3c
       0.10871183 -0.014712449 0.042032696 0.014654285
000090 43 07 0c bd 9f 96 4b ba a3 d5 a5 bd ee f9 58 3d
       -0.034186613 -0.000776628 -0.080973886 0.052972727
0000a0 35 79 d8 3c fe aa aa 3d 22 68 49 bd 6d 58 18 bd
       0.026424984 0.083333954 -0.049171574 -0.037193704
0000b0 2b 79 c9 3d fc dd ac bd fa 75 98 bd e1 0c 63 3e
       0.09837564 -0.08440778 -0.07444377 0.22172882
0000c0 e6 c2 55 bd 7c 2e a7 3d 17 38 97 bd 94 a4 43 3d
       -0.052187823 0.08163163 -0.07383745 0.047764376
0000d0 d7 15 07 3d 7d b4 c3 bd 18 5c 0f 3e 84 1c 39 3d
       0.032979812 -0.0955591 0.13999975 0.04519321
0000e0 fa 2f a8 bd 1e de 83 3d 3d ca 90 bd d6 f9 93 bc
       -0.08212276 0.0643885 -0.07069824 -0.018063467
0000f0 76 44 89 3c 3c 0f b0 3d db 86 78 3c 99 37 84 3c
       0.016756278 0.08596656 0.015168871 0.016139792
000100 a1 37 b8 bc a2 4b d7 bd 43 3a 9f 3d a2 a9 ba bd
       -0.022487463 -0.10512473 0.077747844 -0.09114386
000110 80 35 1e 3e aa a1 24 3d 9d 30 c5 bd 98 2f 15 3d
       0.15450096 0.040193237 -0.09628413 0.036422342
000120 12 67 11 3e c0 ac b8 3d 7d fe e8 3d 1f 79 36 3d
       0.14199474 0.090173244 0.11376665 0.044549104
000130 c5 83 86 3e 7a a2 91 3d ff 9c 4d bc 19 5a a5 bc
       0.26272407 0.07111068 -0.012549638 -0.020184563
000140 c0 cd 2f 3e 6c 51 bf ba 41 7f 4c bd 1e 69 6f ba
       0.17168331 -0.0014596409 -0.049926046 -0.000913279
000150 5f 1d 3e 3d a7 36 d5 bd 16 e2 76 bd 7e ce 03 be
       0.04641473 -0.10410815 -0.060274206 -0.1287174
000160 56 2b fb bd 1d 70 ab bd 8d 2a a8 bd 53 8b f9 bb
       -0.12264125 -0.08370993 -0.08211241 -0.0076154857
000170 d4 14 55 3c 63 80 ce bd e1 4b 0b bd 40 0f 42 bc
       0.013005454 -0.100830816 -0.03400791 -0.011844456
000180 bc 6b 90 bd 87 e9 56 3e a5 8b 27 3c cc 49 60 3d
       -0.07051799 0.20987521 0.010226165 0.05475788
000190 fe 3b d0 bc 51 e4 72 3d d3 63 08 be e0 24 4f 3d
       -0.025419232 0.05929977 -0.1331933 0.050572276
0001a0 0d 79 33 3e 39 4e 76 3c 96 6e 58 3e 23 06 f2 bd
       0.17526646 0.015033298 0.21135935 -0.11817577
0001b0 04 d9 b7 3d aa ad 72 3d 43 f7 9e 3d 60 1b 0a 3e
       0.08976939 0.05924765 0.07762005 0.13487005
0001c0 66 0d 1b 3d 6f c9 02 bd db 99 2f bd e4 d8 9f bd
       0.037854575 -0.031930383 -0.042871337 -0.078050405
0001d0 41 8a e0 3c cb 60 c4 bd a2 38 6d 3d 53 39 01 3e
       0.027409675 -0.09588774 0.057915337 0.12619524
0001e0 51 2d 08 bd 84 c3 4c bd cd c8 29 3d 68 df 55 3d
       -0.033246342 -0.049991146 0.041451264 0.05221501
0001f0 0e 3f 73 3d 69 6b 87 3d a2 70 03 bd f5 df ae bd
       0.059386306 0.06612284 -0.032089837 -0.0853881
000200 63 82 a7 3d 19 84 9f bd 9a c1 37 bd 5e fa 32 bd
       0.08179166 -0.077888675 -0.044862367 -0.0436958
000210 f9 d0 f6 3d 99 d1 0b bd 87 f3 4a 3e 0c f1 af 3d
       0.12051577 -0.034135435 0.19819461 0.08590898
000220 bb 8f 1e bd 84 c5 c6 bd 6c 90 0a bd 73 55 3c bd
       -0.03871129 -0.09705642 -0.033829138 -0.04597993
000230 e6 2d 95 3d 1a 54 0a bb 7c 0f 46 3d f2 c2 2d bd
       0.07284145 -0.0021107257 0.04835461 -0.042422242
000240 e9 2e b7 bc f7 4a 15 3e e8 55 1b bc 40 34 f0 3d
       -0.022361236 0.14579378 -0.009480931 0.11728716
000250 c7 52 10 bd 07 ff bd 3c d8 06 3e bd fb 12 08 3c
       -0.035235193 0.023192896 -0.046393245 0.008305307
000260 15 18 48 3d fd b5 bf 3d de 37 34 3e 6b 66 3f 3d
       0.04885109 0.093608834 0.17599437 0.046728533
000270 38 a2 0b be 39 3f db 3c 62 cf 1f be ba 87 cb bc
       -0.136361 0.026763545 -0.15606454 -0.024844993
000280 38 24 28 3d 52 96 66 3d 12 23 8b bd dc 85 05 bc
       0.041050166 0.0562957 -0.067937985 -0.00814959
000290 a6 c1 45 3d 56 61 15 3d eb f2 1d 3e 98 09 1b bc
       0.04828038 0.03646978 0.15424697 -0.009462737
0002a0 97 70 80 3d 61 4b 1c be 58 fd cd 3c f4 1d 8c 3d
       0.06271475 -0.1526313 0.025145218 0.068416506
0002b0 8f 26 a6 bd db db 3b bc a5 2f a6 3d e4 90 74 3d
       -0.08112823 -0.011465992 0.08114556 0.05970849
0002c0 a5 dd 9d bd 92 41 1d ba cd 7f c2 bd 97 4b f7 bd
       -0.07708291 -0.00059988454 -0.09497032 -0.120749645
0002d0 e6 9b bc bd 64 6f 30 be 5c c7 f0 3d b9 33 10 be
       -0.09209423 -0.17229992 0.11756775 -0.1408223
0002e0 30 67 1f bd 6a c8 42 bc d8 f1 d3 bd 39 a4 55 ba
       -0.038916767 -0.011888603 -0.103488624 -0.0008149776
0002f0 6e c2 63 bd 36 0e 05 bd fe 4f 3f 3e 59 5d 14 3d
       -0.055605344 -0.032484256 0.18682858 0.036221836
000300 27 73 eb bd 7e 01 63 3d 99 75 0b 3e 9d 14 84 3d
       -0.11496573 0.055421345 0.13619079 0.06449244
000310 c8 9a e0 3d ee 62 91 bd ac f3 85 bd 6d ac 49 bd
       0.10967022 -0.070989475 -0.06540617 -0.049236704
000320 9d fa 91 3d 53 ba 4e 3c a3 ce 00 3e 7a 47 12 3d
       0.07127879 0.012617665 0.12578826 0.035712697
000330 38 39 88 bd 12 c2 31 3e 1c a4 4b bd 01 c4 16 be
       -0.066515386 0.17359188 -0.049717054 -0.14723207
000340 85 09 74 bc 95 5a aa bd 23 88 79 3e 71 09 19 3e
       -0.014894848 -0.083180584 0.24368338 0.14945008
000350 d2 54 0f be 78 ef 20 be b0 45 5a 3d f6 4f 55 be
       -0.139972 -0.1571635 0.053289115 -0.20831284
000360 b4 5a a4 bd 2d 48 21 be 68 2c 0f 3c 8b bb 30 3e
       -0.08025113 -0.15750189 0.008738615 0.17259042
000370 10 ff 0a 3e c4 9f e7 3c 52 7c 35 be d2 04 0a 3e
       0.13573861 0.028274424 -0.17723206 0.13478401
000380 62 54 6a bd ad 9b c1 3d f9 85 a2 bc 68 5f 03 3d
       -0.05720938 0.09453521 -0.019839274 0.03207341
000390 5a 13 68 bd 0c 6c 21 be 66 6e c1 bd 60 6f 31 3a
       -0.05665908 -0.15763873 -0.09444885 0.00067686103
0003a0 17 db 04 3d dc 94 11 3e a9 2b 28 be 20 cb 7c bd
       0.032435503 0.14216942 -0.16422905 -0.061717153
0003b0 54 22 14 3e e3 80 de 3d 79 96 5c 3e 44 22 f4 b9
       0.1446622 0.10864427 0.21541776 -0.00046564837
0003c0 b8 c7 95 3c 9d f8 bd bd 2a c8 8f bc 97 8d 23 bd
       0.01828371 -0.09275935 -0.0175515 -0.039929952
0003d0 fa ce ab bd 17 e6 0d bc e4 78 38 3d 71 51 cf bd
       -0.08389087 -0.008660815 0.045037165 -0.101229556
0003e0 99 0d 53 3d b8 64 d9 3d 84 2b 61 3e 9d 33 bf bd
       0.05152664 0.10614914 0.21989256 -0.09336016
0003f0 44 44 c9 3d c3 c4 73 bc 92 b9 ae bd 19 6e 74 bb
       0.09827474 -0.014878455 -0.085314885 -0.0037297069

l2.bias f4 [100]
000000 47 16 2d 3d 84 b8 24 be d3 88 33 3e 0e 88 3c 3d
       0.042257573 -0.16086012 0.17532663 0.04602819
000010 8d 0e 0e be 89 01 60 3e c5 f8 61 3d f0 7d 2f be
       -0.13872738 0.21875586 0.055168886 -0.17137885
000020 84 8e 25 be 35 bc 10 bd 08 97 2a 3d 5c ee 62 3e
       -0.16167647 -0.03533574 0.04164794 0.2216124
000030 19 44 65 3d 52 19 85 3d 7a c3 db 3d e6 03 24 3e
       0.055973146 0.0649897 0.107306436 0.16017112
000040 ce f6 cf 3b ca 1d 28 3d e9 cd 9f 3e 44 41 9b 3c
       0.00634656 0.041044034 0.31211784 0.01895202
000050 51 7a 18 3e 0d 2c e5 bd cd 40 ba 3d 73 32 c1 3d
       0.1489041 -0.11190043 0.09094391 0.094334505
000060 73 1f bc bd e2 58 f1 3c 03 7f f0 bc 51 dc 1d be
       -0.09185686 0.029461328 -0.029357439 -0.15416075
000070 3c 18 99 3d 75 8b 0a be 0c 8c 40 bc 7b f1 13 bd
       0.074753255 -0.13529761 -0.01175214 -0.036118966
000080 77 74 f6 3c 25 48 be 3b 82 4e 16 be 87 eb 6b 3d
       0.030084832 0.00580694 -0.14678386 0.057597663
000090 e2 8f 30 3e 11 fe 9a bc e6 ed 4f 3d 65 30 6c bd
       0.17242387 -0.018919976 0.050763987 -0.05766334
0000a0 3a 19 bb bc b6 ff c2 bd 8d 5b 4f bd 16 43 53 3d
       -0.022839177 -0.09521429 -0.05062442 0.05157765
0000b0 2e 1b aa bd 77 24 75 bd 94 44 4c 3b 65 fa 12 be
       -0.08305965 -0.05984923 0.0031168805 -0.1435333
0000c0 fc d3 89 bb 60 0d 54 3d 64 e0 79 3c a7 08 8e bd
       -0.0042061787 0.051770568 0.015251253 -0.06935244
0000d0 ab 19 a2 3d 4f 28 a4 3d 44 b7 a3 bb 18 01 05 3c
       0.07915052 0.08015501 -0.004996212 0.008117937
0000e0 8b 96 ed bd 76 08 db 3d b4 28 8d bd 27 44 20 3e
       -0.116009794 0.10694973 -0.06892529 0.15650998
0000f0 f6 1d 38 be e9 28 5c be 1f 41 27 3e e1 28 40 3e
       -0.17980179 -0.21499981 0.16333435 0.18765594
000100 3a 68 fb bc d7 b1 1b bd 06 4d 19 bd 9a 10 ca 3d
       -0.030689348 -0.0380114 -0.03742697 0.09866448
000110 77 bd b8 3d 74 10 6b bd 09 92 3d be de 5b c4 3c
       0.090205126 -0.057388738 -0.18512739 0.023969587
000120 aa 6a a0 3d 3e 69 8d bd 57 86 67 3d 9b 52 b9 3d
       0.078328446 -0.06904839 0.0565246 0.09048959
000130 e5 3f 5f be 8d aa 2e 3e da e6 2d 3d e9 3c d5 3c
       -0.21801718 0.17057247 0.042456485 0.02603002
000140 de 3c 8b 3d 67 b8 36 bd 03 85 85 3c c2 94 22 3e
       0.06798719 -0.044609454 0.016298776 0.15877059
000150 3c 7b 29 bd 93 5f d9 3c d7 cc 84 bd 1d 5d 63 3c
       -0.04137729 0.026534831 -0.064843826 0.01387718
000160 4a 1d b5 bb c6 8f 11 3d e6 7a 9f be 7d f7 c7 3d
       -0.005527173 0.035537504 -0.31148452 0.097640015
000170 a4 f2 41 bc cd fb aa bd 02 59 35 bd 11 2e a1 3a
       -0.011837635 -0.083488084 -0.044274338 0.0012297054
000180 05 a8 10 be 62 17 a5 bd 00 fc 4d be c0 41 cf 3d
       -0.14126594 -0.080611005 -0.20115662 0.10119963

l3.weight f4 [18, 100]
000000 33 35 f6 3c 00 43 94 bd 2c 28 f5 3b eb 25 11 3e
       0.030054664 -0.07239342 0.0074815955 0.14174621
000010 4c c3 11 be be 00 87 3d 5a ae b1 bd f2 b4 a9 bc
       -0.14234656 0.065919384 -0.08675833 -0.020716164
000020 c8 24 b5 bc 80 a3 3c bc e7 6b 38 3d 7b 17 be 3d
       -0.022112265 -0.011513591 0.04502478 0.09281822
000030 09 e2 a1 3d ff c2 d5 3c f6 30 ca bd 93 cf fb 3d
       0.07904441 0.026093958 -0.0987262 0.12295451
000040 98 f6 05 3d 8f 66 3c bd 38 06 c4 bd e9 dd b5 3d
       0.032705873 -0.045996245 -0.09571499 0.08880217
000050 46 5b 07 3d 2d a1 0c 3d a1 38 1f 3e 6e d0 7b bd
       0.03304603 0.034333397 0.15548946 -0.06147807
000060 b7 8b 96 be 2d 88 0f bd 07 f0 f5 bc d1 57 53 be
       -0.2940347 -0.035041977 -0.03002168 -0.20638968
000070 f9 37 e7 3d 88 9d f0 3d 4b 5b bc bd 67 f9 23 3d
       0.11289973 0.11748797 -0.091971 0.04003277
000080 f0 6c 64 3e 3f 41 7b be 24 ee be bd 00 b9 16 be
       0.22307181 -0.24536608 -0.093227655 -0.1471901
000090 7f f7 b0 3d 01 ef 84 3d e6 18 38 3e 7e 7e 26 bd
       0.08640956 0.06490899 0.17978248 -0.040647976
0000a0 8f d0 7b 3c b4 42 2a 3e d3 fe a4 bc 0f 12 33 3e
       0.015369548 0.16627008 -0.02014104 0.17487358
0000b0 b6 40 78 bd f5 41 2f 3d da e3 51 3e b8 33 78 3d
       -0.06060859 0.04278751 0.20497075 0.060596198
0000c0 47 27 1d 3e 45 ed 53 be a2 a2 bd 3d 8f 62 64 be
       0.15347014 -0.2069598 0.09259535 -0.22303222
0000d0 c7 5a c4 bd 22 14 f8 bd c3 67 5a bd 3a ab 25 be
       -0.09587627 -0.12113215 -0.05332161 -0.16178599
0000e0 7b 7e 88 bd 57 08 80 bd 88 55 d9 bd ed 0c 36 bd
       -0.06664749 -0.06251591 -0.10612017 -0.04444592
0000f0 05 00 82 3e 9b 0c 39 3e 8a c5 1f 3d e6 e0 54 bd
       0.2539064 0.18071215 0.039006747 -0.051972292
000100 90 a0 f5 3d 47 fb 16 be b3 49 64 3e 5b 6d 10 3e
       0.119935155 -0.14744292 0.22293739 0.14104216
000110 56 9b a3 bd 30 e6 2c 3e dd d4 62 be 30 00 9f 3d
       -0.07988612 0.16884685 -0.22151513 0.07763708
000120 a7 70 3b 3d d5 43 2e 3e 19 67 2c 3d a3 80 0e be
       0.04576173 0.17018063 0.04209051 -0.13916259
000130 1f 4b 1e 3e 0d 93 f7 3b 0e 0c b4 be 7e cb d9 bd
       0.15458344 0.0075553716 -0.35165447 -0.10634516
000140 b7 37 50 3e af d2 09 be 9b 23 e3 3d b8 f5 c5 3c
       0.20333754 -0.13459276 0.110907756 0.02416502
000150 c4 66 0d be 42 42 cf 3d dc 86 72 be d5 15 0e be
       -0.13808733 0.101200595 -0.23684257 -0.13875516
000160 06 53 df bd 4c aa 50 be 21 84 4e 3e c3 03 b8 3d
       -0.10904507 -0.20377463 0.2016759 0.089850925
000170 68 07 d1 3d 8d d8 fb 3d b1 da 18 3d 69 56 8f bd
       0.10206491 0.12297163 0.037317935 -0.06998903
000180 30 11 10 3d 7d 81 d8 3b b4 87 f3 bb 37 96 3c be
       0.03517264 0.006607233 -0.0074319486 -0.18416677
000190 de da fb bc fe c3 13 be ca a6 9e 3d 1f e8 78 3d
       -0.030744012 -0.14430234 0.07746656 0.060768243
0001a0 ba 1b c4 3d 85 8c db 3c b3 18 0d 3e a8 d0 92 be
       0.09575601 0.026800403 0.13778953 -0.28674817
0001b0 dd 83 4f be 7d ab 9e 3d 7f 0f 0c bd 2f 81 f5 3c
       -0.20265146 0.077475525 -0.034194466 0.029968826
0001c0 b5 ea 03 3e e3 27 77 3d fe 27 bd 3e 00 a0 ac bc
       0.12882502 0.060340773 0.36944574 -0.021072388
0001d0 bd f4 ff bd 61 bd 2d bd c0 7c 08 3e 75 66 07 be
       -0.12497852 -0.042416934 0.13328838 -0.13222678
0001e0 07 af 04 3e 56 3c b8 3d 0f fc 06 3e 59 e7 1c bd
       0.12957393 0.08995883 0.1318209 -0.038306568
0001f0 27 ef 4b be 26 e0 0e 3e 3a 9b 06 be f4 98 d4 3d
       -0.19915448 0.13952693 -0.13145152 0.10380736
000200 0b 83 2e be d9 ab 10 bd 31 90 24 3e 50 d4 d8 3b
       -0.17042176 -0.035320137 0.1607063 0.0066171065
000210 ed ad a7 3d 51 e8 da 3d 11 06 78 3d dd 97 8e 3d
       0.081874706 0.10688842 0.06055266 0.06962559
000220 d6 4b c6 3c fd 4d 84 3d 0e 1f fc bc bf af e9 3d
       0.024206083 0.064601876 -0.030776527 0.11410474
000230 b7 d3 3e bd a5 3b 06 be 48 95 d7 bd 1e c1 ac 3e
       -0.046588626 -0.1310869 -0.1052652 0.33741087
000240 2c d7 b3 3d 32 0b 98 3d 74 59 67 3c e4 ee 7d 3d
       0.08781275 0.0742401 0.014120448 0.061995402
000250 ce cc 6e 3d 94 63 2d be 98 1d ff 3d 5c ba d2 bd
       0.058300786 -0.16932517 0.124568164 -0.102894515
000260 d9 b3 a9 3e 4f 91 70 3d 0b 32 a9 3e bb c5 64 bb
       0.33145025 0.058732327 0.33045992 -0.0034907896
000270 18 66 44 be 4f 02 7b 3b 56 6b 8e 3c 77 9a 2c 3e
       -0.1917957 0.0038300937 0.017385166 0.16855799
000280 11 82 83 bd 64 17 fb 3c f7 16 3e 3e 57 a9 5f be
       -0.064212926 0.030650802 0.18563448 -0.21841942
000290 8f 72 a2 3c 62 33 14 3e 36 60 60 bd 55 74 57 be
       0.019830016 0.14472726 -0.054779254 -0.21040471
0002a0 a8 90 95 3e 6e 5a b8 3d 5c d0 f0 bd 46 ae f9 3d
       0.29211926 0.09001623 -0.117584914 0.12191443
0002b0 81 81 22 3e a5 c3 47 3c 62 53 cf 3d 49 0e 44 3d
       0.15869714 0.012192641 0.10123326 0.047865186
0002c0 3f 60 8d be ce 99 08 be 7f 7e 1c bd 2a 3f ad 3d
       -0.27612492 -0.13339922 -0.038206574 0.08459313
0002d0 8b 19 e8 bc 32 6b 6f 3e 9e df fd bd 49 3a 4c 3e
       -0.028332492 0.23380736 -0.12396167 0.19944109
0002e0 43 70 0e 3d cd b7 e7 3d 30 13 19 be ef fa 3d 3c
       0.03477503 0.11314354 -0.14948726 0.011595472
0002f0 7f 97 02 3e 15 d4 85 bd fe a5 03 be 3f e2 22 3d
       0.12753104 -0.06534592 -0.1285629 0.039766546
000300 81 d8 7e bd 05 29 45 3d 10 ee d1 bd 06 83 4c be
       -0.062218193 0.048134822 -0.10250485 -0.19971856
000310 e0 bf 95 3c bc 7d 3f be dc 0c 0f be 53 a9 39 3e
       0.01827997 -0.18700308 -0.13969749 0.18130998
000320 12 03 4a be be 90 a8 3d 5d 16 2c 3e a2 7f 42 bd
       -0.19727734 0.082307324 0.16805406 -0.047485
000330 96 d0 87 bd 20 a1 75 3e 8f 87 6f bb 42 78 8a bd
       -0.066315815 0.23987246 -0.0036549305 -0.067612186
000340 45 47 56 3e 03 c3 6c bc 6f 67 a3 bd fc 6f f9 bc
       0.20925625 -0.014450791 -0.07978713 -0.030448906
000350 cd 56 1e 3e 70 8c e5 bd d3 d5 ee bb a0 5c 66 bd
       0.154628 -0.11208427 -0.0072886734 -0.056240678
000360 a4 b9 f3 3d 17 ab d0 3d d8 f0 3c 3e bf 55 ac ba
       0.119006425 0.10188883 0.1845125 -0.0013148113
000370 2a 15 d6 bc 53 0f 38 3d fe e3 3d 3e f8 f1 85 bd
       -0.026133139 0.04493649 0.18544003 -0.065402925
000380 2d 6a a9 bd a2 fd 09 3e 00 67 10 3c 42 02 af 3d
       -0.082722045 0.1347566 0.00881362 0.085453525
000390 2b 8b 51 bd ab 4b 24 3c 56 f8 1b be 8d c5 8d bc
       -0.05115811 0.010027806 -0.15231451 -0.017306114
0003a0 fb c2 0f be c9 34 49 be 72 6a f1 3d b2 1c ed bc
       -0.14039223 -0.19649042 0.11787881 -0.028944347
0003b0 5a 35 f0 bc cb c9 9d 3d 36 ab 2b bc af 29 f4 bd
       -0.029322315 0.077045046 -0.010477832 -0.11922013
0003c0 f6 fa 00 3e b7 41 32 3e fe 29 15 bd 15 3e cf bd
       0.12595734 0.1740788 -0.036417 -0.10119263
0003d0 69 91 26 bd 47 1b c4 bc d7 e2 0e be 31 6d b2 bd
       -0.040666018 -0.023938788 -0.1395372 -0.08712233
0003e0 22 73 9d bd 63 f1 fd 3c b5 a5 da bd 0d da 7e 3d
       -0.076879755 0.030998891 -0.10676137 0.06221967
0003f0 f6 37 56 bc 22 f2 52 be f3 8f 2a be 39 be 70 3c
       -0.013074866 -0.20600179 -0.16656475 0.01469379

l3.bias f4 [18]
000000 57 6e 84 3e 22 49 fd be 77 cb 15 bd 3d 99 26 3f
       0.25865433 -0.49469858 -0.036570992 0.65077573
000010 c2 66 09 be e7 8d b2 be 3f e5 28 3e 90 56 ce be
       -0.13418105 -0.34873888 0.164937 -0.40300417
000020 f6 0f 5f 3e 8f 3d 9b 3e c0 bc 85 3e bd 75 22 3d
       0.21783432 0.30320403 0.26120567 0.039663065
000030 a0 d1 a6 3e 44 11 df be 1a 42 aa 3e 69 bb 5c 3e
       0.32581806 -0.4356786 0.33253556 0.21555866
000040 8d db 7e bd fd 4e 87 bb
       -0.0622211 -0.004129289
