LARA/data/result/g_150.pt (torch, 87406 bytes, 7 tensors)

G_attr_matrix.weight f4 [36, 5]
00000000: 349d cb3d 7176 b5bd 9689 cfbe 83bb 0e3e
00000010: f16a 5d3d 198e ffbd dde1 fd3d 7369 463e
00000020: bb0d 0b3d 9ea1 7ebd 8923 c7bd 66cd 1e3c
00000030: 07b9 283c 7824 af3d 47cb d5bb a54b 85bd
00000040: b0e0 acbd 53f1 7cbd 351d edbc 1263 57bc
00000050: 9a09 213d a4bd 46be d9ae 383b a0aa ea3b
00000060: 56e1 d63d b63f a23d 4145 10bd a0a3 1ebd
00000070: 5d42 203e 5349 aabd daa0 afbc b509 c7bc
00000080: b19d 163d 17ce ff3d 0945 913e ca52 9f3e
00000090: 2dce 163e 478f 6a3e 91e9 373e fba2 013c
000000a0: 71f8 ac3c 3bc8 893c 5123 b3bb 375f 5dbd
000000b0: 422f 0bbe cce2 823c 9e0b 81bc 36ec 18bc
000000c0: 25e1 b93d 37ff 793e cfb1 ac3e 57ec 863c
000000d0: 3be3 c43c d8a9 38be 5c1a c9bc a47c 533d
000000e0: 0a1f 4bbe dbf0 80be 0ed6 9bba a86c 393e
000000f0: 9d76 483b f8cc 2c3e 391e 4c3b a3e3 8d39
00000100: 3097 f03d 6cf1 25be dd27 c23b 4fa2 3ebd
00000110: 59d8 62bd 0b83 0a3e 7bef 04bc 5849 8bbd
00000120: fba6 183e a2e6 f93c 478e 533d c96c acbe
00000130: 5a5c 7e3e 7539 4dbe 7032 7f3e a85e 3abe
00000140: 0c61 8d3e e45d a4bc aabc 1fbe e10c 843e
00000150: 399d 07be f8dc 6bbd 6ca4 ab3e ae03 093f
00000160: 52fb 2c3e 1113 dd3d 274b fabc 982e adbe
00000170: 4232 a43b 2735 1f3e f914 22be 0213 e3bd
00000180: 2268 843a 177b 47be af8f 843e e331 24bd
00000190: f304 89be 91ef 19bc 5d9a e23c 2978 d7bc
000001a0: 7c0f e8bb 0baf 44be dc0a f33d c254 2ebe
000001b0: 4780 e53d 4292 4b3d 2752 f33c 1aae fabb
000001c0: 97fd 0bbb 1958 903b c0c2 6f3d b2d2 a03d
000001d0: 7605 513e d89a 1a3e 5095 27be 75cd 3bbc
000001e0: c0a0 133f 2f98 423a a5d9 5f3d 9987 94be
000001f0: c14d 08bd 4848 a23e ae11 4cbe b049 25bd
00000200: 3db6 87be f3f0 003e 7c09 e13c d41e 513d
00000210: c19a bebc 6502 483e 5f0b 2dbd 83bf 87be
00000220: 838b ebbe 0178 653e 7fb0 c83e 7801 a43e
00000230: 3c38 14bd f235 a2ba abd4 8b3c 9ee1 c23b
00000240: f545 54bd 3c6c 093e fe4a e4bc a57c 03bd
00000250: 9ebb cdbc 1a49 183e 1eeb 2dbc 30fe 96bd
00000260: c6d7 cb3c a2a6 7fbd b107 06be 1a16 083d
00000270: 22e0 fabd 78c1 30bd c85f 653e c64f 8e3e
00000280: 9073 4abc 2149 a1bb 21dc 163e 12c6 8e3a
00000290: eead 2ebb 4c8d 013e 8c3c 4c3e d987 90be
000002a0: 3f87 b03c 4d11 4b3e debd f33d 5e23 613a
000002b0: 044f 3b3e 3407 b33e c74d 463e 5e15 353e
000002c0: aa0c 863d e2d1 dfbd 35b1 31be 7026 533e
0.099420935 -0.088604815 -0.40534657 0.13938718 0.054057065 -0.12478275 0.123965956 0.19376163
0.03394864 -0.06216585 -0.09723575 0.0096925255 0.01029802 0.08551878 -0.0065244767 -0.06508569
-0.08441293 -0.061753582 -0.028944591 -0.013146179 0.039315797 -0.1940828 0.002818039 0.0071614534
0.10492198 0.07922308 -0.035222296 -0.038730264 0.15650316 -0.08314767 -0.021439005 -0.02429662
0.03677148 0.124904804 0.28372982 0.3111785 0.14727087 0.22906218 0.17960192 0.007912393
0.02111456 0.01681911 -0.0054668565 -0.054045882 -0.13592246 0.015977286 -0.01575261 -0.009333661
0.09076146 0.24413763 0.33729407 0.016470117 0.024034133 -0.1803354 -0.024548702 0.05163254
-0.19836059 -0.25183758 -0.0011889355 0.18107855 0.0030588277 0.16875064 0.0031145944 0.00027063218
0.11747587 -0.16205376 0.005925162 -0.04654151 -0.055382106 0.13526551 -0.008113737 -0.068010986
0.14907448 0.030505482 0.051649358 -0.33676746 0.24839917 -0.2004145 0.24921584 -0.18200171
0.27613103 -0.020064302 -0.15599313 0.25791076 -0.1324357 -0.05758378 0.3352388 0.5352124
0.16892746 0.10794652 -0.030553414 -0.3382461 0.005010874 0.1554762 -0.15828313 -0.1108761
0.0010101835 -0.19480549 0.25890872 -0.04008664 -0.26761588 -0.009395496 0.027661497 -0.026302414
-0.007081924 -0.19207399 0.11867306 -0.1702452 0.112061076 0.04970003 0.02970226 -0.007650149
-0.0021360868 0.0044050333 0.058535337 0.07852687 0.2041224 0.1509813 -0.16365552 -0.011462559
0.5766716 0.000742319 0.05465092 -0.29009703 -0.033277277 0.3169577 -0.1992862 -0.040353477
-0.26506224 0.12591915 0.027470343 0.05105479 -0.023267152 0.19532163 -0.042247172 -0.265133
-0.46004876 0.22409059 0.39197156 0.3203237 -0.03618644 -0.0012375696 0.017069181 0.005947306
-0.05182453 0.13420194 -0.02786779 -0.032101292 -0.025113877 0.14871636 -0.010615138 -0.07372701
0.024883162 -0.062414773 -0.13088872 0.033224203 -0.12249781 -0.043153256 0.22399819 0.27795237
-0.012356654 -0.0049220477 0.1473241 0.001089277 -0.0026653963 0.12651557 0.19944972 -0.28228644
0.021548865 0.19830818 0.11901449 0.0008588339 0.18291861 0.34966433 0.19365607 0.17683932
0.06545384 -0.10928704 -0.17352755 0.20620131

l1.weight f4 [100, 90]
00000000: e445 413e 0b05 e6bb 5d42 bd3d 9c47 ce3d
00000010: ef1f 983d 7ea9 5b3d 9bdd a33d 9659 ad3c
00000020: 84f0 84be 029c 35be 6f8f 083d 4771 43be
00000030: 4b83 06be 57c2 223d bad2 01bd 934e 5f3d
00000040: ee0e 663c e2cb 36bd 4556 1dbd c1d7 b53d
00000050: 5f23 5e3e 24a7 a63c 5376 663d 4dd0 afbd
00000060: d4db aa3c 1667 533d 3e23 2f3e a36a 613d
00000070: c689 2d3e abdf 4a3d b10e 363e 8623 15be
00000080: c6d4 53be b4ff adbd fd19 c7bd 54bd 463d
00000090: 2cee 1e3e 5be8 c8bc 2164 d9bd 683b 3d3e
000000a0: 93e2 d2bc 1394 b0bd ddf5 fe3d bb40 db3c
000000b0: 95e9 3d3c eb0d 993d ecc1 e6bd b187 07bd
000000c0: 75c0 2b3d 7fb6 74bd a793 003e 1b1d b8be
000000d0: 2484 153e b329 4abc b488 a0bd f3d4 383d
000000e0: 399d 843b bd32 6abd 9a8a 513c 688a f63d
000000f0: f578 19bd deae 43bd 96d3 74bb 2ba5 393d
00000100: 64f7 89bd 35f3 d2bd e4f2 363d 7a82 16be
00000110: 9035 8cbc 968c 31be 2638 59be 50c1 e63d
00000120: 28c2 e53d 5e28 923e f1bc 72be dc37 afbc
00000130: 6ac4 4abe 8600 68bd d982 cebd 5a74 b33c
00000140: 0a79 b5bc 936f e5bd e7ae 733d 481c d33c
00000150: a2ef 83be 7bdd 7b3d 8864 b1bd 14a7 9fbd
00000160: 8d36 2a3d c387 253e 9396 903e eb09 d6bd
00000170: fc4e 96bd df82 04bd fae8 15be b08f 223d
00000180: ad63 703e aa76 8cbc 5f0f 8c3d 8816 5d3d
00000190: 072d 383d 2912 f9bc e869 21be 52be 66bd
000001a0: c29b debd 6a49 e6bd 46c8 a53d 835a 3ebe
000001b0: 513b 823d 22af 633d a057 683d dc67 683c
000001c0: 965f 723c 2d74 70bd ab28 873c 2014 313d
000001d0: 92d0 ce3d 039e b9bc bd42 d5bc f59b 913c
000001e0: 91ee 083d 9332 01bd 2c21 a03c 9ee6 833c
000001f0: 2712 2dbe 522a 11bc 10f2 63bd 9586 913d
00000200: 8c4f 123d 62d6 7b3d 631c 1bbd 1058 c43d
00000210: 0799 01be 0794 3d3c 2136 50be 8cbc aebd
00000220: 668d 8a3d 3ef6 b9bd 889a ff3a 29cf a8bc
00000230: bed4 b63d 112c f9bd a57a 82be 3833 cfbd
00000240: 1d9c 8ebd 12a4 093e afd4 b73d 3a0d 3e3d
00000250: e24a 0b3d e7cd c1bd f88e e9bc 45b9 afbb
00000260: 0f24 9cbd 1ee1 e9bc 8a45 d13b 9488 a2bd
00000270: e41b 5cbc 3e6f 82bc bed8 b73c d13c 113e
00000280: 38bf 3dbe 1dc6 123e 7ba0 17be 25e3 8abd
00000290: 2210 fe3c f082 12b9 1b15 073d 9daf 31be
000002a0: 7c02 273e f1cd 763d f1f5 853d fb61 53bd
000002b0: 6922 3ebd 4d71 eb3c e9a8 47bd ab6d ebbd
000002c0: f942 95be 488b fc3d b528 cbbd dcda f3bc
000002d0: f7d2 1f3b e8a4 063e 85ab 923c 5fb7 52be
000002e0: 070b a9bc d13f 2cbe e8c2 a0bd 37c4 723d
000002f0: 0983 013d b64e aebd 00bd b33d 8425 3ebe
00000300: b7aa debd b1e1 1b3e ec80 eabc 47d7 92bd
00000310: 99d9 b9bc 8205 e83d df1c 523d d38d 2a3d
00000320: 01fa 1bbe 9b95 db3d 759d 47be f5c6 123e
00000330: d6f0 a23e bf90 203c 4d64 53bc b22d 13bd
00000340: 5335 bcbd 6daa b83d edb2 973d 1b88 cf3b
00000350: 96c8 813d 6cba c63d 43d5 393c 3bf9 143e
00000360: 54ad 303d b987 7dbd 265b f8bc 4ccd 9cbc
00000370: 1f4f e1bd 9afa 01be 9cc5 503d cd7f c4bc
00000380: 45a5 6b3e bc5f b1bd 536d 0e3e 8216 783d
00000390: 2caa 893d 97bf 453d ec48 343e f5aa c5bd
000003a0: a594 b2bc cb09 f53c d20d b23c f685 bd3d
000003b0: e09b 1bbe 4a0a ea3b 1e8e 3d3e f9f5 85bc
000003c0: 6aec 073d 80a9 dfbd f75d f33d 7396 813d
000003d0: 8af1 05be aff7 76be e24f 04be 14bc adbd
000003e0: 8afc ebbd 48f8 983d 8cc1 d43d 72db b83d
000003f0: 415b 14be 7cf4 edbd 37c3 833d 39fe 623d
0.18874317 -0.007019644 0.092411734 0.10072252 0.07427966 0.053628437 0.08001252 0.021160882
-0.2596475 -0.17735294 0.033339914 -0.1908618 -0.13136022 0.03973612 -0.031695105 0.054518294
0.014041645 -0.04462803 -0.03841235 0.088790424 0.2169318 0.02034337 0.056265187 -0.08584652
0.020856775 0.051611982 0.17103288 0.055033337 0.16947088 0.049529713 0.17779042 -0.14564332
-0.20686635 -0.08496037 -0.09721754 0.0485204 0.15520543 -0.024524858 -0.10614801 0.18479693
-0.025742805 -0.08621993 0.124492384 0.026764264 0.011591335 0.07473358 -0.112674564 -0.03308839
0.04193159 -0.059744354 0.12556325 -0.35959706 0.14601189 -0.012339043 -0.07838574 0.04512496
0.0040470627 -0.057177294 0.012789393 0.12038118 -0.03746887 -0.04777419 -0.003735756 0.045323532
-0.06736639 -0.10300294 0.044665232 -0.1469821 -0.017115384 -0.17338786 -0.21212825 0.1126734
0.11218673 0.28546423 -0.23704888 -0.02138894 -0.19801489 -0.056641124 -0.10083551 0.021906067
-0.022152442 -0.11202922 0.05949297 0.025770321 -0.25768763 0.061490517 -0.08661753 -0.077955395
0.04155593 0.1616507 0.2823988 -0.104511105 -0.07339284 -0.03235137 -0.14639655 0.039687812
0.23475523 -0.017146427 0.06838869 0.053976566 0.044964816 -0.030404167 -0.15763056 -0.056333847
-0.10869552 -0.11244471 0.0809484 -0.18589215 0.0635897 0.05558694 0.05672419 0.014184918
0.014793297 -0.058704544 0.016498884 0.043232083 0.100983754 -0.022658354 -0.0260328 0.017774561
0.03343064 -0.031542372 0.019547068 0.016101178 -0.16901456 -0.008860188 -0.05565077 0.071057476
0.035720393 0.06148375 -0.03786887 0.09587109 -0.12656032 0.011570937 -0.20333149 -0.08532056
0.06765251 -0.0908017 0.001950101 -0.020606594 0.08927296 -0.12166608 -0.25484195 -0.10117191
-0.0696337 0.13441494 0.08976113 0.046399333 0.03400696 -0.09463101 -0.028510556 -0.005362662
-0.07624065 -0.028549727 0.0063864635 -0.079362065 -0.013434384 -0.015922185 0.022442218 0.14183356
-0.18529975 0.14333387 -0.14807312 -0.06781606 0.031013552 -0.00013972423 0.032979112 -0.17352147
0.16309541 0.060254995 0.0654105 -0.051607113 -0.046419535 0.02874055 -0.04874507 -0.11495527
-0.2915266 0.12331253 -0.099198736 -0.029767446 0.002438722 0.13148844 0.017904053 -0.20577763
-0.020635141 -0.16821219 -0.078496754 0.059269156 0.031619105 -0.08511107 0.08776283 -0.18568999
-0.10872405 0.15222813 -0.028625928 -0.07169967 -0.022686766 0.113291755 0.051297065 0.04163916
-0.15232088 0.10721894 -0.19493659 0.14333709 0.31824368 0.009800135 -0.012902332 -0.03593225
-0.09189858 0.09016881 0.07407174 0.0063333637 0.06337087 0.09703526 0.011342349 0.14548199
0.04313405 -0.061897013 -0.0303169 -0.019140862 -0.11001419 -0.12693253 0.050969705 -0.023986721
0.23012264 -0.08660838 0.13908891 0.06056834 0.06721911 0.048278417 0.17605942 -0.09651748
-0.021799395 0.029911896 0.021735106 0.09254067 -0.1519618 0.00714234 0.18511245 -0.01635264
0.033184446 -0.109210014 0.11883157 0.06327524 -0.13080421 -0.24117921 -0.12921098 -0.08483139
-0.115227774 0.07469231 0.10388479 0.09026231 -0.14487936 -0.11618897 0.06433719 0.055418227

l1.bias f4 [100]
00000000: b306 1bbd fe8d 993c a680 2f3e fd78 9d3d
00000010: 873e 213e e9a7 f33b 4645 5c3e b10a 2bbd
00000020: 7a03 04bd e4ff 76bd 8938 4fbd 8949 01be
00000030: 65a9 a8bc c7b9 833c 981f 2fbd 0da3 fe3d
00000040: f099 333d a809 233d 9997 aebd 36bf 5abc
00000050: 4c5d 483e 38f9 31bd a3d5 08bd 8c2d 0c3e
00000060: f0fc ca3c c737 2c3e 8409 4fbd 5208 07be
00000070: 7833 5a3b 8854 b8be ee5b 643d 059e e93d
00000080: a743 3ebe a4d5 90be 97a6 62be c54c 81bc
00000090: 7efc fa3c ef21 2b3e ef0c 25bb 3e55 62bd
000000a0: 6b46 7bbe f559 8c3e 0453 1ebe 0d26 753b
000000b0: 7864 6cbd 1a51 8cbc ce9c 06bc dfd2 debc
000000c0: 96fc a1bd 97e1 41be 419d 23ba 27a4 2f3e
000000d0: 5f2c e83d 8fd5 3dbe d0a1 aabc 7d24 77bd
000000e0: 553c edbc 0876 783d cef2 15bd bdd8 8fbd
000000f0: 8631 2ebe 996e aa3d da73 a8bc 3923 033e
00000100: e13f ea3d 72c0 1fbe b4fd 3dbc b86c ce3d
00000110: df55 23bd 7ffe 373c 97a7 da3d c5c6 afbd
00000120: cb58 0fbe ae33 5e3e b255 ae3d d5fd 443d
00000130: 6e63 45be 6ad0 8cbd 2334 6ebe 79a4 dcbd
00000140: 6f7e 193d 5339 03be 6af7 2cbd f777 6c3d
00000150: 679c 453d 92b4 973c d58c a6bd 05a4 c73c
00000160: f200 17be 0f27 d4bc 4e50 243e 2cf7 a93d
00000170: a151 1ebd 8ee4 3a3d e42a 093e 0799 53bd
00000180: 8ce1 f93b e7f7 f7bd 891f 27be 0864 893c
-0.037848186 0.018744465 0.17138919 0.07689092 0.15746509 0.007435788 0.215108 -0.041758243
-0.032229878 -0.06030263 -0.050591026 -0.12625708 -0.020588586 0.016079796 -0.04275474 0.12433443
0.043847978 0.03980413 -0.08525009 -0.013351252 0.1956684 -0.043450564 -0.033406865 0.1368925
0.024778813 0.16818152 -0.050546184 -0.13186768 0.0033294838 -0.36001992 0.055751733 0.11407093
-0.18580495 -0.28287995 -0.22133861 -0.015783677 0.030637976 0.16712163 -0.002518471 -0.055257075
-0.24538581 0.27412382 -0.15461355 0.0037406713 -0.057713002 -0.017128516 -0.008216096 -0.02720016
-0.07909505 -0.18933712 -0.0006241389 0.17152463 0.11336588 -0.18538497 -0.020829111 -0.060337532
-0.028959433 0.06065944 -0.03660851 -0.070237614 -0.17011079 0.08321876 -0.020563055 0.12806405
0.11437965 -0.15600756 -0.011596132 0.1007933 -0.039876815 0.01123011 0.106764965 -0.08582834
-0.13998716 0.21699402 0.08512439 0.048093636 -0.1927621 -0.06875689 -0.23262076 -0.10773558
0.037474092 -0.12814836 -0.04222814 0.057731595 0.04824486 0.01851872 -0.0813233 0.024370203
-0.14746454 -0.02589753 0.16046259 0.082990974 -0.038652066 0.045628123 0.13395268 -0.05165961
0.0076257642 -0.121078305 -0.16320623 0.016771331

l2.weight f4 [100, 100]
00000000: 742e b53c 6cc8 2a3e cd27 b2bd e6e2 30bd
00000010: a186 c5bd 4c58 0c3e e631 e4bb b781 833d
00000020: f65f b6bd b4df 96bd 918d a03c 92f4 7cbd
00000030: 94db 55bb 6a88 caba 560b a8bb 8a48 80bc
00000040: d41a 6fbe d090 b3bd eb9a 453c ede1 3b3e
00000050: 3519 c93c 720a 063e 51b1 3b3d 1ebc 133d
00000060: 4c54 503d 1853 153d e775 6dbe 5d59 13be
00000070: 4aee 33be 50ea 17be 4a9c 143e 3945 ddbd
00000080: 4e63 f33d 6b62 b43a bd6a 423d d7a8 c53c
00000090: 7158 2cbd 9524 9dbc 9787 b8bd c8d0 843d
000000a0: ac51 d33a 1a40 693d 37ba 22bd 3775 34bd
000000b0: 9149 9b3d 5e8b a2bd df46 a6bd 9551 513e
000000c0: 3627 94bc e832 963d d0e0 42bd 1da9 693d
000000d0: 02a1 d43b 80e4 83bd 1e1f 363e f482 393d
000000e0: 02b8 abbd 560a 543d b732 8dbd 0c2d 3cbc
000000f0: e4a8 183d 8d01 b13d 5100 243d f020 99bb
00000100: aa8d 8c3b fd77 c6bd 9703 a43d 9442 ddbd
00000110: a979 143e 6ceb 793d dcbc 9dbd e324 503d
00000120: 5c91 0d3e 92ba 473d 79aa e13d 9451 4f3d
00000130: 4c4c 893e 4d19 c53d e1ef e9bc 9062 bebc
00000140: 3067 563e 9b01 09bc 31c4 71bd 4f20 d43b
00000150: f27d c23c bc72 aabd 7404 76bd 8625 00be
00000160: 9c34 e8bd 0c0c a1bd 0ac2 9cbd 38a4 03bd
00000170: 3547 e93b 6699 01be 63fe bebc 4371 25bb
00000180: aa63 90bd 2c94 703e fa70 923c 2d99 273d
00000190: 425e 94bd 1331 583d e93a 0fbe 37aa 473d
000001a0: 775b 433e ec34 2bbc 590a 543e 3880 ecbd
000001b0: 0b5d b03d 249c 123d 2878 873d bf54 ee3d
000001c0: 17ad 093d b8f9 c5bc 403e 88bd e2cd d3bd
000001d0: ebd3 163d c5b9 c7bd 532f 4d3d 1a39 003e
000001e0: 0031 1bbd 8eeb c3bc dea8 5b3d 3893 6a3d
000001f0: f187 623d f2e3 883d 080b 17bd 3862 cabd
00000200: 9d30 c63d 1d86 9dbd 3710 1bbd 6645 b1bc
00000210: 1ac1 013e 6a57 84bc 01e9 3d3e c16d 953d
00000220: f90f 26bd 4e12 cebd ebda 3abd 9454 5ebd
00000230: 1ad6 a03d 7926 5cbb 9746 0c3d db7d 06bd
00000240: 5b4d 7cbc bbd2 f13d 8187 d03b 4243 0e3e
00000250: 01e7 4abd dc81 823c 36b6 40bd 3bb4 3f3c
00000260: f413 3e3d b76c be3d 81f4 133e 922c 453d
00000270: 4858 02be fc33 533d e6e5 24be 89d5 02bd
00000280: 4f8e ec3c 97be 643d a8ea 65bd 3867 a43c
00000290: b519 513d af9c 1a3d 701c 213e 61f7 42bb
000002a0: 0fc2 7e3d dede 20be 9e6a 823c e242 a03c
000002b0: 8f58 b1bd 6150 e83b 968a cf3d 782e 1e3d
000002c0: 3b2a 8ebd a05b 3e3b ca8a cdbd a163 f2bd
000002d0: 2c30 fdbd d0d6 38be afb0 c23d 1a5d f1bd
000002e0: 609a 22bd 0d43 07bb 8a72 0bbe 9c88 3abc
000002f0: 3295 92bd b73f 87bd b0eb 453e 4bc3 153d
00000300: a626 b5bd 1972 633d d4f9 ff3d d850 233d
00000310: 46a2 d83d 45d4 dcbd f4ee 87bd 0069 3fbd
00000320: 2831 a33d fcd4 cf3c 51b3 ff3d d4d4 5b3d
00000330: 571c 94bd 8107 3c3e 196a 4fbd f4c8 13be
00000340: b2ac 233c d98f acbd 53af 6f3e 4c30 163e
00000350: 5000 13be 39ff 29be ae4c 383d 5239 5ebe
00000360: e7fc cbbd 6d98 23be e1ca 5fbb 8468 263e
00000370: 6142 0f3e d96a cf3c 8627 3cbe cca0 0d3e
00000380: 61c1 6ebd 77ed ba3d bf71 90bc ba3f 093d
00000390: b299 adbd d468 3bbe 76af b8bd 5bbe 933b
000003a0: 93a3 213d f19c 1d3e 781e 29be ba74 5abd
000003b0: d302 093e 8684 b93d 174e 523e e1cd 9b3b
000003c0: 6297 f0bb 9b6a c8bd 8ac3 53bc 9a29 11bd
000003d0: 16a1 babd df2c fb3b ac3e ff3c 1bbf 00be
000003e0: c44c 903d e2f2 cb3d 23fd 6b3e d2a8 bfbd
000003f0: 1697 9a3d b659 2e3c 9ef3 56bd dbcd 513b
0.022116877 0.16678017 -0.08698998 -0.043185137 -0.09644819 0.13705558 -0.006963956 0.064212255
-0.08905022 -0.07366887 0.019598754 -0.061756678 -0.00326321 -0.0015452032 -0.0051283045 -0.01565959
-0.23350078 -0.08767855 0.012060861 0.18347903 0.024548152 0.13089922 0.0458234 0.036068074
0.05086164 0.036456198 -0.23189507 -0.14389558 -0.17571369 -0.14835477 0.14512745 -0.10804219
0.11884175 0.0013762241 0.047465075 0.02412836 -0.04207653 -0.019182483 -0.09010237 0.06485134
0.0016122363 0.056945898 -0.03972837 -0.044057097 0.07582391 -0.079367384 -0.08118986 0.20441277
-0.018085103 0.07333928 -0.04757768 0.057046045 0.00648892 -0.06440067 0.17785308 0.045290902
-0.08384706 0.05176767 -0.06894439 -0.011485349 0.03727044 0.08642874 0.040039364 -0.004673116
0.0042893486 -0.09690855 0.08008497 -0.108037144 0.14499535 0.06101553 -0.07702038 0.050816428
0.13824981 0.04876191 0.11018843 0.05061491 0.26816022 0.09623966 -0.028556766 -0.023240358
0.209378 -0.008362199 -0.059024993 0.006473578 0.023741696 -0.08322665 -0.06006284 -0.12514314
-0.113381594 -0.07863626 -0.076541975 -0.032139033 0.0071190842 -0.12656173 -0.02331466 -0.0025244511
-0.070502594 0.23494023 0.017876137 0.040917564 -0.07244541 0.052781176 -0.13987316 0.048746314
0.1907786 -0.010449629 0.20707072 -0.11547893 0.086114965 0.03579344 0.06614715 0.11637258
0.033612337 -0.024166927 -0.06652498 -0.103420034 0.036823194 -0.097522296 0.05009396 0.12521783
-0.037888527 -0.023916032 0.05362784 0.057269305 0.055305425 0.06684102 -0.036875755 -0.09882015
0.09677241 -0.07691596 -0.03785726 -0.021639537 0.12671319 -0.016154964 0.18545915 0.072963245
-0.040542576 -0.10062085 -0.045618933 -0.05427988 0.07853337 -0.0033592267 0.034247007 -0.03283487
-0.015399302 0.11807772 0.0063638096 0.13892844 -0.04953671 0.015931062 -0.04704877 0.011700685
0.046405748 0.092980795 0.1444874 0.04813821 -0.12728989 0.051563248 -0.16103324 -0.031941924
0.028876452 0.055845823 -0.05613199 0.02006875 0.051049907 0.03774708 0.15733504 -0.00297495
0.062196787 -0.15710017 0.01591998 0.019563142 -0.08659469 0.00708966 0.10133855 0.038618535
-0.069416486 0.0029046312 -0.100362375 -0.11835409 -0.12362704 -0.18050694 0.09506356 -0.11785336
-0.039698005 -0.002063933 -0.13617912 -0.011385109 -0.07157363 -0.066039495 0.19328189 0.0365632
-0.08845262 0.055528734 0.12498823 0.03987202 0.10577826 -0.10782675 -0.066373736 -0.046730995
0.0796836 0.025370114 0.12485374 0.053669766 -0.07231968 0.18362238 -0.050638292 -0.14432126
0.009989904 -0.08425874 0.23406725 0.14666861 -0.14355588 -0.16601266 0.044995002 -0.21701553
-0.09960347 -0.15976115 -0.0034148025 0.16250807 0.13990165 0.025319504 -0.18374452 0.1383087
-0.05828989 0.09127324 -0.017632363 0.03350804 -0.08476581 -0.18301708 -0.090178415 0.004508776
0.039462637 0.153919 -0.16515529 -0.053333975 0.13379984 0.0905848 0.20537601 0.0047547673
-0.007342265 -0.097859584 -0.012925038 -0.035440065 -0.09112756 0.007665261 0.031157814 -0.12572901
0.07045892 0.099584356 0.23045783 -0.09358372 0.075483486 0.010641506 -0.052478425 0.0032013569

l2.bias f4 [100]
00000000: 14b0 1e3d 9d5a 28be dcbe 293e 8f44 1e3d
00000010: 9b93 f6bd b5f5 4e3e a9f9 743d 1e16 2bbe
00000020: 7eec 23be 93a8 03bd 95aa 2c3d aef6 5e3e
00000030: b796 5a3d 81f8 613d e827 df3d adb3 253e
00000040: c640 033c c944 313d 99e9 9c3e f42d df3c
00000050: fd83 173e e098 cbbd e775 b03d 5e47 b83d
00000060: f848 c0bd 53a7 053d d0d0 bcbc 13ea 19be
00000070: 3314 973d 6951 f9bd 3d25 7dbc f5f5 0cbd
00000080: 5446 c43c 9665 3b3c c56d 1dbe b2b1 563d
00000090: af7f 2f3e ea92 c4bc f320 513d 8b4d 81bd
000000a0: 3920 cdbc c7a8 b6bd 9d4d 46bd be18 463d
000000b0: 4f73 a2bd 59e5 6fbd c5eb a9bb a801 0cbe
000000c0: 6531 013b 87c7 513d 4450 a83c 698d 7cbd
000000d0: 4521 a53d c97d 9a3d dc20 203b 7590 ee3b
000000e0: 18b4 dcbd 1a2a d63d 47c2 89bd a423 1f3e
000000f0: 49a5 32be fe70 5ebe 10a9 1c3e d50b 373e
00000100: a4d0 10bd 2a10 14bd ac8a debc 1985 d43d
00000110: b701 b83d db7e 64bd 8d38 3dbe 90e6 c73c
00000120: 17ac 973d cad0 85bd f0a5 583d 7e90 b53d
00000130: f3da 5fbe 757b 2e3e 7277 273d 06ee c43c
00000140: aad2 873d 39c7 32bd 39ee d83b a55d 223e
00000150: cfa6 2bbd f670 c83c c2c9 8fbd 8295 633c
00000160: 34d9 38bb 9d70 123d 12ff 9cbe 489c c43d
00000170: 9934 46bc c10d 90bd e09d 31bd 0035 8fbb
00000180: ed92 0dbe 1393 a0bd 36fc 4fbe 4927 c73d
0.03874214 -0.16440816 0.16576713 0.0386396 -0.12039872 0.20210917 0.059808407 -0.16707656
-0.16008183 -0.032143187 0.042154867 0.21773788 0.05336639 0.055168632 0.108962834 0.16181822
0.008011049 0.04327849 0.3064697 0.027243592 0.14796443 -0.09941268 0.08616238 0.08997987
-0.09388918 0.032630276 -0.023048788 -0.15030698 0.073768996 -0.12173731 -0.015450773 -0.03441425
0.023959316 0.011437794 -0.15373905 0.052415557 0.17138551 -0.023995835 0.051056813 -0.06313618
-0.025039779 -0.089189105 -0.04841386 0.04836344 -0.079321496 -0.058568332 -0.0051855766 -0.13672507
0.001971328 0.051215675 0.020546086 -0.061658297 0.08062986 0.07543523 0.0024433648 0.007280404
-0.10776538 0.10457249 -0.067265086 0.1554094 -0.17445864 -0.2172279 0.15298867 0.17875607
-0.035355225 -0.036148228 -0.027165733 0.10376949 0.08984702 -0.05578504 -0.18478604 0.024401933
0.074058704 -0.06533964 0.052892625 0.0886545 -0.21860866 0.17039283 0.040885396 0.02403928
0.06631978 -0.043647025 0.006620195 0.15856035 -0.041907128 0.024467926 -0.07020904 0.013890626
-0.0028205635 0.035751928 -0.30663353 0.09600121 -0.012097501 -0.07033873 -0.043363452 -0.0043703318
-0.13825579 -0.07840552 -0.20311055 0.0972429

l3.weight f4 [18, 100]
00000000: 8061 163d 0bc8 99bd d960 083b a98e ee3d
00000010: 6e97 2abe 1235 453d d473 83bd 9c0b 35bc
00000020: 9dde 97bc 64d1 9dbc ab0c cc3c 10df da3d
00000030: c557 b63d 7f5d ae3c c346 cdbd 1c4a e33d
00000040: d15b 483d 23da 1ebd b161 c3bd dda9 ca3d
00000050: ec4e 313d 69e5 3e3c b985 233e aa47 4ebd
00000060: 8530 83be 2c4f 7ebd 1c9c 26bd 577c 54be
00000070: a04c 073e 6bfe fc3d c604 77bd c876 113d
00000080: 4c8e 533e ce4e 61be d041 ccbd 3d6f 0cbe
00000090: b7b3 883d 4866 743d d066 5a3e a10c 2dbd
000000a0: 4583 6a3c 8dc7 2a3e 3472 c0bc 6321 0a3e
000000b0: 13db 1ebd f725 193d bf8c 4e3e 7ac9 893d
000000c0: 51e7 2f3e 19d4 51be 573d c43d 31a2 51be
000000d0: a275 01be 2199 01be c892 50bd 010a 05be
000000e0: a2d6 60bd 75f7 7ebd d9e6 02be 84c3 82bd
000000f0: 0f68 773e 5214 363e 7a08 363d 2f3f 0dbd
00000100: d20e af3d ef0a 1dbe 15cf 5f3e 6305 f33d
00000110: a2d8 b1bd fabe 283e 8fa2 67be 63e2 bb3d
00000120: 0b25 463d 15b7 343e 1b1f b53c fc29 0bbe
00000130: 19a4 1d3e a9c0 823c 230c b3be 39df 9cbd
00000140: 37f7 603e 773e 1abe 762a d13d 6e14 323c
00000150: 17e3 cdbd c6ab de3d 3381 7dbe 0e8a fcbd
00000160: b7fb bdbd 19de 49be b659 543e 034a c63d
00000170: fde9 b23d 958b 0c3e d230 233d 5766 9dbd
00000180: 7cb8 133d 88a2 fe3b 4320 b7bc 1df2 5fbe
00000190: bf4c b8bc 65b0 1abe c43d a73d 9791 873d
000001a0: 50a5 e03d f5e9 b63c 25c3 1b3e 1a15 8cbe
000001b0: 17c0 54be 42c5 bb3d 0c54 0abd 0e2c 0d3d
000001c0: 56f0 da3d fa13 8a3d bce7 bf3e d24f 6ebc
000001d0: dcce f6bd 400b f1bc ff29 093e 9375 06be
000001e0: 8050 0f3e a8bc db3d bb90 133e e10e 11bd
000001f0: b773 57be e7d9 123e f35a 0cbe 41f4 c03d
00000200: 1b36 36be 6c7a 87bc c423 383e f28e 843c
00000210: 531a ce3d 5eb1 d83d 090e 6a3d 6b19 963d
00000220: 1021 c63c ea2c 9d3d 5481 6abc 045f ec3d
00000230: 09b8 7ebd 48e6 09be 6c8d c8bd 40c5 b83e
00000240: b076 a13d 4092 943d 51b3 253c 86b8 933d
00000250: 191c 863d c75f 32be dbe1 063e 3f9c ddbd
00000260: e683 b03e 5f2a 623d 2f56 b33e fe78 4b3b
00000270: 5a2b 36be 5438 03bc e73a 22bb bc19 343e
00000280: 3826 81bd 03b5 e83c bf0b 433e e9d5 71be
00000290: 1f3d e33c 66db 053e c1eb 12bd 1f31 5abe
000002a0: 9c88 983e d536 a83d b38a f5bd 5f94 f73d
000002b0: f43e 243e db66 ca3c ac91 db3d 6029 1a3d
000002c0: 3f92 8cbe efa2 09be a9ae 2ebd a439 c33d
000002d0: 3621 39bc 4871 643e 8e5c 04be c25f 543e
000002e0: 0dae e13c 467f da3d 1c3d 2ebe cbea 373c
000002f0: 4806 f53d 2982 3ebd 4b89 02be 6e48 183d
00000300: cf59 8fbd 5bc9 843d db05 eebd 879b 54be
00000310: 18cf 9b3c 804b 40be d573 0dbe 76d6 343e
00000320: 3b82 49be cdca aa3d f941 243e ee55 91bd
00000330: 10ee a7bd 3e3f 673e f147 433c af96 6fbd
00000340: 64f2 533e b021 37bc 7f77 b7bd ae0b dfbc
00000350: 69f7 263e 8a9e dfbd d678 66bc 064d 6fbd
00000360: 28a5 003e 3266 f23d 8ebc 373e 83a1 783c
00000370: 11e8 84bc e317 063d ac64 393e 6fc0 78bd
00000380: 8b94 44bd a9a1 d93d 454b 9b3b 6c3b ba3d
00000390: 0b5e 79bc aec7 e83c 6faa 06be f49d 90bc
000003a0: e1fa 24be fe3b 30be fc65 e83d 80ab 96bc
000003b0: af23 31bd e102 943d 713b 7d3c ea08 ecbd
000003c0: 91e9 ec3d b13a 383e 5b4e 0bbd 0c27 11be
000003d0: a1b1 65bc 3613 0cbd 3135 13be a86a 91bd
000003e0: 6445 76bd 42b3 073d 0d1a cebd cdd8 a73d
000003f0: 2dfa 26bd 50c7 55be 77de 28be 6d2c 6f3d
0.036714077 -0.07508858 0.0020809679 0.11648304 -0.16659328 0.048146315 -0.06418577 -0.011050131
-0.018538767 -0.019264884 0.024908384 0.10687077 0.089034595 0.021284817 -0.10023262 0.110981196
0.048915688 -0.03878225 -0.095401175 0.0989568 0.043288156 0.011651375 0.1596898 -0.050361313
-0.25622955 -0.062087223 -0.04067622 -0.20750557 0.13212824 0.12353214 -0.060307287 0.03551367
0.2065975 -0.22002718 -0.0997349 -0.13714309 0.06674903 0.059667856 0.21328282 -0.042248372
0.014313524 0.16677685 -0.023491956 0.13489299 -0.038783144 0.03738972 0.20170878 0.06727882
0.17178084 -0.20491065 0.09582012 -0.20472027 -0.1264253 -0.1265607 -0.05092123 -0.12992097
-0.05489219 -0.062247712 -0.12783374 -0.06384948 0.24160789 0.17781189 0.044441678 -0.034484085
0.085477486 -0.15336202 0.2185634 0.11866262 -0.086838976 0.16479102 -0.22620605 0.09174039
0.04837517 0.17647965 0.022109559 -0.13590235 0.1539463 0.015961008 -0.34970197 -0.07659764
0.21969305 -0.15062891 0.10213177 0.010869129 -0.100530796 0.10872607 -0.24756317 -0.12331019
-0.092765264 -0.1971363 0.20737347 0.09682085 0.08736036 0.13725121 0.03984148 -0.076855354
0.03606461 0.00777084 -0.02235425 -0.21869703 -0.022497533 -0.15106352 0.08166078 0.06619566
0.10969031 0.022328356 0.1521116 -0.2735985 -0.20776401 0.09168483 -0.03377156 0.034465842
0.10690372 0.067420915 0.37481487 -0.014545398 -0.12051174 -0.02942431 0.13394926 -0.13130789
0.13995552 0.10729343 0.14410679 -0.03541458 -0.21040235 0.14340936 -0.1370657 0.09421588
-0.17794077 -0.016537867 0.17982394 0.016181443 0.10063615 0.10580705 0.05714229 0.07329067
0.024185687 0.07674582 -0.014313061 0.1154156 -0.06218723 -0.13466752 -0.09792599 0.3608799
0.07883966 0.072544575 0.010113553 0.072129294 0.06548328 -0.17419349 0.13172095 -0.10820817
0.3447563 0.05521619 0.3502669 0.0031047459 -0.17789975 -0.008009035 -0.0024754347 0.17587942
-0.06306118 0.028406626 0.1904745 -0.23616756 0.027739106 0.13071975 -0.035869364 -0.213078
0.29791725 0.082135834 -0.119893454 0.120888464 0.1603964 0.024707248 0.10721144 0.037637115
-0.27455327 -0.1344106 -0.042647038 0.095324785 -0.011299422 0.22308838 -0.12925932 0.20739654
0.027548814 0.10668807 -0.17015499 0.011225413 0.11964089 -0.04651085 -0.12747686 0.03717845
-0.069995515 0.06483718 -0.116222106 -0.20762454 0.019019648 -0.18778801 -0.13813718 0.17659935
-0.19678585 0.083394624 0.16040792 -0.07096468 -0.08199704 0.22582719 0.011919008 -0.058493312
0.20697933 -0.011177465 -0.08958339 -0.027227249 0.16305317 -0.10918911 -0.0140668955 -0.058423065
0.12563002 0.118358985 0.17943022 0.015175226 -0.01622394 0.032737624 0.1810481 -0.060730394
-0.047993224 0.10626537 0.0047391974 0.09093365 -0.0152201755 0.028415527 -0.13150953 -0.017653443
-0.16111328 -0.17210385 0.11347577 -0.018392324 -0.04324692 0.072271116 0.0154560665 -0.11525138
0.11567987 0.17991139 -0.034010272 -0.14175051 -0.014019401 -0.03419801 -0.1437576 -0.07100421
-0.06012477 0.033129938 -0.100635625 0.08195648 -0.04076593 -0.20876813 -0.16491114 0.058391977

l3.bias f4 [18]
00000000: e604 853e d127 fbbe 00f1 1bbd b65e 243f
00000010: 5e96 07be ba58 afbe d5a9 253e 7981 cbbe
00000020: 7097 5f3e 2f20 9a3e 04c5 863e 6728 0e3d
00000030: 4a31 a83e 0582 dcbe b788 a63e 08fa 603e
00000040: 62fb 79bd ac76 60bb
0.259803 -0.49053815 -0.038071632 0.6420702 -0.13240954 -0.3424738 0.16178067 -0.39747217
0.21835113 0.3010268 0.26322186 0.0347065 0.32850105 -0.43067947 0.3252618 0.2197038
-0.061030753 -0.0034250421
