LARA/data/result/g_200.pt (torch, 87406 bytes, 7 tensors)

G_attr_matrix.weight f4 [36, 5]
0	0x3dbabd20	0.09118104
1	0xbd9df4de	-0.0771272
2	0xbec3c6df	-0.38237664
3	0x3de6750c	0.11252794
4	0x3d4e6b04	0.050395027
5	0xbdec4e91	-0.11538423
6	0x3ddf69d2	0.109088555
7	0x3e33a63a	0.17543879
8	0x3cf7d04c	0.03025069
9	0xbd1b5d8a	-0.037931003
10	0xbd89c563	-0.06727102
11	0x3cdbf4a3	0.02685005
12	0x3c980eff	0.018561838
13	0x3d898465	0.067147054
14	0xbb63e30d	-0.0034772784
15	0xbd1c5087	-0.038162734
16	0xbdc17577	-0.09446233
17	0xbd530edb	-0.05152784
18	0xbd8075da	-0.062724784
19	0x3bec4c19	0.00721122
20	0x3cad4e48	0.021155491
21	0xbe39ef2c	-0.18157643
22	0x3b9ddea7	0.004817802
23	0xba8200ff	-0.000991851
24	0x3da55885	0.080735244
25	0x3d5040e9	0.050843153
26	0x3bc4da2f	0.006007455
27	0xbcf26e4a	-0.029593606
28	0x3e3b54c3	0.18294053
29	0xbde4cb85	-0.11171631
30	0xbd0a6e09	-0.033796344
31	0xbcb37397	-0.021905703
32	0x3cba9fe6	0.022781324
33	0x3def3fa1	0.11682058
34	0x3e805738	0.25066543
35	0x3e8aa869	0.27081612
36	0x3e050edd	0.12993951
37	0x3e7846c6	0.24245748
38	0x3e3ba59f	0.18324898
39	0x3d238f83	0.039931785
40	0x3c9f55e1	0.01945013
41	0x3bef3fbd	0.0073012994
42	0x3bf3af0d	0.007436639
43	0xbd491b28	-0.049098164
44	0xbe0592df	-0.13044308
45	0x3c87844e	0.01654258
46	0xbcba2548	-0.022722855
47	0xbb70eeda	-0.003676346
48	0x3dbce844	0.09223989
49	0x3e81d2ba	0.25356084
50	0x3eaab3b9	0.33340243
51	0x3c91723b	0.017754665
52	0x3cac8f31	0.021064373
53	0xbe0eb2fc	-0.13935465
54	0xbc6cf3e8	-0.014462449
55	0x3d5b95ec	0.053609774
56	0xbe41c183	-0.18921475
57	0xbe80201b	-0.25024495
58	0x3d08b3f3	0.033374738
59	0x3e3998d5	0.18124707
60	0xbb71b5eb	-0.0036882113
61	0x3e0e1880	0.13876534
62	0x3b20453c	0.002445533
63	0x3b9a426c	0.004707625
64	0x3dbcb09b	0.09213372
65	0xbe1dac63	-0.15397792
66	0x3d23af77	0.03996226
67	0xbccdece6	-0.025137376
68	0xbdbb1691	-0.091351636
69	0x3dbb0c3a	0.091331914
70	0xbc2c889c	-0.010530617
71	0xbd8d2cf4	-0.0689334
72	0x3dbd402b	0.09240755
73	0x3cff84be	0.031191226
74	0x3d6629cd	0.056192208
75	0xbea038da	-0.31293374
76	0x3e63d289	0.22248282
77	0xbe778a96	-0.2417396
78	0x3e6e6e7f	0.23284338
79	0xbe263223	-0.16230063
80	0x3e8b0246	0.27150172
81	0xbcdc8eac	-0.0269235
82	0xbe107404	-0.14106756
83	0x3e6b61e2	0.22986558
84	0xbe089a98	-0.13340223
85	0xbd32666f	-0.04355472
86	0x3ea61dd3	0.3244463
87	0x3f07bcd7	0.5302252
88	0x3e291db9	0.16515245
89	0x3dc848d5	0.097795166
90	0xbd01b5a2	-0.03166736
91	0xbea85a19	-0.3288124
92	0xbb7f33aa	-0.0038940706
93	0x3e09a2eb	0.13441055
94	0xbe0e021b	-0.1386799
95	0xbdcfc3f0	-0.10144794
96	0x3c9031f8	0.017601952
97	0xbe4b5b16	-0.19858965
98	0x3e676bc6	0.22599706
99	0x3c6b06fa	0.014344925
100	0xbe7dd7b4	-0.24789315
101	0xbcb98f1d	-0.02265125
102	0x3d0eaf5e	0.034835212
103	0xbcb6fda4	-0.022337742
104	0xba35a9b8	-0.0006929892
105	0xbe42ce07	-0.19023906
106	0x3e11a4fb	0.14223091
107	0xbe55cba4	-0.20878464
108	0x3e04f70e	0.12984869
109	0x3d510cc2	0.051037557
110	0x3c1cd712	0.009572761
111	0xbbdb8995	-0.0066997507
112	0xbb94b79c	-0.0045384895
113	0x3c4f8654	0.012666304
114	0x3d029b9b	0.03188668
115	0x3d962772	0.07331742
116	0x3e66d827	0.22543393
117	0x3e30aca4	0.17253357
118	0xbe38cfce	-0.18048021
119	0xbba76211	-0.005108126
120	0x3f0c13e5	0.54717857
121	0x3c30c65f	0.010789483
122	0x3d0821dd	0.03323542
123	0xbe8e1092	-0.27747017
124	0xbc5f27c3	-0.01362032
125	0x3e947a63	0.28999624
126	0xbe40cbac	-0.18827695
127	0xbd8323f0	-0.06403339
128	0xbe84e488	-0.25955606
129	0x3e021f51	0.12707259
130	0x3ccb0e19	0.024786996
131	0x3d3688fc	0.044564232
132	0xbc92ff78	-0.017944083
133	0x3e2b0a80	0.16703224
134	0xbcdc17e4	-0.02686686
135	0xbe848c61	-0.2588835
136	0xbedfdaa3	-0.43721494
137	0x3e5ceeb8	0.21575439
138	0x3eb0149c	0.34390724
139	0x3ea2b812	0.3178106
140	0xbd41caca	-0.047312535
141	0x3c0fada6	0.008769428
142	0x3c3cd192	0.011524575
143	0x3b748657	0.0037311518
144	0xbd3efb69	-0.046626482
145	0x3dd4ab62	0.10384251
146	0xbc74eaf8	-0.014948599
147	0xbd2f3f2a	-0.042784847
148	0xbcbb0f80	-0.02283454
149	0x3e18419d	0.1486878
150	0xbc78da49	-0.015188762
151	0xbd6fdb04	-0.05855848
152	0x3c9e238a	0.019304056
153	0xbd94fd2d	-0.07274852
154	0xbdd98bd1	-0.10622371
155	0x3cb68c14	0.022283591
156	0xbe021e7e	-0.12706944
157	0xbd3e7e24	-0.046507016
158	0x3e50a301	0.20374681
159	0x3e8f22a7	0.27956125
160	0xbb25f356	-0.0025322041
161	0xbc2edfd8	-0.010673486
162	0x3e0194fc	0.1265449
163	0x3b8e1937	0.004336502
164	0xbbd47a8f	-0.0064843367
165	0x3e163654	0.14669162
166	0x3e432d53	0.19060259
167	0xbe9a4fbf	-0.30138966
168	0x3cc9dd11	0.024641545
169	0x3e479f8a	0.19494453
170	0x3dc4ae98	0.096036136
171	0xbb561d1c	-0.003267116
172	0x3e292c70	0.16520858
173	0x3eac0da7	0.33604166
174	0x3e3c7796	0.18404993
175	0x3df3ff72	0.11913957
176	0x3e184617	0.14870487
177	0xbdd66704	-0.104688674
178	0xbe758558	-0.23976648
179	0x3e69842c	0.22804326

l1.weight f4 [100, 90]
0	0x3e4ef513	0.20210676
1	0xbc9fd7f4	-0.019512154
2	0x3da0f52c	0.07859263
3	0x3de3d33a	0.11124273
4	0x3dc65b71	0.0968541
5	0x3d3483f0	0.044071138
6	0x3dc22847	0.094803385
7	0x3d0c4088	0.03424123
8	0xbe813a0a	-0.25239593
9	0xbe16c23b	-0.1472253
10	0x3d35eabd	0.044413317
11	0xbe4db0fb	-0.20087044
12	0xbdc2c7d1	-0.09510768
13	0x3dde9a7f	0.108693115
14	0xbcccdd74	-0.02500794
15	0x3df3f313	0.11911597
16	0x3d385f45	0.04501273
17	0xbc9df793	-0.019283092
18	0xbcd22d2e	-0.025656309
19	0x3dc91a7d	0.09819505
20	0x3e706c98	0.23478925
21	0x3b9d6af0	0.0048040077
22	0x3dab7141	0.08371211
23	0xbda3b487	-0.07993417
24	0x3d1b2bcd	0.03788357
25	0x3d81f5b5	0.06345693
26	0x3e31b1db	0.17353003
27	0x3d83e09e	0.06439327
28	0x3e22aa67	0.15885316
29	0x3d14de53	0.036344837
30	0x3e24b7f2	0.16085795
31	0xbe0b6d7b	-0.13615982
32	0xbe52ada7	-0.20574056
33	0xbda03d95	-0.07824246
34	0xbdb04e90	-0.086087346
35	0x3d29dd29	0.04147068
36	0x3e1d575a	0.15365353
37	0xbcce861d	-0.025210435
38	0xbdc7b597	-0.097514324
39	0x3e3ed7f4	0.18637067
40	0xbc6bd6af	-0.014394446
41	0xbda577e4	-0.08079508
42	0x3deffdea	0.11718352
43	0x3d1a8d96	0.037732683
44	0x39955dac	0.00028489286
45	0x3d6becfb	0.05759905
46	0xbdfd08a5	-0.123551644
47	0xbd99ec65	-0.07515792
48	0x3d5da0af	0.054108318
49	0xbd8e968c	-0.06962308
50	0x3de9fc9d	0.11425135
51	0xbec5528d	-0.38539544
52	0x3e2e79b1	0.17038609
53	0xbcf063cb	-0.02934446
54	0xbdc95cdd	-0.098321654
55	0x3d5f25d8	0.05447945
56	0x3d8626fd	0.06550405
57	0x3d0ebfd5	0.034850914
58	0xbcb5d48b	-0.022196075
59	0x3e051da6	0.12999591
60	0xbcd6f2fb	-0.026238909
61	0xbd630038	-0.05542013
62	0x3bd48f5f	0.0064868177
63	0x3d0ade36	0.033903323
64	0xbd9b6ac4	-0.07588723
65	0xbdde032f	-0.10840451
66	0x3d17167c	0.036886677
67	0xbe1357bf	-0.14388941
68	0xbbbef8e1	-0.0058280085
69	0xbe28df18	-0.16491354
70	0xbe549178	-0.20758617
71	0x3dcbaf81	0.09945584
72	0x3dd63020	0.10458398
73	0x3e816a30	0.25276327
74	0xbe650103	-0.22363667
75	0xbd555e58	-0.052091926
76	0xbe58d077	-0.21173273
77	0xbd4022a0	-0.04690802
78	0xbdc680af	-0.09692513
79	0x3cdada34	0.026715375
80	0x3b0394fc	0.0020077815
81	0xbdbaee00	-0.09127426
82	0x3d8cb272	0.06869973
83	0x3d6749ec	0.05646698
84	0xbe7a8046	-0.24462995
85	0x3d95ef3f	0.07321023
86	0xbce7c120	-0.028290331
87	0xbd8f40be	-0.069947705
88	0x3d4af8b2	0.04955358
89	0x3e31ea32	0.17374495
90	0x3e927498	0.2860458
91	0xbddf2465	-0.108956136
92	0xbd9e60d5	-0.07733313
93	0xbceef50f	-0.029169587
94	0xbe12820d	-0.14307423
95	0x3d15293f	0.03641629
96	0x3e81ab62	0.25326067
97	0xbc0ab747	-0.008466548
98	0x3d9854cb	0.07438048
99	0x3d808dc5	0.062770404
100	0x3d41a934	0.047280505
101	0xbd07455a	-0.033025123
102	0xbe1063e8	-0.14100611
103	0xbcb8adba	-0.022543777
104	0xbdd8ca2c	-0.10585436
105	0xbdb8e957	-0.09028881
106	0x3da2b587	0.0794478
107	0xbe358a10	-0.17728448
108	0x3d8cc2a0	0.06873059
109	0x3d744d48	0.059644014
110	0x3d80f2ee	0.06296335
111	0x3b8841c7	0.004158232
112	0x3c9a3430	0.018823713
113	0xbd7d7db0	-0.061887443
114	0x3c766f41	0.015041173
115	0x3d4590bc	0.048233733
116	0x3db5dda8	0.08880168
117	0xbd0527af	-0.03250855
118	0xbcf47313	-0.029840028
119	0x3d51a815	0.051185686
120	0x3d04bcef	0.032406744
121	0xbce1c5af	-0.027560083
122	0x3c008bf3	0.0078458665
123	0x3d753ad6	0.059870563
124	0xbe27c6bd	-0.16384406
125	0xbc50a08f	-0.012733593
126	0xbd560c95	-0.052258093
127	0x3d94b322	0.07260729
128	0x3d26b60d	0.04070096
129	0x3d78e6da	0.060767032
130	0xbd0983d8	-0.033573
131	0x3dc332f8	0.09531206
132	0xbe040614	-0.12892944
133	0x3c85f79d	0.016353423
134	0xbe55d788	-0.20883
135	0xbdbe41d5	-0.092899
136	0x3d82aae3	0.0638025
137	0xbdea0418	-0.11426562
138	0x3bd18b14	0.006394753
139	0xbcc973fd	-0.02459144
140	0x3daddac9	0.084889956
141	0xbdf21c3f	-0.11821794
142	0xbe8b93bb	-0.27261147
143	0xbdbff31b	-0.093725406
144	0xbd28e205	-0.041231174
145	0x3e0a8f00	0.13531113
146	0x3e085c98	0.13316572
147	0x3d8d1d6a	0.06890376
148	0x3cdd4d7f	0.027014492
149	0xbdb699ed	-0.08916078
150	0xbcc37619	-0.023860024
151	0xbc9924e4	-0.018694349
152	0xbd94f4cd	-0.072732545
153	0xbd07ede0	-0.03318584
154	0xbb56b221	-0.0032759982
155	0xbda5ea66	-0.081013486
156	0xbc8c9c1d	-0.017164284
157	0xbc27a004	-0.010231022
158	0x3cde3cad	0.027128542
159	0x3e11f22b	0.14252536
160	0xbe336b21	-0.17521335
161	0x3e13d69e	0.14437339
162	0xbe22156d	-0.15828486
163	0xbda7883f	-0.08180284
164	0x3d067eb1	0.032835666
165	0xbc84dc92	-0.016218457
166	0x3ce39765	0.027782151
167	0xbe1956db	-0.14974539
168	0x3e19994b	0.14999883
169	0x3d5c427e	0.05377435
170	0x3d9ee8c9	0.07759244
171	0xbd0eb992	-0.034844942
172	0xbd3d8630	-0.04627055
173	0x3d95bb9f	0.073111765
174	0xbcd0425e	-0.025422271
175	0xbde1ec24	-0.110313684
176	0xbe9ad132	-0.30237728
177	0x3e022e94	0.1271308
178	0xbdc3228f	-0.09528076
179	0xbcc984d9	-0.02459948
180	0xbb50d4f9	-0.0031865223
181	0x3e0e9247	0.13922988
182	0x3ce176e9	0.027522521
183	0xbe5a4964	-0.21317059
184	0xbd0cd79a	-0.0343853
185	0xbe25ba70	-0.16184402
186	0xbdc96a7b	-0.09834763
187	0x3d882712	0.06648077
188	0x3cc17c2a	0.023618776
189	0xbdae1a38	-0.085010946
190	0x3da6b9dd	0.08140919
191	0xbe350d04	-0.17680746
192	0xbdcf9618	-0.1013605
193	0x3df02f36	0.11727755
194	0xbd13cd6a	-0.03608457
195	0xbdba4ce7	-0.09096699
196	0xbcbcfd49	-0.023069995
197	0x3dc4c16d	0.096072055
198	0x3d26c4b5	0.04071494
199	0x3d05a8ad	0.032631565
200	0xbe304e74	-0.17217427
201	0x3dc34564	0.095347196
202	0xbe4b63f9	-0.19862355
203	0x3e15d159	0.14630641
204	0x3ea7a6b0	0.3274436
205	0xba4017e6	-0.000732778
206	0xbcb86df4	-0.022513367
207	0xbd371ff6	-0.044708215
208	0xbdaa5c3c	-0.083183736
209	0x3dcaa04c	0.098938555
210	0x3dc0c872	0.09413232
211	0xbade3749	-0.0016953732
212	0x3db47ffe	0.08813475
213	0x3d8d07a1	0.06886221
214	0x3ab81ae1	0.0014046096
215	0x3e1f5cbc	0.15562719
216	0x3d057cbd	0.032589663
217	0xbd5f1774	-0.054465726
218	0xbd27e529	-0.04099003
219	0xbc19e205	-0.009392266
220	0xbdf76a65	-0.1208084
221	0xbdeb27fc	-0.11482236
222	0x3d7db30d	0.061938334
223	0xbd0a6a6e	-0.033792906
224	0x3e77ebd9	0.24211062
225	0xbd975b9e	-0.073905215
226	0x3e1866e9	0.14883007
227	0x3d92fdc6	0.0717731
228	0x3d6cbae8	0.057795435
229	0x3d6e60f7	0.05819794
230	0x3e3e356c	0.18575066
231	0xbd6bcffb	-0.057571393
232	0xbd3540ce	-0.044251256
233	0x3d1f5cab	0.038906734
234	0x3d276c69	0.040874872
235	0x3db72872	0.08943261
236	0xbe1a516b	-0.15070121
237	0xbbcdf5ef	-0.006285421
238	0x3e3e403f	0.18579195
239	0xbcd88cf9	-0.026434409
240	0x3cbd4f24	0.023109026
241	0xbdda1b55	-0.106497444
242	0x3ddfb820	0.10923791
243	0x3d959ec6	0.07305674
244	0xbe037d3d	-0.12840743
245	0xbe750242	-0.23926643
246	0xbdf5d5ea	-0.120036915
247	0xbdc71451	-0.09720672
248	0xbe0027d7	-0.12515198
249	0x3d826a82	0.06367971
250	0x3db6190b	0.08891495
251	0x3d9b19b6	0.07573263
252	0xbe074b41	-0.13212301
253	0xbdbdc045	-0.09265188
254	0x3d4a9ff4	0.04946895
255	0x3d9680e6	0.07348804

l1.bias f4 [100]
0	0xbcd8b238	-0.026452169
1	0x3cc0a871	0.02351782
2	0x3e253fbc	0.16137594
3	0x3d89ae5e	0.06722711
4	0x3e1973a6	0.14985523
5	0x3a935ee5	0.0011243491
6	0x3e607fed	0.219238
7	0xbd4c03b1	-0.049808208
8	0xbcfcb629	-0.03084858
9	0xbd87b540	-0.066263676
10	0xbd737b1d	-0.05944358
11	0xbdf08cff	-0.11745643
12	0xbcc93062	-0.024559204
13	0x3c4e8984	0.0126060285
14	0xbd22255f	-0.03958642
15	0x3e03dd62	0.1287742
16	0x3d2b17e9	0.04177085
17	0x3d3c6f00	0.046004295
18	0xbdb27c17	-0.087150745
19	0xbcc19f7c	-0.023635618
20	0x3e47a8ca	0.19497982
21	0xbd29e45f	-0.041477557
22	0xbcd31946	-0.025768887
23	0x3e0f8656	0.14016089
24	0x3c9e593c	0.01932966
25	0x3e2ddc6d	0.16978617
26	0xbd2b0b5d	-0.041758884
27	0xbe072503	-0.13197713
28	0xbb569009	-0.003273966
29	0xbeb0ac15	-0.34506288
30	0x3d739999	0.059472654
31	0x3de36c71	0.11104668
32	0xbe384783	-0.1799603
33	0xbe908389	-0.28225353
34	0xbe5e98ea	-0.2173802
35	0xbbd71c31	-0.00656464
36	0x3c7ee3ee	0.015557272
37	0x3e2cd1c9	0.16876902
38	0xbc843250	-0.016137272
39	0xbd66affe	-0.056320183
40	0xbe761d55	-0.24034627
41	0x3e8920dd	0.26782885
42	0xbe1b1cff	-0.1514778
43	0x3c229f97	0.0099257445
44	0xbd5d89bf	-0.054086443
45	0xbcd2022c	-0.025635801
46	0xbca01ee7	-0.019545985
47	0xbd05785b	-0.032585483
48	0xbda1a780	-0.07893276
49	0xbe4d20c7	-0.20032035
50	0xbafdbced	-0.0019358672
51	0x3e385105	0.17999656
52	0x3deb0ee2	0.11477448
53	0xbe42b0e9	-0.19012798
54	0xbc81f60c	-0.015864395
55	0xbd623fa8	-0.05523649
56	0xbd1a3e02	-0.03765679
57	0x3d5e2f32	0.054244228
58	0xbd0f1664	-0.034933463
59	0xbd82cae2	-0.06386353
60	0xbe329435	-0.17439349
61	0x3da90462	0.08252789
62	0xbcac0ef4	-0.021003224
63	0x3deaa069	0.11456377
64	0x3de99197	0.11404722
65	0xbe0eeea1	-0.13958217
66	0xbbafc124	-0.0053636003
67	0x3dbb5944	0.091478854
68	0xbcdd1241	-0.026986243
69	0x3c2e0768	0.010621883
70	0x3dea7322	0.11447741
71	0xbda6fc9d	-0.08153651
72	0xbe05f651	-0.13082244
73	0x3e5a4840	0.21316624
74	0x3dabc18e	0.08386527
75	0x3d523d77	0.05132815
76	0xbe3a68ad	-0.18203993
77	0xbd8b8332	-0.06812133
78	0xbe733aa7	-0.23752843
79	0xbdc6ffba	-0.09716745
80	0x3d372114	0.04470928
81	0xbe039c50	-0.12852597
82	0xbd05b45a	-0.0326427
83	0x3d59f933	0.05321617
84	0x3d1d9b26	0.03847804
85	0x3c244811	0.010026948
86	0xbd94f8a7	-0.07273989
87	0x3ce3896d	0.02777549
88	0xbe121582	-0.14266017
89	0xbcb2b80f	-0.021816282
90	0x3e168411	0.14698817
91	0x3da7d557	0.08194988
92	0xbcee83a7	-0.029115511
93	0x3d46d40e	0.048542075
94	0x3e056e56	0.13030371
95	0xbd3f4fb3	-0.046706866
96	0xba6efe69	-0.00091168896
97	0xbdeb3243	-0.11484196
98	0xbe1ea710	-0.15493417
99	0x3b412ce0	0.002947621

l2.weight f4 [100, 100]
0	0x3ca1946e	0.019724097
1	0x3e1e6245	0.15467174
2	0xbdb54b8a	-0.088522986
3	0xbd2d34b9	-0.04228661
4	0xbdb21d8d	-0.086970426
5	0x3e020b86	0.12699708
6	0xbc9b2b40	-0.018941522
7	0x3d83794e	0.064196214
8	0xbdb9d7da	-0.090743735
9	0xbda7b302	-0.0818844
10	0x3c9de10d	0.019272352
11	0xbd78c724	-0.06073679
12	0xbca6fdd6	-0.02038471
13	0xbc508efb	-0.012729402
14	0x3c2cc282	0.010544421
15	0xbc05aa90	-0.008158341
16	0xbe5d055b	-0.21584074
17	0xbdc26cd4	-0.094934136
18	0x3c053aaf	0.008131667
19	0x3e3ab41c	0.18232769
20	0x3cbef7b1	0.023311468
21	0x3e0e963a	0.13924494
22	0x3d5b426d	0.053530145
23	0x3d38642d	0.04501741
24	0x3d2771fc	0.04088019
25	0x3d30f23c	0.043199763
26	0xbe650f96	-0.22369227
27	0xbe0d064f	-0.13771938
28	0xbe3a05e4	-0.1816631
29	0xbe0a0d4a	-0.13481632
30	0x3e06824d	0.13135643
31	0xbdd2d412	-0.102943555
32	0x3dce1ed2	0.10064472
33	0x3c3c6bce	0.011500312
34	0x3d5efc41	0.054439787
35	0x3ce6d271	0.028176518
36	0xbd64a9c8	-0.05582598
37	0xbd077cfb	-0.033078175
38	0xbdab14d9	-0.08353586
39	0x3d95fd18	0.073236644
40	0xbb7d66e4	-0.0038666064
41	0x3d734f1f	0.059401628
42	0xbd39ae37	-0.04533216
43	0xbd170079	-0.036865685
44	0x3d98787c	0.074448556
45	0xbd9ee6c7	-0.07758861
46	0xbdbbaa45	-0.09163336
47	0x3e4bc5f1	0.19899727
48	0xbc5f9a29	-0.0136475945
49	0x3d91097a	0.07081886
50	0xbd24e1a3	-0.040254246
51	0x3d4c6a11	0.04990584
52	0x3c8d13ce	0.017221358
53	0xbd9ccb03	-0.07655909
54	0x3e1e6fdd	0.1547236
55	0x3d2aca98	0.041697115
56	0xbdb24d34	-0.087061316
57	0x3d45fcea	0.0483369
58	0xbdb0f17a	-0.08639808
59	0xbc8b03cb	-0.016969582
60	0x3cb9fdc3	0.02270401
61	0x3dc81cf9	0.09771151
62	0x3d1b9fad	0.037994076
63	0x3c5f3182	0.013622643
64	0x3b45cb44	0.003018097
65	0xbdd09458	-0.10184544
66	0x3d83b184	0.06430343
67	0xbe012c0a	-0.12614456
68	0x3e1ef96c	0.15524834
69	0x3d72b99a	0.059259035
70	0xbdb529f0	-0.088458896
71	0x3d503cdf	0.0508393
72	0x3e0eda08	0.1395036
73	0x3d854f34	0.065092474
74	0x3e005c3c	0.12535185
75	0x3cbe08e3	0.023197597
76	0x3e85000e	0.25976604
77	0x3d977318	0.07394999
78	0xbd0cceb9	-0.034376834
79	0xbce95e39	-0.028487312
80	0x3e426913	0.18985395
81	0xbbf2fb87	-0.0074152383
82	0xbd6c4892	-0.057686396
83	0x3c95f3ab	0.018304667
84	0x3d010543	0.03149916
85	0xbda24baf	-0.07924592
86	0xbd8048a2	-0.062638536
87	0xbe0cf8f1	-0.13766839
88	0xbdf06f78	-0.11740011
89	0xbdc0111f	-0.093782656
90	0xbd9576ec	-0.07298073
91	0xbc8cf5af	-0.017206995
92	0x3c3967d7	0.011316261
93	0xbdf05e35	-0.117367186
94	0xbc8988cc	-0.016788863
95	0xbb2a0299	-0.002594149
96	0xbda8fdef	-0.08251559
97	0x3e6a086f	0.2285478
98	0x3c8d2184	0.017227896
99	0x3d2d0c46	0.042248033
100	0xbdc1177a	-0.09428306
101	0x3d26ed57	0.04075369
102	0xbe244fb1	-0.16046025
103	0x3d7902bd	0.060793627
104	0x3e4a5da7	0.19762288
105	0x3be15442	0.0068764994
106	0x3e43a55a	0.19106045
107	0xbdb32b25	-0.087484635
108	0x3dc2f491	0.095193036
109	0x3d54ebea	0.051982798
110	0x3d8101cb	0.0629917
111	0x3dc6edad	0.09713302
112	0x3d230284	0.03979732
113	0xbc1a68b0	-0.0094243735
114	0xbdaf1d5d	-0.085505225
115	0xbdcb68f7	-0.0993213
116	0x3d434b82	0.04767943
117	0xbdaeb5b2	-0.085307494
118	0x3d3c8d25	0.046033043
119	0x3dfde5ed	0.123973705
120	0xbd4fa649	-0.05069569
121	0xbd18108c	-0.037125155
122	0x3d363be1	0.0444907
123	0x3cbcd7e2	0.02305216
124	0x3d0a3c3a	0.033748843
125	0x3d096bb9	0.033549998
126	0xbd534c5f	-0.051586505
127	0xbdde881d	-0.10865805
128	0x3de9cfaa	0.11416562
129	0xbdd7fc43	-0.10546162
130	0xbd162015	-0.03665169
131	0xbc87219e	-0.016495522
132	0x3e10b0ae	0.14129898
133	0xbbfd3462	-0.007727192
134	0x3e3b557e	0.18294331
135	0x3d56ce0b	0.05244259
136	0xbc2c6e83	-0.010524395
137	0xbdcd2428	-0.10016662
138	0xbccb03cb	-0.024782082
139	0xbd60cefe	-0.054884903
140	0x3db12455	0.08649508
141	0x3c1d8481	0.009614111
142	0x3cd1152a	0.025522787
143	0xbd008cee	-0.0313844
144	0xbca872c0	-0.02056253
145	0x3e0df518	0.13863027
146	0x3cfc2a29	0.030781822
147	0x3e206974	0.15665227
148	0xbd6837ce	-0.056693844
149	0x3d49b143	0.049241316
150	0xbd5e434b	-0.054263394
151	0xbc40ac29	-0.011759796
152	0x3c8962e8	0.016770795
153	0x3df87f95	0.12133709
154	0x3e0e9a47	0.1392604
155	0x3d486618	0.04892549
156	0xbdea327c	-0.114354104
157	0x3d518577	0.051152673
158	0xbe1a91cb	-0.15094678
159	0xbd8e6917	-0.06953638
160	0x3d669d0c	0.056302115
161	0x3d483041	0.048874144
162	0xbd74f998	-0.059808344
163	0x3d1b4d0c	0.037915275
164	0x3d14234d	0.036166478
165	0xbba0fc7a	-0.00491291
166	0x3e1ff090	0.15619111
167	0x3c93c50a	0.018038291
168	0x3d3fbcab	0.046810787
169	0xbe1c4b63	-0.15263133
170	0xbbece8f3	-0.007229918
171	0x3ca04c8d	0.019567752
172	0xbdcaa433	-0.098946
173	0x3c6b2ddb	0.0143541945
174	0x3d9d981d	0.07695029
175	0x3d3f7c7f	0.046749588
176	0xbd9ebeb2	-0.07751216
177	0x3ca0e01f	0.01963812
178	0xbdb7e466	-0.089791104
179	0xbe056746	-0.13027677
180	0xbe057b83	-0.13035397
181	0xbe359d9c	-0.17735904
182	0x3dc3518b	0.095370375
183	0xbe0bfef5	-0.13671477
184	0xbd144530	-0.036198795
185	0x3c1b7499	0.009488248
186	0xbe1398e1	-0.14413787
187	0xbcfc4098	-0.03079252
188	0xbdaf0953	-0.085467
189	0xbd45852b	-0.048222702
190	0x3e54f806	0.20797738
191	0x3cfb3995	0.030667106
192	0xbdbe81f8	-0.09302133
193	0x3d2ad419	0.04170618
194	0x3de59237	0.11209529
195	0x3d011dda	0.03152261
196	0x3dfdfa12	0.12401213
197	0xbe021890	-0.12704682
198	0xbd9159b6	-0.07097189
199	0xbc9b748c	-0.018976472
200	0x3d64a209	0.05581859
201	0x3c62ccec	0.0138428025
202	0x3e1132cc	0.14179534
203	0x3d963a9b	0.07335397
204	0xbd90fceb	-0.0707949
205	0x3e56759b	0.209433
206	0xbdbeacbc	-0.0931029
207	0xbdd4c11d	-0.10388396
208	0x3c29a4a6	0.010354197
209	0xbd9ae978	-0.07564062
210	0x3e86654f	0.26249167
211	0x3e172e5d	0.1476378
212	0xbe04a453	-0.1295331
213	0xbe1adbc4	-0.15122896
214	0x3c898ae0	0.016789854
215	0xbe6e54a4	-0.23274475
216	0xbdc7071a	-0.097181514
217	0xbe5bb10d	-0.21454258
218	0x3c72ebf5	0.014826764
219	0x3e15a89c	0.146151
220	0x3dcf1426	0.10111265
221	0x3b892f56	0.004186551
222	0xbe6dfc6d	-0.23240824
223	0x3df2c4d9	0.11853952
224	0x3bce658d	0.006298727
225	0x3d883100	0.06649971
226	0xbd8728d5	-0.06599585
227	0x3d6b15b2	0.057393737
228	0xbd6d3e3d	-0.057920683
229	0xbe48d269	-0.19611515
230	0xbdf0b8d6	-0.11754005
231	0x3d21c873	0.039497804
232	0x3d54c06e	0.051941328
233	0x3e29e91b	0.16592829
234	0xbe49e05d	-0.19714494
235	0xbd9e7685	-0.077374496
236	0x3e378514	0.17921859
237	0x3dbb7641	0.091534145
238	0x3e6d9079	0.23199643
239	0x3c9cf3bf	0.019159196
240	0xbd0158b3	-0.03157873
241	0xbdf87814	-0.12132278
242	0xbb8f21c7	-0.0043680402
243	0xbd8fffd4	-0.07031217
244	0xbda214ab	-0.07914098
245	0x3d3a9d3a	0.0455601
246	0x3d7ff217	0.062486734
247	0xbdd144f2	-0.102182284
248	0x3db67e01	0.08910752
249	0x3e04cd9a	0.12969056
250	0x3e639dac	0.22228116
251	0xbdfefe2e	-0.12450825
252	0x3d984997	0.07435911
253	0x3cf45832	0.029827211
254	0xbd47d92f	-0.048791107
255	0x3c96b5fd	0.018397326

l2.bias f4 [100]
0	0x3d15a7a5	0.03653683
1	0xbe2ce853	-0.168855
2	0x3e1a54a3	0.15071349
3	0x3d0ce1f0	0.03439516
4	0xbddcbb18	-0.10777873
5	0x3e3fe715	0.18740495
6	0x3d56fa54	0.052484825
7	0xbe21e252	-0.1580899
8	0xbe21d1ba	-0.1580266
9	0xbcfc5659	-0.030802893
10	0x3d30bd4b	0.043149274
11	0x3e54856b	0.2075402
12	0x3d41feb1	0.047362033
13	0x3d5096c1	0.05092502
14	0x3ddfd233	0.10928764
15	0x3e1e8d1a	0.15483513
16	0x3c06f9ef	0.0082383
17	0x3d150b23	0.036387574
18	0x3e985704	0.29753888
19	0x3d02e822	0.03195966
20	0x3e13a712	0.14419201
21	0xbdbb6672	-0.09150399
22	0x3d9e2a6e	0.077229366
23	0x3da960b5	0.082703985
24	0xbdc145e5	-0.094371594
25	0x3d0889f2	0.03333468
26	0xbcc00e1b	-0.023444226
27	0xbe156f6d	-0.14593287
28	0x3d8b6214	0.06805816
29	0xbdd2df5f	-0.10296511
30	0xbc2f245a	-0.010689819
31	0xbd1cd244	-0.038286462
32	0x3cbd86ec	0.023135625
33	0x3c676e3b	0.014125402
34	0xbe1e255a	-0.15443936
35	0x3d42e044	0.047577158
36	0x3e2c2448	0.16810715
37	0xbcab6542	-0.020922307
38	0x3d3acbf4	0.04560466
39	0xbd8401ac	-0.064456314
40	0xbcca05ce	-0.024660971
41	0xbdbf9289	-0.09354121
42	0xbd3c1cc5	-0.045925874
43	0x3d38dd38	0.045132846
44	0xbd75e070	-0.060028493
45	0xbd39bfd2	-0.04534895
46	0xbc05a0be	-0.008156
47	0xbe063d99	-0.13109435
48	0x3bb49877	0.0055113393
49	0x3d176874	0.03696485
50	0x3cb8930a	0.022531051
51	0xbd7865af	-0.060643848
52	0x3da709ba	0.08156152
53	0x3d931c89	0.07183177
54	0x3bdb4746	0.006691846
55	0x390fc6b9	0.00013711573
56	0xbdd72954	-0.105059296
57	0x3dcc0067	0.09961014
58	0xbd6ffbfb	-0.058589917
59	0x3e171b90	0.14756608
60	0xbe2fb81d	-0.17160077
61	0xbe64e0d3	-0.22351389
62	0x3e16642e	0.14686653
63	0x3e311ef6	0.17296967
64	0xbd1bf6d2	-0.038077183
65	0xbd0cb527	-0.034352448
66	0xbc967885	-0.018368015
67	0x3dbbafa3	0.091643594
68	0x3db8a104	0.09015086
69	0xbd5cfb92	-0.053950854
70	0xbe39cd61	-0.18144752
71	0x3ca47c00	0.020078659
72	0x3d93e661	0.07221676
73	0xbd70d242	-0.058794267
74	0x3d5b75fd	0.05357932
75	0x3da51b49	0.08061845
76	0xbe5f0abb	-0.21781437
77	0x3e2bc71c	0.16775173
78	0x3d3c8f29	0.046034966
79	0x3ca294bd	0.019846315
80	0x3d8697d9	0.065719314
81	0xbd02b0bc	-0.03190683
82	0x3aebf9b8	0.0018003499
83	0x3e21eb2b	0.15812366
84	0xbd27fb09	-0.04101089
85	0x3ce4517b	0.027870884
86	0xbd93577c	-0.07194421
87	0x3c4f6848	0.01265914
88	0x3aaa8f74	0.0013012723
89	0x3d0e0aaf	0.034678157
90	0xbe9bfe80	-0.30467606
91	0x3dc0e6bc	0.09419009
92	0xbc338892	-0.010957854
93	0xbd770a32	-0.060312457
94	0xbd1050ba	-0.035233237
95	0xbcade4e1	-0.021227302
96	0xbe089721	-0.13338901
97	0xbd9bc6d9	-0.076062866
98	0xbe4c2ced	-0.19939013
99	0x3da7c982	0.081927314

l3.weight f4 [18, 100]
0	0x3d73954d	0.059468556
1	0xbd8f8869	-0.0700844
2	0xbb8377ad	-0.004012069
3	0x3de4da7f	0.11174487
4	0xbe474417	-0.19459568
5	0x3d03d125	0.032181878
6	0xbd96ff4f	-0.07372915
7	0x3a19ff75	0.0005874553
8	0xbbd504bf	-0.00650081
9	0xbd5d27d5	-0.053993065
10	0x3ce8c6ba	0.028415073
11	0x3de96fe1	0.11398292
12	0x3db8fb51	0.0903231
13	0x3cf44bfd	0.02982139
14	0xbde9d31c	-0.11417219
15	0x3dbf69d2	0.093463555
16	0x3d87b865	0.06626967
17	0xbd98318c	-0.07431325
18	0xbdc5f473	-0.096657656
19	0x3dd4958c	0.10380086
20	0x3cd833ed	0.026391948
21	0xbc8d37ce	-0.017238524
22	0x3e22cbd8	0.15898073
23	0xbd286427	-0.041111138
24	0xbe7ebb0c	-0.2487604
25	0xbda88a8f	-0.08229553
26	0xbd13efaf	-0.036117252
27	0xbe643f4c	-0.22289771
28	0x3e0711b8	0.13190353
29	0x3dd2b3d6	0.10288207
30	0xbd7df8fd	-0.06200503
31	0x3c882adf	0.016622005
32	0x3e6f683f	0.2337961
33	0xbe67ecf7	-0.22648989
34	0xbdc911b0	-0.09817827
35	0xbe113c1f	-0.1418309
36	0x3d5bbaa8	0.053644806
37	0x3d20a1d8	0.039216846
38	0x3e60ee62	0.21965936
39	0xbd734b5c	-0.05939804
40	0x3cb05be3	0.02152819
41	0x3e30e751	0.1727574
42	0xbc81f05f	-0.015861688
43	0x3dffb813	0.12486281
44	0xbd48a923	-0.048989426
45	0x3cf7536f	0.030191151
46	0x3e5457a9	0.20736565
47	0x3d688d29	0.056775246
48	0x3e34fb77	0.17674051
49	0xbe3f6de6	-0.18694267
50	0x3d8c349e	0.068459734
51	0xbe55927a	-0.20856658
52	0xbe147cf2	-0.14500788
53	0xbdff8663	-0.12476804
54	0xbd902e31	-0.0704006
55	0xbe254df4	-0.16143018
56	0xbd1d9cf6	-0.038479768
57	0xbd554b83	-0.052073967
58	0xbdfce068	-0.123474896
59	0xbd804a5e	-0.062641844
60	0x3e6eca7a	0.23319426
61	0x3e38f470	0.18061996
62	0x3d30c5ff	0.043157574
63	0xbcad1dd1	-0.021132382
64	0x3dac0b48	0.08400589
65	0xbe2eaa00	-0.17057037
66	0x3e6cd6ba	0.23128787
67	0x3dcf275d	0.1011493
68	0xbdd3d2e4	-0.103429586
69	0x3e2a3bd5	0.16624387
70	0xbe66662a	-0.2249991
71	0x3d9d9de1	0.07696129
72	0x3d7aa1ad	0.061189342
73	0x3e04634a	0.12928501
74	0x3caa36fe	0.020778175
75	0xbe0d580f	-0.13803123
76	0x3e2932fb	0.16523354
77	0x3c7bdecb	0.015372942
78	0xbead31e8	-0.33827138
79	0xbd806b5d	-0.06270478
80	0x3e68c764	0.22732311
81	0xbe0b64b2	-0.13612631
82	0x3dd36b57	0.10323208
83	0x3b98e389	0.004665796
84	0xbdaa0141	-0.083010204
85	0x3ded109a	0.11575432
86	0xbe7463d4	-0.23866206
87	0xbe0ea725	-0.13930948
88	0xbde30990	-0.11085808
89	0xbe50ac42	-0.20378211
90	0x3e5e63ff	0.21717833
91	0x3db9e406	0.09076695
92	0x3dda8908	0.10670668
93	0x3de7d257	0.11319416
94	0x3d5ed3a3	0.05440105
95	0xbdbec58e	-0.09315024
96	0x3d1915aa	0.037374176
97	0x3c1ea074	0.00968181
98	0xbca2b099	-0.019859599
99	0xbe6e2108	-0.23254788
100	0x3af6238c	0.0018778904
101	0xbe1b02dc	-0.1513781
102	0x3db86b76	0.090048715
103	0x3d7d1c85	0.061794776
104	0x3dabba68	0.083851635
105	0x3ccef0ac	0.025261246
106	0x3e1cb74b	0.15304296
107	0xbe8cc2b8	-0.2749231
108	0xbe5ba2a1	-0.21448757
109	0x3d6e0201	0.05810738
110	0xbd1621dc	-0.036653385
111	0x3d3668db	0.04453359
112	0x3dc07309	0.09396941
113	0x3dc89bbc	0.09795329
114	0x3ebb1889	0.36542156
115	0xbc6e16c9	-0.0145318
116	0xbdd46d52	-0.10372414
117	0xbd30cd1b	-0.043164354
118	0x3e0d333d	0.13789077
119	0xbdeacfb4	-0.114653975
120	0x3e05cb1a	0.13065758
121	0x3dc28618	0.094982326
122	0x3e131b17	0.14365803
123	0xbc9e53e3	-0.01932711
124	0xbe52bf61	-0.20580818
125	0x3e0f3379	0.13984479
126	0xbe06c155	-0.13159688
127	0x3da04164	0.07824972
128	0xbe311e90	-0.17296815
129	0xbcf04d15	-0.02933363
130	0x3e368150	0.17822766
131	0xbc190630	-0.009339854
132	0x3df46d2c	0.119348854
133	0x3dd69e03	0.10479357
134	0x3d547941	0.05187345
135	0x3db6f11d	0.089327075
136	0x3c87d7fd	0.016582483
137	0x3d60d524	0.054890767
138	0xbc63cfaa	-0.013904491
139	0x3dcc3767	0.09971505
140	0xbd82b5b1	-0.06382311
141	0xbe0973c6	-0.1342307
142	0xbdc36c1c	-0.095421046
143	0x3eb363bc	0.3503703
144	0x3d87ece3	0.066369794
145	0x3d7b1b01	0.06130505
146	0x3ab55fd9	0.0013837769
147	0x3d73e48a	0.059544124
148	0x3d83f43a	0.06443067
149	0xbe1e2ae9	-0.15446056
150	0x3dec1f35	0.1152939
151	0xbdde3af7	-0.108510904
152	0x3eab0303	0.33400735
153	0x3d7ffea3	0.0624987
154	0x3ead6b34	0.33870852
155	0xbc6e6a54	-0.014551718
156	0xbe276fb8	-0.16351211
157	0x3bd20d90	0.006410308
158	0x3c37f70f	0.011228337
159	0x3e3a06c0	0.18166637
160	0xbd9771b2	-0.073947325
161	0x3ce1df2d	0.027572239
162	0x3e4a369d	0.19747396
163	0xbe608af3	-0.21928005
164	0x3ce00392	0.027345452
165	0x3de0622b	0.10956224
166	0xbd2cf383	-0.04222442
167	0xbe5a8d20	-0.21342897
168	0x3e91efcb	0.2850326
169	0x3d6ba98f	0.05753475
170	0xbe004984	-0.12528044
171	0x3de158d1	0.110032685
172	0x3e3032f5	0.17206939
173	0xbc4a1a3a	-0.012335354
174	0x3df92fcc	0.1216732
175	0x3d4a51f7	0.049394574
176	0xbe8a3819	-0.26995924
177	0xbe05bd1a	-0.13060418
178	0xbd159d96	-0.03652724
179	0x3dd7efa4	0.10543755
180	0xbc4eb072	-0.01261531
181	0x3e61c693	0.22048406
182	0xbe01baa8	-0.1266886
183	0x3e55fdd5	0.2089761
184	0x3d434a91	0.047678534
185	0x3dc4c3b1	0.09607638
186	0xbe1cd7a1	-0.15316631
187	0x3bf5d695	0.007502387
188	0x3df6b43c	0.12046096
189	0xbd221fbb	-0.03958104
190	0xbe02e9de	-0.12784526
191	0x3d144586	0.036199115
192	0xbd7ca07c	-0.061676487
193	0x3d824026	0.063598916
194	0xbdb7739f	-0.089576
195	0xbe5987e7	-0.21243249
196	0x3c040a89	0.008059152
197	0xbe38817c	-0.18018144
198	0xbe12377f	-0.14278983
199	0x3e3294fd	0.17439647
200	0xbe34c837	-0.17654501
201	0x3db14e5a	0.086575225
202	0x3e26e990	0.16300035
203	0xbd96713a	-0.07345815
204	0xbdd7fbe0	-0.10546088
205	0x3e630c93	0.22172765
206	0x3bd41e6f	0.0064733545
207	0xbd61f6da	-0.055167057
208	0x3e53e96e	0.20694515
209	0xbd39426f	-0.04522937
210	0xbdb2e742	-0.08735515
211	0xbcaf172d	-0.021373356
212	0x3e1d5d8d	0.15367718
213	0xbdaecd9d	-0.08535311
214	0xbcd78c84	-0.02631212
215	0xbd848a0a	-0.06471641
216	0x3e126e7f	0.14299963
217	0x3dc6fd71	0.09716309
218	0x3e384ad1	0.1799729
219	0x3cdddaee	0.027081933
220	0xbcfb9d74	-0.030714728
221	0x3c829dee	0.015944447
222	0x3e3529f5	0.17691787
223	0xbd4868d5	-0.0489281
224	0xbd303f94	-0.043029383
225	0x3dc90e59	0.0981719
226	0x3c68459a	0.014176751
227	0x3d9df152	0.07712044
228	0xbc2d8669	-0.010591128
229	0x3c1f2b9c	0.009714987
230	0xbe079862	-0.13241723
231	0xbd231eed	-0.039824415
232	0xbe0e67f4	-0.13906842
233	0xbe2ff5e5	-0.17183645
234	0x3de4089c	0.111344546
235	0xbc2e6910	-0.010645166
236	0xbd5c40fd	-0.053772915
237	0x3d41b175	0.047288377
238	0x3c731683	0.01483691
239	0xbe0414ce	-0.12898561
240	0x3de30a9c	0.11086008
241	0x3e3bb892	0.18332127
242	0xbce1b5d0	-0.027552515
243	0xbe1b6e94	-0.15178901
244	0xbcd5e7a4	-0.026111431
245	0xbd3c17a5	-0.045920987
246	0xbe15abe1	-0.14616348
247	0xbda6ba6e	-0.081410274
248	0xbd7705a8	-0.06030813
249	0x3d2b3e03	0.041807186
250	0xbdf2ca51	-0.11854995
251	0x3d9ee236	0.0775799
252	0xbd618f58	-0.055068344
253	0xbe52d14a	-0.2058765
254	0xbe36cc21	-0.17851306
255	0x3d1146c9	0.035467897

l3.bias f4 [18]
0	0x3e823ad5	0.2543551
1	0xbef9962e	-0.4874739
2	0xbd1ee3e7	-0.038791563
3	0x3f212c1d	0.62957937
4	0xbe02071b	-0.12698023
5	0xbeaded94	-0.3397032
6	0x3e24aff5	0.16082747
7	0xbec9b8e0	-0.3939886
8	0x3e5eff0f	0.21776985
9	0x3e98509a	0.29748994
10	0x3e8774a9	0.26456192
11	0x3cf9c132	0.03048763
12	0x3ea31d82	0.3185845
13	0xbeda2bc0	-0.42611504
14	0x3ea1b1c9	0.31580952
15	0x3e629460	0.22126913
16	0xbd71f4c1	-0.059071306
17	0xbb7a7560	-0.0038216934
