LARA/data/result/g_220.pt (torch, 87406 bytes, 7 tensors)

G_attr_matrix.weight f4 [36, 5]
0.0887963 -0.07168995 -0.37508103 0.11008753 0.044357803 -0.10435709 0.1019663 0.16801716
0.03815402 -0.04198395 -0.061925266 0.024755685 0.017349107 0.07667491 -0.0012111686 -0.03147883
-0.09405482 -0.05454731 -0.05517219 0.012218195 0.015341188 -0.18159816 0.00029509948 -0.017401764
0.07283255 0.06113561 0.02207384 -0.043768868 0.18504006 -0.092657894 -0.031544145 -0.02014929
0.0040436764 0.10159547 0.23200415 0.27271274 0.12347899 0.23125783 0.16008517 0.038222626
0.010197531 0.015492922 0.008298961 -0.05263138 -0.1284155 0.0057062595 -0.015688512 0.0008110223
0.089585304 0.25111538 0.31669867 0.029893234 0.035231814 -0.130187 -0.020825353 0.0395033
-0.17710169 -0.23244216 0.043378875 0.17247212 0.0008041909 0.13842961 -0.0018936204 0.004346535
0.07984692 -0.15528147 0.040100172 -0.022883112 -0.10462681 0.07016862 -0.0063237897 -0.055401314
0.08693687 0.020836536 0.04116925 -0.3005008 0.22417884 -0.23970236 0.21873762 -0.17187414
0.2518084 -0.030193774 -0.14336222 0.21697189 -0.12794636 -0.051393006 0.31982985 0.5230989
0.1605212 0.09097227 -0.015484983 -0.30994162 0.0041172625 0.12655672 -0.14411072 -0.08668913
0.052845765 -0.18702422 0.20943329 0.015603288 -0.24438487 -0.0141733475 0.026735004 -0.031938415
-0.009596357 -0.2043827 0.14870776 -0.20291702 0.123021536 0.047930315 0.0105786035 -0.0071327514
-0.005988974 0.008914908 0.037524056 0.088616155 0.22042182 0.16219051 -0.196278 0.011871728
0.543405 0.0077873953 0.026431562 -0.27097246 -0.0026331758 0.30026466 -0.18975282 -0.07015663
-0.258789 0.14040613 0.023426995 0.03783745 -0.013848297 0.14744252 -0.026742425 -0.25486678
-0.43227854 0.21288288 0.32158816 0.31317022 -0.0323767 0.00935192 0.008290598 -0.0009092175
-0.045134503 0.11241589 -0.013642985 -0.042556636 -0.031574436 0.14324753 -0.008229456 -0.03614129
0.007295606 -0.057233177 -0.10441886 0.028416986 -0.11268813 -0.053716656 0.20694399 0.275019
-0.0033192898 -0.016225437 0.111927964 0.0018603961 -0.015810026 0.15021078 0.18040596 -0.31503868
0.027631814 0.1799352 0.07892085 0.0033544821 0.16151987 0.334109 0.16772938 0.095156826
0.17852117 -0.11601231 -0.2396302 0.20264068
00000000: d6da b53d 2ed2 92bd 9f0a c0be 9275 e13d
00000010: 87b0 353d 2cb9 d5bd b5d3 d03d b10c 2c3e
00000020: 6447 1c3d 5df7 2bbd 59a5 7dbd 6fcc ca3c
00000030: b71f 8e3c bc07 9d3d 13c0 9eba f2ef 00bd
00000040: d09f c0bd 006d 5fbd 3cfc 61bd d32e 483c
00000050: 9b59 7b3c def4 39be 95b7 9a39 258e 8ebc
00000060: 3b29 953d 5569 7a3d 33d4 b43c fc46 33bd
00000070: 247b 3d3e 6cc3 bdbd 6f34 01bd 2010 a5bc
00000080: d180 843b 4911 d03d 7f92 6d3e 01a1 8b3e
00000090: 8de2 fc3d dace 6c3e 5eed 233e 548f 1c3d
000000a0: 8c13 273c 06d6 7d3c 5ef8 073c 0094 57bd
000000b0: 5a7f 03be 93fb ba3b 3285 80bc c99a 543a
000000c0: 8078 b73d 3292 803e 5426 a23e a8e2 f43c
000000d0: 3c4f 103d be4f 05be ee99 aabc 36ce 213d
000000e0: 255a 35be 5105 6ebe 0cae 313d 889c 303e
000000f0: 56d0 523a 7ec0 0d3e 5b33 f8ba 616d 8e3b
00000100: c886 a33d 1b02 1fbe 1440 243d 5d75 bbbc
00000110: 9546 d6bd 91b4 8f3d cb37 cfbb 7dec 62bd
00000120: f50b b23d 62b1 aa3c 16a1 283d 3edb 99be
00000130: 238f 653e 8974 75be c1fc 5f3e c6ff 2fbe
00000140: 08ed 803e ef58 f7bc 8ccd 12be e12d 5e3e
00000150: 5f04 03be 7981 52bd bdc0 a33e cfe9 053f
00000160: ab5f 243e ab4f ba3d bab4 7dbc abb0 9ebe
00000170: 1aea 863b 1698 013e c391 13be 128a b1bd
00000180: cd74 583d 4783 3fbe ae75 563e efa4 7f3c
00000190: 0740 7abe 5437 68bc 5e03 db3c dbd1 02bd
000001a0: 0a3a 1dbc b349 51be d946 183e 7bc9 4fbe
000001b0: b7f2 fb3d 9452 443d e151 2d3c dbb9 e9bb
000001c0: 283f c4bb d60f 123c d3b2 193d 637c b53d
000001d0: 42b6 613e 4515 263e 1afd 48be a381 423c
000001e0: 971c 0b3f 682d ff3b 0187 d83c e7bc 8abe
000001f0: 5c91 2cbb 4abc 993e 904e 42be 47ae 8fbd
00000200: fe7f 84be a0c6 0f3e f8e9 bf3c 71fb 1a3d
00000210: f8e3 62bc 2cfb 163e ee12 dbbc e67d 82be
00000220: 9d53 ddbe f8fd 593e 34a7 a43e d957 a03e
00000230: 6e9d 04bd cc38 193c 4ad5 073c 8e58 6eba
00000240: f5de 38bd 4d3a e63d d486 5fbc de4f 2ebd
00000250: 3254 01bd 7baf 123e d7d4 06bc e408 14bd
00000260: fb0f ef3b 566d 6abd 8ed9 d5bd bdca e83c
00000270: 09c9 e6bd ff05 5cbd 20e9 533e 4acf 8c3e
00000280: 7188 59bb 35eb 84bc 7d3a e53d 89d8 f33a
00000290: 0784 81bc dbd0 193e 57bc 383e c04c a1be
000002a0: 1d5c e23c ef40 383e 41a1 a13d dfd6 5b3b
000002b0: 7765 253e 5610 ab3e 40c1 2b3e 95e1 c23d
000002c0: 41ce 363e dd97 edbd 9f61 75be 0a81 4f3e

l1.weight f4 [100, 90]
0.19352384 -0.010587904 0.08764325 0.10338498 0.087833375 0.051393963 0.07908089 0.025652844
-0.2612367 -0.12987778 0.037128396 -0.19319203 -0.09215637 0.10768357 -0.032138366 0.11421974
0.049163148 -0.0330677 -0.033978455 0.09091726 0.22485141 0.023305446 0.087557174 -0.08980701
0.026039902 0.055319052 0.1595205 0.052012064 0.16632678 0.03823738 0.15581618 -0.14407276
-0.22076456 -0.084379844 -0.09385097 0.048528627 0.14666423 -0.019728715 -0.105343685 0.19240251
-0.02242291 -0.06931382 0.12589496 0.029886466 0.008980975 0.06626908 -0.115404576 -0.081707604
0.046320494 -0.061518207 0.121954985 -0.37583137 0.16293244 -0.022040863 -0.09910506 0.046779834
0.043239225 0.025460085 -0.027111541 0.12304655 -0.03421385 -0.06166934 -0.0014384425 0.041625094
-0.083187304 -0.099948384 0.045764145 -0.15998802 -0.013729204 -0.17832945 -0.20041956 0.09692432
0.102687396 0.24346432 -0.21570723 -0.043548472 -0.20477508 -0.049356405 -0.0857517 0.03679122
0.0073053627 -0.08963647 0.059179198 0.056912635 -0.2500312 0.06560989 -0.026182832 -0.07820228
0.04164896 0.16579889 0.28346673 -0.10593618 -0.074761644 -0.032128133 -0.14506684 0.039377373
0.24036556 -0.022663545 0.07029975 0.075509414 0.04428191 -0.030496702 -0.1479108 -0.01567796
-0.10854414 -0.094475694 0.08250537 -0.18492916 0.065317914 0.057154357 0.059858013 0.00795486
0.02488765 -0.068667226 0.0029310763 0.045504067 0.08494243 -0.02983889 -0.027875433 0.0465348
0.034798235 -0.030438814 0.012379247 0.06550479 -0.1666672 -0.013760548 -0.04671346 0.064126566
0.040266763 0.055384442 -0.03641956 0.105552115 -0.1259509 0.013451294 -0.20548901 -0.08796664
0.06692524 -0.1306639 0.0036912903 -0.021773864 0.08749066 -0.1184117 -0.2748217 -0.09104561
-0.0462907 0.1344054 0.12763704 0.06658993 0.037959933 -0.09141673 -0.026423184 0.00022552919
-0.07413333 -0.030657979 -0.009276642 -0.08139426 -0.0161635 -0.010674835 0.024922788 0.14039008
-0.1745739 0.14506063 -0.15782107 -0.05769671 0.030961549 -0.015301764 0.028957985 -0.1480728
0.15225294 0.057668366 0.07705687 -0.033631567 -0.04974318 0.07555224 -0.023264635 -0.113053255
-0.29565388 0.12384515 -0.09797994 -0.027515683 -0.0018398797 0.13811094 0.025051324 -0.20892009
-0.032865625 -0.16671349 -0.099344395 0.063479945 0.027188227 -0.08121419 0.08680569 -0.18132985
-0.10568574 0.13913009 -0.03208235 -0.09466545 -0.0267962 0.099630766 0.04551731 0.03725203
-0.16675423 0.091286376 -0.19695166 0.14379609 0.31686756 0.0041145147 -0.020816969 -0.04473157
-0.08830001 0.09849901 0.09255716 0.0031003475 0.1054505 0.08073163 0.0061758994 0.15234692
0.031432267 -0.051984575 -0.03817769 -0.008090253 -0.11612165 -0.11281199 0.05813655 -0.02904999
0.23787186 -0.07936555 0.14403757 0.057471935 0.06261207 0.05357211 0.18089466 -0.06906436
-0.03496709 0.032425176 0.031233612 0.09704847 -0.13840853 0.0036306921 0.18240923 -0.021050833
0.027693886 -0.11056565 0.11476074 0.06833052 -0.13575043 -0.24407794 -0.1241995 -0.092080005
-0.120514184 0.06719472 0.085983485 0.07319102 -0.12828292 -0.09675623 0.048745308 0.06495937
00000000: 1d2b 463e e378 2dbc 4e7e b33d 81bb d33d
00000010: fce1 b33d 7a82 523d 29f5 a13d ea25 d23c
00000020: d1c0 85be aefe 04be f213 183d 22d4 45be
00000030: 7bbc bcbd 3489 dc3d 85a3 03bd 0aec e93d
00000040: 4c5f 493d ff71 07bd fe2c 0bbd d432 ba3d
00000050: 733f 663e 10eb be3c 2d51 b33d bdec b7bd
00000060: a251 d53c 3b96 623d 5859 233e 9a0a 553d
00000070: 9151 2a3e cd9e 1c3d 478e 1f3e cf87 13be
00000080: 1b10 62be 57cf acbd f034 c0bd f4c5 463d
00000090: 262f 163e 1d9e a1bc 6ebe d7bd 2a05 453e
000000a0: 40b0 b7bc 67f4 8dbd 9cea 003e 76d4 f43c
000000b0: f024 133c 15b8 873d 3c59 ecbd 5156 a7bd
000000c0: 8fba 3d3d 84fa 7bbd 89c3 f93d f86c c0be
000000d0: c3d7 263e 0a8f b4bc 98f7 cabd 369c 3f3d
000000e0: 9d1b 313d ab91 d03c 0619 debc d4ff fb3d
000000f0: d223 0cbd fd98 7cbd 1f8a bcba 137f 2a3d
00000100: 1b5e aabd bdb1 ccbd 2f73 3b3d e6d3 23be
00000110: 75f0 60bc ff9b 36be c93a 4dbe 4280 c63d
00000120: c54d d23d b64e 793e 5be2 5cbe e25f 32bd
00000130: 8fb0 51be f129 4abd 969e afbd 64b2 163d
00000140: d361 ef3b 5393 b7bd e365 723d 391d 693d
00000150: 1704 80be 7a5e 863d 617d d6bc 8428 a0bd
00000160: 1a98 2a3d 2fc7 293e 8d22 913e 11f5 d8bd
00000170: a21c 99bd ca98 03bd 678c 14be 2b4a 213d
00000180: 6422 763e e6a8 b9bc 51f9 8f3d aea4 9a3d
00000190: f360 353d 38d4 f9bc ee75 17be 116f 80bc
000001a0: 644c debd 797c c1bd 93f8 a83d 125e 3dbe
000001b0: 66c5 853d b01a 6a3d ad2d 753d 1a55 023c
000001c0: 2fe1 cb3c 67a1 8cbd 4d17 403b 7962 3a3d
000001d0: 4cf6 ad3d b070 f4bc 055b e4bc 469b 3e3d
000001e0: 9888 0e3d d25a f9bc 53d2 4a3c 6027 863d
000001f0: ceaa 2abe ec73 61bc 9d56 3fbd ca54 833d
00000200: c3ee 243d ccda 623d ad2c 15bd b52b d83d
00000210: 46f9 00be d162 5c3c b66b 52be db27 b4bd
00000220: 1a10 893d c2cc 05be 93e9 713b 1a5f b2bc
00000230: 4e2e b33d d581 f2bd 6eb5 8cbe 1f76 babd
00000240: 519b 3dbd 92a1 093e 49b3 023e 4d60 883d
00000250: e07b 1b3d b238 bbbd 6f75 d8bc 087c 6c39
00000260: 37d3 97bd 7126 fbbc 0ffd 17bc 09b2 a6bd
00000270: 5169 84bc 81e5 2ebc e02a cc3c 6bc2 0f3e
00000280: 80c3 32be c68a 143e d99b 21be 6353 6cbd
00000290: 13a3 fd3c 40b4 7abc 4c39 ed3c 65a0 17be
000002a0: 32e8 1b3e aa35 6c3d fecf 9d3d 41c1 09bd
000002b0: 81bf 4bbd 22bb 9a3d 7a95 bebc 7788 e7bd
000002c0: f25f 97be 87a2 fd3d b5a9 c8bd 9268 e1bc
000002d0: 1e28 f1ba f46c 0d3e 6f38 cd3c 26ef 55be
000002e0: 1b9e 06bd f1b6 2abe 1375 cbbd c601 823d
000002f0: d8b9 de3c a053 a6bd 2ec7 b13d 88ae 39be
00000300: c471 d8bd 1e78 0e3e c868 03bd f6df c1bd
00000310: b483 dbbc 370b cc3d 5c70 3a3d 9695 183d
00000320: 9fc1 2abe 5af4 ba3d b2ad 49be 483f 133e
00000330: 773c a23e 0dd3 863b 5988 aabc 7338 37bd
00000340: a3d6 b4bd d9b9 c93d 9c8e bd3d 332f 4b3b
00000350: 6ff6 d73d a056 a53d 335f ca3b d500 1c3e
00000360: 1fbf 003d c7ed 54bd 3660 1cbd fb8c 04bc
00000370: 30d1 edbd f909 e7bd 9720 6e3d 3ffa edbc
00000380: ae94 733e 688a a2bd 967e 133e b167 6b3d
00000390: c23a 803d 6e6e 5b3d 733c 393e 9d71 8dbd
000003a0: a739 0fbd 43d0 043d a2dd ff3c 59c1 c63d
000003b0: f7ba 0dbe e8f0 6d3b 7cc9 3a3e cc72 acbc
000003c0: 4ade e23c 3e70 e2bd ae07 eb3d dff0 8b3d
000003d0: 2902 0bbe 91ef 79be 4f5c febd 7194 bcbd
000003e0: 24d0 f6bd 639d 893d 1c18 b03d 2ce5 953d
000003f0: 995c 03be 2128 c6bd 29a9 473d 6b09 853d

l1.bias f4 [100]
-0.03430209 0.02066065 0.16610655 0.0749383 0.1544105 0.0026574177 0.21174896 -0.03692922
-0.024192587 -0.06765359 -0.061562434 -0.122901596 -0.016455168 0.016346084 -0.04645375 0.1302788
0.0374963 0.036004134 -0.08288868 -0.030438326 0.18682313 -0.03941823 -0.0313501 0.14061235
0.025020415 0.1622962 -0.047468558 -0.12636907 0.0009719238 -0.34940773 0.05335082 0.11570963
-0.18702742 -0.28041014 -0.22138633 -0.019795569 0.016548587 0.16767077 -0.015460157 -0.05441128
-0.24231474 0.2603804 -0.14391917 -0.0032501733 -0.054376952 -0.024996072 -0.013019446 -0.02900073
-0.068758875 -0.18610431 -0.003571788 0.17571813 0.10896423 -0.17922561 -0.01175302 -0.052535523
-0.028499378 0.05418054 -0.036232628 -0.06272195 -0.16599092 0.08816027 -0.018169558 0.12214606
0.11892012 -0.14017601 -0.009280187 0.100904085 -0.041039355 0.013359176 0.107973434 -0.09106136
-0.1413088 0.21281926 0.08573253 0.049077153 -0.19194981 -0.074688055 -0.23649433 -0.11117593
0.038089998 -0.13791522 -0.04961374 0.054273997 0.051541694 0.02190428 -0.07506462 0.032155655
-0.13651434 -0.028579604 0.15982947 0.07266633 -0.03193118 0.03697832 0.12691724 -0.05007516
0.006632278 -0.11745303 -0.14513458 0.003612487
00000000: 5980 0cbd 8640 a93c d617 2a3e 4079 993d
00000010: c91d 1e3e 1228 2e3b b8d4 583e 1843 17bd
00000020: 882f c6bc f78d 8abd e428 7cbd d5b3 fbbd
00000030: fdcc 86bc 39e8 853c 4a46 3ebd ce67 053e
00000040: b895 193d 1279 133d 8ac1 a9bd cc59 f9bc
00000050: 904e 3f3e 0375 21bd f668 00bd affc 0f3e
00000060: 9df7 cc3c fa30 263e 646e 42bd e566 01be
00000070: b4c8 7e3a 92e5 b2be 6486 5a3d 2cf9 ec3d
00000080: 1e84 3fbe eb91 8fbe 19b3 62be 512a a2bc
00000090: e790 873c e3b1 2b3e 994c 7dbc 5dde 5ebd
000000a0: 5b21 78be 9450 853e 8c5f 13be dc00 55bb
000000b0: 5eba 5ebd 90c4 ccbc 844f 55bc f092 edbc
000000c0: 74d1 8cbd 2192 3ebe a914 6abb 74ef 333e
000000d0: a328 df3d eb86 37be bd8f 40bc 7d2f 57bd
000000e0: 8777 e9bc 6aec 5d3d aa68 14bd 5e74 80bd
000000f0: 86f9 29be 5f8d b43d 53d8 94bc b727 fa3d
00000100: 648c f33d 4d8a 0fbe ed0b 18bc cda6 ce3d
00000110: e218 28bd 72e0 5a3c 2d21 dd3d 617e babd
00000120: 41b3 10be 4bed 593e 8994 af3d 2005 493d
00000130: 7e8e 44be 0df6 98bd 922b 72be 35b0 e3bd
00000140: 4204 1c3d a639 0dbe c737 4bbd 694e 5e3d
00000150: 621d 533d 9b70 b33c 7bbb 99bd a6b5 033d
00000160: 6aca 0bbe c61f eabc 56aa 233e 16d2 943d
00000170: 45ca 02bd 9476 173d 98f6 013e 9c1b 4dbd
00000180: 9553 d93b 378b f0bd 299e 14be 7abf 6c3b

l2.weight f4 [100, 100]
0.017272053 0.14811036 -0.08712655 -0.03425512 -0.091500856 0.13908021 -0.02004809 0.07360214
-0.08687138 -0.07012726 0.0266137 -0.05840684 -0.020250244 -0.014065842 0.008873806 -0.01109596
-0.21634415 -0.10428395 0.014605172 0.18130246 0.027221434 0.13149986 0.05151314 0.036676865
0.043813694 0.04297492 -0.23020594 -0.13115005 -0.17934726 -0.13841648 0.12502095 -0.09805406
0.09412083 0.0039418987 0.0512083 0.026508152 -0.049385816 -0.035670467 -0.075279534 0.07328
-0.01007723 0.063294634 -0.04399422 -0.03623278 0.07306328 -0.07059091 -0.092297636 0.20117594
-0.01179791 0.0740277 -0.038482115 0.042216457 0.017756436 -0.072011374 0.15877533 0.04166016
-0.07961652 0.041619495 -0.08794233 -0.01616362 0.026388748 0.10026645 0.037114095 0.017207889
0.0023780852 -0.10657162 0.06179511 -0.12540422 0.150762 0.059760954 -0.08586046 0.056721203
0.13604572 0.06795846 0.12226565 0.020610645 0.26008692 0.06763932 -0.031220281 -0.03255661
0.18397841 -0.010003363 -0.053328156 0.020974468 0.03468283 -0.07686676 -0.06475638 -0.13607588
-0.11294047 -0.08825623 -0.062444847 -0.019391228 0.005434428 -0.11627051 -0.0143332165 -0.01087763
-0.079096325 0.22882728 0.020606136 0.047227316 -0.09800034 0.04724417 -0.16629304 0.0478004
0.2045704 -0.0038033482 0.19680989 -0.09462299 0.0899584 0.050864648 0.05712801 0.09990059
0.039744936 0.0007356289 -0.08340045 -0.09598463 0.04661595 -0.07921516 0.03556254 0.12872164
-0.060804766 -0.032285634 0.047495008 0.030160263 0.028735835 0.027641818 -0.044368945 -0.12171694
0.1086111 -0.10304252 -0.023462676 -0.018763145 0.14852329 0.0031644227 0.17915983 0.056647927
-0.01987952 -0.094293535 -0.03138698 -0.05794541 0.09671023 0.0046956725 0.018030396 -0.027410688
-0.018311564 0.13066533 0.030827077 0.15304834 -0.064974315 0.047362335 -0.06051072 -0.005567861
0.0076735755 0.11761123 0.13137354 0.046018895 -0.12548323 0.054633234 -0.15387572 -0.071797885
0.048867177 0.03783283 -0.062125385 0.03218044 0.036051564 -0.004907972 0.15527157 0.015966555
0.052898165 -0.15425266 -0.010013777 0.018557047 -0.10014746 0.006009377 0.07270477 0.05124229
-0.069472976 0.030414272 -0.089247964 -0.12447518 -0.11678746 -0.17690079 0.096135706 -0.14633542
-0.049014997 0.0008661466 -0.1440464 -0.034903742 -0.08936038 -0.059632808 0.18901348 0.041802637
-0.08625411 0.039065287 0.109299734 0.046213806 0.12005868 -0.13139904 -0.08296601 -0.023837209
0.06337391 0.022075359 0.14513235 0.07791668 -0.05186802 0.21018955 -0.11041115 -0.09947347
-0.0068995855 -0.071444735 0.25456145 0.12379787 -0.13776475 -0.15696494 0.030012656 -0.24656424
-0.10651405 -0.20153613 0.013252124 0.13707541 0.068492085 0.0015948606 -0.25134873 0.13964227
0.0075809145 0.052752547 -0.060713522 0.04657422 -0.07147502 -0.19422953 -0.119929664 0.029058574
0.07911948 0.1816937 -0.20172681 -0.0690825 0.17660347 0.09199263 0.24491765 0.03506504
-0.030146275 -0.14120491 -0.0062733535 -0.08490552 -0.07978186 0.053872317 0.05074059 -0.096125364
0.08610474 0.13892528 0.21856324 -0.13018544 0.05773211 0.027269557 -0.065604456 0.027262084
00000000: 1f7e 8d3c 3eaa 173e 686f b2bd 194f 0cbd
00000010: cd64 bbbd 0b6b 0e3e e43b a4bc b8bc 963d
00000020: 9fe9 b1bd e29e 8fbd f904 da3c 033c 6fbd
00000030: d7e3 a5bc 6b74 66bc 7163 113c d4cb 35bc
00000040: 5289 5dbe d392 d5bd 884a 6f3c 5aa7 393e
00000050: 7cff de3c e6a7 063e 71ff 523d 7b3a 163d
00000060: fd75 333d 7806 303d 1bbb 6bbe 334c 06be
00000070: cfa6 37be 0dbd 0dbe 7e05 003e 91d0 c8bd
00000080: 6cc2 c03d 0b2b 813b cbbf 513d a027 d93c
00000090: c848 4abd 321b 12bd 282c 9abd d313 963d
000000a0: f71a 25bc 9ea0 813d 4933 34bd d368 14bd
000000b0: 33a2 953d f891 90bd 8b06 bdbd 1101 4e3e
000000c0: 054c 41bc d69b 973d 6c9f 1dbd 2aeb 2c3d
000000d0: f275 913c b37a 93bd 0096 223e d8a3 2a3d
000000e0: fc0d a3bd 3479 2a3d 1c1b b4bd 9169 84bc
000000f0: 372d d83c 7f58 cd3d f304 183d 8ff7 8c3c
00000100: a6d9 1b3b 3942 dabd df1c 7d3d f769 00be
00000110: 5b61 1a3e e7c7 743d 9cd7 afbd 7e54 683d
00000120: 924f 0b3e ce2d 8b3d 6a66 fa3d a8d7 a83c
00000130: 1d2a 853e 7c86 8a3d adc1 ffbc 145a 05bd
00000140: d664 3c3e 25e5 23bc a06e 5abd a6d2 ab3c
00000150: 950f 0e3d 526c 9dbd fe9e 84bd 7a57 0bbe
00000160: 554d e7bd afbf b4bd 2bc6 7fbd 5ada 9ebc
00000170: 4913 b23b 3c1f eebd ded5 6abc 1638 32bc
00000180: 41fd a1bd b351 6a3e 33ce a83c 6e71 413d
00000190: 67b4 c8bd 1a83 413d b948 2abe 5aca 433d
000001a0: e77a 513e 9841 79bb 8888 493e b3c9 c1bd
000001b0: 1c3c b83d 7357 503d 0fff 693d ae98 cc3d
000001c0: 96cb 223d 38d7 403a dbcd aabd 9793 c4bd
000001d0: 5ef0 3e3d 8f3b a2bd 07aa 113d 9bcf 033e
000001e0: 6b0e 79bd f13d 04bd 208a 423d a812 f73c
000001f0: 6a67 eb3c 1871 e23c 36bc 35bd bb46 f9bd
00000200: 7f6f de3d f507 d3bd cc34 c0bc 2bb5 99bc
00000210: 7d16 183e 3462 4f3b ad75 373e a807 683d
00000220: 60da a2bc f81c c1bd a28f 00bd 2b58 6dbd
00000230: 0310 c63d 28de 993b 7bb4 933c 618c e0bc
00000240: 2202 96bc 22cd 053e 1189 fc3c b4b8 1c3e
00000250: 4111 85bd 02ff 413d 17da 77bd 9a72 b6bb
00000260: 9e72 fb3b 28de f03d c986 063e 4f7e 3c3d
00000270: ad7e 00be 19c7 5f3d 9991 1dbe c50a 93bd
00000280: f328 483d 99f6 1a3d 3077 7ebd a3cf 033d
00000290: ceaa 133d 0ed3 a0bb 83ff 1e3e 4bcc 823c
000002a0: bfab 583d 69f4 1dbe d310 24bc f304 983c
000002b0: 1d1a cdbd 4fea c43b 3de6 943d 6fe3 513d
000002c0: d947 8ebd 5a27 f93c a3c7 b6bd d8ec febd
000002d0: 442e efbd 7b25 35be cce2 c43d f4d8 15be
000002e0: f3c3 48bd 1d0e 633a e680 13be 3af7 0ebd
000002f0: 9302 b7bd 8841 74bd c08c 413e 3e39 2b3d
00000300: ffa5 b0bd ec02 203d 8ad8 df3d b04a 3d3d
00000310: 53e1 f53d 788d 06be 15ea a9bd 4046 c3bc
00000320: 2eca 813d 62d7 b43c 939d 143e c892 9f3d
00000330: 9073 54bd ee3b 573e 3e1f e2bd bfb8 cbbd
00000340: eb15 e2bb 9e51 92bd e155 823e bd89 fd3d
00000350: 3412 0dbe 6bbb 20be 1add f53c 567b 7cbe
00000360: 0a24 dabd 7d5f 4ebe 701f 593c 7f5d 0c3e
00000370: 9445 8c3d a40a d13a c8b0 80be 62fe 0e3e
00000380: 5269 f83b 0e13 583d beae 78bd 9cc4 3e3d
00000390: 7f61 92bd 1be4 46be af9d f5bd 3f0c ee3c
000003a0: 6509 a23d ea0d 3a3e 7991 4ebe 207b 8dbd
000003b0: 8ad7 343e a266 bc3d b1cb 7a3e 5ca0 0f3d
000003c0: 52f5 f6bc 0598 10be b490 cdbb f2e2 adbd
000003d0: ac64 a3bd 38a9 5c3d 5dd5 4f3d 60dd c4bd
000003e0: af57 b03d 6e42 0e3e 0bcf 5f3e 554f 05be
000003f0: 8178 6c3d 6864 df3c a15b 86bd bc54 df3c

l2.bias f4 [100]
0.035676837 -0.16504508 0.14089046 0.0292733 -0.10375516 0.1852086 0.041791447 -0.16019088
-0.15751876 -0.031091912 0.039572746 0.20471698 0.04923866 0.050555654 0.1085418 0.15110388
0.0062859696 0.026973668 0.2954066 0.0296446 0.14268841 -0.08958822 0.0631079 0.076359645
-0.093054436 0.034567636 -0.016408132 -0.14470536 0.06788145 -0.10041215 -0.012011407 -0.03578034
0.01681862 0.014413133 -0.15320826 0.04419743 0.16647804 -0.022437997 0.036389578 -0.06638839
-0.023936894 -0.084630236 -0.0441096 0.037419565 -0.05497883 -0.046488106 -0.010303698 -0.12881966
-0.0039519602 0.044405922 0.021358415 -0.05127948 0.08192695 0.0722493 0.0030545103 0.0007435782
-0.10397962 0.098272055 -0.04363516 0.14128278 -0.1707855 -0.2151766 0.14351816 0.16993316
-0.031402938 -0.033592865 -0.01979157 0.08509931 0.08792663 -0.054394573 -0.17953235 0.023313038
0.07136921 -0.059281547 0.052187502 0.078265116 -0.21736094 0.16547976 0.03395266 0.017724197
0.057993423 -0.027648337 0.0043718643 0.15729241 -0.038863495 0.020030964 -0.064799 0.0137937395
0.009821748 0.03208677 -0.3048914 0.08997217 -0.01192258 -0.052154522 -0.03467797 -0.01798374
-0.13226043 -0.07232396 -0.18884724 0.08468711
00000000: e021 123d 9401 29be 9745 103e 8fce ef3c
00000010: 967d d4bd 53a7 3d3e 822d 2b3d 1409 24be
00000020: 994c 21be 77b4 febc 0817 223d 54a1 513e
00000030: 7aae 493d 7213 4f3d 2a4b de3d faba 1a3e
00000040: 89fa cd3b e2f7 dc3c 893f 973e 3bd9 f23c
00000050: e91c 123e 077a b7bd b73e 813d 7262 9c3d
00000060: 5393 bebd cb96 0d3d 596a 86bc a42d 14be
00000070: 6e05 8b3d e3a4 cdbd 7ecb 44bc 688e 12bd
00000080: 34c7 893c 1025 6c3c a0e2 1cbe 5d08 353d
00000090: 3879 2a3e e4cf b7bc 3d0d 153d a3f6 87bd
000000a0: 4e17 c4bc 9e52 adbd 45ac 34bd 4245 193d
000000b0: 7b31 61bd 506a 3ebd d7d0 28bc 4de9 03be
000000c0: 727f 81bb fce2 353d d8f7 ae3c 6f0a 52bd
000000d0: 51c9 a73d 71f7 933d 2e2e 483b b0ec 423a
000000e0: 44f3 d4bd dc42 c93d c8ba 32bd 6fac 103e
000000f0: 65e2 2ebe 4157 5cbe 6df6 123e f502 2e3e
00000100: 5ea0 00bd ac98 09bd ee21 a2bc 8c48 ae3d
00000110: e112 b43d d8cc 5ebd 54d7 37be fcfa be3c
00000120: 052a 923d 35d1 72bd 90c2 553d 7649 a03d
00000130: de93 5ebe 8773 293e f211 0b3d 5632 913c
00000140: 838a 6d3d c47e e2bc db41 8f3b 4311 213e
00000150: 542f 1fbd fa17 a43c 57b5 84bd 23ff 613c
00000160: 66eb 203c 6b6d 033d ba1a 9cbe 5443 b83d
00000170: ed56 43bc fb9f 55bd 7d0a 0ebd a352 93bc
00000180: 476f 07be 961e 94bd 2c61 41be 6f70 ad3d

l3.weight f4 [18, 100]
0.06248252 -0.066332564 -0.011869449 0.12021605 -0.19770929 0.023757063 -0.07961796 0.00981896
-0.0010601123 -0.061310884 0.030011868 0.10945744 0.09093217 0.028289884 -0.12333678 0.083815336
0.06930635 -0.08315744 -0.10246349 0.10260734 0.013916964 -0.020748189 0.15556318 -0.044235144
-0.24467458 -0.094204366 -0.029244406 -0.22080354 0.13512911 0.10597235 -0.05752456 0.013675435
0.24554628 -0.22557697 -0.09457647 -0.15166369 0.045468893 0.030242011 0.22182618 -0.056180283
0.019550707 0.17758057 -0.009935581 0.120828584 -0.049297176 0.03145683 0.20913477 0.05978655
0.18414149 -0.19480908 0.06195103 -0.20920232 -0.15446413 -0.12253184 -0.07215199 -0.16386294
-0.02493785 -0.05856177 -0.12621334 -0.06863919 0.2386836 0.1851198 0.032621685 -0.022106891
0.08215866 -0.17010273 0.23330742 0.09505301 -0.109893344 0.16900378 -0.22111295 0.07566927
0.060527325 0.122482285 0.022146383 -0.14081033 0.17249654 0.013622442 -0.33488148 -0.06429972
0.2321468 -0.13590808 0.103561155 -0.0020375575 -0.076433286 0.11901351 -0.238061 -0.14500362
-0.11614798 -0.20992178 0.22461504 0.085495874 0.12244393 0.10549384 0.058653463 -0.092577666
0.03798405 0.013139494 -0.013020341 -0.238799 0.0119545255 -0.1553834 0.08600331 0.065222956
0.07826696 0.018803969 0.15157695 -0.27047548 -0.21599448 0.05330144 -0.030433312 0.047899578
0.0975975 0.099227875 0.36247686 -0.016158795 -0.092998564 -0.048824694 0.13881168 -0.114736706
0.12599453 0.0871432 0.14254735 -0.016428893 -0.20930828 0.13207546 -0.12610056 0.07394566
-0.16737479 -0.0319645 0.18198691 -0.017717568 0.12507156 0.10383472 0.04928676 0.085006684
0.014253303 0.046591528 -0.009671613 0.10152258 -0.061471783 -0.13654272 -0.09375137 0.34503368
0.06098596 0.059437588 -0.0021716957 0.05350444 0.07050006 -0.158973 0.11396248 -0.10786528
0.33035102 0.069870204 0.34077364 -0.014864259 -0.15422264 0.0037789766 0.01790048 0.18144141
-0.075400606 0.026123382 0.19155478 -0.21339218 0.028320206 0.10391206 -0.040605817 -0.21193635
0.28417847 0.057178166 -0.1278365 0.10918324 0.17733122 -0.019262737 0.12684283 0.056637146
-0.26942858 -0.12615623 -0.02926416 0.10684293 -0.0042722253 0.21556276 -0.12920831 0.20727582
0.050684843 0.10147993 -0.1473579 0.008902359 0.11937271 -0.04405573 -0.12721285 0.03631525
-0.05172078 0.05905491 -0.09030347 -0.2154202 6.2974155e-05 -0.18355781 -0.14168902 0.1721633
-0.16650586 0.08304055 0.15833761 -0.0686638 -0.10908642 0.21377096 0.0038092167 -0.049475692
0.20622575 -0.049274646 -0.082032 -0.018684419 0.15656382 -0.08514531 -0.030169483 -0.067613296
0.15535389 0.092408694 0.18014143 0.026174074 -0.03698193 0.009044806 0.17520036 -0.047427762
-0.045770705 0.08894985 0.020895556 0.07345695 -0.006452411 0.008624865 -0.12727655 -0.04771002
-0.132822 -0.17505063 0.10968854 -0.016312374 -0.056926504 0.038328707 0.018921947 -0.12686163
0.112692356 0.1820713 -0.025537381 -0.15554741 -0.031414907 -0.046447955 -0.14961085 -0.08658033
-0.053931974 0.03789014 -0.120622076 0.07828235 -0.05892059 -0.19871119 -0.17651583 0.036388714
00000000: aced 7f3d 5ed9 87bd 1478 42bc d533 f63d
00000010: 4e74 4abe 2c9e c23c be0e a3bd b4df 203c
00000020: 77f3 8aba 1f21 7bbd 73db f53c 392b e03d
00000030: a53a ba3d 30c0 e73c fe97 fcbd 60a7 ab3d
00000040: 7df0 8d3d 734e aabd 61d8 d1bd cc23 d23d
00000050: fa03 643c 1bf8 a9bc f44b 1f3e e92f 35bd
00000060: f98b 7abe 38ee c0bd f791 efbc 531a 62be
00000070: 495f 0a3e 0808 d93d df9e 6bbd ef0e 603c
00000080: 7c70 7b3e a6fd 66be 4fb1 c1bd ba4d 1bbe
00000090: 973d 3a3d 18be f73c 6726 633e 4c1d 66bd
000000a0: ce28 a03c aed7 353e d9c8 22bc fa74 f73d
000000b0: d6eb 49bd e1d8 003d 6d27 563e bee2 743d
000000c0: 968f 3c3e 087c 47be 5dc0 7d3d 2239 56be
000000d0: d82b 1ebe f9f1 fabd 6cc4 93bd b0cb 27be
000000e0: 764a ccbc 77de 6fbd 123e 01be b492 8cbd
000000f0: 7969 743e 0b90 3d3e 519e 053d 8319 b5bc
00000100: cd42 a83d 692f 2ebe 24e8 6e3e 27ab c23d
00000110: c30f e1bd 540f 2d3e 6f6b 62be 7df8 9a3d
00000120: 80eb 773d fed7 fa3d 556c b53c 9530 10be
00000130: efa2 303e aa30 5f3c 9675 abbe 92af 83bd
00000140: e4b7 6d3e 7d2b 0bbe df17 d43d 8b88 05bb
00000150: 0e89 9cbd 5bbd f33d 43c6 73be d47b 14be
00000160: fede edbd bcf5 56be 7c01 663e 7618 af3d
00000170: e2c3 fa3d 280d d83d 9d3e 703d 5c99 bdbd
00000180: 2a95 1b3d 0847 573c 4553 55bc ba87 74be
00000190: eadc 433c d31c 1fbe 8122 b03d 9d93 853d
000001a0: 6e4a a03d c80a 9a3c fd36 1b3e c37b 8abe
000001b0: a82d 5dbe 9c52 5a3d 484f f9bc 5932 443d
000001c0: 33e1 c73d fc37 cb3d 9196 b93e 735f 84bc
000001d0: 0876 bebd 67fc 47bd a624 0e3e 14fb eabd
000001e0: b604 013e 2278 b23d eff7 113e e395 86bc
000001f0: e954 56be ca3e 073e 8120 01be d270 973d
00000200: 4c64 2bbe 35ed 02bd c75a 3a3e 6f24 91bc
00000210: c212 003e 4ca7 d43d eae0 493d fc17 ae3d
00000220: b086 693c c2d6 3e3d af75 1ebc 12eb cf3d
00000230: d6c9 7bbd dbd1 0bbe b800 c0bd 41a8 b03e
00000240: 6acc 793d d474 733d 0253 0ebb 7927 5b3d
00000250: 5662 903d d1c9 22be 2965 e93d 79e8 dcbd
00000260: c523 a93e 1c18 8f3d e279 ae3e 3989 73bc
00000270: 8aec 1dbe b5a8 773b 07a4 923c c7cb 393e
00000280: a26b 9abd b400 d63c f026 443e 7b83 5abe
00000290: c7ff e73c d9cf d43d 4952 26bd d805 59be
000002a0: d77f 913e a733 6a3d 92e7 02be 769b df3d
000002b0: 5196 353e e3cc 9dbc 16e3 013e 5afc 673d
000002c0: 8bf2 89be 192f 01be 64bb efbc 77d0 da3d
000002d0: 06fe 8bbb 7cbc 5c3e 2f4f 04be 1d40 543e
000002e0: e99a 4f3d b6d4 cf3d fde4 16be 33db 113c
000002f0: ae79 f43d c873 34bd 1644 02be 4dbf 143d
00000300: 2bd9 53bd 90e3 713d 07f1 b8bd 1d97 5cbe
00000310: fe10 8438 94f6 3bbe ed16 11be 934b 303e
00000320: 8380 2abe 2a11 aa3d 4123 223e 9b9f 8cbd
00000330: b368 dfbd c6e6 5a3e 0da4 793b 06a7 4abd
00000340: d82c 533e 36d4 49bd 6500 a8bd 1110 99bc
00000350: 4452 203e aa60 aebd fe25 f7bc d778 8abd
00000360: 1715 1f3e c540 bd3d ff76 383e 036b d63c
00000370: 5d7a 17bd aa30 143c b967 333e 9d43 42bd
00000380: 107a 3bbd 572b b63d 282d ab3c 9970 963d
00000390: bf6e d3bb 4e4f 0d3c c954 02be 956b 43bd
000003a0: 7e02 08be 7940 33be 63a4 e03d 87a1 85bc
000003b0: c42b 69bd 90fe 1c3d 3302 9b3c 04e8 01be
000003c0: 40cb e63d e670 3a3e c533 d1bc d247 1fbe
000003d0: ebac 00bd 3640 3ebd 9633 19be 0751 b1bd
000003e0: c6e7 5cbd b132 1b3d b508 f7bd 7f52 a03d
000003f0: b756 71bd f27a 4bbe 91c0 34be 550c 153d

l3.bias f4 [18]
0.24834408 -0.4866126 -0.038801864 0.62432045 -0.12708445 -0.34022784 0.16162191 -0.39093098
0.21713686 0.29673424 0.26399243 0.033013508 0.31766316 -0.42452735 0.31342247 0.22101577
-0.058975633 -0.0031970066
00000000: e94d 7e3e 4925 f9be b4ee 1ebd 77d3 1f3f
00000010: 6d22 02be 5832 aebe 3780 253e 1b28 c8be
00000020: 2059 5e3e 8ded 973e 042a 873e 2c39 073d
00000030: bfa4 a23e a65b d9be e978 a03e f551 623e
00000040: 6f90 71bd df84 51bb
