LARA/data/result/g_230.pt (torch, 87406 bytes, 7 tensors)

G_attr_matrix.weight f4 [36, 5]
000000 27 ed b2 3d e9 c7 88 bd f2 ff b6 be 75 5e f2 3d
       0.087366395 -0.06678755 -0.35742146 0.118344225
000010 f2 d6 51 3d cf 9f d9 bd 76 b5 cb 3d 55 7f 37 3e
       0.05123038 -0.10626184 0.0994672 0.17919667
000020 75 f7 4e 3d 67 95 0a bd 26 21 97 bd 82 54 ac 3c
       0.050528962 -0.033833887 -0.073793694 0.02103639
000030 7c 6d 29 3c 01 a6 92 3d a6 a9 c0 ba 16 6c 16 bd
       0.0103410445 0.07160569 -0.0014698997 -0.036724173
000040 29 2a d6 bd 70 6a 90 bd f5 c1 84 bd 2d ca 2f 3c
       -0.1045726 -0.07051551 -0.06482307 0.010729355
000050 38 aa dd 3b 6b 45 32 be 07 b2 0e 3c 37 00 31 3b
       0.0067646764 -0.17409293 0.008709437 0.0027008185
000060 50 6b a6 3d e7 12 81 3d 3d 6b 25 3d 0c f8 d2 bc
       0.08125937 0.063024335 0.040385474 -0.025753044
000070 5a 84 5b 3e 4e 66 af bd c1 12 f3 bc 4c 7c 76 bc
       0.21437207 -0.08564435 -0.029672028 -0.015044283
000080 47 9f a9 3b f3 cb c8 3d 6c 4e 72 3e 07 e8 89 3e
       0.005176458 0.09804525 0.23662728 0.26934835
000090 85 d6 05 3e ac 17 76 3e 53 d6 2a 3e 85 4a 56 3d
       0.13070114 0.24032468 0.1668332 0.05231716
0000a0 98 c8 5c 3c 80 9c 9f 3c 19 98 98 bb a4 8b 79 bd
       0.01347556 0.019483805 -0.0046568033 -0.060924187
0000b0 c8 0c 02 be 01 92 0d 3c 6e 3c 5a bc e4 24 44 bc
       -0.12700188 0.008640767 -0.013320072 -0.011971686
0000c0 94 42 a8 3d bb 40 7a 3e 0c 0c a2 3e 8a 57 11 3c
       0.08215824 0.24438755 0.31649816 0.008870969
0000d0 67 a2 e8 3c d7 02 08 be cf b6 a7 bc c1 c7 22 3d
       0.028397752 -0.13282333 -0.020472912 0.03974128
0000e0 68 c7 47 be de 14 73 be 3c 99 1d 3d 35 69 2d 3e
       -0.19509661 -0.23738429 0.038476214 0.16934665
0000f0 4f 4c 09 3b 9e 6a 0f 3e ad 33 22 bb 9b b6 c2 bb
       0.0020950024 0.14005515 -0.002475004 -0.0059421784
000100 1e 56 a3 3d be 96 2a be d6 f0 08 3d 9d 23 ef bc
       0.0797541 -0.16659066 0.033432804 -0.029191786
000110 fe 35 d9 bd e6 be a2 3d 13 4c 78 bc c4 ec 5d bd
       -0.10606001 0.07946567 -0.015154856 -0.054180875
000120 1a 91 b3 3d a8 76 9f 3c ef 4a 4c 3d 6d df 99 be
       0.0876791 0.01946576 0.04987615 -0.30053273
000130 14 d1 60 3e a6 7c 72 be 3b 70 5b 3e 8b b4 27 be
       0.21954757 -0.23680362 0.21429531 -0.16377465
000140 ac 01 85 3e fb 6c cf bc 21 69 0b be e0 a1 5e 3e
       0.25977838 -0.02532052 -0.13614322 0.21741438
000150 57 8e f9 bd fd 5a e4 bc 7b de a6 3e 06 17 07 3f
       -0.12185352 -0.027875418 0.32591614 0.52769506
000160 0a a4 2c 3e 08 11 c1 3d ab 6a c9 bc 2b 76 a2 be
       0.16859451 0.094270766 -0.024586996 -0.3173078
000170 44 40 bf 3a be 71 02 3e 5e 82 0b be d8 f8 b9 bd
       0.0014591296 0.12738702 -0.1362395 -0.09080666
000180 1e 1c 5f 3d 55 92 48 be 7f d8 4d 3e f7 a6 a7 3c
       0.054470174 -0.19587071 0.20102118 0.020465357
000190 e2 e4 81 be 5e 43 af bc 6c 54 13 3d 02 d6 9d bc
       -0.25369936 -0.021394428 0.035969183 -0.019267086
0001a0 38 0e dc bb d7 bc 61 be 6a e1 0e 3e 29 95 47 be
       -0.006715562 -0.22044693 0.13953176 -0.19490494
0001b0 09 a5 10 3e fe 08 71 3d 13 40 8b 3c 87 4d 43 bc
       0.14125456 0.058846466 0.016998326 -0.011920339
0001c0 fb 60 85 bc 21 42 30 3c bb 62 94 3c 5e de c5 3d
       -0.016281595 0.010757954 0.018113485 0.09661554
0001d0 70 34 5b 3e 18 35 1f 3e 3f 4d 46 be 9c 0a 4e bc
       0.21406722 0.15547597 -0.19365405 -0.012575772
0001e0 73 6e 08 3f 04 c7 bc 3b ee dc c8 3c a6 d7 83 be
       0.5329353 0.005761029 0.02451941 -0.25750464
0001f0 bd 29 59 bc b1 bc 96 3e 9b 60 43 be bf a6 96 bd
       -0.01325458 0.29440835 -0.19079821 -0.07356023
000200 49 c7 7e be 66 e2 07 3e 61 5a 32 3c db a0 49 3d
       -0.24880709 0.13269958 0.010885806 0.04922567
000210 a2 b6 99 bc ee 67 1a 3e 9f be 26 bd 71 f2 86 be
       -0.018763844 0.15078709 -0.040709134 -0.26356843
000220 10 30 d6 be 6b 18 56 3e 24 4c a4 3e ef df 99 3e
       -0.41833544 0.20907752 0.3208934 0.3005366
000230 1c d6 2a bd c7 a8 8a ba c9 8c 90 3c c4 10 45 3c
       -0.041708097 -0.0010578864 0.017645257 0.012027923
000240 ec d4 04 bd 92 48 ce 3d f0 2a db bc c5 00 04 bd
       -0.03242962 0.100724354 -0.026753873 -0.032227296
000250 e2 99 6c bc a2 ab 20 3e 49 63 28 bc 3b a3 21 bd
       -0.014440985 0.15690473 -0.010277578 -0.03946231
000260 81 9c 7e 3c c9 a8 83 bd 97 49 d3 bd 07 5e da 3c
       0.015540243 -0.064286776 -0.103167705 0.026656164
000270 a4 ba f0 bd ce f8 39 bd c5 50 4d 3e bd b5 8b 3e
       -0.11754349 -0.045403294 0.20050342 0.27287093
000280 29 13 ad bb 71 d9 38 3b da 75 f3 3d d7 eb 18 bb
       -0.005281825 0.0028205777 0.11887713 -0.002333393
000290 4a 87 9b bb 07 35 15 3e 1b e6 48 3e 75 41 9f be
       -0.0047463523 0.1457101 0.19619028 -0.31104627
0002a0 2f 0f d9 3c 2c be 3e 3e 44 55 ab 3d 82 eb 7d 3a
       0.026496498 0.18627232 0.083658725 0.00096862775
0002b0 87 00 1d 3e be f4 a6 3e ff 46 27 3e fc c6 d1 3d
       0.15332232 0.32608598 0.16335677 0.102430314
0002c0 a4 cc 36 3e 6c 54 02 be 03 48 64 be f2 b5 47 3e
       0.17851502 -0.12727517 -0.22293095 0.19503

l1.weight f4 [100, 90]
000000 9c 8c 4c 3e 2d 40 8e bc e9 71 a5 3d 56 10 e1 3d
       0.19975513 -0.017364586 0.08078367 0.10989444
000010 f3 15 bf 3d 28 2d 37 3d 64 b4 c6 3d 39 94 3c 3d
       0.09330358 0.0447208 0.097023755 0.046039794
000020 64 3b 81 be 91 3d 0e be 1e 55 32 3d 56 99 4c be
       -0.25240624 -0.13890673 0.043538205 -0.19980368
000030 cd f7 b6 bd 6f bd cb 3d 0a 20 d3 bc 49 93 e1 3d
       -0.08933983 0.09948241 -0.025772113 0.110144205
000040 71 0c 33 3d 64 17 c6 bc 6e a1 df bc a7 11 c7 3d
       0.043713037 -0.024181075 -0.027298655 0.09720164
000050 80 09 6c 3e 82 24 86 3c 53 69 c0 3d 55 d4 cb bd
       0.23050499 0.01637483 0.09395089 -0.099526085
000060 79 fd a0 3c 30 bb 7d 3d 03 47 29 3e a1 50 6d 3d
       0.019652115 0.061946094 0.16530995 0.05793822
000070 5f 9d 23 3e de 7c d1 3c 97 e2 17 3e fc 26 0d be
       0.15978001 0.025572237 0.14832531 -0.13784403
000080 e8 a6 5d be 12 ac d1 bd 50 0f b3 bd da 30 21 3d
       -0.21645701 -0.10237898 -0.08743155 0.03935323
000090 81 29 22 3e 11 d5 09 bd 89 ef c5 bd ce 4c 38 3e
       0.15836145 -0.03365046 -0.09664828 0.17998049
0000a0 75 70 84 bc e0 e9 8a bd 92 c1 f5 3d 92 2c 14 3d
       -0.016166905 -0.06782889 0.11999811 0.036175318
0000b0 b9 71 38 3b 7f 47 76 3d f0 8d f9 bd 4b f6 ba bd
       0.0028143956 0.060126778 -0.121852756 -0.09129008
0000c0 57 04 58 3d 17 4b 8b bd ac 6a ec 3d 43 f0 c4 be
       0.052738514 -0.068014316 0.115437835 -0.38464555
0000d0 5f d2 32 3e c2 ad 03 bd e6 b2 df bd 49 2e 55 3d
       0.17463063 -0.03214813 -0.10922794 0.052046094
0000e0 17 86 1f 3d 83 67 87 3c da f6 ba bc 1f c1 04 3e
       0.038946237 0.01652885 -0.022822786 0.12964295
0000f0 fd a5 e3 bc c8 80 80 bd c5 b4 b0 3b 82 d6 0f 3d
       -0.02778911 -0.06274563 0.005392643 0.03511668
000100 7f c7 aa bd d7 ac cf bd c1 ef 35 3d 87 54 24 be
       -0.08338832 -0.101403885 0.0444181 -0.1604787
000110 5d 92 f3 bb 91 a5 34 be 4c fb 50 be 55 4b cf 3d
       -0.0074332193 -0.17641284 -0.20408362 0.1012179
000120 00 18 db 3d 65 28 6a 3e ee 06 62 be 59 a8 2f bd
       0.10697937 0.22866972 -0.22072956 -0.04288516
000130 b5 54 58 be e2 dc 26 bd fa 5b bc bd bd 6d f9 3c
       -0.21126063 -0.040737994 -0.09197231 0.030447835
000140 a9 00 a3 3c 95 ce 94 bd b1 c0 80 3d 4d 3e 8b 3d
       0.019897776 -0.07265965 0.06286753 0.06798992
000150 95 18 70 be a1 61 93 3d 2e 87 10 bd e5 5b 92 bd
       -0.23446877 0.071963556 -0.035285167 -0.07146434
000160 eb 76 45 3d 36 55 30 3e 9a ac 8b 3e 7b 31 c6 bd
       0.048209112 0.17220005 0.27280122 -0.096774064
000170 7c a1 83 bd 48 21 2f bd aa 3a 20 be 4a c7 4a 3d
       -0.06427285 -0.04275635 -0.15647379 0.049506463
000180 95 52 6b 3e 87 67 e0 bc ba 7c 78 3d 4a 37 aa 3d
       0.22980721 -0.027393116 0.060665824 0.08311327
000190 d7 21 1b 3d e2 9d ac bc a8 80 12 be 44 ff f6 bc
       0.03787407 -0.021071378 -0.14306891 -0.030151017
0001a0 e6 6f f1 bd 45 b9 b3 bd 48 ee b4 3d 25 fa 4a be
       -0.11788921 -0.08775572 0.08834511 -0.19821985
0001b0 f4 71 62 3d 9c b4 3f 3d b0 3d 38 3d d3 41 e3 3a
       0.055284455 0.046803102 0.044980705 0.0017338343
0001c0 a6 a1 e0 3c 6e fd 41 bd 66 db 24 3b 1a 54 11 3d
       0.02742083 -0.04736083 0.0025155186 0.035480596
0001d0 d5 10 ab 3d b7 9e 05 bd 25 db 95 bc f4 df 39 3d
       0.0835282 -0.032622065 -0.018292973 0.045379594
0001e0 a9 a5 41 3d 16 00 26 bd c7 e4 e0 3c 4d 13 72 3d
       0.047277126 -0.040527426 0.02745284 0.059100438
0001f0 58 18 35 be 7a da 87 bb aa 07 68 bd 68 aa 96 3d
       -0.17685068 -0.0041459175 -0.056647934 0.07356721
000200 71 f2 f9 3c 8d 7d 82 3d 5d cf 3f bd 28 87 ec 3d
       0.030511113 0.06371603 -0.046828616 0.115492165
000210 e0 a9 ed bd 45 88 4d 3b bc 84 47 be 19 03 9c bd
       -0.11604667 0.003136174 -0.19484228 -0.07617778
000220 9b 28 9e 3d 9c 64 f8 bd 54 1d dd bb b4 5f 40 bc
       0.07722589 -0.12128565 -0.006747881 -0.011741567
000230 5c 1b c8 3d 50 ae e0 bd 8d 37 91 be 66 02 ad bd
       0.097708434 -0.109707475 -0.28362694 -0.08447723
000240 ff 34 32 bd 88 f6 fe 3d 63 98 fd 3d ab f5 ac 3d
       -0.043507572 0.12449366 0.12382581 0.08445295
000250 21 12 06 3d 89 7f ca bd e9 eb 15 bd 87 d6 c3 3b
       0.032732133 -0.09887607 -0.036601935 0.0059765014
000260 a1 28 a8 bd e5 a2 a8 bc c1 94 d0 bb f0 96 9e bd
       -0.08210874 -0.020585487 -0.006365389 -0.07743633
000270 2d 04 77 bc 76 30 82 bc 3d ed 7b 3c bd 9d 0e 3e
       -0.015076679 -0.015892249 0.015376386 0.1392736
000280 62 7b 29 be 7a ef 1d 3e 78 4b 24 be 3c c6 6b bd
       -0.16550973 0.15423384 -0.16044414 -0.057562098
000290 90 78 02 3d 72 f4 b0 bc e4 91 1d 3d ee ff 18 be
       0.03185326 -0.021600936 0.03846921 -0.1494138
0002a0 8e ba 24 3e d8 42 8b 3d a7 54 6f 3d 75 02 49 bd
       0.1608679 0.06799859 0.05843034 -0.04907461
0002b0 f7 4f 76 bd 2c 28 6d 3d db 6d 07 bd ae f5 fc bd
       -0.060134854 0.05789964 -0.03306375 -0.12351547
0002c0 db 09 97 be 24 6a e8 3d ec ec dd bd 2c 55 1a bd
       -0.29499707 0.1134837 -0.10836205 -0.037678882
0002d0 58 b0 c7 ba 67 0f 0d 3e aa 00 cd 3c 2a 3c 56 be
       -0.001523505 0.13775407 0.02502473 -0.20921388
0002e0 c7 d7 04 bd 65 9c 2a be f1 a3 b7 bd de 60 96 3d
       -0.032432344 -0.16661222 -0.08966816 0.07342695
0002f0 af 86 e9 3c 41 76 b1 bd 05 8e b2 3d 1a 0a 39 be
       0.028506605 -0.08665133 0.08718494 -0.1807026
000300 eb f4 d9 bd af 17 22 3e cb 4b 07 bd a5 44 c8 bd
       -0.106424175 0.15829347 -0.033031266 -0.09778718
000310 37 70 e6 bc aa 67 c9 3d 0d 12 39 3d 28 cf 17 3d
       -0.02812968 0.098342255 0.04518323 0.037062794
000320 a5 db 29 be 60 e5 b4 3d 80 be 4d be bd a4 07 3e
       -0.16587694 0.08832812 -0.20092201 0.13246436
000330 e7 12 9d 3e dc e2 70 3b dd 46 e1 bc af 51 4d bd
       0.30678484 0.0036756312 -0.02749961 -0.050126728
000340 72 53 b4 bd bb 56 c7 3d 99 70 b5 3d 48 84 32 3b
       -0.088049784 0.097333394 0.08859367 0.002723949
000350 37 a0 d3 3d 77 58 97 3d bb 85 c5 3b f5 2f 19 3e
       0.10333293 0.0738992 0.006027905 0.149597
000360 5e d0 1c 3d 3c 72 81 bd bb a6 11 bd 27 99 75 bc
       0.038284652 -0.063206166 -0.035559397 -0.014990128
000370 70 40 ee bd db a9 ec bd 90 fc 6b 3d e7 67 f0 bc
       -0.11633384 -0.11555835 0.05761391 -0.02934642
000380 73 f4 73 3e 65 ce a1 bd dc cc 13 3e f5 63 73 3d
       0.23823719 -0.07900695 0.14433616 0.0594215
000390 e2 df 7e 3d b7 36 5d 3d 9e 90 39 3e 75 5e a5 bd
       0.06222523 0.05400726 0.18121573 -0.08074657
0003a0 e4 9c ca bc f1 d3 d1 3c 6b 65 cd 3c 99 c1 c4 3d
       -0.024733014 0.025613757 0.025072774 0.09607238
0003b0 57 63 0e be 0d d7 87 3a 86 e2 35 3e 57 5d b2 bc
       -0.13905083 0.0010363773 0.17762193 -0.021773024
0003c0 e3 61 df 3c 51 a0 d7 bd 6f e7 eb 3d a6 98 8c 3d
       0.027268356 -0.10528625 0.11518752 0.06865053
0003d0 07 08 0a be 16 df 77 be f8 52 fa bd a7 f6 c3 bd
       -0.13479625 -0.24206194 -0.12222856 -0.095685296
0003e0 e9 a6 f7 bd 7c 2c 84 3d 6c 93 b1 3d 15 82 90 3d
       -0.120923825 0.06453797 0.086706966 0.07056061
0003f0 96 1c 03 be 08 28 ce bd e3 c0 4d 3d da 1c 80 3d
       -0.12803873 -0.10066229 0.05023278 0.06255503

l1.bias f4 [100]
000000 0b 59 e4 bc d8 cf 28 3c d5 a7 29 3e cf d7 8d 3d
       -0.02787449 0.01030346 0.16567929 0.06925928
000010 4e 54 11 3e 41 33 0c 3c 60 9b 4e 3e 4c e1 42 bd
       0.14192316 0.008557142 0.20176458 -0.04757814
000020 0d bc 18 bd 97 c4 5d bd 89 51 33 bd 94 d7 f1 bd
       -0.037288714 -0.05414256 -0.04377893 -0.118086964
000030 51 b4 03 bd ab 4f 11 3c ab 61 2f bd 1b 80 ec 3d
       -0.032154385 0.008869092 -0.042817753 0.11547872
000040 d7 21 42 3d c5 82 28 3d ca ee a4 bd ae 01 e0 bc
       0.047395553 0.041140337 -0.08053358 -0.027344551
000050 d1 ce 4a 3e 5b e2 36 bd 63 2f 12 bd c6 c8 0b 3e
       0.19805457 -0.044649463 -0.035689723 0.13650808
000060 b3 ed d6 3c b9 c7 2e 3e 9e 94 41 bd 5d 52 00 be
       0.02623639 0.17068376 -0.047260873 -0.12531419
000070 c4 25 83 3b f0 78 b0 be 68 b9 51 3d 4e 90 d5 3d
       0.0040023047 -0.34467268 0.051202208 0.104279146
000080 e6 fa 33 be 2d f9 8c be 34 27 58 be 94 ed 2c bc
       -0.17576179 -0.27533856 -0.21108705 -0.01055469
000090 d4 16 ef 3c c8 96 20 3e e2 53 1c bb 0a d7 54 bd
       0.02918569 0.15682518 -0.002385371 -0.05196289
0000a0 51 e1 7b be 89 2d 88 3e 26 24 11 be 68 d7 3c 3c
       -0.2459767 0.2659724 -0.14173946 0.011525966
0000b0 5e 8e 53 bd b2 43 89 bc 74 31 42 bc b1 5d 1b bd
       -0.051649444 -0.016755912 -0.011852611 -0.037931148
0000c0 42 5e 92 bd 40 45 49 be 34 23 aa bb 52 90 29 3e
       -0.071468845 -0.19655323 -0.005192185 0.1655896
0000d0 69 9c f0 3d d2 54 43 be f7 13 d8 bc e2 53 52 bd
       0.11748583 -0.19075325 -0.026376707 -0.051349528
0000e0 36 b3 15 bd a4 4e 5c 3d 90 5f 16 bd 90 16 9a bd
       -0.036547862 0.053785935 -0.03671223 -0.07523835
0000f0 29 bd 2d be e8 99 9f 3d 15 72 80 bc 6b d8 fe 3d
       -0.1696669 0.07793027 -0.015679399 0.12443622
000100 f5 9b e1 3d 57 da 16 be 46 d9 8b bc e0 ea c1 3d
       0.110160746 -0.14731728 -0.017071377 0.09468627
000110 02 e1 04 bd 29 70 88 3c dc 4b cf 3d 21 c1 9c bd
       -0.032441147 0.016655045 0.10121891 -0.07654024
000120 95 b4 00 be b4 15 5b 3e b8 5d b9 3d 08 3a 2a 3d
       -0.12568887 0.21394998 0.090510786 0.04155925
000130 a3 16 47 be b3 ca 8f bd 63 55 69 be dc d1 cc bd
       -0.19442229 -0.07021084 -0.22786479 -0.10000965
000140 60 e0 0c 3d 76 fd 08 be bd 80 1a bd 0a fb 6c 3d
       0.03439367 -0.13377938 -0.03772043 0.057856597
000150 5b 84 14 3d 0e 95 8c 3c e7 47 a4 bd 2a 72 e9 3c
       0.036259037 0.017160919 -0.08021527 0.02849682
000160 83 d7 16 be 10 83 cb bc e9 76 1b 3e 50 b4 ad 3d
       -0.14730649 -0.024842769 0.1518208 0.084816575
000170 1d 45 f4 bc fe 6e 3f 3d f6 e2 10 3e df ad 50 bd
       -0.029818112 0.04673671 0.14149079 -0.050947066
000180 fd 4b 84 bb f8 25 ec bd 3c 96 23 be 3c fb 85 3c
       -0.004037379 -0.115306795 -0.15975279 0.01635515

l2.weight f4 [100, 100]
000000 6b 49 dc 3c 5a 27 15 3e 93 7a 9a bd 68 10 01 bd
       0.026890477 0.14565793 -0.075429104 -0.031509787
000010 f1 83 b7 bd 56 72 14 3e 01 32 bc bc 61 c0 9c 3d
       -0.08960713 0.1449674 -0.022973062 0.07653881
000020 49 f3 aa bd 70 47 a0 bd 38 90 bd 3c bd 27 74 bd
       -0.08347184 -0.078261256 0.023140058 -0.05960821
000030 08 17 b1 bc f3 14 d9 bc 6e 98 a2 3c cd 06 fc bb
       -0.021617427 -0.026499247 0.019848075 -0.0076912404
000040 5c 30 60 be ad 3e e6 bd f4 e9 94 3c 6a 16 3a 3e
       -0.21893448 -0.11242423 0.018177964 0.18172613
000050 8f a9 af 3c d7 f3 09 3e 91 f7 4b 3d 2b d9 37 3d
       0.021443157 0.13471924 0.049796645 0.044884842
000060 e6 c3 3e 3d 5e 2c 43 3d 1a 79 65 be e9 a2 f6 bd
       0.046573542 0.047649734 -0.22409478 -0.120427914
000070 f5 f2 3f be c9 33 0d be b2 c1 e5 3d c3 6f c3 bd
       -0.18745025 -0.13789286 0.11218585 -0.09542801
000080 14 c1 ac 3d e9 55 49 3c ad 73 50 3d 5f 8c 10 3d
       0.08435264 0.012288549 0.050891567 0.03529012
000090 64 28 67 bd 17 9a 1d bd 29 53 96 bd 30 43 a4 3d
       -0.056435004 -0.03847703 -0.0734008 0.080206275
0000a0 de 6a 87 bc b7 cf 60 3d 92 27 0c bd 3e 63 2d bd
       -0.01653045 0.054885592 -0.034217425 -0.042330973
0000b0 8d 07 8a 3d fa 60 8b bd be 2a d0 bd a2 96 49 3e
       0.067397214 -0.06805606 -0.101644024 0.19686368
0000c0 e0 87 5b bb e3 3c 98 3d b0 d4 eb bc be c8 3c 3d
       -0.0033497736 0.07433488 -0.02878794 0.04608988
0000d0 53 5c 6e 3c e0 82 99 bd 09 65 26 3e f0 9d 20 3d
       0.014548379 -0.074956656 0.1624948 0.03921312
0000e0 77 e8 a5 bd f5 91 26 3d 59 11 c4 bd 74 ff 18 bc
       -0.0810098 0.04066654 -0.09573621 -0.0093382485
0000f0 b4 25 f8 3c a8 b0 da 3d b2 27 0f 3d 10 23 4f 3c
       0.030291416 0.10678226 0.034949966 0.012642637
000100 77 24 d5 3b 56 3e d9 bd 6c e7 6e 3d 3d ec 08 be
       0.006504591 -0.10607593 0.05832617 -0.13371368
000110 00 63 16 3e 0d a0 7f 3d 88 64 b5 bd 77 bc 6f 3d
       0.14686203 0.062408496 -0.088570654 0.058529343
000120 0d 3f 0b 3e a0 37 80 3d e3 1f f7 3d 49 5a 80 3c
       0.1359827 0.062606096 0.12066629 0.015668051
000130 a4 75 82 3e 8f 43 6e 3d 19 ba 13 bd 21 d3 24 bd
       0.25480378 0.058169898 -0.03606615 -0.04024041
000140 21 1e 3d 3e 2b 67 1e bc ca 2c 7e bd df 2e cd 3c
       0.18468525 -0.009668152 -0.062054433 0.025046764
000150 28 d0 22 3d 65 4b 89 bd aa cc 5d bd a8 3f 05 be
       0.039749295 -0.067038335 -0.05415026 -0.13012564
000160 9a bb d7 bd 8c ed b9 bd 60 54 85 bd cb 6e 9b bc
       -0.10533829 -0.090785116 -0.06510234 -0.018973729
000170 db 5c bc 37 a9 be ef bd 10 54 81 bc 2f f3 d1 b9
       2.2454586e-05 -0.117062874 -0.015787154 -0.00040044772
000180 32 f5 ab bd 97 08 71 3e c7 79 e2 3c 0e f3 2a 3d
       -0.08396377 0.23538433 0.027645959 0.0417357
000190 13 85 b7 bd 38 f8 42 3d 77 52 1c be 5c 34 6e 3d
       -0.08960929 0.0476 -0.15265833 0.058155403
0001a0 39 cb 57 3e 52 78 02 3c ee e3 46 3e c6 1d ae bd
       0.21073617 0.007963257 0.19422886 -0.085017726
0001b0 03 d2 c7 3d b1 ee 1f 3d 8c c9 44 3d eb a9 ba 3d
       0.097568534 0.039045993 0.048043773 0.091144405
0001c0 19 d4 1f 3d a0 ab 3d bc d4 1a 96 bd 3d 7e c0 bd
       0.03902063 -0.011576563 -0.07329336 -0.09399078
0001d0 66 e6 16 3d 52 be b2 bd 18 b3 14 3d 24 96 04 3e
       0.03684082 -0.08727707 0.03630361 0.12947899
0001e0 ed 22 9a bd 14 09 f9 bc 68 c9 24 3d 3d 82 31 3d
       -0.07526193 -0.030399837 0.04023114 0.043337096
0001f0 5b 9a 09 3d a8 fe d3 3c 35 4c 19 bd 5a 60 d9 bd
       0.03359447 0.025878266 -0.037426192 -0.10614081
000200 a4 f4 ce 3d 50 9a d8 bd a4 42 1b bd 1d 91 88 bc
       0.10105255 -0.10576308 -0.03790535 -0.016670758
000210 c4 c3 08 3e a4 9a 79 3c cb 41 35 3e a5 9b 88 3d
       0.13355929 0.015234623 0.1770088 0.06670312
000220 b6 70 e8 bc f1 d6 cc bd 97 80 d0 bc f0 49 4d bd
       -0.028374057 -0.10001934 -0.025451941 -0.05011934
000230 10 2a ab 3d 05 2e 47 bc c2 24 e0 3c bf 78 31 bd
       0.08357632 -0.012156968 0.027361277 -0.043328043
000240 03 d6 03 bd 8e 13 0a 3e 21 05 15 3d 37 8b 1d 3e
       -0.03218652 0.13484022 0.036381844 0.15385137
000250 52 6f 60 bd 88 14 4b 3d c9 63 31 bd b3 7d e0 bb
       -0.054793663 0.049580127 -0.043308053 -0.006850922
000260 2c df 4c ba 73 fe f7 3d de 9b 09 3e f6 8d 2f 3d
       -0.00078152376 0.12109079 0.13438365 0.042859994
000270 20 5a 00 be 1f 0c 59 3d 0a 88 22 be 71 3c 88 bd
       -0.1253438 0.052990075 -0.15872207 -0.06652153
000280 b2 fe 6e 3d ca 05 3d 3d ad 1f 83 bd 7b 71 08 3d
       0.058348365 0.0461481 -0.06402526 0.03331135
000290 07 3a 35 3d fe 10 05 bc 8a 76 19 3e 0a d1 3b 3c
       0.044244792 -0.008121727 0.14986625 0.011463413
0002a0 d9 23 2a 3d 0c a8 13 be 60 59 64 bc 6d bd a4 3c
       0.041538093 -0.14419574 -0.013937324 0.020109857
0002b0 f0 e9 d8 bd 8b 79 d9 bb e2 9e 8a 3d 35 e7 43 3d
       -0.10591495 -0.0066368035 0.06768586 0.047827918
0002c0 b3 c0 97 bd 37 c0 b3 3c 01 6e c4 bd 88 36 0d be
       -0.07409801 0.021942241 -0.09591294 -0.13790333
0002d0 a9 10 ef bd f9 00 32 be 21 25 9f 3d ae f8 13 be
       -0.116730995 -0.17383184 0.07770754 -0.14450333
0002e0 d4 45 28 bd 6b 36 9d 3c bf 46 10 be 8c 52 dd bc
       -0.04108222 0.019190988 -0.14089487 -0.0270169
0002f0 07 e0 90 bd 02 cc 80 bd 9a 91 43 3e b5 38 1c 3d
       -0.0707398 -0.062889114 0.19098511 0.038140018
000300 e8 75 d0 bd 1e e8 07 3d e2 d5 d2 3d b8 ed 63 3d
       -0.10178739 0.03318035 0.10294701 0.05564663
000310 34 d3 f1 3d f3 d3 01 be 8f af 97 bd e7 4d cc bc
       0.11807862 -0.12678508 -0.07406532 -0.02493949
000320 7f cc 47 3d 5b f7 d4 3c 16 77 07 3e f1 96 90 3d
       0.048779007 0.025996855 0.13229021 0.0706004
000330 0b ac 4d bd 6f 52 4b 3e a5 34 e0 bd 6a f6 d2 bd
       -0.0502129 0.19855665 -0.10947541 -0.10300906
000340 77 28 3c bc 84 d5 78 bd 06 86 83 3e 97 06 f4 3d
       -0.011484257 -0.0607505 0.2568819 0.119153194
000350 55 29 0b be 13 27 10 be 63 55 70 3c c3 b2 7d be
       -0.13589986 -0.14077406 0.014668795 -0.24775223
000360 79 36 d9 bd de 79 47 be ec 35 f2 3b c2 cf 0f 3e
       -0.10606093 -0.19480082 0.007391682 0.14044097
000370 46 70 98 3d 9c be 71 38 5b 07 7d be b1 87 0a 3e
       0.074432895 5.7636396e-05 -0.24709837 0.13528325
000380 a5 bb dd 3b b7 df 2b 3d 1d 58 8c bd 8d 3d 13 3d
       0.0067667537 0.041961398 -0.06852744 0.03594737
000390 fc c4 76 bd 95 1b 48 be d2 43 d2 bd 23 bb e7 3c
       -0.060246453 -0.19541772 -0.10266842 0.028287476
0003a0 11 ff a9 3d 24 9a 2f 3e ef 14 51 be 74 9a a5 bd
       0.08300603 0.17148644 -0.20418142 -0.080861
0003b0 4c a4 38 3e 99 7b c3 3d 1a 7b 75 3e a4 c8 d5 3c
       0.18031424 0.09545059 0.23972741 0.02609665
0003c0 a2 07 ed bc cb ca 07 be eb 91 a9 bc 49 14 a2 bd
       -0.028934304 -0.13260953 -0.020699462 -0.07914025
0003d0 c6 7a 92 bd c4 fd 49 3d fb b9 8b 3d 64 51 bb bd
       -0.071523234 0.049314275 0.06822582 -0.091463834
0003e0 de a6 93 3d dc 5d 0d 3e 01 4d 54 3e 16 00 0b be
       0.07209562 0.13805336 0.207325 -0.13574252
0003f0 a3 81 7a 3d 7f 74 eb 3c 5b 1e 96 bd 0f d9 cf 3c
       0.061158787 0.028742073 -0.073300086 0.025372056

l2.bias f4 [100]
000000 66 e8 10 3d ec cf 28 be 85 ef 14 3e dd ea 9a 3c
       0.035377882 -0.16485566 0.14544494 0.01891082
000010 38 2a d4 bd 81 cc 3a 3e 45 21 2d 3d 38 77 23 be
       -0.10359615 0.18242075 0.042268056 -0.15963447
000020 9b 60 21 be 88 b0 01 bd 19 01 1d 3d b3 17 50 3e
       -0.15759508 -0.031662494 0.038331125 0.2032154
000030 ad 57 52 3d 1e be 54 3d e0 37 df 3d 07 18 1d 3e
       0.051353145 0.051939122 0.10899329 0.15341197
000040 dc ae a1 3b 6d d6 f9 3c 18 f8 96 3e 08 79 fa 3c
       0.004934175 0.030497754 0.29486156 0.03057529
000050 57 04 13 3e 23 10 b1 bd 10 ef 8d 3d b0 26 a2 3d
       0.14357124 -0.08645656 0.06930363 0.07917535
000060 cf 5d c0 bd b6 50 0d 3d 42 42 91 bc d2 cb 13 be
       -0.093928926 0.0345008 -0.01773179 -0.1443322
000070 d1 4c 87 3d 6e 99 a9 bd 05 f1 08 bc 20 2a 02 bd
       0.066064484 -0.082812175 -0.008358245 -0.031778455
000080 ba 76 b8 3c fe 24 92 3c bd 2f 1d be e0 79 56 3d
       0.02251755 0.017839905 -0.15350242 0.052362323
000090 ab 35 29 3e aa 72 a3 bc 10 d9 34 3d b2 6e 8b bd
       0.16524379 -0.019952137 0.04415232 -0.06808223
0000a0 ff b6 02 bd f9 fd aa bd 61 ee 28 bd 7c ad 1e 3d
       -0.0319128 -0.08349223 -0.04124296 0.038739666
0000b0 14 e1 48 bd 89 47 3e bd 0d f3 59 bc e6 be f5 bd
       -0.049042776 -0.04645494 -0.013302577 -0.119993016
0000c0 d9 cc 30 3b 0c 07 e9 3c 5e 9a b3 3c 45 2c 66 bd
       0.0026977567 0.028445743 0.021924194 -0.056194562
0000d0 e6 e7 a8 3d 65 04 90 3d ab cb f2 3b bc e6 b5 ba
       0.08247356 0.07032088 0.007409533 -0.0013877968
0000e0 78 61 d4 bd 2e fb c7 3d 52 b5 53 bd 11 b6 10 3e
       -0.10370153 0.097647056 -0.051686592 0.14131953
0000f0 0c db 2d be e1 0e 63 be 0c 7e 12 3e 13 29 2c 3e
       -0.16978091 -0.22173645 0.14305896 0.16812544
000100 01 34 16 bd 8c 70 05 bd 3a 1e 9a bc 18 75 a6 3d
       -0.03667069 -0.032578036 -0.018813241 0.081278026
000110 9f 4e b6 3d 48 dc 5e bd 1f 46 38 be 56 21 b8 3c
       0.089017145 -0.054409295 -0.17995499 0.022476833
000120 f1 63 92 3d e0 c1 57 bd 7a a2 50 3d 3f 4b 95 3d
       0.071479686 -0.052675128 0.0509362 0.07289743
000130 ed b7 5e be 77 c6 28 3e b3 f9 c9 3c e4 fe ab 3c
       -0.2174985 0.16481958 0.024655199 0.020995565
000140 84 2e 81 3d ce 51 d9 bc ba a1 f7 ba 11 7d 21 3e
       0.063077 -0.026528265 -0.0018892803 0.15770365
000150 4b 18 1e bd 01 59 9e 3c eb 8a 92 bd 96 70 40 3c
       -0.038597386 0.01932955 -0.07155403 0.011745593
000160 ed bb 69 3c 84 a3 05 3d 1c ca 9b be 55 8a be 3d
       0.014265996 0.032626644 -0.30427635 0.093037285
000170 7f 9f 41 bc 99 c3 3b bd aa bd 0a bd 68 60 b6 bc
       -0.011817812 -0.045840833 -0.033872284 -0.022262767
000180 c8 51 06 be 41 f4 93 bd 3b a4 42 be 6a e8 94 3d
       -0.13117135 -0.07224322 -0.19007961 0.07270892

l3.weight f4 [18, 100]
000000 9f 8a 83 3d 19 b5 88 bd 74 1a 39 bc 8e df eb 3d
       0.06422924 -0.06675167 -0.011297811 0.11517249
000010 14 56 4b be e8 d8 b3 3c bb 1c b0 bd 13 2e 85 3c
       -0.19857055 0.021954015 -0.0859923 0.016257321
000020 4a 12 56 bb 41 ea 72 bd d8 11 1a 3d 6f c2 e5 3d
       -0.003266471 -0.059305433 0.037614673 0.11218726
000030 3b c9 ae 3d 52 4a 0a 3d 7d ed fa bd 4a 63 b7 3d
       0.085344754 0.033762284 -0.122523285 0.08954485
000040 29 a4 84 3d 48 8f b2 bd 8f 06 cc bd c2 cf df 3d
       0.064766236 -0.08718735 -0.099621885 0.109282985
000050 9a d0 8c 3c d3 f8 9e bc 41 b7 1f 3e 51 09 24 bd
       0.017189313 -0.019405758 0.1559725 -0.040047947
000060 9b 7c 79 be 9d fb c2 bd fc f9 08 bd d4 df 66 be
       -0.2436394 -0.09520648 -0.03344153 -0.22546321
000070 45 17 11 3e 23 4d d7 3d 29 5b 35 bd 19 b2 34 3c
       0.14169033 0.105127595 -0.04427639 0.01102879
000080 7b 9c 79 3e 2c 8f 6a be b9 af cd bd 46 52 17 be
       0.24376099 -0.22906178 -0.10043282 -0.14777479
000090 d5 e8 41 3d 70 8a 15 3d ca 17 5e 3e a9 02 55 bd
       0.047341187 0.036508977 0.21688762 -0.05200449
0000a0 8b c0 1c 3c f5 22 36 3e 9b aa 1e bc 3a 10 ed 3d
       0.00956739 0.17786773 -0.00968423 0.115753606
0000b0 cb 6f 57 bd 6c af be 3c f3 b2 52 3e 70 da 86 3d
       -0.05259685 0.023277007 0.20576076 0.065846324
0000c0 b6 37 38 3e c8 cc 4b be 0f 41 8b 3d 92 40 51 be
       0.17990002 -0.19902337 0.06799518 -0.20434788
0000d0 0f 25 21 be 34 08 00 be 5b 83 91 bd e4 fd 29 be
       -0.15736793 -0.12503129 -0.07105132 -0.16600758
0000e0 ff b8 ad bc 2b f4 93 bd 18 fe 05 be 0f 96 8f bd
       -0.021206377 -0.07224306 -0.1308521 -0.07011043
0000f0 06 9a 71 3e e9 c4 3a 3e 18 d2 18 3d 8c df 96 bc
       0.23593912 0.18239178 0.037309736 -0.018417142
000100 08 99 a8 3d 4b 26 34 be df 3c 71 3e 2a 75 ba 3d
       0.082323134 -0.17592733 0.23558377 0.091043785
000110 f1 1f e6 bd 29 a5 22 3e ef f9 65 be 4e 78 98 3d
       -0.11236561 0.15883316 -0.22458623 0.07444821
000120 8a 34 81 3d c9 f5 06 3e 6f b6 ac 3c 82 e6 0e be
       0.06308849 0.13179697 0.021083085 -0.13955119
000130 03 f4 2b 3e 44 7e 99 3c b3 a8 a9 be 34 9f 64 bd
       0.16792302 0.018736966 -0.3313652 -0.05581589
000140 99 0b 76 3e 5e c7 19 be 96 a1 e1 3d 3c 7a 24 39
       0.24027862 -0.15017459 0.11017148 0.00015685795
000150 0e 62 a1 bd d5 20 dc 3d eb cf 76 be c7 85 0e be
       -0.078800306 0.1074845 -0.24102752 -0.1391822
000160 15 fa e9 bd 1d d5 52 be a1 f4 62 3e c5 35 b7 3d
       -0.114246525 -0.20589109 0.22163631 0.089458026
000170 6a 5e ef 3d 4b a3 ec 3d 32 e9 84 3d 45 36 c1 bd
       0.1168793 0.11554583 0.06489791 -0.09434179
000180 26 33 19 3d f8 90 36 3c d4 a9 50 bc 26 a3 7b be
       0.037402295 0.011142962 -0.012735803 -0.24573955
000190 76 03 84 3c 6f 54 1c be 4b 08 a9 3d 40 b4 78 3d
       0.016114932 -0.15266584 0.08253535 0.060718775
0001a0 1b 30 9f 3d ee b3 35 3c 48 a6 0f 3e d8 c4 84 be
       0.07772847 0.011090262 0.14028275 -0.2593143
0001b0 65 6f 5c be 6a cb 6f 3d de 74 c5 bc c7 91 45 3d
       -0.21526869 0.0585436 -0.024103578 0.048234727
0001c0 ac 24 bb 3d f3 78 d4 3d 9d 06 b8 3e 98 90 41 bc
       0.09137854 0.10374632 0.35942546 -0.011814259
0001d0 46 9d c4 bd cd 4e 58 bd 77 e9 0e 3e 5f c0 de bd
       -0.0960031 -0.052809525 0.13956247 -0.108765356
0001e0 2b d7 00 3e 6b c3 b5 3d 64 f4 11 3e 9e 83 68 bc
       0.1258208 0.08875164 0.14253384 -0.014191536
0001f0 b7 12 54 be a2 18 02 3e 1d 6b 03 be 52 de 8f 3d
       -0.20710264 0.12704709 -0.12833829 0.07024826
000200 83 8e 28 be eb c0 dc bc 02 5c 4b 3e d4 51 ca bc
       -0.16460614 -0.02694746 0.19859317 -0.024697222
000210 69 ab fd 3d dc 69 c0 3d 2e db 3a 3d fe d0 b3 3d
       0.123862095 0.09395191 0.045619182 0.087800965
000220 e7 cc 52 3c 77 c5 57 3d cc d5 32 bc e0 38 d7 3d
       0.012866235 0.05267855 -0.010915231 0.10508895
000230 9f d3 98 bd dc b5 07 be 61 0d b7 bd 4d c7 ae 3e
       -0.074622385 -0.13252968 -0.08938099 0.3413643
000240 9b d8 76 3d 02 ec 4f 3d 5a 9b 7f bb ad c8 85 3d
       0.060265165 0.050762184 -0.003900251 0.065324165
000250 9c c7 89 3d 8e 60 2a be 83 87 ef 3d 83 51 d4 bd
       0.067275256 -0.16638395 0.11695769 -0.103671096
000260 f5 0b a7 3e 33 ec 87 3d 98 fe ae 3e c1 2e 6a bc
       0.3262631 0.06636848 0.34178615 -0.014293374
000270 d2 dc 13 be 53 8d 51 bc 66 a4 2f 3c 5d f8 32 3e
       -0.14439705 -0.012790042 0.010720348 0.17477556
000280 6f 30 98 bd dc d6 c6 3c 81 17 47 3e b9 ce 58 be
       -0.07431113 0.024272375 0.1944256 -0.21172608
000290 62 33 ef 3c 88 b4 cc 3d 5b 97 09 bd 0e 40 5e be
       0.029199306 0.09995371 -0.03359161 -0.21704122
0002a0 91 3a 8f 3e f0 a7 39 3d ad b0 03 be 40 e3 cd 3d
       0.2797437 0.045326173 -0.12860365 0.1005311
0002b0 cc c7 36 3e d9 f6 d9 bb 17 6a 01 3e 08 70 63 3d
       0.17849654 -0.006651741 0.12638126 0.055526763
0002c0 55 f3 8a be 08 fb fb bd 60 3a e3 bc 18 2c f2 3d
       -0.27138773 -0.1230374 -0.027737796 0.118248165
0002d0 f7 9d 72 3b 5b 70 50 3e 32 c0 f5 bd c2 51 55 3e
       0.0037020424 0.2035536 -0.11999549 0.2083197
0002e0 71 ea 43 3d af a4 b2 3d 49 29 1d be ae 3c 90 3c
       0.047831003 0.08722817 -0.1534778 0.01760706
0002f0 cf 86 ec 3d 5d c1 2b bd dd 1c 02 be 82 56 1c 3d
       0.1154915 -0.041932452 -0.12706323 0.038168438
000300 4e 9d 6a bd f4 dc 8a 3d 77 7a aa bd b9 7a 5f be
       -0.057278924 0.06780425 -0.083241396 -0.21824159
000310 96 32 a0 3a 97 2e 3f be 53 c9 0e be 41 95 26 3e
       0.0012222107 -0.18670116 -0.13943987 0.16267873
000320 a3 6c 27 be 4e ea b0 3d fe 51 1e 3e 42 c4 94 bd
       -0.16350035 0.0863844 0.15460965 -0.07263996
000330 69 fa df bd 90 4f 53 3e 75 d8 e4 bb 55 d0 1d bd
       -0.10936434 0.2063582 -0.0069838115 -0.03852876
000340 1a 90 54 3e 5f c2 38 bd a9 df 9d bd f8 12 9c bc
       0.20758095 -0.04510724 -0.077086754 -0.019052014
000350 29 27 1a 3e ce c0 a6 bd c8 2f 0a bd 29 62 84 bd
       0.15054001 -0.08142243 -0.033736974 -0.06464035
000360 d9 09 1d 3e e8 c2 b5 3d 40 4c 38 3e 6f 79 01 3d
       0.15335788 0.08875066 0.17997837 0.03160995
000370 a0 aa 1b bd 27 50 2d 3c 82 aa 32 3e 58 57 3d bd
       -0.038004518 0.010578192 0.17447856 -0.046225876
000380 c1 7a 2f bd 34 25 ac 3d 5f 49 9f 3c d1 d8 90 3d
       -0.042841677 0.084055334 0.019444166 0.070726044
000390 b4 31 95 bb d7 77 67 3c 91 7a e6 bd d0 23 5b bd
       -0.004553044 0.014127693 -0.112538464 -0.05350095
0003a0 85 b8 09 be 93 bd 3c be e2 52 db 3d 68 c0 6a bc
       -0.13449295 -0.18431692 0.10709168 -0.0143281
0003b0 4e 5b 71 bd b1 72 30 3d 25 9c 92 3c 22 39 fe bd
       -0.058924966 0.04307813 0.017896721 -0.12413241
0003c0 c3 b2 cd 3d d8 2e 3f 3e ce f4 aa bc 68 ca 22 be
       0.10043862 0.18670213 -0.020868685 -0.15897524
0003d0 71 bf 03 bd 30 35 5b bd 38 72 1a be c2 01 9a bd
       -0.032164995 -0.05351752 -0.15082633 -0.075198665
0003e0 5b 7c 6b bd 53 6e fe 3c fd f2 f2 bd 98 04 aa 3d
       -0.05749164 0.031058466 -0.118627526 0.083016574
0003f0 38 ce 81 bd 66 22 4f be d0 2c 34 be fd c8 18 3d
       -0.06338161 -0.20227966 -0.1759522 0.037301052

l3.bias f4 [18]
000000 1d 31 81 3e ae 68 f8 be 48 cd 1c bd de a0 1f 3f
       0.25232783 -0.48517364 -0.03828171 0.6235484
000010 4b 4a 01 be d5 d1 ac be db 57 25 3e b1 59 c7 be
       -0.12625997 -0.3375384 0.16146795 -0.38935617
000020 54 9c 5e 3e b8 87 97 3e 0a bd 87 3e e5 1f e2 3c
       0.21739322 0.29595733 0.26511413 0.0276031
000030 46 59 a3 3e b9 d8 d8 be 58 06 a1 3e 19 a2 61 3e
       0.31904048 -0.42352846 0.31450152 0.22034492
000040 f3 1d 6c bd 04 a4 76 bb
       -0.05764575 -0.0037634382
