LARA/data/result/g_250.pt (torch, 87406 bytes, 7 tensors)

G_attr_matrix.weight f4 [36, 5]
000000 77 f0 ad 3d 25 44 8f bd fe 56 b8 be 15 ca e7 3d
       0.08493131 -0.069954194 -0.3600387 0.11317841
000010 a3 bb 05 3d 84 f6 c5 bd 63 af a6 3d 07 ce 31 3e
       0.032649647 -0.0966616 0.08138921 0.1736375
000020 4f 99 6e 3d 64 19 51 bd df 78 95 bd 34 b8 aa 3c
       0.058251675 -0.051049605 -0.07298445 0.020839788
000030 46 19 6a 3c 75 d4 93 3d d8 0b 1c bb e1 e6 02 bd
       0.014288252 0.07218257 -0.002381077 -0.031958465
000040 da 51 e4 bd 14 78 a5 bd c6 92 9a bd 20 16 c4 3c
       -0.111484244 -0.08079544 -0.07547526 0.023936331
000050 5a 1a 0e 3c b0 f4 31 be 6f d1 85 3a 0c cf 4e 3a
       0.008673275 -0.17378497 0.0010209511 0.0007889129
000060 d6 c0 8b 3d b8 5d a1 3d 66 26 30 3d 35 67 ff bc
       0.0682389 0.078792036 0.04300537 -0.031177143
000070 1e e1 67 3e 72 54 be bd f3 3a 10 bd 53 dd 96 bc
       0.22644469 -0.092934504 -0.03521247 -0.018416082
000080 ad 25 b1 bc 36 14 be 3d da 9c 63 3e 18 50 84 3e
       -0.02162441 0.09281199 0.22227803 0.25842357
000090 bf 9a e3 3d 6c f7 50 3e 5e 6f 2a 3e 38 73 1c 3d
       0.111135 0.20406884 0.16644046 0.03819582
0000a0 d6 22 20 bb fb 7f 50 3c 06 ce 68 3b ae 66 66 bd
       -0.0024434826 0.012725825 0.003552319 -0.056250267
0000b0 e6 7d 07 be 52 23 00 bc 0e 7d b9 bc 52 ba 9f bb
       -0.1323162 -0.007820921 -0.022642639 -0.004874506
0000c0 78 13 b0 3d 6e ae 6d 3e fc 9f 9f 3e df ef 6c 3c
       0.08597463 0.23211071 0.31176746 0.014461487
0000d0 d0 14 b7 3c 97 7d 01 be fd 8c b7 bc 5a 28 14 3d
       0.022348791 -0.12645565 -0.022406096 0.036171295
0000e0 dc 47 41 be 4c 8e 78 be 3a e5 2e 3d 61 82 2d 3e
       -0.18875068 -0.24273032 0.042699076 0.16944267
0000f0 4c 3b 0f 3c 30 5e 0d 3e e1 d3 1d 3c 6d 64 6a bb
       0.008742165 0.13805461 0.009633035 -0.0035765425
000100 8b d1 92 3d 97 67 2e be bc 47 0e 3d 17 bf 9b bc
       0.071688734 -0.17031704 0.03473638 -0.019012017
000110 92 0b b2 bd 45 58 57 3d 55 3b 4b bc 3e c0 67 bd
       -0.08693613 0.052574415 -0.012404283 -0.05657982
000120 02 ec bf 3d 83 0f 63 3c 55 8b 1a 3d 0f 5a 93 be
       0.09371187 0.013858679 0.037730534 -0.28779647
000130 1b d2 4e 3e e3 86 69 be 66 bf 4f 3e 7c d9 2c be
       0.20197336 -0.22805361 0.20287856 -0.16879839
000140 d0 79 7b 3e 69 c9 da bc 54 ed 01 be bd 5e 54 3e
       0.24558187 -0.026707368 -0.1268819 0.20739265
000150 39 78 fd bd 53 2a 06 bd 7a c5 a3 3e 51 a3 03 3f
       -0.12376446 -0.032755207 0.319866 0.51421076
000160 0c 2f 1f 3e d7 9e ba 3d 37 b3 04 bc 81 8b 9a be
       0.1554529 0.091123275 -0.008099369 -0.30184558
000170 63 6c d3 3b 29 8a 02 3e 5e f6 0e be 2e 77 7d bd
       0.0064521297 0.12748016 -0.13961169 -0.061881237
000180 7d a7 b0 3d 3e 78 58 be 30 65 41 3e 80 e4 6b 3c
       0.08625696 -0.21139619 0.18886256 0.01439774
000190 ea 85 75 be 60 53 49 bc 68 f0 d7 3c 1b d6 00 bd
       -0.23976865 -0.012287945 0.026359752 -0.031454187
0001a0 42 20 8e bc 21 73 5f be c5 20 28 3e 5f 88 49 be
       -0.017349366 -0.21821262 0.1641875 -0.19680928
0001b0 7f 94 11 3e 44 f7 3e 3d 9e 20 82 3c 1f 48 0b bc
       0.14216803 0.04662253 0.015884694 -0.008501082
0001c0 f1 c4 2b bc b7 44 fc 3b 81 cf d4 3c 9e 5a b6 3d
       -0.010483966 0.007698621 0.025977852 0.089040026
0001d0 92 36 5d 3e a1 da 2c 3e 70 4a 43 be 99 80 97 ba
       0.21602848 0.16880275 -0.19071364 -0.0011558711
0001e0 cd 82 03 3f 45 1d 62 3c 0e 1f cd 3c df 8d 87 be
       0.5137146 0.013800924 0.025039222 -0.26475427
0001f0 b0 f7 43 bc e3 ad 93 3e 65 28 4d be 3c f5 99 bd
       -0.011960909 0.28843603 -0.2003494 -0.07517478
000200 fb 3c 82 be dd 4a 0e 3e 0b 2c 56 3c 4c d9 2e 3d
       -0.2543715 0.13895746 0.013072024 0.0426877
000210 86 11 cd bc ec e1 11 3e 23 b1 09 bd 8d f5 85 be
       -0.02503277 0.14246339 -0.033616196 -0.26163903
000220 7a 8d d4 be df dc 4a 3e b6 ee 9d 3e e4 3c 99 3e
       -0.41514188 0.19810818 0.30846184 0.29929268
000230 3b 7b 0e bd a3 45 ee 3a 53 82 93 3c 76 df df 3b
       -0.03478549 0.0018178712 0.01800648 0.0068320585
000240 51 63 29 bd ee ae e3 3d 43 17 b9 bc af b9 08 bd
       -0.04135448 0.111173496 -0.0225941 -0.033380207
000250 35 f2 dc bc 0a 97 12 3e 51 6a 10 bc 3b 04 c3 bc
       -0.026970962 0.1431543 -0.00881441 -0.023805728
000260 b4 3a 36 3c 41 af 5b bd 40 4a d4 bd ae d6 e9 3c
       0.011122394 -0.053633932 -0.103657246 0.02854475
000270 b6 e7 d2 bd 0b fa 53 bd 94 e4 55 3e 9b 2e 8b 3e
       -0.102981016 -0.05175213 0.20887977 0.27183995
000280 76 18 ef bb d1 fb 1e bc bb 07 d5 3d e9 aa c0 bb
       -0.007296617 -0.009703592 0.10401865 -0.005879749
000290 dd 3c 53 bc 90 72 0c 3e 45 e5 37 3e 33 b4 a6 be
       -0.012892929 0.13715577 0.17958553 -0.32559356
0002a0 cb ef bd 3c 12 db 39 3e b6 15 92 3d 22 62 87 ba
       0.023185631 0.18149975 0.07133047 -0.0010328928
0002b0 5b fa 1b 3e 5e 26 a5 3e 63 fb 21 3e fc dc bd 3d
       0.15232222 0.32255834 0.15818553 0.09270665
0002c0 cc 61 53 3e 5c 37 1b be c2 28 5f be a9 6d 4a 3e
       0.20642775 -0.15157837 -0.21792892 0.19768395

l1.weight f4 [100, 90]
000000 d1 e6 4b 3e ce e7 95 bc 27 71 a7 3d cc 78 dc 3d
       0.19912268 -0.01829901 0.08175879 0.10765228
000010 ea b2 ba 3d cd f9 40 3d 88 c1 c7 3d 3a 53 42 3d
       0.091161564 0.04711323 0.0975371 0.047442652
000020 85 45 82 be e9 f0 16 be 88 a7 34 3d 0f ec 4a be
       -0.25443664 -0.14740337 0.044105083 -0.19816612
000030 ad 99 b9 bd 51 c7 c3 3d b1 4f e4 bc bd c2 dd 3d
       -0.090625145 0.09559501 -0.027870031 0.10828159
000040 69 8d 31 3d 55 f8 0b bd 65 58 f1 bc c2 95 c2 3d
       0.04334775 -0.034172375 -0.029461095 0.0950122
000050 86 71 5e 3e 33 b3 d7 3a 24 c1 d4 3d 66 f6 bf bd
       0.21722993 0.0016456604 0.10388401 -0.09373169
000060 59 04 a1 3c 4d 1d 76 3d 0a c9 29 3e f4 6b 5f 3d
       0.019655393 0.060086537 0.16580597 0.05454631
000070 0f d3 25 3e 10 3e aa 3c cc 84 18 3e 77 66 0f be
       0.16193794 0.020781547 0.14894408 -0.14003931
000080 2e 0c 52 be 1f cf d7 bd 97 7d b7 bd 1e 47 29 3d
       -0.20512459 -0.10537552 -0.08959501 0.04132759
000090 fb 41 1e 3e c1 f4 e8 bc a3 fe ca bd dc 3e 3b 3e
       0.15454857 -0.02843702 -0.09911849 0.18285698
0000a0 22 79 95 bc a9 5b 7d bd a3 7c fa 3d 61 fc 0a 3d
       -0.018246237 -0.061854992 0.12230804 0.033932094
0000b0 1b 7e 99 3b 87 48 82 3d dd 20 f5 bd b1 91 8a bd
       0.0046842224 0.0636149 -0.11969159 -0.0676607
0000c0 9c ee 4e 3d 43 a4 87 bd bb da f0 3d 46 c5 c7 be
       0.050520524 -0.06623127 0.117604695 -0.39017695
0000d0 9d 45 36 3e de fa 12 bd be 12 fa bd c1 b4 41 3d
       0.17799993 -0.035883777 -0.12210606 0.04729152
0000e0 73 93 92 3c 8b 27 eb 3b 4a 83 fb bb 0b 9b 05 3e
       0.017892575 0.0071763447 -0.007675563 0.13047425
0000f0 a7 bb f5 bc 5d f3 95 bd fe de 69 3b 51 7a 17 3d
       -0.029996706 -0.073218085 0.0035685892 0.036981884
000100 17 cb ab bd 9b 42 cc bd 6a c9 27 3d ef ac 22 be
       -0.08388346 -0.099736415 0.040963568 -0.15886281
000110 cb 7b 18 bc 9d 31 31 be b4 b5 49 be b3 ce d4 3d
       -0.009306858 -0.17304082 -0.1969822 0.10390987
000120 10 c7 da 3d c5 0d 62 3e d1 9f 59 be a1 15 2b bd
       0.106824994 0.22075565 -0.21252371 -0.041768674
000130 97 ba 56 be 49 c5 29 bd ef 9c ac bd 99 f7 1b 3d
       -0.20969616 -0.04144791 -0.0842837 0.038077924
000140 30 2c 85 3c 75 44 a1 bd d1 5e 79 3d 7b 61 7b 3d
       0.016256422 -0.07874385 0.06088144 0.06137226
000150 d2 69 72 be a5 39 8f 3d 21 03 21 bd 2f 15 97 bd
       -0.2367318 0.06993417 -0.039309625 -0.07377087
000160 4a fe 3b 3d ad 6e 2e 3e bc 0b 90 3e 1f f6 d9 bd
       0.045896806 0.17034407 0.28133953 -0.10642647
000170 5a 4f 99 bd 1e a8 fd bc 93 cb 18 be 40 07 17 3d
       -0.07485838 -0.030963954 -0.14921407 0.03687215
000180 af 3d 75 3e 77 88 b9 bc ee 50 96 3d a6 27 8c 3d
       0.23949312 -0.02264808 0.07339655 0.068435
000190 e3 eb 40 3d 66 bf 08 bd 6a 7e 09 be 35 30 d4 bc
       0.04709996 -0.033385657 -0.1342713 -0.025901893
0001a0 7e 2a d9 bd d2 fb ac bd 06 b5 b0 3d 15 13 3a be
       -0.10603808 -0.084464684 0.086282775 -0.18171342
0001b0 50 6b 8b 3d f9 58 6f 3d 4d 2a 52 3d ff cd 70 3c
       0.068075776 0.05843446 0.051309872 0.014697551
0001c0 54 78 9e 3c 0b d5 4a bd a4 33 5a 3b 66 3f 43 3d
       0.019344486 -0.04951958 0.003329494 0.047667883
0001d0 bd 03 8e 3d 1c a3 15 bd 8c 19 fb bc 53 25 24 3d
       0.06934307 -0.036532506 -0.03065183 0.040074658
0001e0 28 b3 62 3d db 14 e7 bc 93 81 07 3d 62 6d 0b 3d
       0.055346638 -0.028208187 0.033082556 0.034039862
0001f0 f5 c5 28 be af e6 6a bc f3 44 4c bd 38 f5 8c 3d
       -0.16481765 -0.014337226 -0.049870443 0.06882709
000200 41 8e 28 3d 2e 2e 64 3d 6b be 0e bd 53 c8 e3 3d
       0.04115129 0.055708103 -0.034849565 0.11122193
000210 11 c7 01 be 79 b3 7f 3c 54 d1 53 be 84 ad af bd
       -0.12673594 0.015606754 -0.20685321 -0.08578017
000220 03 ef 84 3d 69 e8 07 be c7 c0 b8 3b c5 86 c5 bc
       0.064909 -0.13272251 0.005638215 -0.024112115
000230 e5 62 ae 3d d3 2b ff bd 80 15 88 be 77 16 d3 bd
       0.085149564 -0.12459531 -0.26578903 -0.10307019
000240 35 31 7f bd 73 6a 0c 3e 4f 8d dd 3d 4b f6 b9 3d
       -0.062302787 0.13712482 0.10817968 0.0908018
000250 af 3c b0 3c fb 1e b4 bd 87 ef c6 bc 00 05 02 3b
       0.021513311 -0.087949716 -0.024284137 0.0019839406
000260 8e 30 93 bd e6 4c 07 bd c7 11 2a ba de fd a9 bd
       -0.071869954 -0.03303232 -0.00064876344 -0.083003744
000270 9d df 94 bc 77 0c 71 bc 8a f6 e0 3c b3 6f 0f 3e
       -0.018173033 -0.0147124445 0.027461309 0.14007454
000280 54 26 34 be 63 08 12 3e 6a cb 13 be 14 ba 64 bd
       -0.17592746 0.14261012 -0.14433065 -0.05584152
000290 e9 e7 d0 3c e3 cc 20 bd 52 bc df 3c de 2d 0d be
       0.025501208 -0.039257895 0.027311478 -0.13787028
0002a0 b6 31 18 3e 28 47 5a 3d a5 eb 6f 3d 00 fc 2d bd
       0.14862713 0.053290516 0.058574338 -0.042476654
0002b0 27 30 46 bd ed 8f 0e 3d e1 9b c3 bc 0a 80 e4 bd
       -0.048385765 0.034805227 -0.02387804 -0.11157234
0002c0 bd 9b 8c be 3c ec ff 3d 2e ae c5 bd c1 9b cd bc
       -0.2746257 0.1249623 -0.09652363 -0.025098683
0002d0 06 2a 94 3b 38 3b 09 3e a0 2e a2 3c f1 03 51 be
       0.004521611 0.13401496 0.019797623 -0.2041166
0002e0 4f 02 e8 bc b8 9a 2f be c0 22 97 bd ec 27 be 3d
       -0.028321413 -0.17148864 -0.07379675 0.09284958
0002f0 a2 01 0f 3d bd 1a aa bd 4b 42 bb 3d b1 fa 3d be
       0.034913667 -0.08305881 0.09143504 -0.18552662
000300 79 75 da bd 1b 98 27 3e f0 30 ed bc de 2e c9 bd
       -0.106669374 0.16366617 -0.028954 -0.09823392
000310 d2 e0 e3 bc 27 99 d3 3d 78 74 4d 3d de 66 2c 3d
       -0.027817164 0.10331946 0.0501599 0.04209029
000320 df eb 21 be 00 41 c3 3d 8d 69 46 be 23 10 e4 3d
       -0.15812634 0.09533882 -0.19376202 0.1113589
000330 24 b6 97 3e a0 3f 0e 3c 54 f4 85 bc 6d 93 51 bd
       0.2963115 0.008682162 -0.016351856 -0.051165987
000340 bd 4f bd bd 6e e7 d6 3d e6 db 98 3d e1 7f f5 3b
       -0.092437245 0.104933605 0.07463817 0.007492051
000350 3d c2 d8 3d 1b a2 c6 3d 9a 45 33 3c 5f 4c 14 3e
       0.10583923 0.09698888 0.010941887 0.14482258
000360 36 de 34 3d 0d aa 8d bd e6 df f5 bc a8 4c 9d bc
       0.04415723 -0.069172 -0.03001399 -0.019201592
000370 16 9e e3 bd f0 52 02 be b8 94 58 3d 61 79 c5 bc
       -0.11114137 -0.1272695 0.052876204 -0.02410573
000380 56 23 6e 3e ec 77 ab bd 69 5a 0e 3e 50 3c 7d 3d
       0.23255667 -0.08372483 0.13901676 0.061825097
000390 32 d7 89 3d d4 3c 48 3d 7c 98 34 3e 72 b8 a9 bd
       0.067304984 0.048886135 0.17636293 -0.08287133
0003a0 52 5e c6 bc 49 ca ba 3c d6 2c f1 3c 6d 88 c6 3d
       -0.024214897 0.022801535 0.029440325 0.0969399
0003b0 6e 0f fe bd 05 95 71 bc f4 2a 43 3e 5a 36 87 bc
       -0.12405287 -0.014745002 0.19059354 -0.016505409
0003c0 cc 82 04 3d 5f bc e2 bd 8e 21 f2 3d ad 1a 82 3d
       0.0323513 -0.11071085 0.11822806 0.06352744
0003d0 cb c3 0c be 97 22 7c be b3 d7 f8 bd c4 60 ba bd
       -0.13746564 -0.2462257 -0.12150516 -0.09100488
0003e0 95 e3 ed bd 19 4e 89 3d f8 84 ae 3d d1 18 ba 3d
       -0.116156735 0.06704349 0.085214555 0.090867646
0003f0 47 4d 02 be 11 0b af bd 11 bc 3e 3d b3 29 95 3d
       -0.12724791 -0.085470326 0.046566073 0.07283344

l1.bias f4 [100]
000000 41 66 f4 bc 9b 6c ba 3c 0e f5 2e 3e 29 01 9c 3d
       -0.029833915 0.022756865 0.17085668 0.07617409
000010 65 40 1a 3e d1 4b 06 3c d6 4a 54 3e 37 b0 eb bc
       0.15063627 0.008196787 0.20731673 -0.02877055
000020 85 4c ca bc 18 0a 8a bd 27 e5 56 bd bf b0 f6 bd
       -0.02469469 -0.067402065 -0.05246463 -0.120454304
000030 a1 99 dd bc c2 cf 7c 3c 28 50 3a bd 45 2a f1 3d
       -0.027050795 0.015430393 -0.0454866 0.117756404
000040 f3 b6 0b 3d 9c 68 3f 3d 98 57 b0 bd e5 ad fb bc
       0.03411002 0.046730623 -0.08610457 -0.030722568
000050 58 8c 40 3e d0 ab 14 bd e0 85 19 bd 86 19 07 3e
       0.18803537 -0.036296666 -0.03748119 0.1319333
000060 5c a4 f6 3c 05 dc 1f 3e b1 55 3f bd ca bb 02 be
       0.03010767 0.15611275 -0.04671258 -0.12766948
000070 87 4f 1d 3a 34 89 b3 be 66 f4 45 3d a5 c9 dc 3d
       0.0006000925 -0.35065615 0.04832878 0.10780648
000080 9f c3 30 be b5 d8 8d be 7b 78 5d be 20 be 0f bc
       -0.17262124 -0.27704397 -0.21627991 -0.008773357
000090 8c 3a e6 3c 43 06 2a 3e 2c cd fa bb 3d 32 45 bd
       0.02810409 0.16603951 -0.007653853 -0.048143614
0000a0 47 a5 79 be e5 98 80 3e da 9f 14 be c2 f4 ae b9
       -0.24379455 0.2511665 -0.14514104 -0.00033370225
0000b0 a1 22 7d bd 42 1f 68 bc 8f f1 02 bc 78 ee 25 bd
       -0.061800603 -0.014167609 -0.007992162 -0.040510625
0000c0 97 c7 8a bd c2 25 47 be 0a e0 ba 3b 73 c1 2e 3e
       -0.0677635 -0.19447997 0.005702977 0.17065983
0000d0 b3 d7 cf 3d 27 79 31 be 5f a2 7a bc 9d 3d 29 bd
       0.10148563 -0.17331372 -0.015297501 -0.041318525
0000e0 15 83 cd bc 58 c3 80 3d 48 98 01 bd 03 e3 89 bd
       -0.025086919 0.06287259 -0.031639367 -0.06732752
0000f0 83 83 23 be df 00 a4 3d 47 9b 9b bc 8a 51 fb 3d
       -0.15968136 0.08007979 -0.01899494 0.12271412
000100 bc 19 e3 3d b6 38 17 be e8 f9 51 bc 80 38 d3 3d
       0.11088893 -0.14767727 -0.01281593 0.10313511
000110 41 fb 2d bd 15 e3 ae 3c 00 5d d9 3d a6 7a ac bd
       -0.042475943 0.021348516 0.106134415 -0.08421831
000120 cf ae 0c be 57 eb 4e 3e 11 33 ab 3d 2f e3 51 3d
       -0.13738559 0.20206963 0.083593495 0.05124205
000130 6c be 41 be 72 81 73 bd 91 15 6e be 9b 65 d3 bd
       -0.18920296 -0.05944962 -0.23250414 -0.10322114
000140 47 4f 1e 3d d7 b4 08 be 18 cc 30 bd b1 a2 53 3d
       0.038649824 -0.13350235 -0.04316339 0.051668826
000150 16 cb 25 3d ec 09 d6 3c 0b e1 ae bd 94 c4 d9 3c
       0.04047688 0.026127778 -0.08539017 0.026582994
000160 1b 94 10 be 14 29 95 bc 78 01 19 3e 25 a0 96 3d
       -0.14118998 -0.018208064 0.14941967 0.07354764
000170 87 a5 19 bd cd f0 31 3d 79 ce 0b 3e 52 0f 4c bd
       -0.037511375 0.043442536 0.13652982 -0.049819298
000180 9c a9 ea 3b f4 6d ee bd 3d 70 23 be 99 eb 28 3c
       0.0071613323 -0.11642066 -0.15960784 0.010310077

l2.weight f4 [100, 100]
000000 e0 13 7f 3c 2b 27 0e 3e 9c 3b af bd 42 42 dd bc
       0.015568703 0.13882129 -0.085562915 -0.027009133
000010 7b 12 b1 bd 7f 30 17 3e 6b 5e e7 bc 42 e4 9e 3d
       -0.08646103 0.14764594 -0.028243264 0.077583805
000020 1f da b6 bd f0 b5 93 bd 33 02 ba 3c 27 d7 72 bd
       -0.08928322 -0.07212436 0.022706127 -0.059287217
000030 ee 33 a0 bc 16 c1 a3 bc 41 f6 1b 3c 0a 99 8d bc
       -0.019556012 -0.019989531 0.009519161 -0.017284889
000040 28 c2 5a be 0e 5c ec bd ad a6 80 3c da bd 38 3e
       -0.21363127 -0.115409955 0.015704477 0.18041173
000050 8c a9 c0 3c be e5 0b 3e 82 9e 49 3d db 34 16 3d
       0.023518346 0.13661858 0.04922343 0.0366715
000060 cd 44 37 3d 52 e8 3d 3d 48 44 6a be 14 25 fd bd
       0.044743348 0.046364136 -0.2287761 -0.12360588
000070 ea 55 42 be 4b 7a 0e be 96 b1 ef 3d 8e 08 b2 bd
       -0.18978086 -0.13913839 0.11703794 -0.08693038
000080 47 a2 a9 3d 7c 08 44 3c e2 5d 57 3d e4 79 be 3c
       0.08282905 0.011964913 0.052579768 0.023251481
000090 6a 37 58 bd aa 2b 39 bd 08 10 95 bd b6 ef 92 3d
       -0.052787222 -0.045207657 -0.07278448 0.071746275
0000a0 e7 5f b0 bc 32 5d 6b 3d e0 75 fb bc 88 75 1b bd
       -0.021530105 0.057461925 -0.030695856 -0.037953883
0000b0 fe f2 99 3d 3a a4 86 bd 14 62 c3 bd 5b 79 51 3e
       0.0751705 -0.065742925 -0.09540191 0.2045645
0000c0 4f 80 bc ba ca 85 98 3d 03 54 01 bd 77 5e 17 3d
       -0.0014381501 0.07447393 -0.03157426 0.036955323
0000d0 6a 9d 9f 3c d1 2f 96 bd 0e ed 24 3e a4 4e 27 3d
       0.01948424 -0.07333339 0.16106054 0.040846482
0000e0 7a 93 a3 bd 03 1a 08 3d 80 cd cb bd 14 d7 5b bc
       -0.07987113 0.03322793 -0.099513054 -0.013417978
0000f0 58 2b e1 3c db 6a da 3d df 5b fe 3c 37 98 a6 3c
       0.027486488 0.10664912 0.031049667 0.020336254
000100 1d cb 3b 3c f3 02 d1 bd c7 a1 62 3d dd 15 07 be
       0.011462 -0.10205641 0.055330064 -0.13191934
000110 fd 63 12 3e e7 b9 83 3d 24 29 b7 bd 4e f2 5e 3d
       0.14295955 0.064319424 -0.08943394 0.0544303
000120 8c 4e 05 3e 19 79 8e 3d 61 53 e8 3d 31 2a 89 3c
       0.13018245 0.06956691 0.11344028 0.016743751
000130 aa 0b 84 3e 10 54 66 3d 95 a1 31 bd b0 9b 1a bd
       0.2579015 0.056232512 -0.043366987 -0.03774613
000140 58 8c 41 3e 51 83 56 bc e0 74 87 bd e9 33 d7 3c
       0.18901193 -0.013092832 -0.06614089 0.02626987
000150 8d 84 27 3d 7b 70 85 bd bb bb 80 bd fa 92 0a be
       0.040897895 -0.065155946 -0.06285807 -0.1353263
000160 f7 a1 db bd 31 43 c2 bd 2a 4f 63 bd 1e ce 92 bc
       -0.10724252 -0.09485472 -0.05549542 -0.01792055
000170 54 cb 35 3b 79 63 00 be 62 73 58 bc e3 0e 55 bc
       0.0027739601 -0.12537946 -0.013211103 -0.013004038
000180 e9 ea 9c bd 40 d0 69 3e 40 70 d6 3c bf c7 48 3d
       -0.07661993 0.22833347 0.026176572 0.049018618
000190 b9 48 c3 bd 9b fa 48 3d 8e fd 22 be 60 8b 6f 3d
       -0.09535355 0.04906712 -0.15917036 0.058482528
0001a0 d2 36 5c 3e 52 f9 ae bb d4 0c 50 3e b6 36 bd bd
       0.21505287 -0.00533978 0.20317394 -0.09238951
0001b0 0d 1b d2 3d 2f 31 df 3c 89 52 37 3d 9e 87 c3 3d
       0.10259066 0.027245132 0.044756446 0.09547351
0001c0 28 74 13 3d 0a 8a 5d bb c4 10 b0 bd 88 d3 c8 bd
       0.035999447 -0.0033804202 -0.08596948 -0.098059714
0001d0 01 6c 23 3d 35 fc ac bd 63 67 01 3d b6 18 06 3e
       0.039897922 -0.08446542 0.031592738 0.13095364
0001e0 06 42 8a bd 16 ed c1 bc 95 ee 25 3d 82 13 12 3d
       -0.06750874 -0.023672622 0.040510733 0.035663135
0001f0 20 5b 08 3d 38 6a d0 3c 14 ce 11 bd 51 9c cc bd
       0.03329003 0.025441274 -0.035596922 -0.099907525
000200 24 f2 bf 3d f5 a2 dc bd 6f b1 c2 bc f0 25 5a bc
       0.093723565 -0.10773269 -0.023766248 -0.013314709
000210 dd e5 10 3e 75 41 28 3c 88 be 30 3e 64 a0 8f 3d
       0.14150186 0.010269512 0.17260182 0.07013014
000220 d4 e8 e1 bc fb 2f b2 bd 08 d9 0b bd aa 31 27 bd
       -0.027576841 -0.08700558 -0.034142524 -0.040818848
000230 d0 7d b7 3d 99 75 c2 bb 6f 80 95 3c d3 2a 3a bd
       0.08959544 -0.005934429 0.018249718 -0.045450997
000240 da b1 0f bd 97 07 0a 3e df a2 47 3d ea 16 15 3e
       -0.03508172 0.13479458 0.04873931 0.14559522
000250 1e 63 60 bd f1 c8 23 3d 5b 30 f0 bc 67 b0 34 3b
       -0.054782026 0.039986555 -0.029319933 0.0027570964
000260 45 ab ed bb 47 2d fd 3d 1a 8d 04 3e 3c a3 29 3d
       -0.007253083 0.123621516 0.12944451 0.041415438
000270 98 48 f9 bd 27 59 68 3d 4a 66 23 be e5 d3 86 bd
       -0.12172049 0.056725647 -0.15956989 -0.065833844
000280 be 72 55 3d ea 52 4d 3d 65 5b 83 bd 1f 73 1a 3d
       0.05211138 0.0501279 -0.064139165 0.037707444
000290 45 1a 26 3d dc 8c a2 bb c5 a2 18 3e 88 51 30 3c
       0.040552396 -0.0049606394 0.14905842 0.010761626
0002a0 ab 61 29 3d 9d 24 14 be 60 52 74 bb 3c 75 8c 3c
       0.04135291 -0.14467092 -0.0037280545 0.017145745
0002b0 4c 6c e0 bd 19 a4 d7 ba 9a 90 83 3d 5c 3f 39 3d
       -0.10958156 -0.0016452103 0.06424065 0.04522644
0002c0 0e b2 95 bd 7f a0 9a 3c c5 14 c6 bd cf ce 08 be
       -0.07309352 0.018875359 -0.0967193 -0.13360141
0002d0 65 2e f5 bd e0 1c 38 be f7 fb 9c 3d 4b e6 0b be
       -0.1197174 -0.17979765 0.07665246 -0.13662069
0002e0 67 a9 30 bd e9 18 6b 3c e7 9e 17 be 33 cc 1c bd
       -0.043130305 0.014349201 -0.1480671 -0.038280677
0002f0 be c5 91 bd d4 98 75 bd 13 ef 3a 3e 6a e5 04 3d
       -0.071177945 -0.0599602 0.18255262 0.03244535
000300 c1 d4 c0 bd 6d 7b 2b 3d 55 60 dd 3d 08 20 3a 3d
       -0.094155796 0.041865755 0.108093895 0.045440704
000310 a7 cf fa 3d f7 dd 04 be 24 7b ad bd c0 c3 eb bc
       0.12246638 -0.12975298 -0.08470753 -0.028779864
000320 78 4c 55 3d 18 f7 02 3d 4a af 0b 3e c1 05 84 3d
       0.05207488 0.03197393 0.13641086 0.0644641
000330 86 38 49 bd 2e 8d 44 3e 28 b4 d3 bd ca b9 d8 bd
       -0.04912617 0.19194481 -0.103370965 -0.105823115
000340 71 23 28 bc ac 5a 86 bd ef 36 7e 3e d2 02 e1 3d
       -0.010262356 -0.06560263 0.24825643 0.10986866
000350 c5 45 06 be 66 a8 10 be 3c e7 ed 3c f2 32 72 be
       -0.13112552 -0.14126739 0.029040925 -0.23652247
000360 d8 32 ef bd e2 73 48 be 0b f0 56 3c 3f ea 0c 3e
       -0.116796196 -0.19575456 0.013118754 0.13761233
000370 9f 8b 88 3d 2f 3a 43 3a e7 cb 78 be 5c 4d 16 3e
       0.066672556 0.00074473297 -0.24296533 0.14677948
000380 c7 cf ad 3b 3b 86 40 3d b7 b8 88 bd 97 0c f0 3c
       0.00530431 0.047003012 -0.066758566 0.029302878
000390 cf 8b 7c bd 1c 8f 46 be 1f 62 dc bd 55 e5 e9 3c
       -0.06165677 -0.1939053 -0.107609026 0.028551737
0003a0 9d a0 a5 3d 7a bd 39 3e 28 c4 56 be 7d a0 9f bd
       0.08087275 0.18138686 -0.20973265 -0.077942826
0003b0 e3 ac 2d 3e 39 c2 ca 3d bd 97 72 3e 1f cc c1 3c
       0.16960482 0.09900326 0.23690696 0.023656903
0003c0 90 e2 ae bc 26 35 09 be 78 42 90 bc 38 28 a7 bd
       -0.021348268 -0.13399181 -0.01760982 -0.08161968
0003d0 ae bb a0 bd 1f f5 3f 3d f1 88 74 3d 7d 56 b5 bd
       -0.07848297 0.046864625 0.05970091 -0.08854387
0003e0 20 1c 8d 3d f5 27 16 3e 7f e2 56 3e 40 53 03 be
       0.0689013 0.1466368 0.20984839 -0.12824726
0003f0 bc ba 70 3d 41 03 b5 3c 98 3e 8e bd 4a 78 e1 3c
       0.058771834 0.022096278 -0.069455326 0.027523179

l2.bias f4 [100]
000000 c7 08 0c 3d 99 8d 27 be 79 d0 10 3e 3b f3 df 3c
       0.03418806 -0.16362609 0.14142026 0.027337661
000010 2f fe c5 bd 1a bf 38 3e 43 24 0d 3d a8 cd 22 be
       -0.09667622 0.1804165 0.03445841 -0.15898764
000020 d8 40 1d be 55 d7 02 bd 73 f1 11 3d 38 23 4d 3e
       -0.15356767 -0.031943638 0.035630655 0.20032966
000030 23 0e 4f 3d 54 b4 4f 3d 09 bd dc 3d 17 b5 12 3e
       0.05055059 0.050709084 0.10778243 0.14326893
000040 56 ae 66 3b 84 82 df 3c 9c 6b 95 3e 04 70 10 3d
       0.0035199127 0.027283914 0.29183662 0.035263076
000050 76 d7 11 3e b7 89 ac bd 8a cd 86 3d 2f a7 9c 3d
       0.14242348 -0.084247045 0.06582172 0.07649075
000060 0b 8a b6 bd e6 dc 0d 3d 67 83 87 bc b7 e7 12 be
       -0.08913048 0.034634493 -0.01654215 -0.14346205
000070 2c 35 84 3d c9 06 a5 bd d2 ff 2d bc e7 d7 06 bd
       0.06455454 -0.08057935 -0.010620074 -0.032920744
000080 c9 99 9d 3c e4 8a bf 3b 03 0b 1c be 4e cd 2c 3d
       0.01923837 0.0058454145 -0.15238576 0.04218798
000090 8b 16 28 3e dc 87 96 bc 51 30 16 3d 1a 3f 87 bd
       0.1641485 -0.01837533 0.036667172 -0.066038325
0000a0 18 74 d2 bc f0 2f 98 bd 89 10 27 bd be de 06 3d
       -0.025690123 -0.07431018 -0.040787254 0.032927267
0000b0 a3 c7 55 bd 24 f7 2d bd 95 d6 3f bc ee cd f5 bd
       -0.05219234 -0.04247202 -0.011708875 -0.120021686
0000c0 00 25 19 bb 6c f0 17 3d bc 47 ad 3c 08 4e 58 bd
       -0.0023368 0.03709452 0.02115237 -0.05280879
0000d0 73 6a a9 3d 2b 8c 8c 3d 6e 2c b5 3b 15 21 fd ba
       0.08272257 0.068626724 0.005528978 -0.0019312227
0000e0 a3 7c d4 bd 97 85 b9 3d 8f 8f 47 bd 07 dd 0b 3e
       -0.10375335 0.09058683 -0.048720893 0.13658534
0000f0 d5 15 2c be ac 5e 62 be 71 e4 10 3e 7f b5 2a 3e
       -0.16805203 -0.22106427 0.14149643 0.16670798
000100 ad 49 14 bd 14 50 01 bd 63 3d 9e bc 34 e3 9d 3d
       -0.036203075 -0.03157051 -0.01931638 0.07709351
000110 9d 9b b2 3d aa 33 5d bd d7 2f 36 be 1b f6 bb 3c
       0.08721087 -0.05400435 -0.17791687 0.0229445
000120 58 92 90 3d ed 50 51 bd b4 af 46 3d 80 64 8a 3d
       0.07059163 -0.051102567 0.048507407 0.0675745
000130 91 a2 5e be c5 dd 25 3e 40 c6 e9 3c f9 b0 8e 3c
       -0.21741702 0.1619788 0.028536916 0.017418372
000140 95 b4 74 3d e3 7c ee bc c8 0f 0d 3b 1e b0 21 3e
       0.05974253 -0.029112285 0.00215243 0.1578984
000150 8e 11 22 bd d5 42 7d 3c 98 27 80 bd 41 5b 01 3c
       -0.039567523 0.0154578285 -0.06257552 0.007895292
000160 f3 e7 2b 3c 3b ec 07 3d c9 11 9c be 9e 89 bf 3d
       0.010492313 0.03318427 -0.3048232 0.0935242
000170 1d 24 49 bc 62 da 38 bd db 8f 0c bd c3 30 a1 bc
       -0.0122766765 -0.04513014 -0.03431688 -0.019676572
000180 b1 30 04 be 2a 83 8b bd cc 3b 3f be 08 e0 9c 3d
       -0.129092 -0.06812127 -0.18675154 0.07659918

l3.weight f4 [18, 100]
000000 c4 4c 8a 3d 68 b7 77 bd 73 88 4f bc 06 e2 01 3e
       0.06752923 -0.060477644 -0.012666809 0.12683877
000010 5c 4a 4c be 1f 76 8d 3c 4f e6 d2 bd 2e ba b6 3c
       -0.19950241 0.017268239 -0.10297834 0.022305574
000020 9d a7 61 3b 29 47 a5 bd 50 82 e8 3c 89 a2 dd 3d
       0.003443218 -0.08070213 0.02838245 0.10822017
000030 58 88 9e 3d f1 4e 13 3d 10 c5 fe bd 38 fe a6 3d
       0.07740849 0.035963956 -0.124399304 0.08153957
000040 7b 6b 7d 3d f6 63 b3 bd 65 8a d0 bd ee f3 d1 3d
       0.06187008 -0.087593004 -0.10182647 0.10251604
000050 93 f7 44 3b ef 09 97 bc 1a 4b 1e 3e 76 4d 1a bd
       0.0030054792 -0.018437354 0.15458336 -0.03767153
000060 bd 6a 74 be 40 8a cd bd 48 62 c3 bc 0d 85 6a be
       -0.23868842 -0.10036135 -0.023850575 -0.22902317
000070 2e 0a 01 3e 9b b2 ba 3d c8 b6 56 bd 85 08 16 3c
       0.1260154 0.091160975 -0.052420408 0.009157305
000080 49 21 80 3e ce 91 6e be 66 ef c5 bd 6d 26 1f be
       0.25025395 -0.23297808 -0.09664802 -0.15542002
000090 ac 9b 29 3d 60 ed f7 3c e1 04 59 3e 27 e2 30 bd
       0.041408226 0.030264556 0.21193267 -0.043184426
0000a0 b3 10 26 3c f7 aa 38 3e d2 ea 03 bc 09 2c f1 3d
       0.010135817 0.18033968 -0.008051591 0.11775977
0000b0 f7 94 81 bd 8a e3 ef 3c 77 7e 4d 3e 5f 4f 5c 3d
       -0.06327241 0.029283304 0.20067774 0.05378663
0000c0 08 c3 32 3e 94 5f 4a be 6a 16 6d 3d 78 52 56 be
       0.17457211 -0.19763023 0.057882704 -0.20929897
0000d0 c1 0c 28 be 1b af 01 be 95 48 94 bd d7 0f 2e be
       -0.16411115 -0.12664454 -0.072404064 -0.1699823
0000e0 57 8a 27 bc 5d 3d 8a bd 0e 5b fe bd 7a f3 91 bd
       -0.010225854 -0.06749985 -0.12419711 -0.071265176
0000f0 b7 d1 77 3e 77 0c 3e 3e 00 b0 09 3d 4d 85 9e bc
       0.24201094 0.18559442 0.033615112 -0.019350672
000100 54 69 9f 3d cc ea 34 be 16 6a 6a 3e 37 e9 ab 3d
       0.077837616 -0.17667693 0.22892031 0.083940916
000110 09 22 f4 bd 00 fd 20 3e f6 23 64 be a9 6d 84 3d
       -0.11920554 0.15721512 -0.22279343 0.064662285
000120 7f c1 73 3d 9e a0 e9 3d af f1 8f 3c bd 36 13 be
       0.059510704 0.114075884 0.017571298 -0.1437635
000130 0a ab 32 3e d9 e4 4a 3c 1e 90 a4 be e2 2a 55 bd
       0.17448059 0.012383663 -0.32141203 -0.05204285
000140 0a 5c 72 3e 80 f4 19 be eb 52 ea 3d 35 93 16 bb
       0.23667923 -0.15034676 0.114415966 -0.0022975926
000150 4c a4 ae bd 56 a3 dd 3d 16 2c 6d be 02 66 17 be
       -0.08527431 0.108221695 -0.23161349 -0.14785007
000160 69 a0 05 be 17 13 54 be 07 b1 67 3e 5f 2d ae 3d
       -0.13049473 -0.20710407 0.22626124 0.085047476
000170 c5 ef f3 3d d4 e7 e1 3d ed 8a 89 3d ad 0d ae bd
       0.11910967 0.11030546 0.06715951 -0.08498702
000180 17 b1 48 3d d7 dd 81 3c a4 b8 a2 bb 0e 8a 78 be
       0.04899701 0.015852852 -0.0049658585 -0.24271414
000190 27 5c c9 3c 71 90 1e be 6b f0 a3 3d 6e 6d 83 3d
       0.024580074 -0.15484788 0.080048405 0.064173564
0001a0 f8 d3 8e 3d c4 14 e2 3b 6d 36 13 3e 63 d2 85 be
       0.069740236 0.006899448 0.1437623 -0.26137075
0001b0 31 6b 5a be 89 6c 5a 3d f6 31 a8 bc 8e 1d 55 3d
       -0.21329953 0.053326163 -0.020531636 0.05203014
0001c0 46 1d cd 3d 10 8f cb 3d 2b 8a b8 3e 86 f1 53 bc
       0.10015349 0.099393964 0.36042914 -0.012936002
0001d0 5f 6c ad bd b3 69 37 bd 97 11 11 3e b0 28 e7 bd
       -0.08467936 -0.044778537 0.14166866 -0.112870574
0001e0 5a 0d fe 3d 8b 0b 9c 3d e0 de 14 3e 65 5d 1e bc
       0.1240489 0.07619389 0.14538145 -0.009665822
0001f0 ee 5f 55 be 64 3b f3 3d 27 03 f8 bd 1e f7 87 3d
       -0.20837376 0.11876562 -0.12109976 0.06638931
000200 d1 a2 24 be f1 aa 08 bd 98 01 4c 3e db 25 f8 bc
       -0.16077735 -0.033366147 0.19922483 -0.030291488
000210 f5 a1 f6 3d b0 3c c9 3d 4c f7 34 3d 3f 77 ab 3d
       0.120426096 0.09826028 0.044181153 0.08372354
000220 1d 44 24 3c 79 71 24 3d b6 18 3a bb 7f 92 d3 3d
       0.010026005 0.04014728 -0.0028396077 0.10330676
000230 f4 dc 7c bd 72 8a 0c be 65 61 b8 bd 1e 78 a9 3e
       -0.061734155 -0.13724688 -0.090029515 0.33099455
000240 4d 4c 81 3d 2e 4a 47 3d a3 dd 0d bc 93 9c 5c 3d
       0.06313381 0.048654728 -0.008658799 0.05386026
000250 bc 01 86 3d 97 55 27 be ea 09 dc 3d 66 05 d1 bd
       0.065432996 -0.16341244 0.107440785 -0.10206108
000260 16 3e a6 3e 5e f4 92 3d c5 fd ab 3e fe ee 0f bc
       0.32469243 0.071755156 0.33592048 -0.0087850075
000270 25 17 13 be af 89 20 bc 15 9b 56 3c d5 70 31 3e
       -0.14364298 -0.009798451 0.013098498 0.17328198
000280 3c cd 9e bd 41 bd ab 3c 17 88 43 3e 96 1a 51 be
       -0.07753989 0.020964267 0.19094883 -0.20420298
000290 79 a7 d4 3c a7 74 c8 3d 4c 3b 07 bd da df 5a be
       0.025958763 0.09787875 -0.033015534 -0.21374455
0002a0 0a 34 91 3e 07 31 48 3d 6a 68 06 be 3a 13 d8 3d
       0.28360015 0.04887488 -0.13125768 0.10550542
0002b0 ba 26 38 3e 09 f8 82 bc be 55 f3 3d 09 27 81 3d
       0.17983523 -0.015987413 0.118815884 0.063062735
0002c0 26 35 8b be 50 55 f3 bd 70 be c5 bc c3 1a f6 3d
       -0.27188987 -0.118815064 -0.02413866 0.12016823
0002d0 e8 5c e6 3b 30 09 4f 3e 8f 11 02 be 54 4d 54 3e
       0.0070301183 0.20218349 -0.1270201 0.20732623
0002e0 b6 6e 53 3d 1a 32 ca 3d 84 4a 19 be 13 10 64 3c
       0.051619254 0.09872837 -0.14969832 0.013919848
0002f0 2c ba e6 3d 6c 19 42 bd 8b 01 02 be e8 63 13 3d
       0.11265978 -0.047387525 -0.12695901 0.03598395
000300 7a bf 53 bd ac 8d 80 3d ba fc b7 bd d5 af 5f be
       -0.05169628 0.06277022 -0.08983751 -0.21844418
000310 89 c7 e4 bb e1 32 42 be 18 a4 0e be a2 eb 25 3e
       -0.0069817943 -0.18964721 -0.13929784 0.16203168
000320 69 bf 1f be f5 c3 ac 3d aa c7 1b 3e fd fc 89 bd
       -0.15600361 0.08435813 0.15212885 -0.06737707
000330 77 4e ec bd ec af 4e 3e 7d c6 9d bb bc 49 23 bd
       -0.115384035 0.20184296 -0.0048149214 -0.03986524
000340 6f dd 56 3e 55 c6 4d bd 10 6f 97 bd fa 3a 7f bc
       0.20982908 -0.050237972 -0.0739423 -0.015578026
000350 25 b0 22 3e 53 ce ae bd b5 0e 06 bd 74 31 89 bd
       0.15887506 -0.08535447 -0.03272887 -0.066988856
000360 31 fd 26 3e 8b 9b c3 3d 84 1b 3a 3e ef d8 e0 3c
       0.16307522 0.09551152 0.18174559 0.027447192
000370 75 0a 24 bd f6 1d ab 38 81 e6 35 3e ab 2a 2c bd
       -0.040049035 8.159496e-05 0.17763712 -0.04203288
000380 fa 75 36 bd 6b 6e 98 3d 60 ad d1 3c d2 ef 87 3d
       -0.044546105 0.074429356 0.025595367 0.06637539
000390 ff 28 a7 ba 6c 3c e6 3b d2 b7 e4 bd 86 5c 6b bd
       -0.0012753307 0.007026246 -0.111678734 -0.057461284
0003a0 db 48 0b be 1c b1 3a be e5 59 d9 3d 9c 9c a1 bc
       -0.13602011 -0.18231624 0.10612849 -0.019727997
0003b0 ed 58 7d bd d2 ef f7 3c 9c 4b c7 3c 2f 7b 00 be
       -0.061852384 0.030265722 0.024328046 -0.12546991
0003c0 b9 af e4 3d e0 39 3b 3e ff d8 af bc b0 e6 2b be
       0.11166329 0.18283796 -0.021465776 -0.16787219
0003d0 c3 21 01 bd ec c6 65 bd 0f 83 1f be 38 b4 b2 bd
       -0.03152634 -0.05609791 -0.15577339 -0.0872578
0003e0 11 54 71 bd 9c 21 0a 3d 47 8e 03 be 94 c4 a9 3d
       -0.058918063 0.03372346 -0.12847243 0.082894474
0003f0 9d f9 84 bd 90 15 4a be ce 99 3a be 16 c9 2e 3d
       -0.064929225 -0.19734788 -0.18222734 0.04267224

l3.bias f4 [18]
000000 12 50 7e 3e b3 ef f7 be 31 50 1a bd 85 59 1f 3f
       0.24835232 -0.48425063 -0.037674133 0.6224597
000010 48 71 ff bd 92 fb ac be 8a 95 26 3e f5 15 c6 be
       -0.124727786 -0.33785683 0.16267982 -0.38688627
000020 eb bf 5e 3e bf 53 97 3e 4a a1 87 3e 74 29 f9 3c
       0.21752898 0.2955608 0.2649024 0.030415274
000030 cc 28 9f 3e 94 d5 d7 be 79 5d a0 3e e3 2a 62 3e
       0.31085813 -0.42155135 0.31321314 0.22086672
000040 df a1 6c bd 6d bb 27 bb
       -0.05777156 -0.0025593892
