LARA/data/result/g_330.pt (torch, 87406 bytes, 7 tensors)

G_attr_matrix.weight f4 [36, 5]
00000000: 8f10 9c3d d111 95bd 0bac a7be ef6d b93d
00000010: cdc2 bd3c 1986 a8bd 21ce 363d 3223 2b3e
00000020: 004f 8f3d c25d ddbc 96ea 71bd e067 af3c
00000030: aa54 ac3c 5e27 8f3d 0024 91bb 2c9c b6bc
00000040: 1a63 d2bd 1f43 a9bd 1947 55bd 64f1 423c
00000050: 3365 2fbb 42a0 13be 3f0b b23a d9f4 78bc
00000060: 32d6 653d b3e9 7a3d ce55 833d a4bf 4abd
00000070: 2552 6b3e 3305 a9bd cd65 f2bc 1280 d9bc
00000080: 696f d0bc df45 843d 3eb3 4b3e 5baa 623e
00000090: ff30 e53d c874 4e3e fb56 373e fc28 863d
000000a0: a4b8 24bb bab4 843c 1c40 023c 3242 5dbd
000000b0: ebb9 05be 9646 b5bb 467c 93bc f65a 55bb
000000c0: c303 b23d fb41 5e3e 14ec 8f3e bbb0 8e3c
000000d0: f491 ac3c 5cee ddbd 5bbc f5bb 23eb 923c
000000e0: 81ba 3abe 17e6 72be d00f 433d 48e0 373e
000000f0: a737 a33a 008d 013e 8bf3 023c 5eac ea3b
00000100: bdef 6a3d 2815 93be 124d 023d 75ae ce3c
00000110: a027 f2bd 3cd4 10bd 0511 50bc ac43 03bd
00000120: 19dc aa3d a8df 883c 859c 113d 9f9a 7fbe
00000130: bc40 443e f2d8 60be a327 353e d5c2 23be
00000140: ea93 643e 01e5 8ebc 98e1 e9bd d6fd 393e
00000150: b6f5 ecbd 1a3d 0d3c 040b a73e 34b1 ed3e
00000160: 082e 113e 08ab b53d f400 14bc 8eb7 91be
00000170: 2527 1d3c 5278 d03d a4b6 02be 2b3c 8fbd
00000180: cc22 d53d 49a0 73be 9215 203e c6e9 b03c
00000190: ef79 6dbe ef8a 80bc 7712 383c 7bfa d2bc
000001a0: 1778 42bc 7d36 53be 4df7 fa3d d75d fabd
000001b0: 8a9f 143e 4b77 9f3d 79bd 5dbb 0179 2cbc
000001c0: 416c 42bb 5bd6 893c 2d2f 1a3c f48f a93d
000001d0: bcec 783e e02e 403e 3944 53be e651 cbbc
000001e0: c963 f93e 468c 993c 2f3d 383c 1a77 6ebe
000001f0: c53a 73bc 1667 883e c6aa 51be 4b8f 8dbd
00000200: 7faa 4abe 87db 033e 6b19 6d3c 014e 533d
00000210: dca2 8ebc 7376 e73d c514 a7bc 2c41 78be
00000220: 008d bdbe 7fe6 4b3e 47a6 813e d0ac 933e
00000230: 0ffb cdbc ebc7 643b c657 873b 971a 713a
00000240: 7beb 06bd 031c ad3d 1fd0 b7bb 3486 adbc
00000250: c5f8 82bc d4e3 fc3d 36a6 d1bb 193b 1bbc
00000260: 240c d23b 8ff4 4abd 7802 b8bd 2a6c 273d
00000270: 3bae c0bd 51b0 63bd 4ca9 483e 5789 853e
00000280: 29e4 28bc c6d0 2fbc cdb3 a93d 9c7b bbbb
00000290: b6db 59bb da0c 0b3e 4718 283e acf3 b0be
000002a0: f5d9 063d 4fbe 333e 8c1b 0a3d 427a 87bc
000002b0: 91d3 0e3e b8d7 943e ffc2 1e3e 4ac8 6e3d
000002c0: aea2 893e 8154 27be 52dc 42be 542a 333e
0.07620346 -0.07278789 -0.32748446 0.09054171 0.023164177 -0.08228702 0.044630174 0.16712645
0.0699749 -0.027022246 -0.05906161 0.021411836 0.021036465 0.069899306 -0.0044293404 -0.022291265
-0.102728084 -0.082647555 -0.052069757 0.011898372 -0.00267632 -0.14416602 0.0013583674 -0.015195095
0.056112476 0.06125803 0.0641285 -0.04949917 0.22980554 -0.08252945 -0.029589558 -0.026550326
-0.02544375 0.06458639 0.19892594 0.22135298 0.11190986 0.20161736 0.17904274 0.06550786
-0.0025134468 0.016199458 0.007949855 -0.054018207 -0.13059203 -0.005532096 -0.018003594 -0.0032555438
0.08692124 0.21704857 0.281098 0.017418256 0.02106569 -0.10836479 -0.0074992604 0.017934388
-0.18235208 -0.23720585 0.0476225 0.1795665 0.0012452499 0.12651443 0.0079926355 0.007161661
0.05735754 -0.28727078 0.03181178 0.025229672 -0.11823964 -0.035358652 -0.01269937 -0.03204696
0.083427615 0.01670821 0.03554966 -0.24961327 0.19165319 -0.21957758 0.17690901 -0.15992291
0.2232205 -0.017443182 -0.11419982 0.18163237 -0.11570303 0.008620525 0.32625592 0.46424258
0.14177716 0.08870512 -0.00903343 -0.28460354 0.009591852 0.10179199 -0.12764984 -0.06993898
0.104070276 -0.23791613 0.15633228 0.021595847 -0.23191045 -0.015691249 0.011234871 -0.025754204
-0.011869452 -0.20626254 0.122542 -0.1222493 0.14513984 0.07786425 -0.0033834858 -0.010526896
-0.0029666575 0.016825845 0.009410662 0.0827941 0.24309057 0.18767881 -0.20631494 -0.024819326
0.48708943 0.018743645 0.011245056 -0.23287621 -0.014845555 0.26641148 -0.20475301 -0.069120966
-0.19791602 0.12876712 0.014471392 0.051588062 -0.017411642 0.11301889 -0.020395646 -0.24243611
-0.37021637 0.19912146 0.25322172 0.28842783 -0.025144128 0.00349092 0.0041303365 0.00091973826
-0.032939415 0.084526084 -0.0056095268 -0.021182157 -0.015987763 0.12348142 -0.0063979877 -0.009474539
0.0064101387 -0.049549635 -0.08984846 0.040874638 -0.09408232 -0.05558807 0.19595832 0.26081344
-0.010308304 -0.010730928 0.082862474 -0.0057215225 -0.003324253 0.13579121 0.16415511 -0.34560907
0.032922704 0.17553066 0.033717677 -0.01653779 0.13947894 0.2907083 0.15504073 0.05829648
0.26881927 -0.1634083 -0.19029358 0.17496616

l1.weight f4 [100, 90]
00000000: 3f33 483e 35cf 8abc c367 ae3d d272 d03d
00000010: 3c94 bd3d 1934 613d a651 b43d 01c6 203d
00000020: cc4f 85be 4bae 20be d0ee 4a3d 63c6 46be
00000030: 82da 71bd 55e5 1a3d 4274 04bd ecf5 f63d
00000040: 095f 413d 9af8 d5bc e7fe 07bd b7e9 b93d
00000050: d1cb 453e bcf3 07bd 3351 d33d 6358 9cbd
00000060: 63ee 073d d324 643d d31d 353e 592f 653d
00000070: 2479 293e 1eab 3abc eac3 1a3e 2e9b 14be
00000080: 7d0c 5dbe 2002 c7bd dfe7 bebd 437f 3c3d
00000090: 8d43 193e 68b9 c3bc 3034 d0bd 8e90 3c3e
000000a0: b6f9 b4bc 7244 8dbd 3d36 fe3d 3c5d ec3c
000000b0: 2122 133c ee96 853d d239 ebbd a9c2 63bd
000000c0: ae8c 3b3d ff5c 78bd 5e2b fc3d 36f5 c3be
000000d0: e92a 2f3e 3e3d 4cbc 9536 a5bd 36d5 023d
000000e0: 4579 a1bb 6ffa de3b a1a5 1abc 5076 0d3e
000000f0: 5986 0dbd cd47 eebd 5678 c23b 23cf 2a3d
00000100: 717a d2bd 3463 bcbd 1dc7 193d fe53 30be
00000110: 0743 5dbc 0d0c 39be 4017 37be e535 d93d
00000120: adb7 c23d 0fc3 393e f39b 3bbe 2d8c 8bbc
00000130: 9599 54be 4cb6 e3bc 1960 aebd 0f76 143d
00000140: 7a82 e93c 75e3 7ebd a208 2a3d 4cf8 d93d
00000150: be47 59be bbde 873d 458f 5cbc 7b8a a0bd
00000160: 9ef7 273d 075e 2a3e 3828 8e3e 9d22 d3bd
00000170: 7035 96bd e2cf ffbc bc65 12be c873 1d3d
00000180: 1bb1 503e ca41 49bd 68f8 833d 631c a83d
00000190: d3ed 313d af9d 04bd a02e 0fbe cead 823b
000001a0: 30a0 dbbd 43f3 95bd d6fb cb3d 2316 2ebe
000001b0: fe39 933d 6a28 6f3d eb3c 283d 3375 c63c
000001c0: 7da5 a6ba f30b 40bd 05db 9a3b f7af 453d
000001d0: db1b 0a3d 124f 46bd 7716 edbc eeb3 d53c
000001e0: 0d20 5c3c 8dc4 efbc 9c46 093a 527c 8f3d
000001f0: 6259 29be 9a80 6fbc 5b0d 4cbd 3550 923d
00000200: daca 213d e8e0 6c3d 29eb 09bd b36c e53d
00000210: 6aea febd fa8b 7f3c a7ba 54be ee20 9abd
00000220: 82fd 823d dddb 04be ee43 d53b abe2 c9bc
00000230: 3678 ac3d bbb4 0dbe 0580 81be 4f56 f7bd
00000240: 6489 54bd e49d 0b3e 6dad c93d 39be b53d
00000250: df0d 853c 2422 c2bd c5ce c1bc 2e63 8cbc
00000260: e8c9 a9bd a142 0bbd d43a 4d3b 5fc6 b8bd
00000270: 7f78 cbbc 1df2 80bc cf20 e73c aba2 173e
00000280: 3a3f 41be de3e 373e 0c4b 13be 01ad 78bd
00000290: 3c66 603c f6b5 46bd 02b0 c73c d86a ecbd
000002a0: 269d 233e a510 8c3d ba9b 5b3d 53d4 46bd
000002b0: 27ad 41bd 9693 c03d 7f6f 23bd 2634 e4bd
000002c0: 419c 86be 9b2d 003e ff3b c4bd 8daf c8bc
000002d0: 7ecb bb3b c05c 0a3e f332 ae3c d96e 53be
000002e0: 7bbf 0cbd 62ad 2ebe 528c 54bd b8b4 eb3d
000002f0: 37ca 1b3d 0bfa a3bd 2398 873d b25f 3dbe
00000300: cb2f babd a834 c63d 6a35 e8bc 165f b4bd
00000310: d368 c7bc d262 ef3d 410c 453d 3830 233d
00000320: 20f6 f0bd 8d37 883d 448d 3ebe 8825 b23d
00000330: 46ff 943e eccc dd3b 13c2 473c f99c 2ebd
00000340: 7f74 bbbd 5dc1 fe3d 0dd3 f13c 79df ae3b
00000350: 7cf4 043e ed04 7e3d ffb3 163c a25d 163e
00000360: 49d9 343d 8683 90bd affd fabc 4d6c 8abc
00000370: dcdd e6bd 4fd2 15be 1bc8 493d a59f d2bc
00000380: 5ce6 6e3e 7cab bcbd d3d1 0f3e 6c1b 9d3d
00000390: 5bbd 833d cffe 4e3d 6821 373e aaf0 afbd
000003a0: 840a c3bc 1a3d dd3c 05a6 0037 acfd b33d
000003b0: 008a debd c679 87bb 7aa5 423e f26c 87bc
000003c0: d800 f73c a2f5 01be e258 f43d a7e3 863d
000003d0: 3815 05be 2e24 73be edca dfbd 4788 c0bd
000003e0: 99df f3bd 1d54 693d c925 c93d e35e 983d
000003f0: 57f6 0bbe 54f6 7abd 3480 6c3d 11f0 4a3d
0.19550799 -0.016944507 0.08515885 0.1017815 0.09256789 0.054981325 0.08804636 0.03925133
-0.26037443 -0.15691487 0.049544156 -0.19411616 -0.059046276 0.037816364 -0.032337435 0.120586246
0.047209773 -0.026119519 -0.03320208 0.09077781 0.19316031 -0.033191428 0.10318222 -0.07634046
0.033186328 0.05569918 0.17687158 0.055953357 0.16550118 -0.011393337 0.15113798 -0.14512321
-0.21586795 -0.09717202 -0.0932157 0.046019804 0.14967175 -0.02389212 -0.10166204 0.18414518
-0.022091728 -0.068978205 0.12412689 0.028853051 0.008980305 0.06522928 -0.11485638 -0.055605564
0.04578846 -0.060635563 0.12312959 -0.3827302 0.17106213 -0.012465773 -0.08067051 0.031941615
-0.0049277865 0.0068047564 -0.009438903 0.13814664 -0.034551952 -0.11634789 0.0059347553 0.041701447
-0.1027726 -0.09198609 0.037543405 -0.1721954 -0.01350475 -0.18071003 -0.17879963 0.10605983
0.095076896 0.18140815 -0.18321209 -0.017034614 -0.20761712 -0.027796887 -0.08514423 0.036245402
0.028504599 -0.06222864 0.04151214 0.10643062 -0.21218774 0.06634279 -0.0134618925 -0.07838913
0.04100763 0.16637431 0.2776506 -0.10309336 -0.07334411 -0.031227056 -0.14296621 0.038440496
0.2038006 -0.049135007 0.06443864 0.08208539 0.043439697 -0.03237694 -0.1398263 0.0039880043
-0.10723913 -0.07321789 0.09960143 -0.17000632 0.071887955 0.05838815 0.04107372 0.024225807
-0.0012714114 -0.046886396 0.004725816 0.048263516 0.03371797 -0.04841525 -0.028941376 0.026086774
0.013435376 -0.029268527 0.0005236657 0.07006134 -0.16538003 -0.014618063 -0.049817424 0.071442045
0.039500095 0.057831675 -0.03367153 0.11202373 -0.12447055 0.015597338 -0.20774327 -0.07525812
0.06396009 -0.12974496 0.006508342 -0.024644217 0.08421366 -0.13838474 -0.25292984 -0.12077009
-0.05188884 0.13634449 0.098475315 0.08874173 0.016241966 -0.09479168 -0.023658166 -0.017137136
-0.08290464 -0.03399909 0.0031315582 -0.09022211 -0.02483773 -0.015740449 0.028213887 0.14808147
-0.18871775 0.17895076 -0.14384097 -0.060711864 0.01369625 -0.048513375 0.02437592 -0.11543816
0.15977916 0.06839112 0.05361531 -0.048542332 -0.04728427 0.0940315 -0.039901253 -0.11142759
-0.26291087 0.12517397 -0.09581756 -0.024497772 0.0057310453 0.13511944 0.021264529 -0.20647754
-0.034362298 -0.17058328 -0.051891632 0.11509079 0.038034644 -0.08006676 0.06620815 -0.18493536
-0.09091147 0.09678012 -0.028345782 -0.08807199 -0.024341976 0.1168877 0.04810739 0.039840907
-0.117656946 0.066512205 -0.18608576 0.08698565 0.29101008 0.0067688134 0.012192267 -0.04263017
-0.09153079 0.12439225 0.029519582 0.0053366986 0.12983888 0.062016416 0.009198188 0.14684156
0.04415253 -0.07056336 -0.030638544 -0.016897345 -0.11272785 -0.14631008 0.0492631 -0.02571089
0.23330063 -0.092123955 0.14044885 0.07671246 0.06432601 0.050535973 0.17883837 -0.08590825
-0.023808725 0.027006675 7.668049e-06 0.087886184 -0.10866165 -0.0041343896 0.19008437 -0.016531441
0.03015177 -0.12691358 0.119310156 0.0658639 -0.12996376 -0.2374427 -0.10927377 -0.09400993
-0.11907882 0.056964982 0.0982166 0.07439973 -0.1366819 -0.061270073 0.05773945 0.04954535

l1.bias f4 [100]
00000000: 3567 0dbd 95aa c03c 7acd 2c3e 15ec 963d
00000010: f55b 1c3e 8114 423c 72ca 533e 8477 0cbd
00000020: b153 c0bc 1d4a 55bd 8ecb 3fbd cd9e f6bd
00000030: 97f9 d3bc e4d4 0f3c bf1e 0ebd a1f8 003e
00000040: 7e9c 3b3d aa02 2c3d 4644 cabd f25a eebc
00000050: 00b0 343e 12e4 09bd 010c 09bd 3d84 073e
00000060: 906e f93c f335 2c3e 70b3 4ebd 3e67 03be
00000070: a6bb 1fbc a5f4 b2be c296 3f3d 4426 e13d
00000080: 5eb9 2fbe e421 8cbe d4dd 55be 0e43 32bc
00000090: 195c d03c b6df 1e3e 6cc7 3bbb 5dcb 49bd
000000a0: 6106 72be be02 803e 85bb 0cbe 7a8e 23ba
000000b0: 2fec 80bd ebc7 85bc 6e3e 2abc 8e62 21bd
000000c0: 7a36 99bd b30a 40be 55ec 293b de4a 253e
000000d0: 771c ed3d e424 35be cb0b 9cbc 3adc 41bd
000000e0: b23a fcbc d1ef 843d 05f3 12bd 3462 95bd
000000f0: b93e 1dbe 46bb 9b3d 9a93 e7bc b91b f23d
00000100: c760 e13d 2c5c 10be 3a38 22ba b6a1 c93d
00000110: 337d 29bd 9941 393c 2253 d03d 9ea8 9dbd
00000120: fca4 14be 1c1b 4f3e b73a 9c3d 5d78 413d
00000130: dcec 36be 6b85 90bd 92cb 73be 0a8e e8bd
00000140: 86de 163d f354 f5bd e908 27bd 4c05 653d
00000150: 89f8 4b3d a422 c43c f844 a0bd f822 9c3c
00000160: cd6d 09be b7cd c7bc 3ee4 153e 6d44 9f3d
00000170: 9cf3 e4bc d5b5 563d c5df 003e aa48 3dbd
00000180: d36b ad3b 7f24 f2bd 7e1f 1ebe d8bd f63b
-0.034522254 0.02351884 0.16875258 0.07369248 0.15269454 0.011845709 0.20682696 -0.034293666
-0.023477407 -0.052072633 -0.046824984 -0.120420076 -0.02587585 0.008778784 -0.03469729 0.12594844
0.04580354 0.04199473 -0.098763034 -0.0290961 0.17645264 -0.03366477 -0.033458713 0.13234039
0.030448228 0.16817455 -0.050464094 -0.12832353 -0.009749329 -0.34952274 0.046774633 0.10993627
-0.17160556 -0.27369606 -0.20885402 -0.010880245 0.02543454 0.15515026 -0.00286528 -0.049266208
-0.23635246 0.25002092 -0.13743408 -0.0006239187 -0.062950484 -0.01633068 -0.010390861 -0.03940063
-0.07481094 -0.18754081 0.0025928218 0.16141841 0.11577695 -0.17689854 -0.019048592 -0.047329165
-0.030789707 0.06491054 -0.035876293 -0.072941214 -0.15355958 0.07604079 -0.028268624 0.11821694
0.11004787 -0.14097661 -0.0006188188 0.09845297 -0.041379165 0.011307144 0.10172106 -0.07698177
-0.14516062 0.20225185 0.076283865 0.047233928 -0.17863792 -0.070566975 -0.23808125 -0.11355217
0.03683331 -0.119790934 -0.04077998 0.055913255 0.04979757 0.0239423 -0.07825655 0.019059643
-0.13420792 -0.024390085 0.14637849 0.07776723 -0.027948193 0.052419502 0.12585361 -0.046211876
0.0052923947 -0.11823367 -0.15441701 0.0075299554

l2.weight f4 [100, 100]
00000000: e9da 923c 62f7 093e c5b9 a1bd 1e7c cfbc
00000010: d094 a0bd 55af 1d3e 7692 1fbd 27e9 a43d
00000020: ddb2 adbd 83d9 9fbd 7245 9c3c bdea 65bd
00000030: 6f46 a3bc f91d f4bc 70c2 8e3c 8b44 69bc
00000040: ee22 4dbe f4d8 10be c1bd bc3c 9f8c 353e
00000050: 25cb 7e3c 947d 023e d6ee 483d 9b24 113d
00000060: c662 263d 7687 803d a238 71be 2abd fdbd
00000070: 4a20 44be e5a1 13be 3d32 e03d 3125 a1bd
00000080: 9675 773d 1751 fa3c 1cbe 163d dd0b a63c
00000090: f0fc 75bd 6a04 0ebd 0e36 98bd b6ca 8c3d
000000a0: 1b89 0cbd 3daf 833d d0a3 10bc 44c7 12bd
000000b0: 096f ad3d afcf 83bd 6a28 dfbd f9b2 573e
000000c0: 8068 d8bb 8f79 a03d d515 e5bc 53aa d63c
000000d0: 737c df3c f6b2 a1bd 4bb1 283e f701 543d
000000e0: 341c 98bd 6efa cb3c 2211 cbbd cc2e a4bc
000000f0: 5c13 ad3c 5476 ff3d f887 e43c da08 cd3c
00000100: cfdc ce3c 59ee d7bd 5fca 4d3d 772c 0abe
00000110: 45ac 083e ad41 593d 7137 bfbd ed0d 753d
00000120: 2df1 043e 45da 963d 0320 e13d de4e 7c3c
00000130: fb1f 833e 5a2d 2c3d da09 35bd d2b1 23bd
00000140: 90e6 433e 90d4 8fbc d423 a0bd 60be e43c
00000150: 7bd9 5a3d 2414 64bd 8944 5fbd b7b0 11be
00000160: 4e5a cfbd aa89 e4bd daf5 33bd c075 eaba
00000170: 287a a7b9 1183 f2bd b921 ffbc adcf d9bb
00000180: 1907 96bd d74e 643e 552c 8c3c c854 583d
00000190: bc02 d7bd 6009 123d a1d6 1cbe a003 583d
000001a0: 508a 503e 409e a0bc 0c33 543e 7144 b1bd
000001b0: 9bb1 c63d da95 563c 6800 273d af2a bc3d
000001c0: c90c 443c 9f57 adbc 3ef0 e0bd 6dca ccbd
000001d0: 12af 0f3d ade0 cabd 2287 423d fd64 083e
000001e0: 381a 59bd 6029 06bd 1e13 043d c12c 943d
000001f0: 9d18 053d 6200 013d 5c53 0cbd 0def 8bbd
00000200: d5c0 003e 2519 d2bd 9bcd 00bd 77da 18bc
00000210: 94f3 0d3e f87a 943c a34b 263e 02a2 ad3d
00000220: 8ef9 26bc ef76 9cbd e44c d7bc 3842 edbc
00000230: cae7 be3d 0192 84bc a29f 983b f115 38bd
00000240: eadc dcbc e550 083e a474 853d 844b 203e
00000250: f7c8 4bbd 6ce3 1a3d 4753 1abd 0964 ccba
00000260: 15b0 df3b c399 f73d a326 eb3d c80f 263d
00000270: ebd1 eebd 6222 a63d 535f 1fbe fa3b 4ebd
00000280: 31ce 033d 5576 a43d 4fbf fbbc 5c74 223d
00000290: 8fd6 173d d69a 64bc c8ca 043e dfa4 153c
000002a0: 1ec0 1b3d bee4 23be ff52 e8bb 479d cd3b
000002b0: 420e cdbd a793 e93b 52df 9d3d 6a0b 173d
000002c0: e7e8 a4bd b9e2 803c 126b b7bd 3c70 0bbe
000002d0: bbcd f5bd aee4 3bbe f221 9b3d dffa cdbd
000002e0: bdbf 5fbd 6a5b a63c 012c 20be aee9 33bd
000002f0: 09b8 6bbd 07db 6bbd 8947 2b3e d3cd 033d
00000300: 9209 cabd cd27 fc3c a74e e43d d89c 293d
00000310: 1b80 c93d 787d 01be 9d61 c1bd 2097 1bbd
00000320: e001 573d fae7 f23c 3b36 053e 5c8c 853d
00000330: c53e 31bd f83f 303e c508 dbbd 92e7 e1bd
00000340: af13 cfbc 8e58 97bd f988 703e bc09 c93d
00000350: 70af 00be bfaa 0cbe a91b 953c 7fd1 80be
00000360: 0108 0ebe a147 26be 82e5 b13c 521e 033e
00000370: 4f45 893d 7ac8 583b ab32 84be ad44 203e
00000380: 5f32 cb3c 7e5b 023d 7c43 74bd aa64 e93c
00000390: 7d1f 64bd 0223 3ebe 1c3d e5bd 46c1 c63c
000003a0: fe99 e73d fa68 293e 832a 5abe 4081 7dbd
000003b0: d235 363e 72f1 d73d 2a85 703e 3ffc 0d3d
000003c0: 7125 d4bb 98d4 18be c2db 4abd dbb0 bcbd
000003d0: 3f49 a0bd c13f 323d 6877 8d3d 52cd 92bd
000003e0: 8fcc a13d 4174 133e d454 503e af58 e3bd
000003f0: f601 2e3d f3c0 b33c 2fe1 9ebd a12f e13c
0.01792665 0.13473275 -0.07896761 -0.025327738 -0.07840884 0.15398915 -0.038958035 0.08052283
-0.08481381 -0.07805159 0.019076083 -0.056132067 -0.019931046 -0.029799448 0.0174267 -0.014237533
-0.20032856 -0.14145261 0.0230397 0.17729424 0.015551363 0.12743217 0.049055897 0.0354353
0.04062154 0.06275837 -0.2355676 -0.12389596 -0.19152942 -0.14417227 0.10947082 -0.07868422
0.060414873 0.030556245 0.036802396 0.020269329 -0.060055673 -0.03467218 -0.07432185 0.068746015
-0.03431044 0.064299084 -0.008828118 -0.035834566 0.08468444 -0.06436097 -0.1089638 0.21064366
-0.0066042542 0.078356855 -0.027964512 0.026204264 0.027281022 -0.07895462 0.16473882 0.051759686
-0.07427254 0.024899688 -0.09915377 -0.020041846 0.021127395 0.12473741 0.027896866 0.025028635
0.025251774 -0.10543508 0.050241824 -0.13493524 0.13346966 0.05304115 -0.093367465 0.059827734
0.12982626 0.0736585 0.10992434 0.015399663 0.25610337 0.042035438 -0.04419885 -0.039964505
0.19130921 -0.017557412 -0.07819334 0.02792281 0.05343006 -0.05568327 -0.05450872 -0.14227568
-0.10124646 -0.1115907 -0.043935634 -0.0017887875 -0.00031943736 -0.11841405 -0.03114401 -0.0066470713
-0.073255725 0.222957 0.017110983 0.05281523 -0.104985684 0.035653472 -0.1531625 0.052737832
0.20365262 -0.01960671 0.20722598 -0.08655632 0.09701844 0.013097251 0.04077187 0.09187829
0.011965939 -0.021159945 -0.109833226 -0.09999547 0.03507907 -0.09906135 0.047492154 0.13319774
-0.05300352 -0.032754302 0.032244794 0.07235099 0.032494176 0.031494506 -0.034259185 -0.06832705
0.1257356 -0.10258702 -0.03144608 -0.00932943 0.13862449 0.018125042 0.1623979 0.08478166
-0.010191334 -0.07639872 -0.026281781 -0.02896224 0.09321554 -0.016182901 0.0046577016 -0.0449428
-0.026960809 0.13312109 0.06516388 0.15653807 -0.049752202 0.037814543 -0.037677076 -0.0015593778
0.0068264105 0.120898746 0.11481979 0.040542394 -0.116611324 0.08112027 -0.15563707 -0.050350167
0.03217906 0.080303825 -0.030730871 0.03966175 0.037069853 -0.013952931 0.1296798 0.009133547
0.038025014 -0.16005227 -0.007089972 0.0062748524 -0.10012485 0.0071281972 0.077086106 0.03687612
-0.08052235 0.01573311 -0.08955969 -0.13617033 -0.120021306 -0.18348953 0.07574834 -0.100576155
-0.054626215 0.020307261 -0.15641786 -0.043924026 -0.057548556 -0.057581928 0.16726507 0.03217871
-0.09865107 0.030780697 0.11147814 0.041409343 0.09838887 -0.12645519 -0.094424464 -0.03798592
0.052492023 0.02965163 0.13008969 0.06520912 -0.043272752 0.17211902 -0.10695032 -0.11030497
-0.02527794 -0.07389937 0.23489751 0.0981631 -0.12566924 -0.1373701 0.018201666 -0.25159833
-0.13870241 -0.16238262 0.021715883 0.12804535 0.06702673 0.0033078478 -0.25819907 0.15651198
0.024804292 0.031825535 -0.05963467 0.028490383 -0.055694092 -0.18568042 -0.11193296 0.024262082
0.113086686 0.16543952 -0.2130528 -0.06189084 0.17793968 0.10544099 0.23488298 0.03466439
-0.00647419 -0.14924848 -0.049525984 -0.0921342 -0.078264706 0.04351783 0.069075406 -0.07168068
0.079003446 0.14399816 0.2034486 -0.111008994 0.04248234 0.021942591 -0.07757794 0.027488532

l2.bias f4 [100]
00000000: e2ff f53c 4c7d 2bbe d63a 083e 5b72 8d3c
00000010: 89c8 95bd 9c7f 123e 358d d03c a89a 22be
00000020: 047e 1cbe 3f8a edbc 9fe8 063d e757 423e
00000030: 49af 3b3d 35e8 383d 89bc da3d 94f7 fa3d
00000040: 7005 62bb 1480 b03c 941e 903e 457e bd3c
00000050: 7c2d 0f3e 98fa 92bd 2bee 653d 182b 8c3d
00000060: f96a a7bd 2590 053d ddf4 58bc 928b 0ebe
00000070: c7cd 6b3d a0f4 6fbd 59d2 5fbc 3dab e5bc
00000080: 9b98 973c 6032 2f3c 62b6 1abe 7325 213d
00000090: 642b 213e fe06 62bc b651 273d 82d7 75bd
000000a0: bc1b 87bc 3b17 90bd c279 10bd 4e98 a03c
000000b0: 1317 6bbd 9b2e 06bd a9cc 8fbc b695 cebd
000000c0: ba1f 1c3b 706e 093d 0a23 ba3c b25c 2dbd
000000d0: 0c0b aa3d 197f 863d b40e ad3b c339 28bb
000000e0: 1c64 c8bd 959a 9f3d daf7 0cbd 61c7 fc3d
000000f0: c16d 25be 9e32 63be dab5 f83d 661f 233e
00000100: ff05 13bd a2b4 e1bc fc75 9bbc 549d 833d
00000110: b615 8b3d 0e03 48bd c588 32be 478c d43c
00000120: d290 903d acfa 12bd 22e3 133d 3ed5 583d
00000130: 8b6d 60be 39ba 1c3e 5b62 bc3c ead2 973c
00000140: 660d 0e3d da0d 82bc 35f5 953b 6b0f 203e
00000150: d9fc 12bd fa0f b23c 45e4 53bd 959e 1b3b
00000160: ae31 bb3c 8854 f93c a818 9cbe 1c20 c43d
00000170: 4b15 51bc d446 31bd 11da 01bd c6ff 9abc
00000180: 7faa f9bd 302e 78bd 9ee6 3fbe 3739 913d
0.030029241 -0.16747016 0.13303694 0.017266443 -0.0731364 0.14306492 0.025457958 -0.15879309
-0.15282446 -0.028996585 0.03293669 0.18978845 0.04582146 0.045143325 0.106804915 0.12254253
-0.0034488104 0.021545447 0.2814833 0.023131499 0.13982195 -0.07176703 0.056135338 0.06844157
-0.081747 0.03260817 -0.013241974 -0.1392043 0.05756929 -0.058582902 -0.013660991 -0.028035754
0.018505385 0.010693163 -0.15108636 0.039342355 0.15739208 -0.013795612 0.04084941 -0.060019977
-0.016492717 -0.07035681 -0.035272367 0.019603875 -0.057395052 -0.03275929 -0.017553644 -0.10087149
0.0023822621 0.033552587 0.022721786 -0.04232473 0.08302888 0.06567211 0.0052812938 -0.0025669194
-0.09784719 0.07793156 -0.034416057 0.12342716 -0.16155149 -0.22187278 0.121440604 0.15929946
-0.03589439 -0.027551953 -0.018977158 0.06426492 0.067912504 -0.04883104 -0.17434986 0.025945796
0.07058872 -0.03588359 0.036105283 0.05293774 -0.21916787 0.15305413 0.022996118 0.018533189
0.034680746 -0.015875746 0.00457635 0.15630881 -0.035885666 0.021736134 -0.051731367 0.0023745645
0.022850838 0.030435815 -0.3048756 0.09576437 -0.012761424 -0.043280438 -0.031702105 -0.01892079
-0.12190723 -0.060590923 -0.18740317 0.07090991

l3.weight f4 [18, 100]
00000000: 1aec 9a3d 525a 70bd e03c b7bc b35b 183e
00000010: 59db 3abe 3233 443c 80b1 04be 3779 1d3d
00000020: 8980 333c 6329 a0bd c0ab 4c3d 0e12 e83d
00000030: 4330 973d dc7e 4a3d c7be 05be 382c 8c3d
00000040: 40e6 a53d c3ee bdbd a097 cebd 8faf c43d
00000050: 75f9 1cbc bb20 e5bc 800f 203e 3b79 fbbc
00000060: 765b 81be dfb4 f6bd 26c4 dbbc 9e1c 78be
00000070: 99d6 fa3d be5f a33d 29b0 04bd 31bd b43b
00000080: 417a 863e 8ba3 7bbe c39b c4bd aa41 29be
00000090: ee86 073d 125b 0a3b a054 493e 42f9 06bd
000000a0: 64e9 4e3c b473 2f3e 8c30 84bb 64b6 053e
000000b0: 7632 83bd 262a 063c feb7 4a3e e8a3 103d
000000c0: 0999 2b3e 37a5 44be 2763 3c3d 03c9 5abe
000000d0: 1e1d 2abe 114a 03be 9e40 a0bd a029 23be
000000e0: 9e22 173c 5bb8 afbd 891b 0abe 499b 8fbd
000000f0: df64 753e 11f5 3a3e dc46 0a3d c452 09bc
00000100: 6fbd a43d 0c8a 46be b85e 663e 4783 823d
00000110: 7c2b f0bd 4e1a 123e 8085 63be b511 863d
00000120: 4c67 893d 08c5 e33d 9190 1e3d 91cd 0bbe
00000130: 3498 3b3e 77db 0a3c 830b 97be 1026 0bbd
00000140: 7656 7f3e 8a46 22be 5fd9 a73d d6ad 3cbb
00000150: 8f71 96bd acf8 b33d 6ca8 73be 17aa 0bbe
00000160: 8d68 12be 0d2b 5dbe 09e3 6c3e 5db2 9b3d
00000170: fc4a 0e3e 0066 e83d 8ffc 8c3d 6e04 abbd
00000180: 2411 403d af8f 8f3c 155f 633b 6d0d 69be
00000190: 351f 213d 255d 22be b480 a03d 822f a63d
000001a0: 00db af3d 65c2 df3b 72dd 013e 8fba 81be
000001b0: d46e 5bbe 3ff8 783d 7a3e 10bb 08db 7c3d
000001c0: 9450 bf3d 84ee ea3d 7e34 b83e 5992 79bc
000001d0: ac5a 95bd 34f2 33bd 8d69 183e 9206 e9bd
000001e0: 0d72 f43d 364a 8f3d 0670 173e 6896 a83a
000001f0: 0ffc 64be c064 db3d 2412 04be bbc3 473d
00000200: 9552 24be 52c5 1dbd 2866 643e 4d63 2fbd
00000210: b960 fd3d 9740 b93d b63a 1b3d 6cbb b03d
00000220: 6d37 b63b 3243 a03c f945 a8bc af04 db3d
00000230: 638e 76bd 0099 1ebe 5255 bbbd cb1e ac3e
00000240: e50a 773d dee7 093d 7798 aebc 17a1 1c3d
00000250: 4221 723d a225 2abe 99b1 ca3d ca43 c8bd
00000260: 2f01 a83e 9533 983d 3470 ad3e 98f0 333b
00000270: 30c6 01be 6de5 e6bc 685d 043c 744a 383e
00000280: 0072 aebd 8980 483c 3682 4a3e 97c8 40be
00000290: a62a b93c cffd 9b3d c2b1 32bd 827e 69be
000002a0: 951d 953e bca0 ec3c 79c6 0bbe 2215 d83d
000002b0: 34c7 473e 77ef 54bc dd4d 103e a23b 9e3d
000002c0: b859 8abe 4f02 f1bd bfdf 89ba d54d 0f3e
000002d0: d7a9 8b3c 20f5 403e bf99 22be 27ab 593e
000002e0: d636 893d 7da0 a13d 4495 1cbe c227 d23c
000002f0: ef80 ea3d 0ce7 4dbd eaf1 03be bf0a 053d
00000300: ceb8 1ebd 232a 873d 2d87 c7bd 69c8 5fbe
00000310: 6ee4 91bc d119 43be 79a0 0bbe 375d 363e
00000320: 1abf 14be e2b5 ac3d df95 143e 0da5 45bd
00000330: 7851 c8bd 22d5 483e d085 e2bc 8574 e4bc
00000340: 1bf2 5a3e 5d61 30bd 2fa8 6dbd f09b 22bc
00000350: 59e7 1c3e 9175 93bd de59 1abd 8231 97bd
00000360: 57bd 363e 605a c53d 67cf 3c3e 9435 bb3c
00000370: d5b4 4bbd f106 d6bb b3a1 353e de04 15bd
00000380: 5f16 6ebd ca47 6a3d 0346 9e3c 04dc 583d
00000390: 9bde aebb d7b9 063b 6b97 b1bd e372 8dbd
000003a0: 86af 08be 0ed6 44be 16ca d63d 236c b9bc
000003b0: 96c7 90bd e88e b63b 46d0 cd3b 27d8 fbbd
000003c0: 751e e83d c85b 2e3e 9f95 95bc 70ef 24be
000003d0: 7c98 05bd 3f33 8fbd fdeb 26be b454 d0bd
000003e0: abe7 83bd 91c1 053d c042 0fbe b691 af3d
000003f0: 678d 83bd 868b 4abe 3d36 3cbe 1d09 603d
0.07564564 -0.058679886 -0.022367895 0.1487873 -0.18247737 0.011975097 -0.12958336 0.038445678
0.010955938 -0.07820394 0.04996848 0.11331569 0.07382252 0.04943739 -0.13061057 0.068443716
0.08100557 -0.09274056 -0.10087514 0.09603798 -0.00958096 -0.027969709 0.15630913 -0.030697456
-0.25265092 -0.12046217 -0.02682693 -0.24229667 0.122479625 0.07977246 -0.032394562 0.0055157174
0.26265147 -0.24574105 -0.09600022 -0.16528955 0.033087663 0.002111141 0.19661188 -0.032952555
0.012628887 0.17133981 -0.0040341076 0.13057858 -0.06406109 0.00818876 0.1979675 0.035312563
0.16757597 -0.1920365 0.045992997 -0.21365742 -0.1661267 -0.12821223 -0.07824825 -0.15933847
0.009224562 -0.08580085 -0.13487066 -0.0701204 0.2396426 0.18257548 0.033758983 -0.008381549
0.08043944 -0.19388598 0.2249707 0.063726954 -0.11727044 0.14267847 -0.22218895 0.06546346
0.067091554 0.11121565 0.038712088 -0.13652636 0.1831978 0.008475176 -0.2950097 -0.033971846
0.24935326 -0.15847221 0.08195757 -0.0028790138 -0.07345878 0.08787665 -0.23794717 -0.13639103
-0.14297695 -0.21598454 0.23133482 0.076023795 0.13895792 0.1134758 0.06884109 -0.08350454
0.046891347 0.017524568 0.0034694124 -0.22759028 0.039336402 -0.15855844 0.07837048 0.0811453
0.08586693 0.0068285936 0.12682131 -0.25337645 -0.21428996 0.06078362 -0.0022009895 0.061732322
0.09341541 0.114712745 0.35977548 -0.015232646 -0.07292685 -0.043932155 0.14884014 -0.11378206
0.11935816 0.069965765 0.14788827 0.0012862207 -0.22361778 0.10712576 -0.12897545 0.048770647
-0.16047128 -0.038518257 0.22304595 -0.04281931 0.12371964 0.09045523 0.037897788 0.08629498
0.0055608065 0.019563291 -0.020541178 0.10694253 -0.060194384 -0.15488052 -0.09147133 0.33617243
0.060313124 0.03366839 -0.021312935 0.038239565 0.05911375 -0.16615918 0.09897155 -0.09778555
0.32813403 0.074317135 0.33874667 0.0027456637 -0.12673259 -0.02818557 0.00807891 0.17997152
-0.085178375 0.012237676 0.19776234 -0.18826519 0.022603344 0.076167695 -0.043626554 -0.22802165
0.29124132 0.028885238 -0.1364993 0.10550906 0.19509584 -0.012996546 0.14092202 0.07726218
-0.27021575 -0.117680185 -0.0010518952 0.13994534 0.01704876 0.18843508 -0.15878962 0.21256696
0.06699912 0.07891939 -0.15291315 0.025653724 0.114503734 -0.05026917 -0.12885252 0.03248095
-0.038750462 0.06599834 -0.097425796 -0.21853794 -0.01780912 -0.19052817 -0.13635434 0.17808996
-0.14526024 0.08433129 0.14510296 -0.048253108 -0.09781164 0.19612554 -0.027651697 -0.027887592
0.21381418 -0.043061603 -0.05802172 -0.009924874 0.15322627 -0.072001584 -0.03768336 -0.0738249
0.17845665 0.09636378 0.18438493 0.022852696 -0.049733 -0.006531589 0.17737465 -0.036381595
-0.058126803 0.05719737 0.019320494 0.0529442 -0.0053365952 0.0020557547 -0.08671459 -0.069066785
-0.13348207 -0.1922228 0.104877636 -0.022634571 -0.07069318 0.005571235 0.0062809316 -0.12297087
0.11333934 0.170272 -0.018259821 -0.16106963 -0.032616124 -0.06992196 -0.1630096 -0.10172406
-0.064406715 0.032655302 -0.13990307 0.08572714 -0.06423455 -0.19779786 -0.18380065 0.05469619

l3.bias f4 [18]
00000000: 023c 7d3e a03e f5be 8bd9 17bd bb34 1d3f
00000010: f31e f8bd 2512 a9be de3b 283e 5ae4 c2be
00000020: 261b 5c3e 3ef8 943e cc39 873e f55a ca3c
00000030: 05d7 9c3e 8ada d4be 0c45 9f3e c6fd 613e
00000040: b75e 63bd 3502 39bb
0.24729922 -0.47899342 -0.0370727 0.61408585 -0.12115278 -0.33021656 0.16429088 -0.38064843
0.21494731 0.29095644 0.26411283 0.024701575 0.30632797 -0.41572982 0.31107366 0.22069463
-0.05551025 -0.0028230075
