LARA/data/result/g_340.pt (torch, 87406 bytes, 7 tensors)

G_attr_matrix.weight f4 [36, 5]
00000000: 235e 943d ebc2 71bd fa96 a6be 63e9 a63d
00000010: a403 ce3c 44c8 b2bd ee55 7e3d 7d3e 2b3e
00000020: a45d 6d3d 74f8 aabc cf72 85bd 25e9 cd3c
00000030: e6ba b23c 53b9 6c3d e7c7 d6bb 13a4 02bd
00000040: d986 c2bd f7ac a2bd 0649 8dbd a0d6 8f39
00000050: 3e73 5dbc d0f2 12be e476 373b df3c 00bc
00000060: 4c23 603d df82 4b3d d1ca 6c3d e4e2 1fbd
00000070: 17e6 6c3e c8e1 a6bd a4e2 10bd a92b 8bbc
00000080: 58eb 98bc 5d40 8c3d e6c8 4f3e ef40 533e
00000090: 4888 ee3d c118 533e 6fc1 423e 6145 a13d
000000a0: 1245 fa3a 57c4 ad3c c7bf 2bbb 7695 77bd
000000b0: 974c 0ebe c7ec d8ba 122d 45bc 8299 2dbc
000000c0: b7f4 9f3d b9e6 543e a006 933e d3da 863c
000000d0: 8814 873b 6282 cfbd d19c bebc d166 c53c
000000e0: a5b9 3dbe f975 81be 495e 593d e51b 283e
000000f0: f2ae e23b 32a4 ef3d fae0 e73b 9596 c33a
00000100: ce16 603d 5f61 8ebe 1b46 e53c b22c 953c
00000110: 9f86 f0bd 6a2e 1fbd 86d2 9fbc 1a48 03bd
00000120: 0055 993d 2ab7 883c 55c3 293d 0b91 7fbe
00000130: bb84 363e ee00 62be b0ed 333e 0b94 1ebe
00000140: 7e39 663e f96a f0bc addf cebd 68b7 323e
00000150: ff9d f0bd a0dd 663c 6013 a03e 0a6b f33e
00000160: 6c4a 0c3e a078 ac3d 21ff 1abc 4079 95be
00000170: 98bf d4ba dbfb d43d 7182 e8bd 7765 90bd
00000180: 7abc bf3d 7325 80be 35d5 263e 78c6 043d
00000190: 2d80 6abe ce70 52bc ed84 983c ef29 94bc
000001a0: 80e4 c3bb c60b 4dbe d6b4 de3d 12fa e5bd
000001b0: d45c 173e 6973 9c3d 0a22 043a 23ca 6cbc
000001c0: 4816 8ebc dc9f 263c fb64 45bb 98d1 af3d
000001d0: 2c79 793e 4bd2 2d3e b3ae 54be 2627 1abd
000001e0: 896d f83e 1d8d 8d3c 8cf7 8f3b fe9e 71be
000001f0: a0f1 6fbc 938b 823e 74c9 4fbe 586e 89bd
00000200: 2fdb 4ebe abfd 063e c661 513c fc6e 573d
00000210: 6a1f a8bc 5f07 e73d 39ed dbbc 4c67 78be
00000220: 78be bbbe 4d37 453e 77e0 803e b682 903e
00000230: 1f28 18bd c8f0 173b 2e50 603c 4805 f8b9
00000240: e225 00bd 4e9c 8e3d f5b7 11bc 2177 b6bb
00000250: 195f b7bc 07a7 033e e2af 4dbc 61b0 88bc
00000260: 08e5 a73c f9ea 64bd b2ca a6bd 5e4f 083d
00000270: 66f6 ccbd 317d 38bd 5ebc 403e 930e 893e
00000280: b439 38bb fff6 94bb 31b7 ab3d 97a7 a2bb
00000290: c336 42bb 75cb 0c3e e992 313e ee3b b0be
000002a0: fb24 103d fdb4 353e 79c7 313d 28dd 52bc
000002b0: 246a 033e 3dc5 963e e242 183e 5396 883d
000002c0: f08c 8b3e a7e2 22be 576e 39be 6e1f 2e3e
0.07244518 -0.05902378 -0.3253706 0.08149984 0.02514822 -0.08729604 0.062093668 0.16723056
0.05795063 -0.020870425 -0.065160386 0.025135586 0.021817636 0.057793926 -0.006554592 -0.031894755
-0.094983764 -0.07943147 -0.06898694 0.00027434994 -0.013516245 -0.14350438 0.0027994448 -0.007827013
0.05472116 0.049685355 0.05781061 -0.03903474 0.23134647 -0.08148533 -0.03537239 -0.016988592
-0.018666908 0.06848214 0.2029148 0.20630239 0.11647087 0.20614912 0.19019102 0.07874561
0.0019094071 0.021211786 -0.0026206838 -0.06044527 -0.13896404 -0.0016550057 -0.012034671 -0.010595681
0.078103475 0.20791139 0.28715992 0.016461765 0.0041223206 -0.101322904 -0.023268135 0.024096878
-0.18527849 -0.25285318 0.053068433 0.16416891 0.0069178278 0.1170124 0.00707638 0.0014922196
0.05470925 -0.27808663 0.02798753 0.018209789 -0.11744427 -0.038862623 -0.019509565 -0.032051183
0.074869156 0.016688902 0.04144605 -0.24957673 0.1782407 -0.22070667 0.1757114 -0.15486161
0.22482869 -0.029347884 -0.101012565 0.17452776 -0.11748885 0.014090925 0.31264782 0.47542602
0.13700265 0.08421445 -0.0094602415 -0.2919407 -0.0016231416 0.103996 -0.11353005 -0.07050603
0.09362121 -0.2502857 0.1629227 0.032415837 -0.22900458 -0.012844278 0.018618071 -0.018086402
-0.005978167 -0.20024022 0.108743355 -0.11229338 0.14781505 0.076392 0.00050404726 -0.01445249
-0.017344609 0.010169949 -0.0030120004 0.08584899 0.2436263 0.16974752 -0.20769767 -0.03763499
0.4852107 0.017279202 0.0043935236 -0.23595807 -0.01464501 0.25497112 -0.20291692 -0.067104995
-0.202008 0.13182704 0.012779659 0.052596077 -0.020522792 0.11280703 -0.026846515 -0.24258155
-0.36668754 0.19259377 0.25171253 0.28224725 -0.037147637 0.0023184288 0.013690991 -0.0004730618
-0.031286128 0.069634065 -0.008893956 -0.0055684005 -0.022384213 0.12856685 -0.012554141 -0.016685667
0.020494953 -0.05588815 -0.0814413 0.033278815 -0.10007934 -0.045041267 0.18821856 0.26768932
-0.0028110566 -0.004546046 0.0838455 -0.004963826 -0.0029634691 0.13749488 0.17341198 -0.34420723
0.035191517 0.17744823 0.043403123 -0.012870111 0.12833458 0.29447356 0.14869264 0.06669297
0.27255964 -0.15906774 -0.18108498 0.17004177

l1.weight f4 [100, 90]
00000000: c00d 493e 73a5 98bc 018a ac3d c6bf d33d
00000010: e18c c43d 79a7 633d 7897 9e3d e1c3 c23c
00000020: e20d 85be 3623 1abe 86c7 9a3d 840c 4abe
00000030: 7401 6bbd e8ad b03c d09d 05bd 5eee e73d
00000040: 5ac4 273d 91d2 1cbd b523 05bd e5bb bf3d
00000050: db39 333e f889 92bd dfa4 0f3e 1e08 5ebd
00000060: b364 113d 5d64 6d3d b56a 3c3e 6732 6a3d
00000070: 9933 263e ab3b 3e3c 61fd 0b3e ba8f 11be
00000080: 3d49 5ebe 1b38 d2bd d849 bcbd 7ad3 3d3d
00000090: e740 193e 7d34 90bc 8a73 d1bd 2710 3e3e
000000a0: f0e4 a0bc 8247 7abd 2452 f53d ebc6 003d
000000b0: 2718 ec3b 0228 8d3d aeeb efbd 9415 1abd
000000c0: ed92 443d 0984 82bd ae4b f73d edb9 c5be
000000d0: 0c1b 303e edac 98bc bc5c a2bd 474e 163d
000000e0: eead bdbc 3933 b83c 63c9 6fbb cef0 213e
000000f0: 5bc6 01bd 154c 0abe e5d2 743c 4b2e 1e3d
00000100: c409 cfbd 3e71 c0bd 2bb1 0e3d b3cd 30be
00000110: f56d 2fbc ec22 37be 685f 34be b597 de3d
00000120: a9f3 983d 93db 383e 62cb 3bbe e94c 82bc
00000130: e505 58be 7529 28bd e3ad aebd 9da1 163d
00000140: 54d2 903c 8726 93bd cce9 273d b98c fc3d
00000150: 22ac 61be f9d7 8c3d 26e1 09bc 5512 9bbd
00000160: d4cb 313d cf15 2d3e 158b 8c3e 09d9 cbbd
00000170: a4ac 8fbd 8992 0cbd e7f2 15be ce9f 2b3d
00000180: 4ea1 4d3e c3e8 52bd f966 7a3d 24e5 ab3d
00000190: 20bf 493d 7f83 f4bc 4852 0fbe 9bfc a4bb
000001a0: 1c07 e2bd ec48 8fbd 0e1d d33d cd97 2abe
000001b0: feed 8c3d 37b7 623d 0c45 1d3d 464d 343c
000001c0: 25cd 9739 66a1 0cbd 2d40 613c 05c7 393d
000001d0: a207 3c3d 57fc 48bd 27a6 d8bc aa97 d63c
000001e0: d375 9d3c bdd7 02bd 12e7 27bb adf7 833d
000001f0: f7a7 2cbe 61a0 2abc 5772 5fbd 1db7 a03d
00000200: 874b 103d 3501 823d fee1 14bd 65bc db3d
00000210: 40ff fdbd 9dad 4f3c fdf8 51be 7001 96bd
00000220: 0060 893d 649f 05be 68ce 6e3b 9326 aebc
00000230: 139b b23d b1ac 0ebe 9186 81be 031e f5bd
00000240: 121c 52bd 3701 063e 862f c13d 84df b93d
00000250: 16d0 6e3c 6e63 c7bd 164f dabc 606c 01bd
00000260: 1f05 b0bd 9985 febc 1680 4a3c 43bc b6bd
00000270: 17de d5bc b1c8 85bc 07d9 d23c f60f 173e
00000280: d68d 3dbe f879 303e fd20 18be 7fd4 82bd
00000290: 9dc0 6b3c e427 4abd e412 d93c a699 e5bd
000002a0: de24 273e 6474 953d 7d09 353d 9527 66bd
000002b0: 3114 46bd 99f9 b83d 2851 51bd 30ae e9bd
000002c0: f02e 87be dd1b fb3d 99fe c9bd be99 e0bc
000002d0: 1414 f13a 7fd4 0e3e 982b d93c ec4e 5abe
000002e0: 64e6 1ebd 0fd9 26be d4f2 6abd ec2e de3d
000002f0: b000 ff3c 9d51 96bd ba15 a53d 9eb4 36be
00000300: fa62 c7bd a144 c23d 5d47 14bd 79ed b2bd
00000310: 9d8f a8bc 7acb ee3d 2942 253d bdcf 083d
00000320: fda2 f6bd 2738 113d d563 2ebe 8dbf c53d
00000330: e51d 933e 8320 66b8 afec 1e3c e331 33bd
00000340: e5c1 adbd 598b 013e bd98 143d dcfe 9bba
00000350: 927a 033e 7bae 843d ceee 083b 5e4d 1b3e
00000360: 9932 2a3d b1bf 8ebd 72f1 12bd ab0f 68bc
00000370: 5755 f4bd de85 12be e1f3 5c3d d84f 04bd
00000380: 75c1 753e 44df aebd 3b7e 163e d142 c13d
00000390: ffac 6b3d be64 6a3d 4c0b 3e3e 3147 adbd
000003a0: 2505 dfbc 4b9d fa3c 801e 983a 602b b53d
000003b0: 789a dcbd 5349 4b3c cade 383e eb69 b5bc
000003c0: 63ec bf3c 6fa9 17be ae02 e43d 156e 943d
000003d0: ec07 f4bd 0c01 6cbe 5d18 d5bd 231f cebd
000003e0: f399 00be 7180 4e3d 818a cf3d 2290 8c3d
000003f0: 71a7 17be b27f 74bd 3e7f 4b3d 72e5 293d
0.19634151 -0.01863358 0.0842476 0.10339312 0.09597183 0.055579636 0.07743734 0.023775043
-0.25987154 -0.15052494 0.07557587 -0.19731337 -0.057374433 0.0215673 -0.032621205 0.11324762
0.04095874 -0.03828675 -0.032504756 0.0936201 0.17502539 -0.07155222 0.14027737 -0.05420696
0.035496425 0.057957042 0.1840008 0.057176974 0.1623062 0.011610906 0.13670875 -0.14214984
-0.21707626 -0.102646075 -0.09193772 0.046344258 0.14966165 -0.017603153 -0.102271155 0.18560849
-0.019640416 -0.06110335 0.11978558 0.031439703 0.0072050276 0.068923965 -0.11714874 -0.037618235
0.04799168 -0.0637284 0.12074982 -0.38618413 0.17197818 -0.018637145 -0.07927844 0.036695745
-0.023154225 0.022485362 -0.0036588542 0.15814516 -0.031683307 -0.13505585 0.014942859 0.038618367
-0.101092845 -0.09396599 0.03483693 -0.17265968 -0.010707368 -0.17884415 -0.1761452 0.108687796
0.074683495 0.18052511 -0.18339303 -0.015905814 -0.21095999 -0.04105516 -0.0852926 0.03677522
0.017678417 -0.07185083 0.04099445 0.12331528 -0.2203832 0.06877131 -0.008415496 -0.07571856
0.043407276 0.1690285 0.2744986 -0.099535055 -0.070153505 -0.034319434 -0.14643441 0.04190045
0.20081064 -0.05149151 0.06113336 0.083933145 0.049254537 -0.029847858 -0.13996232 -0.0050349957
-0.11036512 -0.069963306 0.10308276 -0.1665947 0.06881331 0.05535051 0.038395926 0.011004752
0.0002895381 -0.03433361 0.013748211 0.045355815 0.045905717 -0.049068775 -0.026446415 0.026195366
0.019221222 -0.031944025 -0.0025619906 0.06443725 -0.16860949 -0.010414214 -0.054552402 0.07847426
0.03522828 0.063478865 -0.036348335 0.10729293 -0.12402201 0.01267567 -0.20505138 -0.07324493
0.06707764 -0.13049084 0.0036438946 -0.021258628 0.08720984 -0.13933064 -0.2529798 -0.11968615
-0.0512963 0.13086401 0.094328925 0.09075835 0.014575979 -0.097357616 -0.02664904 -0.031597495
-0.08594727 -0.031069564 0.01235964 -0.08922627 -0.026106877 -0.016331049 0.025738252 0.14752182
-0.18511137 0.17234027 -0.14856334 -0.06388187 0.014389184 -0.04935445 0.026498266 -0.11210947
0.16322657 0.072975904 0.0441985 -0.056190092 -0.0483591 0.09031982 -0.051102787 -0.11410177
-0.26402998 0.12261174 -0.09863014 -0.02741706 0.0018392825 0.13948248 0.026510045 -0.21319169
-0.038793936 -0.16293739 -0.057360485 0.108487934 0.031128258 -0.07339785 0.08060785 -0.17842337
-0.09735675 0.09485746 -0.03620087 -0.087367006 -0.020576293 0.11659904 0.0403463 0.03340124
-0.12042806 0.03545394 -0.1703027 0.09655676 0.28733745 -5.4866552e-05 0.009699984 -0.043748748
-0.08484248 0.12650813 0.036278475 -0.0011901516 0.12839726 0.06478592 0.0020894292 0.15166232
0.04155216 -0.06970156 -0.03587479 -0.014163892 -0.1193034 -0.14308879 0.05394352 -0.032302707
0.23999579 -0.08538678 0.1469659 0.09436572 0.05753803 0.05722498 0.18558997 -0.08460844
-0.027224133 0.030592581 0.0011605769 0.08846164 -0.1077165 0.012407619 0.18053737 -0.022145232
0.023428148 -0.14810728 0.111333236 0.07247559 -0.119155735 -0.23047274 -0.104050376 -0.100645326
-0.12558727 0.05041546 0.101338394 0.06863429 -0.14809968 -0.059692092 0.049681894 0.04147858

l1.bias f4 [100]
00000000: 4455 02bd 4b8f a83c 47f7 253e 85aa 873d
00000010: a270 0d3e b02c 703b b150 4f3e c523 13bd
00000020: c224 febc 515e 6bbd 5b09 44bd b5eb e9bd
00000030: fb12 e5bc 11c5 1f3c c2c0 39bd 3960 e63d
00000040: 4ee9 243d 5b0c 343d 0c0b babd 1fd7 00bd
00000050: 1f37 3f3e 29ee 0fbd 12dd 08bd 6275 063e
00000060: df8f c83c 1551 243e 0a71 37bd d748 00be
00000070: 6254 503a 0eab afbe 9b98 633d 7f0d d93d
00000080: 293a 29be afd3 89be 6f3f 56be 1218 1ebc
00000090: 8d30 bb3c ef86 2a3e c255 14bc e5f7 3cbd
000000a0: 78d8 6ebe 0ece 803e b06a 16be 8a5c 083c
000000b0: ea92 6cbd 1e3a 8fbc e4c5 36bc c8c4 22bd
000000c0: 554d 84bd 3b4c 46be 6801 7abb 006c 2e3e
000000d0: 0bc0 d63d 3a9e 39be b22d c1bc 755a 32bd
000000e0: 728a 07bd 85c5 823d 0c25 03bd 649a 8ebd
000000f0: 6613 2abe d908 9b3d 08b4 7ebc 826b e93d
00000100: 8774 e13d 4e89 0dbe 90ce 40bc 2c0a c43d
00000110: 13aa f6bc 3a9a 303c a7c5 dc3d 6c0d a7bd
00000120: fba3 0bbe 4e6b 513e 043a b13d 3222 3f3d
00000130: b7df 38be eebe 72bd c837 69be 8ade cabd
00000140: 7caf 2e3d 74ca 06be 043f 0cbd 3d30 6f3d
00000150: e936 0a3d d051 703c b0e9 9cbd bdc7 a83c
00000160: a180 0fbe 87c3 b8bc 4308 0d3e 541c a43d
00000170: f069 febc 6d11 2e3d cf85 0c3e 10df 41bd
00000180: 9e0e d03a b3fa dcbd 48ad 1cbe c069 fc3a
-0.031819597 0.02057614 0.1620761 0.06624321 0.13812497 0.003664773 0.20245625 -0.035922784
-0.031023387 -0.057462994 -0.047860485 -0.11421911 -0.027963152 0.009751574 -0.045349844 0.11248822
0.04026156 0.043957096 -0.09084138 -0.031455155 0.18673371 -0.035139237 -0.033413954 0.13130715
0.024482666 0.16046555 -0.044785537 -0.12527786 0.00079471443 -0.34310192 0.055565458 0.10598277
-0.16526093 -0.26919314 -0.20922635 -0.0096492935 0.0228503 0.16653036 -0.009053649 -0.04613485
-0.23324764 0.25157207 -0.14689136 0.008322844 -0.057757296 -0.017483767 -0.011155579 -0.039738446
-0.064600624 -0.19365017 -0.003814781 0.17033386 0.10485848 -0.18126765 -0.02358136 -0.043543298
-0.033091016 0.0638533 -0.032017753 -0.069630414 -0.16608962 0.07570047 -0.0155458525 0.113974586
0.11008554 -0.13821909 -0.011767998 0.09572253 -0.030110395 0.010778958 0.10779887 -0.08156857
-0.13636772 0.2045109 0.08653644 0.04666347 -0.1805409 -0.059264116 -0.22775185 -0.09905727
0.042647824 -0.13163167 -0.034239784 0.058395613 0.033743773 0.014667943 -0.0766176 0.020603055
-0.14013912 -0.022554172 0.13772683 0.08013216 -0.031056374 0.042497087 0.13722919 -0.04733187
0.0015873497 -0.107900046 -0.15300477 0.001925759

l2.weight f4 [100, 100]
00000000: 774e 883c 9382 093e 84f2 afbd f495 febc
00000010: 2a7c a7bd 8268 203e a7ae d0bc 69bd a93d
00000020: e900 b1bd 7f07 89bd 184b 0e3d 51a0 70bd
00000030: dab3 aabc edec f6bc 5b0c 4c3c 4be0 4dbc
00000040: c017 4ebe 95bf 15be 2172 c23c ec13 393e
00000050: 26b0 d53c 1eb6 f13d 9dec 693d b63c 043d
00000060: c080 4a3d bac2 6a3d c027 7bbe e904 f7bd
00000070: 420b 45be ab7e 1bbe beb0 ea3d aa82 b1bd
00000080: 2c8c 843d c226 c63c 632d 1a3d 8f21 b63c
00000090: 2c23 30bd 2c94 13bd 8b31 77bd e5b6 873d
000000a0: 7b0e 13bd fb91 8f3d 1617 03bc 0edb 1abd
000000b0: 49ce af3d e748 80bd e12b cfbd 37c2 503e
000000c0: f9c6 91bc c7b9 933d d7d5 24bd a6fb d53c
000000d0: b599 c53c 98b8 a4bd e68c 243e 96e7 463d
000000e0: 9384 96bd 3f57 0c3d 5c21 debd 9f81 88bc
000000f0: 3f0e 9f3c 2b16 f03d 974b dd3c a840 553c
00000100: 0e16 893c 1c50 d8bd 9d65 443d 7d5d 0dbe
00000110: 4960 063e af13 433d abbd adbd 5b93 8a3d
00000120: eb74 ff3d be37 a73d 9cab e33d 283d a73c
00000130: f49e 863e f02f 383d 9dce 14bd 659a 27bd
00000140: d146 4d3e 0ff0 5ebc c346 90bd cfca 033d
00000150: bcc7 6e3d ef2c 72bd 6f93 6dbd 62b5 11be
00000160: 49be dbbd d13d c8bd ef63 56bd 0735 e03b
00000170: aa02 bcbb 6154 f6bd e261 15bd b1f1 87bc
00000180: 0e15 85bd 7b45 683e 9082 9d3c 1dad 643d
00000190: f603 d8bd 7150 163d 7b33 22be 5832 4d3d
000001a0: 45c7 503e 0ff5 afbc d8c6 583e abf8 b6bd
000001b0: d6a1 b93d fec6 573c f8e9 313d 508c b93d
000001c0: 1af3 7f3c 902e e2bc 6f10 e3bd d35a d5bd
000001d0: b4be 033d 2d56 dbbd 8a05 4e3d b1a4 083e
000001e0: ec71 5ebd 5eca 1dbd fcab db3c cd08 a13d
000001f0: 4d5e 253d 1f1f 043d cefb 1ebd 8d04 7ebd
00000200: f7d2 fd3d 171d d8bd dd0d 19bd f3ff 3dbc
00000210: 8f64 123e 5474 a13c 2a51 233e 7c80 b63d
00000220: ec3d 08bc f83f a3bd cb1a afbc d0de bebc
00000230: ad51 c23d 822c 96bc 45d5 bb3b b9e8 3bbd
00000240: 4143 d2bc 1e3d 023e b3d5 743d af14 1f3e
00000250: 036e 4fbd 7d51 023d cc6c 2ebd d9a4 beba
00000260: 3a97 2e3c 91c4 ed3d 3d8c e43d 4bf1 213d
00000270: 6422 f8bd 2c99 a93d 170d 20be c279 3fbd
00000280: 51cc 013d b19b a53d 3b93 ecbc e573 113d
00000290: 30c3 fc3c 4a10 8bbc 3892 063e f37b f03a
000002a0: 52b0 213d cd23 2abe afd7 cdbb 7a51 2c3c
000002b0: 9d88 c7bd 5d1e 5d3a da93 9e3d 18c5 0c3d
000002c0: d0a0 96bd 0132 7a3c 2207 b4bd e244 0cbe
000002d0: 6254 e5bd 978b 33be 57d2 a63d 38eb ccbd
000002e0: 15c2 5abd 75c0 823c 74aa 1cbe d4d7 32bd
000002f0: 538e 68bd 3f5d 6abd 0d36 233e 59e8 f83c
00000300: 2878 c9bd 9965 003d 1da0 eb3d 4330 253d
00000310: 001d c73d 9f6b 01be 1904 b4bd 04ce 19bd
00000320: 6789 583d 922a e63c 4da8 0a3e 0120 8f3d
00000330: 9998 3cbd 94a0 303e 4b94 e9bd dbef dabd
00000340: aecf abbc 18dc 9bbd 7e67 6d3e 8759 d03d
00000350: 3739 03be 625b 06be 5389 993c 1b41 7fbe
00000360: 85d6 0bbe c87c 1dbe 6784 af3c 1b91 003e
00000370: 627a 8b3d b671 183c db48 82be 5c9c 1c3e
00000380: 120d 843c 1458 043d f691 57bd 6306 d03c
00000390: a257 5abd a725 38be 3549 e0bd 6db9 d03c
000003a0: 8ce3 e13d 480f 2b3e df34 56be 4f76 87bd
000003b0: c0ca 313e 311e dd3d 7678 6a3e a580 033d
000003c0: 528a febb 8de8 1abe c715 4dbd 7f78 b8bd
000003d0: 4c9f a0bd fb2f 433d c013 953d c165 8bbd
000003e0: 3159 ab3d ca59 1b3e 3031 583e 51c6 e4bd
000003f0: de48 193d 9d8c da3c b6fb 96bd 58dc fa3c
0.016638977 0.13428716 -0.08591178 -0.031077363 -0.08177979 0.15664867 -0.025473906 0.0828808
-0.08642752 -0.06690883 0.034739584 -0.05874664 -0.020837713 -0.030142272 0.012454118 -0.012565683
-0.20126247 -0.14623864 0.023736062 0.18074006 0.02608497 0.11802314 0.057110418 0.03228446
0.04943919 0.057314612 -0.24526882 -0.120614834 -0.19242576 -0.15185039 0.11459492 -0.086675
0.06472048 0.024188403 0.03764094 0.022232799 -0.043002293 -0.03602998 -0.060349982 0.06626681
-0.03590248 0.070102654 -0.00800111 -0.037806563 0.08584268 -0.06263905 -0.10115791 0.20386587
-0.017795073 0.072131686 -0.040242996 0.026120972 0.024121145 -0.08043021 0.16069373 0.0485607
-0.07349505 0.03426289 -0.108462065 -0.01666337 0.019415973 0.11722978 0.027013583 0.0130159035
0.01673415 -0.10562155 0.04794847 -0.13805194 0.13122667 0.047626194 -0.08483442 0.06766387
0.12473472 0.08164929 0.11116716 0.020414904 0.26293147 0.04496759 -0.036329854 -0.040918726
0.20046546 -0.013607039 -0.07044747 0.032175835 0.05829595 -0.059124883 -0.05800193 -0.14229348
-0.107296534 -0.097774155 -0.052341398 0.006842259 -0.0057376223 -0.12027813 -0.0364703 -0.01659474
-0.064981565 0.22682755 0.019227296 0.055829156 -0.105476305 0.03669781 -0.1583995 0.05009684
0.20388515 -0.021479158 0.21169603 -0.089341484 0.09064071 0.013170002 0.04343602 0.090599656
0.015621925 -0.027610093 -0.11087119 -0.10417714 0.03216429 -0.10709796 0.05029825 0.13344075
-0.054307863 -0.03852307 0.026815407 0.07863007 0.040373135 0.032256242 -0.03881436 -0.06201606
0.12393754 -0.105524234 -0.037366737 -0.011596668 0.14296173 0.01970879 0.1594893 0.08911225
-0.008315545 -0.079711854 -0.02137508 -0.023299605 0.09488235 -0.01833177 0.005732211 -0.04587624
-0.025666835 0.12718627 0.059774112 0.15535234 -0.050642025 0.031815995 -0.042584226 -0.0014544978
0.010656172 0.11609758 0.11159561 0.039536756 -0.121159345 0.08281168 -0.15629993 -0.046746977
0.031688992 0.080863364 -0.028878799 0.035510916 0.030854791 -0.01697554 0.13141716 0.0018347487
0.039474793 -0.1661522 -0.006281815 0.010517472 -0.09742854 0.00084350054 0.07743044 0.03436765
-0.07354891 0.015270711 -0.08790423 -0.13698152 -0.11197735 -0.17533718 0.08145588 -0.10005802
-0.053407747 0.015960911 -0.15299398 -0.04366286 -0.056776356 -0.057217833 0.15938587 0.03038423
-0.09837371 0.03134689 0.115051486 0.04032923 0.09722328 -0.1263871 -0.08789844 -0.037549987
0.052865412 0.028096471 0.13540764 0.06988526 -0.046043966 0.17248756 -0.11405238 -0.1069028
-0.020973053 -0.07610339 0.2318401 0.10173326 -0.12814794 -0.13120797 0.01874224 -0.2492718
-0.13656051 -0.15379632 0.021425439 0.12555353 0.06810452 0.009304455 -0.2544621 0.15294021
0.016119514 0.03231056 -0.052629434 0.02539367 -0.05330623 -0.17983113 -0.10951463 0.025479043
0.11029729 0.16705048 -0.20918606 -0.066143624 0.17362499 0.10796774 0.22897515 0.032105107
-0.007767954 -0.15127774 -0.050069597 -0.09007358 -0.078428835 0.04765318 0.07279158 -0.068065174
0.08366621 0.1517097 0.21112514 -0.11170638 0.037423007 0.026678378 -0.07372229 0.030622646

l2.bias f4 [100]
00000000: 08f6 033d 7a3a 2dbe f0ad 073e b109 7a3c
00000010: 74ee 90bd c775 0f3e 8342 d73c c00d 23be
00000020: 0796 1dbe 5b14 d6bc dac2 123d d1f1 403e
00000030: dae1 483d 7321 3a3d 6d73 db3d c223 fe3d
00000040: f158 64bb eb38 c03c 2c44 913e 88b2 ae3c
00000050: 62bb 0f3e 708c 8fbd f35b 7f3d 8df0 8f3d
00000060: 1330 b1bd a1ba 113d f281 28bc d89d 0ebe
00000070: d273 673d b1e7 5ebd 575a b2bb a026 05bd
00000080: d74a 6a3c 6d9b c43b 998d 1abe 8b64 213d
00000090: 6297 1f3e fea7 56bc 4225 2a3d c780 74bd
000000a0: ca76 d3bc d950 91bd c514 04bd 9742 ad3c
000000b0: 8dcd 65bd e503 07bd 9a44 91bc 04bd cfbd
000000c0: 2d14 8f3b b52f 063d 1982 bc3c 9833 44bd
000000d0: 6514 b03d 5bec 823d a6b6 b93b aceb 4dbb
000000e0: 56fc c6bd f8e3 953d 9fba 1abd 2bab f43d
000000f0: 0b52 23be e694 63be 3326 f73d 844d 223e
00000100: 27c4 08bd 5572 dcbc 2193 a5bc 5f85 833d
00000110: 0a5e 923d 7881 44bd 8967 32be eecc ac3c
00000120: e3bf 973d 1ea9 dcbc 6a13 333d 389f 613d
00000130: c048 61be 6902 1e3e 7a34 bb3c 68f2 973c
00000140: 95ec 343d 7dae 67bc f07d 483b 0b41 203e
00000150: 0a3b 13bd 471c b33c a388 6cbd 775b 5f3c
00000160: 643e c13c 1143 f23c 63e9 9bbe 231f c63d
00000170: 60a4 4abc 3534 25bd 1c1f b8bc 19af acbc
00000180: 3fbe f7bd ea05 79bd 8552 40be d880 913d
0.032217056 -0.16916838 0.13249946 0.0152611 -0.07076731 0.14009772 0.026276832 -0.15923214
-0.15389262 -0.026132753 0.035830356 0.18842246 0.049043514 0.045442056 0.10715375 0.12409164
-0.0034843052 0.02346464 0.28372324 0.021325365 0.14036325 -0.07009208 0.06234355 0.07028303
-0.086517476 0.035578374 -0.010284888 -0.139274 0.05650694 -0.054420177 -0.0054428983 -0.03250754
0.01430007 0.0059999735 -0.15093078 0.039402526 0.15585092 -0.013101576 0.041539438 -0.059693124
-0.025813479 -0.070954986 -0.03224637 0.021149917 -0.05610423 -0.0329627 -0.017732907 -0.10143474
0.004366419 0.03276034 0.023011254 -0.047900766 0.0859764 0.063927375 0.0056675253 -0.003142099
-0.09716098 0.07318872 -0.037775632 0.1194671 -0.15949266 -0.22224769 0.12067833 0.15849882
-0.03339019 -0.026909987 -0.020211758 0.06421923 0.07146843 -0.047975034 -0.17422308 0.021093812
0.07409646 -0.02693611 0.043719687 0.055083483 -0.22000408 0.15430607 0.022852171 0.018548205
0.044170935 -0.014140722 0.0030592643 0.15649812 -0.035944976 0.02186407 -0.057747494 0.013632647
0.02358932 0.029572995 -0.30451497 0.096739076 -0.012368292 -0.04033299 -0.022475772 -0.021079587
-0.120968334 -0.060796656 -0.18781479 0.07104653

l3.weight f4 [18, 100]
00000000: beea 983d 3573 70bd ea1b c0bc 1b9e 1b3e
00000010: eb58 3bbe c0d0 b23c a489 05be 7ea1 253d
00000020: 0d71 263c f3ab a0bd e864 4b3d 3a06 ee3d
00000030: c8ac 993d 7d72 533d fa35 04be dd30 8f3d
00000040: 76ca a53d 5697 c0bd d96c cfbd 95e5 c43d
00000050: f9a4 01bc 86bf 0dbd 1ebd 1f3e 8774 f9bc
00000060: 3f45 81be ef13 f2bd 9713 f1bc 10af 79be
00000070: d1c8 053e 0a97 9c3d a560 09bd c139 443b
00000080: ec4c 873e dd0a 81be 6b32 c5bd 72ea 27be
00000090: f6c5 0e3d 6db8 3c3a 7cb3 453e 41d4 fdbc
000000a0: 5f06 2b3c c644 2f3e 89ad 57bb 0233 043e
000000b0: 59a3 8fbd 0992 083c bdaa 4b3e c568 0a3d
000000c0: e729 273e c117 3fbe abfb 3c3d 80d1 5bbe
000000d0: 6100 2bbe 6b02 00be 6f3e a1bd 0ea8 1fbe
000000e0: 9bea 1b3c a363 b0bd c214 0ebe 4996 88bd
000000f0: 5744 733e 775a 3b3e eadc 123d af13 fcbb
00000100: ec18 ab3d aec6 4ebe 6c1b 6a3e 9fbd 883d
00000110: 6a49 f2bd 57f7 0f3e 048a 64be ee4a 883d
00000120: 0ea3 863d 29b3 e13d b644 1e3d fb25 0ebe
00000130: 875e 3b3e e0fd f33b 484b 96be 6b0a 0abd
00000140: 6c4e 803e 18d8 24be 4a02 a83d 2b78 97bb
00000150: fe52 9cbd bb60 b43d 7c65 71be b2fc 0cbe
00000160: 5ebf 13be c834 5dbe 4371 6c3e 1e51 9b3d
00000170: 1fe9 0f3e a6c8 e53d 4d18 893d 7244 abbd
00000180: 4718 363d c215 9d3c 8198 563b d225 64be
00000190: c369 1c3d 100d 23be e444 9e3d 3cab ad3d
000001a0: 14f6 af3d b400 9d3c a93b 013e 2b26 81be
000001b0: b9c7 5cbe 7580 7c3d f0fd 3bbb 7db1 853d
000001c0: 0b4f c53d 3295 f03d 3234 b93e 475e 57bc
000001d0: 9e95 94bd 2c7c 35bd 8386 183e 8a36 e9bd
000001e0: fe0c fa3d ed3d 803d 6c97 183e 3756 503a
000001f0: b29a 65be c3ab df3d b15f 07be 5e28 403d
00000200: 0c36 1bbe e7dc 27bd 260e 643e a003 40bd
00000210: 65bb ff3d 4927 a73d 9455 193d d88c b23d
00000220: 499a f63b 2850 953c 469b c1bc 72bb dd3d
00000230: 2fa1 83bd 4fb4 1ebe 8bb7 b9bd 4274 ab3e
00000240: cd33 5d3d d7e3 063d 64a5 a8bc 63e1 143d
00000250: a1f1 663d e1eb 24be ac93 cc3d 2753 cfbd
00000260: 640a a83e 5c39 a03d 483a ad3e 6726 fc3b
00000270: 96db 01be 636d e8bc 4b04 713b 5266 3c3e
00000280: d9f9 b2bd 12c5 443c c560 4d3e fd04 40be
00000290: d120 d23c 69bb 893d 387f 20bd 67f3 64be
000002a0: effa 943e a9b5 d63c 1b41 0dbe 6153 db3d
000002b0: 4f00 473e e16f 77bc 6188 113e 8bfc 993d
000002c0: d28f 8abe 5c27 f2bd d8c3 4438 1152 0f3e
000002d0: 356e 9b3c d7bb 3c3e adab 23be 4e5a 583e
000002e0: 3717 803d 6f44 a53d d535 1bbe 8598 ca3c
000002f0: ae45 e63d 292a 52bd 30a9 04be 6d47 053d
00000300: 7e88 17bd c649 863d cc92 cabd af1d 5fbe
00000310: 8771 acbc 9033 42be 7a9a 0cbe 8e16 3c3e
00000320: 1794 17be f050 ac3d a703 133e 5424 40bd
00000330: b1fe c7bd 6a4a 503e f6eb ffbc 3145 d7bc
00000340: 5f20 5a3e beb7 39bd 9dd6 74bd a71f e2bb
00000350: 6a15 1e3e c0a7 96bd bd3e 17bd 47e5 95bd
00000360: 2490 383e c2e8 c53d 352f 3c3e 0e00 bd3c
00000370: 1f67 4bbd 6be3 4ebc 1820 343e c7c0 1cbd
00000380: c8ea 72bd 8972 763d 6511 af3c 678e 593d
00000390: 380b 1f3b f8d0 653b c7c6 b7bd 3fd1 91bd
000003a0: 709f 07be f67f 4bbe bb9e d73d fb54 acbc
000003b0: 83a2 8dbd 7d20 7a3b d03d 003b fbfa f9bd
000003c0: 623f e73d fddf 2f3e d40b 85bc 3cd0 25be
000003d0: 4d0a 23bd 33e4 8dbd 9c1d 26be 3c3d d4bd
000003e0: 4f91 89bd b796 293d f86f 0dbe 1024 ac3d
000003f0: a377 84bd e708 46be 5ea0 3dbe 4077 733d
0.074666485 -0.05870362 -0.02345081 0.15197031 -0.18295638 0.021828055 -0.13040787 0.040437214
0.010158789 -0.07845297 0.04965678 0.116222814 0.075036585 0.051622856 -0.12911215 0.06991742
0.08095257 -0.09403865 -0.10128183 0.09614102 -0.007912868 -0.03460648 0.15599486 -0.030451072
-0.25248143 -0.11820208 -0.029428286 -0.24383187 0.13064887 0.07645996 -0.033539433 0.002994165
0.26425874 -0.252036 -0.09628757 -0.16398028 0.03485676 0.00071991124 0.19306749 -0.030985
0.010438531 0.17116079 -0.0032909831 0.12910083 -0.07013578 0.008335599 0.1988935 0.033791322
0.16324578 -0.18661405 0.046138447 -0.21466637 -0.16699363 -0.12500922 -0.078732364 -0.15591452
0.0095163835 -0.08612754 -0.13875106 -0.066692896 0.23756538 0.18296228 0.03585521 -0.007692776
0.08354363 -0.20192978 0.22862023 0.06676792 -0.11830409 0.14059196 -0.22318274 0.06654917
0.06574069 0.110205 0.038639747 -0.13881676 0.18297778 0.0074460357 -0.2935431 -0.03370134
0.2505983 -0.16098058 0.082035616 -0.0046224794 -0.07633017 0.088075124 -0.2357387 -0.1376827
-0.1442847 -0.21602166 0.23090081 0.07583831 0.14053772 0.11219911 0.06694088 -0.08362664
0.044456746 0.019175414 0.0032744708 -0.22280052 0.0381868 -0.15922952 0.077279836 0.08479926
0.085918576 0.019165374 0.12620415 -0.25224432 -0.21560563 0.061645944 -0.0028685294 0.06527994
0.09634217 0.11747207 0.36172634 -0.013145036 -0.072551 -0.044307873 0.14895062 -0.113873556
0.12209509 0.062618114 0.14901513 0.00079474173 -0.22422293 0.10921433 -0.13220097 0.046913497
-0.15157336 -0.040982153 0.22271022 -0.046878457 0.124869145 0.0816179 0.03743513 0.0871827
0.0075257164 0.018226698 -0.02363361 0.10826768 -0.06427228 -0.1549847 -0.09068211 0.33487135
0.05400448 0.03293213 -0.020586677 0.036347758 0.05638278 -0.16105606 0.09989104 -0.10123282
0.32820427 0.078234404 0.33833528 0.0076950076 -0.12681422 -0.028372472 0.003677624 0.18398407
-0.08739061 0.012009876 0.20056446 -0.18751903 0.025650414 0.06725199 -0.039183825 -0.22358476
0.29097697 0.02620967 -0.13794367 0.10709263 0.19433711 -0.015102358 0.1421218 0.07518872
-0.2706285 -0.118239135 4.6912435e-05 0.1399615 0.01897345 0.1843103 -0.15983458 0.21128199
0.06254428 0.08069693 -0.15157254 0.02473093 0.11243759 -0.05130974 -0.12955165 0.03253882
-0.036995403 0.0655704 -0.098912805 -0.21788667 -0.021050228 -0.18964982 -0.13730803 0.18367979
-0.14802586 0.08413875 0.14356862 -0.046909645 -0.097653754 0.20340887 -0.031240445 -0.02627811
0.21301411 -0.045341246 -0.059774984 -0.006900746 0.15437856 -0.073562145 -0.036925066 -0.07319122
0.18023735 0.09663536 0.18377383 0.023071315 -0.04965889 -0.012627463 0.17590368 -0.038269784
-0.059305936 0.060167823 0.021370599 0.05311432 0.0024268162 0.0035067182 -0.08973461 -0.07119989
-0.13244414 -0.19873032 0.10528322 -0.021036616 -0.06915762 0.0038166337 0.0019568093 -0.12206074
0.11291386 0.17175288 -0.016240992 -0.16192716 -0.039804745 -0.06928291 -0.16222233 -0.10363242
-0.067171685 0.0414035 -0.13812244 0.08405316 -0.064681314 -0.19339333 -0.18518206 0.059439898

l3.bias f4 [18]
00000000: 1f26 7e3e 3f94 f4be 8ffb 15bd 2533 1d3f
00000010: 6bd9 f7bd 09b8 a8be 9925 283e df2d c2be
00000020: bc19 5c3e e710 953e f5f5 863e c4fa cd3c
00000030: 6853 9c3e 4b9d d4be c6ee 9e3e e5bd 613e
00000040: 8279 60bd 5904 43bb
0.2481923 -0.47769353 -0.036616858 0.61406165 -0.12102016 -0.32952908 0.16420592 -0.37925622
0.21494192 0.29114458 0.26359525 0.025143988 0.30532384 -0.41526255 0.31041545 0.22045095
-0.05480338 -0.002975723
