LARA/data/result/g_350.pt (torch, 87406 bytes, 7 tensors)

G_attr_matrix.weight f4 [36, 5]
0	0x3d86342a	0.06552918
1	0xbd6899cb	-0.056787293
2	0xbea5b2c7	-0.3236296
3	0x3d9bd2b3	0.07608547
4	0x3cecd046	0.028907906
5	0xbdc09240	-0.09402895
6	0x3d628146	0.055299066
7	0x3e23d357	0.15998589
8	0x3d648c9c	0.055798158
9	0xbc62e971	-0.013849602
10	0xbd60e1fc	-0.054903015
11	0x3cda5749	0.026652949
12	0x3c6e8ca8	0.014559902
13	0x3d6f390c	0.058404014
14	0x3ab2a92d	0.001363074
15	0xbcb7a636	-0.022418123
16	0xbdbb47fd	-0.0914459
17	0xbdac08bd	-0.08400104
18	0xbd83ab7c	-0.064291924
19	0x3b2e45f8	0.0026591998
20	0xbc75b864	-0.014997575
21	0xbe0b9f0f	-0.13634895
22	0xba5c445c	-0.00084025203
23	0xbc7c8c0c	-0.015414249
24	0x3d3df907	0.04638007
25	0x3d639607	0.055563
26	0x3d45d4f6	0.0482988
27	0xbd1c62c6	-0.038180135
28	0x3e62eb87	0.22160159
29	0xbdb71a19	-0.089405246
30	0xbcf9def8	-0.030501828
31	0xbcd184ab	-0.025575956
32	0xbcc7d2a0	-0.024392426
33	0x3d7d70a9	0.06187502
34	0x3e495a36	0.19663319
35	0x3e535502	0.20637897
36	0x3ddbf84f	0.107407205
37	0x3e45a71f	0.19302033
38	0x3e39352c	0.1808669
39	0x3d9619ea	0.073291615
40	0x3bb52094	0.0055275653
41	0x3cd0cc04	0.025487907
42	0xb98180a0	-0.0002470063
43	0xbd5d87c9	-0.054084573
44	0xbe0f6066	-0.14001617
45	0x3ae054d3	0.0017115123
46	0xbbc34874	-0.005959565
47	0xbc0cc97b	-0.008592959
48	0x3daa1088	0.08303934
49	0x3e547fdf	0.20751904
50	0x3e90b6ba	0.2826441
51	0x3bcb39da	0.006201965
52	0x3c20b366	0.009808397
53	0xbdc9baf3	-0.09850111
54	0xbc5d4c4e	-0.013506962
55	0x3ca83000	0.0205307
56	0xbe456767	-0.19277726
57	0xbe7b3394	-0.24531394
58	0x3d567a06	0.052362464
59	0x3e30195e	0.17197177
60	0x3ba376a4	0.0049885083
61	0x3deb9161	0.11502338
62	0xba7cb2b2	-0.0009639665
63	0x3bcae9ad	0.006192407
64	0x3d408384	0.047000423
65	0xbe919f48	-0.28441834
66	0x3cd355e1	0.025797786
67	0x3c2156fb	0.009847398
68	0xbdf38d9a	-0.11892243
69	0xbd45ea6a	-0.048319258
70	0xbc29a3ed	-0.010354024
71	0xbccad697	-0.024760528
72	0x3d926fd3	0.07150235
73	0x3c16cd27	0.009204186
74	0x3d0a8526	0.033818386
75	0xbe749c4a	-0.23887745
76	0x3e36b1d4	0.17841274
77	0xbe5ed532	-0.21761015
78	0x3e27acd3	0.16374521
79	0xbe24c298	-0.16089857
80	0x3e64ff6c	0.2236306
81	0xbcf4c0a7	-0.02987702
82	0xbdcf58d7	-0.10124367
83	0x3e2bf2df	0.16791867
84	0xbdf1f330	-0.118139625
85	0x3c69e9df	0.014276951
86	0x3e9f969a	0.31169587
87	0x3ef2a4fc	0.47391498
88	0x3e051707	0.12997065
89	0x3dabc732	0.08387603
90	0xbb2a8263	-0.0026017658
91	0xbe92c3a3	-0.28664884
92	0xba6f2bdb	-0.00091236614
93	0x3dc8c89e	0.0980389
94	0xbdec51c3	-0.11539032
95	0xbd71376c	-0.058890745
96	0x3dcbaed3	0.099454544
97	0xbe7fc148	-0.24976075
98	0x3e216eac	0.15764874
99	0x3d158fb4	0.036514
100	0xbe5fe0cb	-0.21863095
101	0xbc84264d	-0.016131544
102	0x3c5e54fc	0.013570067
103	0xbca7f2ac	-0.020501457
104	0xbbb5d9ec	-0.00554966
105	0xbe3dc7eb	-0.18533294
106	0x3dd4269d	0.103589274
107	0xbdfef850	-0.124497056
108	0x3e267833	0.1625679
109	0x3db9fb7f	0.09081172
110	0xbb89b789	-0.0042027873
111	0xbbf2e352	-0.0074123526
112	0xbc3119f9	-0.010809415
113	0x3c86077d	0.016360993
114	0xbb6c7898	-0.0036082622
115	0x3da61a49	0.08110482
116	0x3e7cccdd	0.24687524
117	0x3e35e690	0.17763734
118	0xbe4e6fed	-0.20159884
119	0xbd168bbf	-0.036754366
120	0x3ef9863c	0.48735225
121	0x3cab99e0	0.020947397
122	0x3b1ec604	0.0024226913
123	0xbe6f49fe	-0.2336807
124	0xbb9795bb	-0.0046260036
125	0x3e83fad1	0.25777295
126	0xbe4a70d9	-0.1976961
127	0xbd875fda	-0.06610079
128	0xbe48a294	-0.19593269
129	0x3e11014e	0.14160654
130	0x3c809df5	0.01570032
131	0x3d510e8a	0.051039256
132	0xbc907116	-0.017632049
133	0x3dd998a9	0.10624821
134	0xbc9eac75	-0.019369343
135	0xbe72c987	-0.23709689
136	0xbeb9d19a	-0.36292726
137	0x3e432202	0.19055942
138	0x3e79c9c9	0.24393381
139	0x3e91f150	0.2850442
140	0xbcfe658c	-0.03105428
141	0x3c1a239f	0.009407907
142	0x3b9c8386	0.004776421
143	0xb9414e30	-0.00018435041
144	0xbd09560f	-0.033529337
145	0x3d9e2b51	0.07723106
146	0x3a89c133	0.0010509848
147	0xbc5510ec	-0.013004523
148	0xbca8ca48	-0.020604268
149	0x3e034689	0.12819876
150	0xbcc27743	-0.023738509
151	0xbbed8040	-0.0072479546
152	0x3c7b7aee	0.015349133
153	0xbd5eaada	-0.054362155
154	0xbd9a8536	-0.07544939
155	0x3cb1af64	0.021690078
156	0xbdb8218c	-0.089907736
157	0xbd540312	-0.05176074
158	0x3e3ed88c	0.18637294
159	0x3e899ed9	0.26879004
160	0xbb7fe4bc	-0.0039046248
161	0xbbf66c8d	-0.0075202645
162	0x3d963d79	0.07335944
163	0x3af60470	0.0018769633
164	0xbc53bc03	-0.012923243
165	0x3e094c0f	0.1340792
166	0x3e311a69	0.17295231
167	0xbeb5eadf	-0.35530755
168	0x3d2b4114	0.04181011
169	0x3e2c6fb3	0.16839485
170	0x3d0c4768	0.034247786
171	0xbc8dceb6	-0.017310482
172	0x3e05b0c6	0.13055715
173	0x3e94bbfb	0.29049668
174	0x3e14d5fc	0.14534754
175	0x3d64bd07	0.055844333
176	0x3e8db9a3	0.27680692
177	0xbe1b410c	-0.15161532
178	0xbe3a51e6	-0.18195304
179	0x3e2dde9b	0.16979448

l1.weight f4 [100, 90]
0	0x3e4db12c	0.20087117
1	0xbcb69023	-0.022285527
2	0x3da03ba6	0.07823877
3	0x3de145ea	0.10999663
4	0x3dccb001	0.099945076
5	0x3d4ac0dd	0.049500335
6	0x3db0c096	0.08630483
7	0x3cc7fd4d	0.024412775
8	0xbe83034c	-0.25588453
9	0xbe0dd4ec	-0.13850754
10	0x3d77e142	0.060517557
11	0xbe50088f	-0.20315765
12	0xbd95ecb2	-0.07320537
13	0x3ca69bda	0.020337988
14	0xbcdef500	-0.027216434
15	0x3dd6d765	0.10490302
16	0x3d1d74f7	0.038441624
17	0xbd2a68cc	-0.04160385
18	0xbcd5db8b	-0.026105663
19	0x3dcc1165	0.09964255
20	0x3e2f2c2e	0.17106697
21	0xbd6efdf6	-0.058347665
22	0x3e09194a	0.13388553
23	0xbd64961f	-0.05580723
24	0x3cf46f84	0.029838331
25	0x3d84360f	0.06455623
26	0x3e3995b3	0.18123512
27	0x3d60ad47	0.05485275
28	0x3e20b73e	0.15694901
29	0x3b5865eb	0.0033019732
30	0x3e0e0489	0.13868918
31	0xbe0ba7de	-0.13638255
32	0xbe5464af	-0.20741533
33	0xbdb62a73	-0.08894815
34	0xbdb29e12	-0.08721556
35	0x3d241661	0.040060405
36	0x3e1e7b5e	0.15476748
37	0xbcb6257f	-0.022234676
38	0xbdc65755	-0.09684626
39	0x3e3815ea	0.1797711
40	0xbc5c311c	-0.013439443
41	0xbd8a9826	-0.06767301
42	0x3ded75a0	0.11594701
43	0x3d18e7b2	0.037330337
44	0x3a4443bb	0.0007486899
45	0x3d896a9d	0.06709788
46	0xbdfcd1e4	-0.12344721
47	0xbd345107	-0.044022586
48	0x3d5f4ab4	0.0545146
49	0xbd8ec8be	-0.06971882
50	0x3dea6ce4	0.114465505
51	0xbeca2510	-0.394814
52	0x3e3b8423	0.18312125
53	0xbd27905d	-0.04090916
54	0xbdc8eaf1	-0.098104365
55	0x3d16ef55	0.03684934
56	0xbce637f1	-0.028102847
57	0x3c47cbc1	0.012194575
58	0xbbbbdcb7	-0.0057330984
59	0x3e14ea65	0.1454254
60	0xbcd0f8a8	-0.025509194
61	0xbdfa84a2	-0.12232329
62	0x3c2bf2db	0.010494913
63	0x3d057074	0.032577947
64	0xbdd8e32c	-0.105902046
65	0xbdcd931f	-0.10037827
66	0x3cf872cf	0.030328183
67	0xbe30c6a0	-0.1726327
68	0xbb976893	-0.0046206205
69	0xbe2e219d	-0.1700501
70	0xbe42d505	-0.19026573
71	0x3dfef81b	0.12449666
72	0x3d9fc526	0.07801275
73	0x3e39260e	0.18080923
74	0xbe4a1677	-0.19735132
75	0xbd3cc948	-0.046090394
76	0xbe5ada09	-0.21372236
77	0xbd14361e	-0.036184423
78	0xbdaefab4	-0.085439116
79	0x3d094198	0.03350982
80	0x3cb3e58f	0.021960048
81	0xbd7cc253	-0.06170876
82	0x3d4234bf	0.047413584
83	0x3df61047	0.120148234
84	0xbe61e534	-0.2206009
85	0x3d97278f	0.07380592
86	0xbbfbdaa1	-0.0076859747
87	0xbd90a1dd	-0.07062123
88	0x3d48955c	0.048970565
89	0x3e32d037	0.1746224
90	0x3e8e7d32	0.2782989
91	0xbdd0297d	-0.10164163
92	0xbd989662	-0.07450558
93	0xbcf79920	-0.030224383
94	0xbe128fe2	-0.143127
95	0x3d1d5ec4	0.038420454
96	0x3e5b68d8	0.21426713
97	0xbd50ded8	-0.05099377
98	0x3d8340dc	0.06408855
99	0x3db8d3a1	0.0902474
100	0x3d240981	0.040048126
101	0xbd0a7ce6	-0.03381052
102	0xbe148dc6	-0.14507207
103	0xbc7fc1f6	-0.015610209
104	0xbddc292b	-0.1075004
105	0xbd9d101d	-0.07669089
106	0x3dcdb3b1	0.10044039
107	0xbe3073af	-0.1723163
108	0x3d951d9c	0.07281038
109	0x3d72fda4	0.05932392
110	0x3d02ff44	0.03198172
111	0x3c9af5af	0.01891598
112	0xbb1b5e69	-0.0023707396
113	0xbcba67e4	-0.022754617
114	0x3c27751c	0.010220792
115	0x3d4b9680	0.049704075
116	0x3d1aa4b5	0.037754733
117	0xbd59d010	-0.05317694
118	0xbcf50114	-0.02990774
119	0x3cfd953c	0.03095495
120	0x3ca8a588	0.020586744
121	0xbce9a184	-0.0285194
122	0xbaa04640	-0.0012227967
123	0x3d993a4d	0.07481823
124	0xbe2a3aa1	-0.16623928
125	0xbc6eadaf	-0.014567777
126	0xbd4ca44a	-0.049961366
127	0x3d968b47	0.07350784
128	0x3d1cbce5	0.03826608
129	0x3d6bdea8	0.05758539
130	0xbd025c3c	-0.031826243
131	0x3dbd84cd	0.09253845
132	0xbe035c6a	-0.12828222
133	0x3c8613fa	0.016366947
134	0xbe570443	-0.2099772
135	0xbd8ca2ef	-0.068670146
136	0x3d80c51e	0.06287597
137	0xbe04b2fd	-0.12958904
138	0x3c02ca47	0.007982797
139	0xbcd02a77	-0.025410874
140	0x3daa4806	0.08314519
141	0xbe134f50	-0.14385724
142	0xbe7d9467	-0.24763642
143	0xbe09f3c2	-0.13471892
144	0xbd633e9d	-0.055479635
145	0x3e01ded5	0.1268266
146	0x3db1a611	0.08674253
147	0x3dad2a04	0.084552795
148	0x3c943b7c	0.01809477
149	0xbdccc2fa	-0.09998126
150	0xbcba4651	-0.022738608
151	0xbd061653	-0.032736134
152	0xbdba1e46	-0.090878054
153	0xbd0fd5b1	-0.0351159
154	0x3c9a52f3	0.018838381
155	0xbdbc2904	-0.091875106
156	0xbccba3c5	-0.024858365
157	0xbc9e1589	-0.019297378
158	0x3cf36121	0.0297094
159	0x3e1a57b3	0.15072517
160	0xbe44d24b	-0.19220845
161	0x3e479a21	0.1949239
162	0xbe1a3bf2	-0.1506193
163	0xbd764bc1	-0.06013084
164	0x3bc5a1e8	0.0060312636
165	0xbdac47c0	-0.08412123
166	0x3cc91651	0.024546774
167	0xbdde7aff	-0.108633034
168	0x3e1d7ee4	0.15380436
169	0x3d8b5d44	0.068048984
170	0x3d3a54b5	0.04549094
171	0xbd546637	-0.051855292
172	0xbd379735	-0.044821937
173	0x3dc0603e	0.09393357
174	0xbd6af1d8	-0.057359546
175	0xbde3e1d5	-0.111270584
176	0xbe8b6015	-0.27221742
177	0x3e00f182	0.12592128
178	0xbdc261fb	-0.094913445
179	0xbcc40245	-0.023926863
180	0xbaddabe0	-0.0016912185
181	0x3e1121a1	0.14172985
182	0x3cf9423b	0.030427089
183	0xbe5d9b91	-0.21641375
184	0xbd2c8f85	-0.04212906
185	0xbe245671	-0.160486
186	0xbd8e3290	-0.06943238
187	0x3ddd88d3	0.10817113
188	0x3ce96264	0.0284893
189	0xbda46556	-0.08027141
190	0x3db49242	0.08816959
191	0xbe33abd1	-0.17546012
192	0xbdc06248	-0.09393746
193	0x3ddfb79d	0.10923693
194	0xbd1d134f	-0.038348492
195	0xbda13032	-0.07870521
196	0xbc5ad8d8	-0.013357364
197	0x3e018de7	0.12651788
198	0x3d1be607	0.038061168
199	0x3cf5c443	0.030000811
200	0xbdecc948	-0.11561829
201	0x3ce16db7	0.027518136
202	0xbe2efa27	-0.17087613
203	0x3db78c3e	0.08962296
204	0x3e95f141	0.29285625
205	0xbb54e5ec	-0.0032485677
206	0x3cbbfc34	0.022947408
207	0xbd158c50	-0.036510766
208	0xbda8fc0a	-0.08251198
209	0x3df1f6ae	0.118146285
210	0x3d11e5ac	0.035619423
211	0xbb7c3ec4	-0.003848956
212	0x3e0512c8	0.12995446
213	0x3d636ed1	0.055525605
214	0x39e5f9bf	0.0004386436
215	0x3e1e9967	0.15488206
216	0x3d1a296d	0.037637163
217	0xbd862176	-0.06549351
218	0xbd1caef6	-0.038252793
219	0xbc1a55ca	-0.009419868
220	0xbdfbc2fc	-0.1229305
221	0xbe06719f	-0.1312928
222	0x3d6c09b2	0.057626434
223	0xbd102c06	-0.035198234
224	0x3e79d4f4	0.24397641
225	0xbdb5ee2e	-0.0888332
226	0x3e19d10b	0.1502115
227	0x3dc16aff	0.09444236
228	0x3d5e458b	0.05426554
229	0x3d785b2d	0.060633827
230	0x3e415d47	0.18883239
231	0xbd9d7049	-0.07687432
232	0xbd0ac4bb	-0.033879023
233	0x3d41f57b	0.04735325
234	0x3c36697c	0.011133548
235	0x3dbcb4e0	0.09214187
236	0xbdd51335	-0.10404054
237	0x3c8ac8b8	0.016941413
238	0x3e335d73	0.17516117
239	0xbc8d5853	-0.01725403
240	0x3ca6550d	0.020304227
241	0xbe1a9e03	-0.15099339
242	0x3de9f7f1	0.11424244
243	0x3d9b009f	0.07568478
244	0xbe01e2b2	-0.12684134
245	0xbe6914ac	-0.22761792
246	0xbdd58764	-0.10426214
247	0xbdcc51fa	-0.09976573
248	0xbe03e495	-0.12880166
249	0x3d3a866c	0.04553835
250	0x3dde0dbb	0.10842463
251	0x3d54629a	0.051851846
252	0xbe1449a0	-0.1448121
253	0xbd73731d	-0.059435952
254	0x3d733824	0.05937971
255	0x3d7c5ca7	0.061611798

l1.bias f4 [100]
0	0xbcd25df7	-0.025679572
1	0x3cc93447	0.02456106
2	0x3e22b4a7	0.15889226
3	0x3d853c53	0.065056466
4	0x3e100fef	0.14068578
5	0x3b71eeb2	0.0036915955
6	0x3e54ff5b	0.20800535
7	0xbd22170f	-0.03957277
8	0xbcf9f0f6	-0.030510407
9	0xbd68d7da	-0.056846477
10	0xbd50bc3c	-0.050960764
11	0xbdeb4bfe	-0.11489104
12	0xbcafa971	-0.0214431
13	0x3c3bc414	0.011460323
14	0xbd34a46b	-0.044102114
15	0x3e0137f1	0.12618996
16	0x3d1aca0c	0.037790343
17	0x3d118c86	0.035534404
18	0xbdb0e7d3	-0.08637967
19	0xbd05eb13	-0.032694887
20	0x3e4013de	0.18757579
21	0xbd26aca9	-0.040692005
22	0xbd0cc1ea	-0.03436462
23	0x3e0504cf	0.12990116
24	0x3ce99a5b	0.028515985
25	0x3e21698f	0.15762924
26	0xbd5457c0	-0.051841497
27	0xbe02f26f	-0.12787794
28	0xb9dc0df9	-0.0004197208
29	0xbeafa525	-0.34305683
30	0x3d605c26	0.05477538
31	0x3de3e213	0.111271046
32	0xbe2c733e	-0.16840836
33	0xbe8ba654	-0.27275336
34	0xbe5b49d7	-0.21414886
35	0xbc799f90	-0.015235797
36	0x3cac1fa0	0.021011174
37	0x3e246a53	0.16056184
38	0xbc34960e	-0.011022104
39	0xbd622fe6	-0.05522146
40	0xbe75e51b	-0.24013178
41	0x3e82e88c	0.25568044
42	0xbe0ac223	-0.1355062
43	0x3bf2c245	0.0074084126
44	0xbd49b4e9	-0.049244795
45	0xbc7ab9f2	-0.015303122
46	0xbc63b76f	-0.013898714
47	0xbd07096b	-0.032967966
48	0xbd961c8e	-0.07329665
49	0xbe432f90	-0.19061112
50	0xbc045456	-0.008076748
51	0x3e283f41	0.1643038
52	0x3de564f6	0.112008974
53	0xbe3c7eda	-0.18407765
54	0xbc6569ff	-0.014002322
55	0xbd38ff76	-0.0451655
56	0xbcf1183d	-0.029430503
57	0x3d513e38	0.051084727
58	0xbceefaa8	-0.029172257
59	0xbd81f6e1	-0.063459165
60	0xbe22b1f9	-0.15888204
61	0x3d9f6068	0.0778206
62	0xbcbb9f11	-0.022902997
63	0x3ddcb496	0.107766315
64	0x3de4683d	0.111526944
65	0xbe07b0b8	-0.13251007
66	0x3a1909ff	0.00058379764
67	0x3dc3f5bb	0.09568354
68	0xbd2085c5	-0.039190073
69	0x3be23b49	0.00690404
70	0x3de13852	0.1099707
71	0xbd9e8b2b	-0.07741388
72	0xbe10ff7e	-0.14159963
73	0x3e4ee5ce	0.20204851
74	0x3da3fd4a	0.080072954
75	0x3d66f8cf	0.056389626
76	0xbe373e7a	-0.17894927
77	0xbd8b38c4	-0.067979366
78	0xbe6f63f7	-0.23377977
79	0xbdd4a15b	-0.103823386
80	0x3d2faba2	0.04288829
81	0xbe09b90b	-0.13449495
82	0xbd11bd78	-0.035581082
83	0x3d68cdac	0.05683677
84	0x3d3992c8	0.045305997
85	0x3c703605	0.014661317
86	0xbd94e8c6	-0.072709605
87	0x3ce789a9	0.028263884
88	0xbe098d1e	-0.13432738
89	0xbca53fd6	-0.02017204
90	0x3e14543a	0.14485255
91	0x3d9584c0	0.07300711
92	0xbcc8872f	-0.024478523
93	0x3d37aef1	0.04484457
94	0x3e0923af	0.13392518
95	0xbd50f7d6	-0.051017605
96	0x3c16ff33	0.009216118
97	0xbde3c4d9	-0.1112153
98	0xbe14d837	-0.14535604
99	0x3ad0e173	0.001593633

l2.weight f4 [100, 100]
0	0x3ca98f7c	0.020698301
1	0x3e046694	0.12929755
2	0xbd9dc224	-0.07703045
3	0xbcdacf9c	-0.026710324
4	0xbd90c9a3	-0.07069709
5	0x3e251807	0.16122447
6	0xbcff9a12	-0.031201396
7	0x3da39002	0.07986452
8	0xbdb1ac9d	-0.086755015
9	0xbd94b0e2	-0.072603
10	0x3d255ecc	0.04037361
11	0xbd796afb	-0.06089304
12	0xbc8a6080	-0.016891718
13	0xbd2db23b	-0.042406302
14	0x3ca37e37	0.019957645
15	0xbc58c624	-0.013230834
16	0xbe485a8a	-0.19565788
17	0xbe141764	-0.14462048
18	0x3cc63e9f	0.024199782
19	0x3e39d6ee	0.18148395
20	0x3cb13942	0.021633748
21	0x3dfc3cc7	0.1231628
22	0x3d841ee7	0.06451207
23	0x3d049860	0.03237188
24	0x3d4d48ba	0.050118186
25	0x3d9b7a4a	0.07591684
26	0xbe7d81a2	-0.24756482
27	0xbdfd9084	-0.1238108
28	0xbe4eae37	-0.20183645
29	0xbe1ff9de	-0.1562266
30	0x3dd199cc	0.102344126
31	0xbdb53b00	-0.08849144
32	0x3d60c843	0.054878484
33	0x3cd20694	0.025637902
34	0x3d20af47	0.039229658
35	0x3cada127	0.021195007
36	0xbd3c30c3	-0.04594494
37	0xbd1db037	-0.03849813
38	0xbd7b6f7f	-0.061385628
39	0x3d7f43df	0.062320586
40	0xbd281486	-0.041035198
41	0x3d857aa3	0.06517532
42	0x3b5d5f04	0.0033778558
43	0xbd1188f4	-0.035531
44	0x3da1420a	0.07873924
45	0xbd81a8c9	-0.06331021
46	0xbdde3855	-0.10850588
47	0x3e4ebc25	0.20188959
48	0xbca2e56b	-0.019884786
49	0x3d943e39	0.072384305
50	0xbd0f8beb	-0.035045546
51	0x3d01f088	0.03172353
52	0x3cfdc0e0	0.030975759
53	0xbdafb2da	-0.08579035
54	0x3e243cee	0.16038868
55	0x3d40904a	0.047012605
56	0xbda206fd	-0.07911489
57	0x3d262e2d	0.04057138
58	0xbde320b8	-0.11090225
59	0xbcbb0026	-0.02282722
60	0x3cc8416a	0.024445254
61	0x3decd5c6	0.115642115
62	0x3c92f1fe	0.017937656
63	0x3c9403de	0.01806825
64	0x3ccac1fd	0.024750704
65	0xbdd74032	-0.10510291
66	0x3d46d948	0.04854706
67	0xbe10c36d	-0.14137049
68	0x3e03f0bc	0.12884802
69	0x3d500945	0.05079009
70	0xbdb7ecec	-0.08980736
71	0x3d8a3203	0.0674782
72	0x3dfe46af	0.124158256
73	0x3dad69a3	0.08467414
74	0x3ddd710d	0.10812578
75	0x3c394e8a	0.011310229
76	0x3e815fe1	0.25268462
77	0x3d1347f1	0.03595728
78	0xbd401ae1	-0.046900634
79	0xbd4fbeb0	-0.050718963
80	0x3e432165	0.19055708
81	0xbc4e11fe	-0.012577532
82	0xbda829a4	-0.08211067
83	0x3cff4b64	0.031163879
84	0x3d826f07	0.06368833
85	0xbd553022	-0.052047856
86	0xbd751806	-0.059837364
87	0xbe0bf226	-0.13666591
88	0xbdd98cff	-0.10622596
89	0xbddd5f2d	-0.10809169
90	0xbd390ad2	-0.045176335
91	0x3c68ba18	0.014204524
92	0xba061824	-0.00051152916
93	0xbdef8042	-0.11694385
94	0xbd386e8c	-0.0450273
95	0xbc4c47b8	-0.012468271
96	0xbd9405b0	-0.07227647
97	0x3e611e9a	0.2198433
98	0x3c4d0d13	0.012515324
99	0x3d76bc01	0.06023789
100	0xbdd000cb	-0.10156401
101	0x3d01e77b	0.031714898
102	0xbe1a7895	-0.15085061
103	0x3d539a2d	0.051660705
104	0x3e56c159	0.20972194
105	0xbcabf6c5	-0.020991692
106	0x3e527c3e	0.20555207
107	0xbdbb7439	-0.09153027
108	0x3dbc4100	0.09192085
109	0x3b9d4f14	0.0048006866
110	0x3d391e67	0.04519501
111	0x3db59953	0.08867135
112	0x3c65e3ef	0.014031394
113	0xbd23372d	-0.03984754
114	0xbdd81576	-0.10550968
115	0xbdd487d9	-0.103774734
116	0x3d0aa913	0.033852648
117	0xbdd7996d	-0.105273105
118	0x3d598965	0.053109545
119	0x3e07c9ad	0.13260527
120	0xbd6ab393	-0.05730016
121	0xbd0cec3b	-0.034404974
122	0x3ce0f6b6	0.027461391
123	0x3da662f9	0.08124346
124	0x3d35250f	0.044224795
125	0x3d30b7e6	0.04314413
126	0xbd2d2abb	-0.04227708
127	0xbd79227b	-0.0608239
128	0x3df533ed	0.11972795
129	0xbdde7c79	-0.10863585
130	0xbd3da63c	-0.04630111
131	0xbc71f0e7	-0.014766908
132	0x3e0c75d1	0.13716818
133	0x3cb3bbcd	0.021940136
134	0x3e27e86c	0.16397256
135	0x3dc0d2c8	0.09415203
136	0xbbc59e2f	-0.00603082
137	0xbda3fc3a	-0.08007093
138	0xbcb5db97	-0.022199435
139	0xbca9eec5	-0.020743737
140	0x3dbb8df5	0.091579355
141	0xbcbdca42	-0.023167733
142	0x3c423f82	0.011855962
143	0xbd4ae7da	-0.049537517
144	0xbd01c61c	-0.031683072
145	0x3e036e97	0.12835155
146	0x3d6a1687	0.05715039
147	0x3e1d2898	0.15347517
148	0xbd53c7e2	-0.051704295
149	0x3d05f558	0.03270468
150	0xbd1d4777	-0.038398232
151	0x3a896476	0.001048221
152	0x3c91e788	0.017810598
153	0x3de5a815	0.112137
154	0x3de2fc6c	0.11083302
155	0x3d241b87	0.040065315
156	0xbdfaa5bc	-0.122386426
157	0x3db0a7af	0.08625733
158	0xbe20b5d5	-0.15694363
159	0xbd4ee3a9	-0.050510082
160	0x3d1116ec	0.03542225
161	0x3da9d41c	0.0829241
162	0xbd096b62	-0.033549674
163	0x3d20e97c	0.039285168
164	0x3d03d17a	0.032182194
165	0xbc9ddc31	-0.019270035
166	0x3e04a311	0.1295283
167	0xbb05e959	-0.0020433275
168	0x3d17dad3	0.03707392
169	0xbe26f977	-0.16306101
170	0xbc29821f	-0.010345965
171	0x3c160269	0.009155848
172	0xbdc6c114	-0.097047955
173	0x3a7e6c88	0.00097055035
174	0x3d9c29b3	0.07625141
175	0x3d018c82	0.03162814
176	0xbda38874	-0.07985011
177	0x3c37b10e	0.011211647
178	0xbdc432b2	-0.09579982
179	0xbe1215c8	-0.14266121
180	0xbdf555a6	-0.11979227
181	0xbe31666a	-0.17324224
182	0x3d953856	0.07286136
183	0xbdcf3a10	-0.101184964
184	0xbd53778b	-0.051627677
185	0x3cb7ab33	0.022420501
186	0xbe1d084c	-0.15335196
187	0xbd224289	-0.039614234
188	0xbd591c2f	-0.053005394
189	0xbd7fcb9e	-0.062450044
190	0x3e2467a8	0.16055167
191	0x3d052d6d	0.032514025
192	0xbdc9a98f	-0.09846794
193	0x3d068afd	0.032847393
194	0x3de0fb16	0.10985391
195	0x3d2f10b4	0.04274054
196	0x3db7b77c	0.08970544
197	0xbe063a60	-0.13108206
198	0xbdbc0965	-0.09181479
199	0xbd161256	-0.03663858
200	0x3d447999	0.047967527
201	0x3d0b43d5	0.034000237
202	0x3e01f033	0.12689285
203	0x3d8c1c35	0.068413176
204	0xbd5cd307	-0.05391219
205	0x3e2d5871	0.16928269
206	0xbdd891b0	-0.10574663
207	0xbdd658a6	-0.10466127
208	0xbcae78b6	-0.021297794
209	0xbd8b4f79	-0.068022676
210	0x3e691db4	0.22765237
211	0x3dd79ada	0.105275825
212	0xbe044cbd	-0.12919898
213	0xbdf14ab4	-0.117818266
214	0x3c465d20	0.012107164
215	0xbe7fbe8b	-0.2497503
216	0xbe0fbc2e	-0.14036629
217	0xbe209989	-0.15683569
218	0x3c9ca639	0.01912223
219	0x3e000362	0.1250129
220	0x3d948df6	0.072536394
221	0x3b68ecaa	0.0035541453
222	0xbe83cb12	-0.25740868
223	0x3e1b2415	0.15150483
224	0x3c759217	0.014988444
225	0x3ca2e218	0.0198832
226	0xbd4c4fd0	-0.049880803
227	0x3cdc2371	0.026872369
228	0xbd465d5f	-0.04842889
229	0xbe356e92	-0.1771796
230	0xbdcdf009	-0.10055549
231	0x3cf7f282	0.030267004
232	0x3df0b99c	0.11754152
233	0x3e27fff3	0.1640623
234	0xbe5ac819	-0.21365394
235	0xbd8c9cc6	-0.0686584
236	0x3e309a2a	0.17246309
237	0x3de16c3a	0.11006971
238	0x3e6c8e01	0.23101045
239	0x3d03b462	0.03215445
240	0xbb9e1151	-0.0048238416
241	0xbe154fd3	-0.14581232
242	0xbd67029e	-0.05639898
243	0xbdb377d4	-0.0876309
244	0xbd954227	-0.07288008
245	0x3d46214d	0.0483716
246	0x3d9be377	0.07611745
247	0xbd8ab458	-0.06772679
248	0x3daf6e36	0.08565943
249	0x3e1a1676	0.1504763
250	0x3e533db9	0.20629014
251	0xbdecc8bc	-0.115617245
252	0x3cfb12f4	0.030648686
253	0x3cebdce9	0.028791862
254	0xbd986819	-0.0744173
255	0x3d018247	0.031618383

l2.bias f4 [100]
0	0x3d062b86	0.03275635
1	0xbe2e4fea	-0.17022672
2	0x3e075672	0.1321657
3	0x3c44225f	0.011971085
4	0xbd9b1e65	-0.07574157
5	0x3e0125d0	0.1261208
6	0x3cd68f84	0.02619148
7	0xbe230d8c	-0.15923136
8	0xbe1868e5	-0.14883764
9	0xbced9f10	-0.029006511
10	0x3d2cec94	0.042217806
11	0x3e3f3f50	0.18676496
12	0x3d2df832	0.042473026
13	0x3d1ceacc	0.038309857
14	0x3dda2b96	0.106528446
15	0x3dfd17be	0.12358044
16	0xbb76ed9b	-0.0037678245
17	0x3ca0e5c1	0.019640805
18	0x3e90da90	0.2829175
19	0x3caacc57	0.02084939
20	0x3e0f63a0	0.14002848
21	0xbd8f46c9	-0.06995923
22	0x3d756035	0.059906203
23	0x3d90ed7e	0.07076548
24	0xbdb0f862	-0.08641125
25	0x3d0dfb8e	0.03466373
26	0xbc7eed8f	-0.015559568
27	0xbe0e7396	-0.1391128
28	0x3d679817	0.05654153
29	0xbd69c0c4	-0.0570686
30	0xbc052618	-0.008126758
31	0xbd033f0c	-0.032042548
32	0x3c8139b7	0.01577459
33	0x3bff82db	0.0077975816
34	0xbe1ba93f	-0.15201281
35	0x3d24e3da	0.04025636
36	0x3e1e0b36	0.15433964
37	0xbc619d58	-0.013770424
38	0x3d295ef5	0.041350324
39	0xbd7d255d	-0.06180321
40	0xbcc2fdb4	-0.023802616
41	0xbd91de6a	-0.071225
42	0xbcd8466b	-0.026400765
43	0x3cab205d	0.020889455
44	0xbd6210bb	-0.055191737
45	0xbd07ce6e	-0.03315585
46	0xbc858e40	-0.016303182
47	0xbdcd153c	-0.10013816
48	0x3b7a0788	0.0038151462
49	0x3d113fd3	0.03546126
50	0x3cb0d457	0.021585627
51	0xbd456934	-0.048196033
52	0x3daf196f	0.08549773
53	0x3d81c85e	0.06337045
54	0x3bb4e101	0.0055199866
55	0xbbdd1979	-0.0067474213
56	0xbdc41c0f	-0.09575664
57	0x3d9568c8	0.07295376
58	0xbd0affe0	-0.033935428
59	0x3dea2e78	0.114346445
60	0xbe242807	-0.16030894
61	0xbe6340c0	-0.22192669
62	0x3df3fd63	0.11913564
63	0x3e218e5e	0.15776965
64	0xbce506f8	-0.027957425
65	0xbcdd62fb	-0.027024737
66	0xbc916b28	-0.017751291
67	0x3d808ef5	0.06277267
68	0x3d8d9583	0.06913283
69	0xbd40d869	-0.047081385
70	0xbe2f09d3	-0.17093591
71	0x3c911939	0.017712222
72	0x3d8ed99b	0.06975099
73	0xbcee0e8a	-0.029059667
74	0x3d1ffa39	0.03905699
75	0x3d52c76f	0.051459726
76	0xbe60fd73	-0.21971683
77	0x3e1d766c	0.15377206
78	0x3cb52941	0.022114398
79	0x3cbde375	0.023179749
80	0x3d1f6692	0.038916178
81	0xbc535b17	-0.0129001355
82	0x3b8f9c2d	0.0043826313
83	0x3e201183	0.1563168
84	0xbd0fb1e9	-0.035081778
85	0x3ca09587	0.01960255
86	0xbd62e669	-0.055395517
87	0x3c395c0b	0.011313449
88	0x3cb356a0	0.021891892
89	0x3cf3c501	0.029757025
90	0xbe9b7db5	-0.30369344
91	0x3dc620ac	0.096742004
92	0xbc4ca11d	-0.012489584
93	0xbd2f96db	-0.042868476
94	0xbcc6d2b8	-0.0242704
95	0xbcc7940b	-0.024362585
96	0xbdf51edc	-0.119687766
97	0xbd7b22d1	-0.0613125
98	0xbe401146	-0.1875659
99	0x3d8d26fe	0.06892203

l3.weight f4 [18, 100]
0	0x3d9cdfc7	0.0765987
1	0xbd6e127a	-0.05812309
2	0xbccab5ce	-0.024744894
3	0x3e1e78d9	0.15475787
4	0xbe39f1d6	-0.1815866
5	0x3cb87c96	0.022520345
6	0xbe08d7ae	-0.13363525
7	0x3d3923a4	0.045200005
8	0x3c3a253a	0.011361415
9	0xbd972c4b	-0.07381495
10	0x3d63c200	0.055604935
11	0x3dee105d	0.11624215
12	0x3d920f3e	0.071318135
13	0x3d5db26e	0.054125242
14	0xbe04d195	-0.12970574
15	0x3d92292b	0.071367584
16	0x3da38ec4	0.07986215
17	0xbdc242cc	-0.09485397
18	0xbdce4527	-0.100717835
19	0x3db80400	0.08985138
20	0xbbf1cd3a	-0.0073792012
21	0xbd0e17ed	-0.034690786
22	0x3e237720	0.15963411
23	0xbcd159ec	-0.025555573
24	0xbe829b94	-0.25509322
25	0xbdf1ca5a	-0.118061736
26	0xbd074915	-0.03302868
27	0xbe7c56d1	-0.24642493
28	0x3e03f70e	0.12887213
29	0x3d9616ce	0.073285684
30	0xbcec9070	-0.028877467
31	0xbbb1e025	-0.0054283314
32	0x3e886b54	0.26644385
33	0xbe8550be	-0.26038164
34	0xbdc4509d	-0.09585688
35	0xbe26693a	-0.16251078
36	0x3d082ab7	0.03324386
37	0x3a212f43	0.0006148705
38	0x3e43d142	0.19122794
39	0xbd05c10f	-0.03265482
40	0x3c223134	0.009899426
41	0x3e2b87e8	0.16751063
42	0xbb1db03d	-0.0024061345
43	0x3e04c5f5	0.1296614
44	0xbd8b8b55	-0.06813685
45	0x3b04078d	0.0020146102
46	0x3e4ccfcd	0.20001145
47	0x3d07ae0a	0.03312496
48	0x3e20d8f0	0.15707755
49	0xbe3f27f7	-0.18667589
50	0x3d341d4e	0.04397326
51	0xbe601be1	-0.21885635
52	0xbe2a9551	-0.16658522
53	0xbe019efa	-0.12658301
54	0xbda4b784	-0.08042815
55	0xbe241c8d	-0.16026516
56	0x3c3bb64e	0.011457039
57	0xbdb9cde0	-0.09072471
58	0xbe0cbb25	-0.13743265
59	0xbd84b66f	-0.06480109
60	0x3e738b72	0.23783663
61	0x3e3aca59	0.18241252
62	0x3d1fbb2d	0.038996864
63	0xbbeb9d7f	-0.007190406
64	0x3db83720	0.08994889
65	0xbe563303	-0.20917897
66	0x3e6fed86	0.23430452
67	0x3d83c900	0.06434822
68	0xbdece75e	-0.11567567
69	0x3e0ca451	0.13734557
70	0xbe642020	-0.2227788
71	0x3d7afc03	0.061275493
72	0x3d870d21	0.06594301
73	0x3dee0227	0.11621504
74	0x3d180f0a	0.037123717
75	0xbe0d1f7b	-0.1378154
76	0x3e3aee0e	0.18254873
77	0x3bcff795	0.0063466527
78	0xbe9563a4	-0.29177582
79	0xbce8aaa2	-0.028401677
80	0x3e81ffd3	0.2539049
81	0xbe22a55a	-0.15883389
82	0x3da2c21e	0.07947181
83	0xbb68dd50	-0.0035532303
84	0xbd9e95db	-0.077434264
85	0x3db06080	0.08612156
86	0xbe776b01	-0.24161913
87	0xbe08c446	-0.13356122
88	0xbe152b5a	-0.14567319
89	0xbe5d931f	-0.21638153
90	0x3e6cdbae	0.23130676
91	0x3d99aafa	0.07503314
92	0x3e0cffe9	0.13769497
93	0x3def9565	0.116984166
94	0x3d90d7c8	0.07072407
95	0xbdadd5dd	-0.08488057
96	0x3d4234a6	0.04741349
97	0x3c867f37	0.016418083
98	0x3ba093e4	0.0049004424
99	0xbe5f1d87	-0.21788608
100	0x3d29f7ed	0.041496206
101	0xbe232ff9	-0.15936269
102	0x3d9ce00c	0.07659921
103	0x3db4a4d1	0.08820499
104	0x3db5a57b	0.088694535
105	0x3cb0036f	0.021486012
106	0x3dfc41ff	0.12317275
107	0xbe7e4d31	-0.24834134
108	0xbe5c714f	-0.21527599
109	0x3d8a8b55	0.06764857
110	0x3b31973a	0.0027098195
111	0x3d875e6a	0.06609805
112	0x3dbff169	0.09372217
113	0x3df815b7	0.12113517
114	0x3eb91538	0.36149
115	0xbc3231f2	-0.010876166
116	0xbd970159	-0.07373304
117	0xbd352b16	-0.044230543
118	0x3e19ac2e	0.15007088
119	0xbdf4732c	-0.1193603
120	0x3dfc7a69	0.123280354
121	0x3d811f17	0.06304758
122	0x3e1cf7aa	0.15328851
123	0x3ba15903	0.004923941
124	0xbe690c8c	-0.22758693
125	0x3de20495	0.1103603
126	0xbe0b9149	-0.1362964
127	0x3d346ef3	0.044051122
128	0xbe1df7fa	-0.15426627
129	0xbd327558	-0.04356894
130	0x3e6a5f29	0.22887863
131	0xbd639552	-0.055562325
132	0x3e01d3fe	0.12678525
133	0x3d95334a	0.07285173
134	0x3d19a198	0.037507623
135	0x3db75b98	0.08953017
136	0x3bcf6c50	0.0063300505
137	0x3c9afde6	0.018919896
138	0xbcd592cb	-0.026070973
139	0x3dd7fc8d	0.10546217
140	0xbd8793ce	-0.066199884
141	0xbe22f3f3	-0.15913372
142	0xbdb9d349	-0.090735026
143	0x3eac1578	0.3361013
144	0x3d6182b6	0.055056296
145	0x3cdc42f8	0.026887402
146	0xbca787f5	-0.020450572
147	0x3d13da20	0.036096692
148	0x3d53ea81	0.051737312
149	0xbe2649a9	-0.16239037
150	0x3dc9e157	0.09857433
151	0xbdd9540f	-0.10611736
152	0x3ea8c71a	0.32964402
153	0x3d9f7818	0.07786578
154	0x3eace487	0.33768103
155	0x3b96a9bd	0.004597871
156	0xbdff3f89	-0.1246329
157	0xbd044f1a	-0.032302
158	0x3b955bb9	0.0045580533
159	0x3e400a76	0.1875399
160	0xbdb3bc58	-0.08776158
161	0x3c308120	0.010772973
162	0x3e51c572	0.20485476
163	0xbe3f4eb2	-0.18682364
164	0x3d01bccb	0.031674188
165	0x3d73566b	0.059408586
166	0xbd0ccf1d	-0.034377206
167	0xbe66d0c6	-0.22540578
168	0x3e969004	0.2940675
169	0x3cbc3d60	0.022978485
170	0xbe0d70ce	-0.13812563
171	0x3dce2d8d	0.10067282
172	0x3e4834e1	0.19551422
173	0xbc2065a7	-0.009789861
174	0x3e117d3b	0.14207928
175	0x3d9d05bb	0.076671086
176	0xbe8ae55a	-0.27128106
177	0xbdf36618	-0.11884707
178	0x3aa3fc24	0.0012511057
179	0x3e14750b	0.14497773
180	0x3cba947a	0.022775877
181	0x3e3e260d	0.18569203
182	0xbe25e8b7	-0.16202055
183	0x3e5a2bea	0.21305814
184	0x3d74f590	0.0598045
185	0x3da124c5	0.07868341
186	0xbe213063	-0.15741114
187	0x3cf6954c	0.030100487
188	0x3de53ce2	0.11193253
189	0xbd520927	-0.05127826
190	0xbe04d154	-0.12970477
191	0x3d03d1b0	0.032182395
192	0xbd28ea2b	-0.041238945
193	0x3d8f7888	0.070054114
194	0xbdc06193	-0.09393611
195	0xbe5f281b	-0.21792643
196	0xbc9eb03b	-0.019371143
197	0xbe45b4e7	-0.1930729
198	0xbe0b8ae6	-0.13627204
199	0x3e4168ba	0.18887606
200	0xbe149c8a	-0.1451284
201	0x3dad1bc6	0.08452563
202	0x3e11d9bd	0.14243217
203	0xbd2c5e41	-0.042082075
204	0xbdc06499	-0.093941875
205	0x3e53010e	0.20605871
206	0xbd0f4188	-0.034974605
207	0xbcb16588	-0.02165486
208	0x3e5b2249	0.21399797
209	0xbd1fc817	-0.03900918
210	0xbd5e6e5b	-0.054304462
211	0xbbde05b5	-0.0067755827
212	0x3e1b2ca6	0.15153751
213	0xbd8f32d6	-0.06992118
214	0xbd1a7f07	-0.0377188
215	0xbd9270bd	-0.07150409
216	0x3e38068f	0.17971252
217	0x3dc60736	0.09669344
218	0x3e3cc72d	0.18435355
219	0x3c86a7d6	0.016437452
220	0xbd489364	-0.048968688
221	0xbc39bce4	-0.011336539
222	0x3e38c7c7	0.18044959
223	0xbd0c5a68	-0.034265906
224	0xbd800c2a	-0.0625232
225	0x3d77a108	0.060456306
226	0x3c92f853	0.017940676
227	0x3d4e6e1a	0.05039797
228	0xbb17165c	-0.0023054099
229	0x3a47e2a6	0.0007625021
230	0xbda9f36d	-0.08298383
231	0xbda4d49a	-0.08048363
232	0xbe06342f	-0.13105844
233	0xbe559a72	-0.20859697
234	0x3dd96deb	0.10616668
235	0xbca0f0d7	-0.019646091
236	0xbd91ea26	-0.071247384
237	0x3b7697ba	0.0037627057
238	0x382252fa	3.8701088e-05
239	0xbe0116b1	-0.12606312
240	0x3de4123c	0.111362904
241	0x3e2c1469	0.16804661
242	0xbc821e05	-0.015883455
243	0xbe236863	-0.15957789
244	0xbd1bc13e	-0.038026087
245	0xbd9a439c	-0.07532427
246	0xbe25a286	-0.16175279
247	0xbdd4c9ca	-0.10390051
248	0xbd94501c	-0.07241842
249	0x3d252402	0.040317543
250	0xbe0f952e	-0.14021751
251	0x3da1afbb	0.07894846
252	0xbd820449	-0.063484736
253	0xbe479b3e	-0.19492814
254	0xbe3f3662	-0.18673089
255	0x3d664bbf	0.05622458

l3.bias f4 [18]
0	0x3e7dfba5	0.24803026
1	0xbef4611f	-0.47730348
2	0xbd16e3c5	-0.03683831
3	0x3f1d3738	0.6141238
4	0xbdf75b90	-0.12078011
5	0xbea866a3	-0.32890806
6	0x3e281f2c	0.16418141
7	0xbec1de06	-0.37864703
8	0x3e5b534c	0.21418494
9	0x3e94df15	0.29076448
10	0x3e86d208	0.26332116
11	0x3ccd7a7b	0.025082817
12	0x3e9c4897	0.30524132
13	0xbed470c8	-0.41492295
14	0x3e9f24a1	0.31082633
15	0x3e62171a	0.22079125
16	0xbd60d2ff	-0.05488872
17	0xbbfbfe3d	-0.0076902197
