LARA/data/result/g_370.pt (torch, 87406 bytes, 7 tensors)

G_attr_matrix.weight f4 [36, 5]
000000 55 b1 81 3d 95 24 5a bd be 0b a5 be c0 ff 9f 3d
       0.063326515 -0.053257544 -0.3223552 0.07812452
000010 61 35 ba 3c 2a 92 b6 bd fe 3d 63 3d 43 3b 19 3e
       0.022730531 -0.08914597 0.055479042 0.14964013
000020 ac b8 79 3d 5b 48 5a bc 2f 17 86 bd 0e 3d a3 3c
       0.060967132 -0.013322915 -0.06547391 0.019926574
000030 f3 59 89 3c bf 89 7c 3d 66 23 25 bc d0 43 35 bd
       0.016766524 0.061654802 -0.01007924 -0.044254124
000040 63 cd c6 bd 58 78 a7 bd 7b 8a 6b bd cf a7 85 bc
       -0.09707143 -0.081772506 -0.057505112 -0.016315369
000050 57 b2 56 bc 23 44 06 be 58 22 f1 3a 2e ff 3d bc
       -0.013104043 -0.1311193 0.0018397076 -0.011596484
000060 48 be 50 3d f5 16 6d 3d 84 b2 0e 3d 66 50 4d bc
       0.050962716 0.05788322 0.034838215 -0.0125313755
000070 58 c1 68 3e e1 ce ac bd 1c b9 d6 bc 94 46 d8 bc
       0.22730005 -0.084378965 -0.026211314 -0.026400842
000080 f0 41 a2 bc 25 a0 85 3d f6 da 49 3e ad 86 5e 3e
       -0.019806832 0.06524686 0.19712433 0.21731062
000090 65 23 e6 3d c1 73 59 3e 4d 8c 43 3e 3f 46 ac 3d
       0.1123722 0.21235563 0.19096489 0.08411836
0000a0 1d 3d f0 3b 23 e7 9b 3c 24 0f b4 ba d5 fd 43 bd
       0.007331504 0.019031113 -0.0013737422 -0.047849495
0000b0 5f ea 03 be ae 98 ee 3a 6f 7a 61 bc e1 ab 05 bc
       -0.12882374 0.0018203461 -0.013762101 -0.008158655
0000c0 0b ab a5 3d ba b4 58 3e 98 6a 91 3e aa 59 35 3c
       0.080892645 0.21162692 0.28401637 0.011068741
0000d0 11 96 c6 3b fc 3e cd bd 02 2b 98 bc db 87 c7 3c
       0.00606037 -0.10021779 -0.018575195 0.024356773
0000e0 c7 ca 40 be bc cc 7d be a3 a3 55 3d 8b 45 2b 3e
       -0.18827353 -0.24785131 0.05215801 0.16725747
0000f0 71 31 bf 3b dd 84 e1 3d cc 90 f1 3b 94 0a 29 3b
       0.0058347513 0.1101167 0.0073719975 0.0025793659
000100 39 39 63 3d 0e 5b 92 be 23 59 d0 3c 19 bd 9d 3c
       0.055474494 -0.28585094 0.025433129 0.019255208
000110 3c 60 fd bd a9 86 4f bd 1b 16 10 bd a5 f4 b0 bc
       -0.12371871 -0.05066553 -0.03517733 -0.02160103
000120 51 b0 a3 3d 83 7c 41 3c 4e 51 0d 3d b9 cc 75 be
       0.07992614 0.011809471 0.034501366 -0.24003877
000130 c5 03 2d 3e 33 53 56 be b0 33 1f 3e d7 3b 1c be
       0.16895969 -0.20930175 0.15547061 -0.15257202
000140 df 4f 63 3e 4e d0 bc bc 18 7f ce bd 86 72 29 3e
       0.22198437 -0.023048546 -0.10082835 0.16547593
000150 63 28 ec bd b0 26 d4 3c 1b 8f a4 3e 24 e6 ed 3e
       -0.11531141 0.025897354 0.3214043 0.46464646
000160 5b 1b 07 3e 03 f5 a0 3d e8 09 ee bb 7a e5 8f be
       0.13194029 0.07859232 -0.0072643645 -0.28104764
000170 78 11 6c bb 00 58 c5 3d b7 98 dc bd 4c ae 5c bd
       -0.0036021154 0.09635925 -0.107713155 -0.05387716
000180 4e 52 ca 3d ea b6 84 be d0 a5 28 3e 33 c0 23 3d
       0.098789796 -0.25920802 0.16469502 0.039978217
000190 c1 99 64 be ef c7 90 bc 36 eb a4 3c 37 53 a3 bc
       -0.22324277 -0.01767346 0.020131689 -0.01993714
0001a0 0f 96 30 bc 4b f5 36 be d2 c3 cb 3d 0d 23 f5 bd
       -0.010777964 -0.1786701 0.09949459 -0.11969576
0001b0 71 21 2d 3e 46 63 cf 3d 6d 92 82 ba ae 7a 03 bc
       0.16907288 0.10126357 -0.0009961851 -0.008024855
0001c0 93 0e 4e bc b2 80 81 3c bb 00 d1 3a e6 7f a9 3d
       -0.012576717 0.015808437 0.0015945652 0.08276348
0001d0 0c 12 80 3e 44 d0 2c 3e 4d 7f 52 be 54 93 01 bd
       0.2501377 0.16876322 -0.20556374 -0.031634644
0001e0 ac 08 f5 3e c8 e2 85 3c cb 4a 5a 3b 1a 33 6b be
       0.4785818 0.01634349 0.003330874 -0.22968712
0001f0 73 e9 5a bc a7 0a 81 3e 24 13 50 be f1 f9 73 bd
       -0.013361323 0.2520344 -0.20319802 -0.059564535
000200 92 a5 41 be b3 08 10 3e 50 bf 95 3c c7 36 2c 3d
       -0.18910816 0.14065818 0.018279701 0.042044427
000210 e7 42 54 bc f1 04 cf 3d 36 00 d7 bc 7f d5 6f be
       -0.012955404 0.101083644 -0.026245218 -0.23421286
000220 30 fd bb be c1 db 42 3e 46 2b 71 3e 4d 79 8e 3e
       -0.36716604 0.19029142 0.23551664 0.2782692
000230 2f e6 1b bd e4 45 83 3b 2a 1b 3c 3c c5 8d f1 3b
       -0.038061317 0.0040061343 0.011481086 0.0073716366
000240 68 0e 0c bd 6f e9 7a 3d 13 ba fc bb ee 4c 53 3b
       -0.034193426 0.061257776 -0.0077126115 0.0032241899
000250 94 c3 3e bc 81 8f 03 3e 61 2f 1d bc 81 e9 86 bc
       -0.011643309 0.12847711 -0.009593816 -0.016468765
000260 80 51 9a 3c 30 94 47 bd a6 d6 9b bd 13 05 0e 3d
       0.01883769 -0.048725307 -0.076093 0.034672808
000270 15 b5 ca bd 23 7c 41 bd f6 1a 40 3e cd 25 89 3e
       -0.0989782 -0.047237527 0.18760285 0.26786652
000280 22 20 85 bb bd 70 5f 3a 94 54 98 3d cb f6 3f bb
       -0.0040626684 0.0008523574 0.07438007 -0.0029291387
000290 e8 c4 1d bb 25 76 0d 3e 74 8f 31 3e 17 a9 b6 be
       -0.0024073664 0.138146 0.1733988 -0.3567588
0002a0 2e 2f ef 3c 27 cb 2e 3e 64 74 1a 3d 72 15 30 bc
       0.029197302 0.17069684 0.037708655 -0.0107473
0002b0 aa bb 04 3e 20 98 93 3e 90 b9 19 3e ef f5 7e 3d
       0.12962213 0.28827 0.15012193 0.06224626
0002c0 5f 1c 96 3e 36 91 0f be 74 59 32 be ab b6 32 3e
       0.2931852 -0.14020237 -0.17416936 0.17452495

l1.weight f4 [100, 90]
000000 c0 7c 47 3e fc 8f 7f bc bc c5 aa 3d ab b8 d7 3d
       0.19481182 -0.015598293 0.08338496 0.105332695
000010 53 7c c4 3d 3c 45 57 3d 81 82 af 3d 46 6c f2 3c
       0.095940255 0.05255626 0.085698135 0.029592644
000020 3f 81 83 be 7f 63 0a be af 0f 84 3d 7b 6b 4c be
       -0.25684544 -0.13514517 0.06448304 -0.19962876
000030 9f cb 81 bd 7d a2 99 3c ec bc ff bc 23 a9 cd 3d
       -0.06337666 0.018754238 -0.031218015 0.10042026
000040 71 76 27 3d e8 0b 4e bd ba 34 00 bd 1b 6e c4 3d
       0.04088444 -0.050304323 -0.031300284 0.095913135
000050 bb 0a 21 3e 3c 0c 75 bd 71 f1 00 3e 9b 8d 84 bd
       0.1572675 -0.05982612 0.12592103 -0.064723216
000060 ed 0c de 3c ca 06 77 3d 2b 22 40 3e 85 36 83 3d
       0.027105773 0.06030921 0.18763034 0.06406883
000070 db 5e 24 3e 7c 88 27 ba 9c c4 01 3e d9 32 10 be
       0.1605181 -0.0006390882 0.12672657 -0.14081897
000080 09 cb 5d be e9 c2 de bd a4 7c b9 bd f8 f1 35 3d
       -0.21659483 -0.1087702 -0.090569764 0.044420213
000090 2e a3 1a 3e 15 82 86 bc 9c 2a cf bd 0a 14 3c 3e
       0.1510131 -0.01641945 -0.10115549 0.1836702
0000a0 b7 e2 8f bc 20 e8 8e bd 7b cf f3 3d ae e3 09 3d
       -0.01756416 -0.06977868 0.11904808 0.033664398
0000b0 84 2f 9f 3b 41 92 97 3d 92 96 f4 bd a2 be 0a bd
       0.004857959 0.074009426 -0.119427815 -0.033873208
0000c0 70 d0 4d 3d d0 f4 86 bd 4b f9 f1 3d 77 a0 c9 be
       0.05024761 -0.06589663 0.11815127 -0.39380237
0000d0 93 1c 43 3e a4 ad 52 bd 68 11 fe bd 9f 45 27 3d
       0.19053869 -0.051435128 -0.12405664 0.04083788
0000e0 e0 d8 0c bd de bd cd 3b d1 0e 73 bc fa a2 22 3e
       -0.034386516 0.0062787374 -0.0148350755 0.15882483
0000f0 00 9c f2 bc ec 4c 06 be 8b 4a ac 3b 33 ea 14 3d
       -0.029615402 -0.13115281 0.0052579097 0.036356162
000100 04 4f db bd e3 91 ca bd 3a 09 06 3d 4f b3 39 be
       -0.107084304 -0.09891107 0.032723643 -0.18134807
000110 f5 a7 0a bc 9f 35 34 be 76 9d 3e be e3 8e f0 3d
       -0.008462896 -0.1759858 -0.18614754 0.117460035
000120 59 5c aa 3d 9b ce 48 3e ef b0 44 be 88 f9 31 bd
       0.08318395 0.19610064 -0.1920812 -0.043450862
000130 37 c7 58 be 8d 62 f2 bc 75 ec 9c bd 70 b6 4f 3d
       -0.21169744 -0.029588008 -0.07662288 0.050711095
000140 8e 61 88 3c d7 0b 87 bd 47 06 29 3d de 1b f3 3d
       0.01664808 -0.06594055 0.041265752 0.118705496
000150 f3 80 6e be 06 c5 91 3d b3 7a 99 bb 9d 04 99 bd
       -0.23291378 0.07117657 -0.0046838163 -0.07471583
000160 d9 02 39 3d 36 27 2e 3e da 35 8a 3e 14 c4 c2 bd
       0.04516873 0.17007145 0.2699421 -0.09510055
000170 30 3d 8e bd 0a 28 04 bd 14 57 15 be 25 c3 24 3d
       -0.06945264 -0.032264747 -0.14583999 0.040225167
000180 ee ec 5d 3e b9 d6 3b bd 2b 66 81 3d 85 c5 c4 3d
       0.21672413 -0.045859072 0.06318315 0.09607986
000190 1f 5b 31 3d 23 30 03 bd 7f 70 11 be e0 dd a4 bc
       0.04329979 -0.03202833 -0.1420307 -0.02012533
0001a0 bc 09 df bd 67 78 a2 bd 19 71 c9 3d c8 f5 33 be
       -0.108905286 -0.07933121 0.09836025 -0.17574227
0001b0 05 06 90 3d 49 44 6c 3d d9 20 d8 3c 53 5b 92 3c
       0.07032398 0.05768231 0.02638285 0.017865812
0001c0 be 6a 97 bb 8d 56 dc bc eb 30 4f 3c 6a 76 43 3d
       -0.004620879 -0.02689674 0.01264594 0.04772035
0001d0 7c cb 1f 3d 19 08 53 bd 50 7e e4 bc 11 79 13 3d
       0.039012417 -0.051521394 -0.027892262 0.03600413
0001e0 63 44 1a 3d cc 0d fa bc 31 c6 44 3b e0 d0 86 3d
       0.037662875 -0.030524157 0.0030025358 0.065828085
0001f0 a1 8f 2c be 11 af 27 bc 3c 9e 65 bd b9 6e a7 3d
       -0.16851665 -0.01023461 -0.056059107 0.081754155
000200 bd 49 09 3d 14 57 83 3d d1 4b 0a bd db bf bb 3d
       0.033517588 0.06413093 -0.03376371 0.09167453
000210 a5 7b 01 be 4c ca 6d 3c b3 a4 54 be 36 e6 8e bd
       -0.12644823 0.014513563 -0.20765953 -0.06977503
000220 47 ae 84 3d 67 f4 ee bd 40 f6 c1 3b 9d ec c0 bc
       0.06478553 -0.1166771 0.005919248 -0.023550326
000230 5b 05 ae 3d d3 0a 15 be 86 69 78 be 4f 5f 12 be
       0.08497115 -0.1455491 -0.24259004 -0.1429417
000240 fe 1d ac bd b4 4b 03 3e 71 b4 a4 3d f9 2e a6 3d
       -0.08404158 0.12821847 0.08042229 0.08114428
000250 08 f6 66 3c b8 bf c5 bd e1 c0 c9 bc 68 36 da bc
       0.014096744 -0.09655708 -0.024628105 -0.026637271
000260 34 fd c1 bd bf f2 07 bd 7e 4c f8 3b 41 fc bc bd
       -0.09472123 -0.033190485 0.007577478 -0.09227801
000270 a2 98 c9 bc 1a 45 bf bc a0 bc e4 3c 17 8a 18 3e
       -0.024608914 -0.02334838 0.027921975 0.14896427
000280 00 99 46 be 10 01 3f 3e cb 70 1a be 40 15 43 bd
       -0.19394302 0.18652749 -0.1508209 -0.047627687
000290 4a b3 81 3a 4b 66 9f bd 33 57 cc 3c 29 76 eb bd
       0.0009895351 -0.07783183 0.024943924 -0.11497147
0002a0 59 db 29 3e 91 5d a6 3d 32 e5 0c 3d 0b 51 56 bd
       0.1658758 0.08123315 0.034398265 -0.052323382
0002b0 8c 23 43 bd 2f 81 a8 3d 19 50 82 bd 64 bc e6 bd
       -0.047641322 0.08227765 -0.06362934 -0.112664014
0002c0 3e 31 8f be c2 59 fe 3d ff 46 c6 bd 34 51 d5 bc
       -0.27967256 0.12419464 -0.0968151 -0.026039697
0002d0 03 3a 79 3b 1f 89 0f 3e b0 0b ef 3c 72 59 5f be
       0.0038028962 0.14017151 0.029180378 -0.21811464
0002e0 64 24 34 bd f2 a0 22 be eb 4e 9b bd 62 7c d1 3d
       -0.043980017 -0.15881708 -0.07583412 0.10228802
0002f0 12 2d e2 3c e8 42 98 bd 79 40 b3 3d 46 91 32 be
       0.027609382 -0.07434636 0.087525316 -0.1743823
000300 dc 6b c5 bd 2d 64 d0 3d 34 0d 26 bd fe e0 9f bd
       -0.09639713 0.10175357 -0.040539935 -0.07806586
000310 f6 dc d0 bb 78 77 00 3e 49 72 12 3d aa 88 e6 3c
       -0.006373997 0.12545574 0.035753522 0.028141338
000320 67 91 f2 bd 8c 24 f5 3c 69 3e 31 be 43 5a a9 3d
       -0.118441395 0.029924653 -0.17308964 0.08269169
000330 60 22 93 3e 26 9f a6 bb b6 04 c6 3c 42 75 00 bd
       0.28737164 -0.00508489 0.024172168 -0.031361826
000340 c7 d5 a5 bd 8a 11 fe 3d ea 55 a0 3c b4 aa b2 bb
       -0.080974154 0.12405689 0.019572217 -0.0054524783
000350 fd 14 e4 3d f4 dd 52 3d 13 4f 38 ba d3 95 1e 3e
       0.11136816 0.051481202 -0.0007030826 0.15486841
000360 47 b5 25 3d 8a c7 8e bd aa ea 18 bd b9 88 41 bc
       0.040456083 -0.06971653 -0.037333168 -0.011812382
000370 4a f4 fe bd fe 24 0b be c1 6b 6b 3d cf 02 15 bd
       -0.12448938 -0.1358833 0.05747581 -0.03637963
000380 77 0e 7b 3e 27 11 a2 bd 4e 65 1b 3e 57 79 c7 3d
       0.24517237 -0.07913428 0.15175363 0.097399406
000390 5f 5d 56 3d 70 1b 7d 3d c0 dd 42 3e 1d db 84 bd
       0.05233514 0.061793745 0.19029903 -0.06487105
0003a0 ba b3 34 bd 1e 79 7b 3d 76 ce ff 3c 17 9d bc 3d
       -0.044116713 0.061394803 0.031226378 0.0920965
0003b0 1b a4 ce bd 6b 4c 8b 3c 99 4c 31 3e 82 6b 89 bc
       -0.100898944 0.017004212 0.17314376 -0.016774897
0003c0 f6 d8 99 3c 11 0b 28 be 73 8b db 3d 04 9b 9d 3d
       0.018780213 -0.16410471 0.10719957 0.076955825
0003d0 04 d4 ef bd 94 1e 6b be 3b d5 da bd 11 f6 c7 bd
       -0.11710361 -0.22960883 -0.10685202 -0.0976373
0003e0 a2 e2 04 be c3 05 41 3d cf 74 dd 3d 47 cb 71 3d
       -0.12977079 0.047124635 0.10813295 0.05903175
0003f0 ad e0 10 be d3 8d 5c bd 09 40 58 3d 2e c9 5d 3d
       -0.14148207 -0.05384619 0.052795444 0.054146938

l1.bias f4 [100]
000000 d3 e0 f3 bc 74 92 b8 3c 53 2e 21 3e 31 81 8f 3d
       -0.02977029 0.022530772 0.15740328 0.07007063
000010 8e d5 0c 3e 41 2a 23 3c 11 39 55 3e 0d 60 2a bd
       0.1375334 0.009958805 0.2082255 -0.041595507
000020 a4 43 13 bd 01 2f 47 bd 29 38 30 bd d3 fc e7 bd
       -0.03595318 -0.04862881 -0.04302231 -0.11327519
000030 e0 85 b5 bc bc 83 57 3c 02 6d 21 bd 32 a3 e7 3d
       -0.022158563 0.0131539665 -0.0394106 0.11310424
000040 cb 26 41 3d b8 e3 20 3d 10 e7 c2 bd c6 06 04 bd
       0.047156136 0.03927967 -0.09516728 -0.032233022
000050 43 54 3d 3e 90 86 1e bd 50 39 05 bd 90 77 fb 3d
       0.18489175 -0.038702548 -0.03252536 0.12278664
000060 52 d5 cb 3c b5 7b 25 3e 1e 78 4d bd b1 80 03 be
       0.024881992 0.16160472 -0.05016338 -0.1284206
000070 86 e3 81 bb 7f 3c b1 be 30 db 5e 3d dd 26 e1 3d
       -0.0039638905 -0.34616467 0.054408252 0.10993741
000080 34 45 29 be 21 d6 84 be 4a dd 58 be 04 b5 a7 bc
       -0.16530305 -0.25944617 -0.21178165 -0.020472057
000090 22 12 a9 3c cb 45 25 3e 29 a5 73 bb 52 15 56 bd
       0.02063853 0.16139905 -0.00371773 -0.052266426
0000a0 23 b4 6f be b3 01 83 3e ee 32 12 be fd 62 30 3c
       -0.2340856 0.25587234 -0.1427724 0.010765788
0000b0 ed d1 56 bd fe bb 9a bc 29 7b f5 bb 23 36 09 bd
       -0.052446295 -0.01888847 -0.0074914885 -0.033498894
0000c0 88 26 87 bd 04 12 3e be bf 1c ba bb 29 3d 29 3e
       -0.06599146 -0.1856156 -0.0056796963 0.16527237
0000d0 cc 1e db 3d 43 72 3b be 23 d4 40 bc c3 1c 35 bd
       0.106992334 -0.18305306 -0.011769327 -0.044216882
0000e0 b6 0a 00 bd c8 ea 6d 3d 44 39 cf bc 9e 6c 7f bd
       -0.031260215 0.058085233 -0.025295861 -0.062359445
0000f0 43 28 1e be 28 89 90 3d 7a d4 97 bc 67 2e ce 3d
       -0.15445046 0.070574105 -0.018533934 0.10067444
000100 b8 d8 e1 3d 9e 5d 06 be 71 c5 ba bb 8c 7c c4 3d
       0.11027664 -0.1312165 -0.0056998064 0.09594068
000110 6f bd 11 bd d1 84 f2 3b df a1 e1 3d 2b 59 a3 bd
       -0.03558105 0.007401087 0.110172026 -0.07975992
000120 c0 74 04 be b2 56 4c 3e f1 44 a8 3d a7 7d 5a 3d
       -0.12935162 0.19954947 0.082162745 0.053342488
000130 78 46 30 be 36 f6 77 bd 04 85 69 be 32 a2 ca bd
       -0.17214382 -0.06053754 -0.22804648 -0.098942176
000140 76 97 40 3d fe bf 03 be 02 fe 00 bd 96 29 84 3d
       0.047019444 -0.12866208 -0.03149224 0.064532444
000150 7e fe 2a 3d 54 30 89 3c 5e a7 91 bd 53 f9 7a 3c
       0.04174661 0.016746677 -0.07112001 0.015318233
000160 b5 25 0e be 8f 01 88 bc 76 cd 13 3e 36 95 a1 3d
       -0.13881572 -0.016602306 0.14433846 0.07889788
000170 cb f1 ac bc 6f ad 2f 3d cb 7a 08 3e 89 35 47 bd
       -0.02111139 0.04289001 0.13328092 -0.04863504
000180 5b 3a ca 3b 5e 1e d4 bd c4 be 1e be e9 5d 95 3b
       0.0061715073 -0.103573546 -0.15502459 0.004558314

l2.weight f4 [100, 100]
000000 66 4b 72 3c fc 29 08 3e 79 d9 af bd c7 33 f6 bc
       0.014788484 0.13297266 -0.085864015 -0.030053986
000010 11 51 a1 bd 38 3b 2b 3e 22 1f f0 bc 4a 69 b8 3d
       -0.0787679 0.16721809 -0.02931172 0.09004457
000020 0d 06 ab bd 47 6f 8d bd e7 85 04 3d 30 34 79 bd
       -0.083507635 -0.0690599 0.03235426 -0.060840786
000030 75 c9 97 bc 28 a9 26 bd d8 fe 28 3c e3 e2 8a bc
       -0.01852868 -0.040688664 0.010314666 -0.016953891
000040 57 35 4a be 27 eb 15 be 4d 86 ad 3c 0d 44 3b 3e
       -0.1974691 -0.14640485 0.021182204 0.18287678
000050 f2 c6 dd 3c 26 ab ec 3d 07 bf 74 3d 71 31 be 3c
       0.027072404 0.115560815 0.05975249 0.023216935
000060 2a 49 52 3d 42 8c 8c 3d 64 9a 80 be bc ab 00 be
       0.051339306 0.068626896 -0.2511779 -0.12565511
000070 6d 3b 4e be 2e d0 22 be af b2 e7 3d 57 88 a7 bd
       -0.20139857 -0.15899727 0.11313378 -0.08180302
000080 ef 6b 80 3d e3 d0 a8 3c fd b5 17 3d 58 30 a1 3c
       0.06270587 0.020607417 0.037038792 0.019676372
000090 9c e2 37 bd 76 99 13 bd 31 05 63 bd 04 20 79 3d
       -0.044893846 -0.036035024 -0.055424873 0.060821548
0000a0 ff 4f 3e bd 8f 7c 9b 3d 6f e0 ff ba 26 6e 0b bd
       -0.04646301 0.07592117 -0.0019521842 -0.034040593
0000b0 30 3d b1 3d f7 ce 6b bd 72 0c d0 bd 6f f8 47 3e
       0.08654249 -0.057570424 -0.10158624 0.19528364
0000c0 d9 05 b7 bc eb 27 82 3d bc e7 28 bd fc 7b d4 3c
       -0.022341656 0.0635527 -0.041236624 0.025938027
0000d0 1a cd ce 3c 45 53 a8 bd fa da 22 3e aa d7 3e 3d
       0.025244284 -0.082190074 0.15903845 0.046592392
0000e0 bf 9f 89 bd a9 23 13 3d 1a 16 e3 bd 13 de cf bc
       -0.06719922 0.03592268 -0.110882 -0.025374448
0000f0 e9 26 93 3c 7d 99 e9 3d 66 ae b3 3c 94 c7 8b 3c
       0.01796289 0.11406229 0.021933746 0.01706294
000100 0e 87 b9 3c b0 1e dd bd ab 79 1a 3d 3a ab 10 be
       0.022647407 -0.10796869 0.037713688 -0.14127818
000110 36 e9 fe 3d 55 74 40 3d 6f 63 ac bd 6e 89 90 3d
       0.12446825 0.046985943 -0.08417403 0.07057463
000120 18 6f f2 3d a7 4a c3 3d b7 b6 dd 3d 72 10 86 3c
       0.11837596 0.09535723 0.10825866 0.016365264
000130 a8 4a 85 3e 6e e2 2e 3d 57 11 23 bd 8e 9c 37 bd
       0.2603352 0.04269641 -0.03981146 -0.044827037
000140 09 28 47 3e ca 88 aa bc 86 42 97 bd e6 ba 02 3d
       0.19448866 -0.02081718 -0.07385735 0.03191652
000150 0f 96 7d 3d 78 b5 6b bd 37 52 84 bd 9b 74 13 be
       0.061910685 -0.05754611 -0.06460994 -0.1439995
000160 63 49 db bd ac 74 cc bd b4 99 3c bd 3f bd 87 3c
       -0.10707357 -0.09983191 -0.04604502 0.016569732
000170 9c 61 b9 bb a5 71 ea bd 51 6c 25 bd 27 4e ac bc
       -0.005657388 -0.11447457 -0.0403865 -0.02103336
000180 fe f9 7b bd 79 a2 60 3e 8f f0 84 3c 5b d8 69 3d
       -0.061517708 0.21936978 0.016227989 0.0570911
000190 63 87 d9 bd ac de 07 3d 41 29 25 be 7b 52 3c 3d
       -0.10621526 0.03317134 -0.16129018 0.045977097
0001a0 03 37 50 3e 23 c7 96 bc 87 4b 53 3e 31 d9 a6 bd
       0.20333485 -0.018405503 0.2063428 -0.08146895
0001b0 ff a0 c1 3d b8 a5 87 3b a9 d0 26 3d 6c 03 b7 3d
       0.09454536 0.0041396283 0.040726338 0.089361995
0001c0 dd f5 48 3c 34 24 13 bd 13 47 f5 bd 81 0c d4 bd
       0.01226565 -0.035923198 -0.11976447 -0.103539474
0001d0 e6 85 d4 3c f7 f5 e0 bd d8 a9 66 3d 1a f4 06 3e
       0.025942754 -0.10984414 0.05631432 0.13179055
0001e0 4b a4 5f bd 32 ff 31 bd 3a 08 b7 3c 19 74 9f 3d
       -0.05460004 -0.043456264 0.02234279 0.07785816
0001f0 5c e2 25 3d cb d5 0a 3d 68 8c 33 bd 96 d8 80 bd
       0.040499076 0.033895295 -0.043835074 -0.062913105
000200 e6 fe fd 3d 65 ed de bd 23 00 1b bd a4 9d 0e bc
       0.12402134 -0.10885123 -0.037841927 -0.008704577
000210 3e 50 16 3e f0 ab 77 3c f3 75 24 3e 26 22 c6 3d
       0.14679047 0.015116677 0.16060619 0.09674482
000220 47 8d 8d b9 67 1e 99 bd 7b 5c 91 bc 9a 4d d8 bc
       -0.00026998876 -0.07476502 -0.017744293 -0.02640419
000230 f7 40 be 3d e9 f3 9b bc e9 bc cf 3b 6a 21 50 bd
       0.09289735 -0.019037204 0.0063396585 -0.050813116
000240 38 82 e1 bc 55 40 04 3e 77 5b 64 3d 88 33 1d 3e
       -0.027527913 0.12915166 0.05575129 0.15351689
000250 de 9a 6f bd 9a 33 d4 3c ea e4 37 bd 4f 72 86 ba
       -0.058497302 0.025903512 -0.044896044 -0.0010257455
000260 50 46 3e 3c b4 c7 f2 3d ba fb dc 3d 02 cf 2b 3d
       0.0116134435 0.118544966 0.107902005 0.041945465
000270 ce d5 e4 bd 15 5b ab 3d 34 d7 28 be 9a 8f 44 bd
       -0.111735925 0.08366982 -0.16488343 -0.04798851
000280 a3 2c b3 3c 4c 7b b2 3d b6 ee c0 bc fa b3 2b 3d
       0.02187187 0.08714923 -0.023551326 0.041919686
000290 cb ba e2 3c 93 97 c6 bc 0a a6 f1 3d 12 5c cd bb
       0.02767696 -0.024242198 0.117992476 -0.006267079
0002a0 c6 0f 2d 3d ad 93 2c be db 8e 48 bc 4e 90 78 3c
       0.04225137 -0.16853209 -0.012241091 0.015171124
0002b0 69 f6 d1 bd ff c6 51 3c 23 a3 9b 3d 53 20 f8 3c
       -0.10252077 0.012803792 0.07599475 0.03028885
0002c0 bb 72 97 bd 8d cf 97 3c 3b d3 b4 bd f0 2a 0d be
       -0.0739493 0.018531585 -0.088293515 -0.1378591
0002d0 4e 5a ea bd b0 30 39 be b0 6e a8 3d be 7a c8 bd
       -0.114430055 -0.18084979 0.08224237 -0.09789036
0002e0 ff 2b 5c bd eb 50 96 3c f0 18 21 be 57 c3 3d bd
       -0.053752895 0.018349132 -0.15732169 -0.04632887
0002f0 5e b1 5e bd c1 f8 6a bd c6 01 1d 3e 9d 9e 14 3d
       -0.05436837 -0.057366136 0.15332708 0.036284078
000300 84 4b e0 bd 5d ee 0f 3d 86 d6 e7 3d ed 7f 11 3d
       -0.109519035 0.03513943 0.11320214 0.03552239
000310 1f 22 c8 3d 3e f7 02 be 1f 4e a3 bd 81 b1 2a bd
       0.09772133 -0.12789628 -0.07973885 -0.041673187
000320 71 55 52 3d 8b 01 f9 3c f4 47 0a 3e 53 40 93 3d
       0.051351015 0.030396244 0.1350401 0.07190003
000330 c7 f5 3e bd cd 00 29 3e 6e d3 de bd 4a e8 e2 bd
       -0.04662111 0.16504212 -0.10880171 -0.11079462
000340 fc 0f bb bc 97 35 8b bd e9 ec 6e 3e 3f 0b d8 3d
       -0.02283477 -0.06797331 0.23332562 0.1054902
000350 e5 fb 03 be 88 1e f2 bd 01 5e a1 3c 85 28 7e be
       -0.12889059 -0.118222296 0.019698145 -0.24820144
000360 4a 9c 0e be 27 03 1d be e3 08 95 3c 6c 97 fd 3d
       -0.13926807 -0.15333234 0.018192714 0.12382397
000370 21 90 8f 3d 78 dd 5d 3c 38 15 81 be 57 48 21 3e
       0.07009912 0.013541572 -0.252115 0.15750252
000380 7c c0 83 3c 16 e8 e2 3c a1 ab 32 bd 26 37 c7 3c
       0.016082995 0.027698558 -0.04362071 0.024318289
000390 42 a9 4d bd f0 2d 35 be ca 72 db bd e7 6a df 3c
       -0.050210245 -0.17693305 -0.10715254 0.027272655
0003a0 29 f1 e2 3d 4f 05 2d 3e ef f8 5b be ed f3 92 bd
       0.11081154 0.16896556 -0.2148168 -0.071754314
0003b0 6f 81 2e 3e 66 c8 d7 3d 79 11 66 3e 82 21 03 3d
       0.17041562 0.1053627 0.22467603 0.032014377
0003c0 88 56 92 bb 50 32 1c be 8e 84 53 bd 32 dc af bd
       -0.0044658817 -0.15253568 -0.051640086 -0.08586921
0003d0 e3 5b a4 bd 24 b9 3f 3d 24 bf 97 3d 4a a8 82 bd
       -0.080253385 0.046807423 0.07409504 -0.06379755
0003e0 9e 7d be 3d 5b 4e 24 3e 3f b5 59 3e b4 4e e3 bd
       0.09301303 0.16045515 0.21260546 -0.11098996
0003f0 63 61 0a 3d bb 41 ca 3c dd de 97 bd f4 ba ff 3c
       0.03378428 0.024689546 -0.07415555 0.031217076

l2.bias f4 [100]
000000 80 8c 0c 3d 67 f7 2f be d8 e1 06 3e 4e 4c 66 3c
       0.03431368 -0.1718422 0.1317209 0.014056278
000010 45 ac 8f bd d7 f4 00 3e 47 39 e2 3c fe 4d 23 be
       -0.0701528 0.12593399 0.027615203 -0.1594772
000020 70 6f 1a be a0 9c da bc b0 cb 17 3d 6c 38 3d 3e
       -0.15081573 -0.026686013 0.037059486 0.18478554
000030 c3 ac 3d 3d 0f 6e 39 3d 7b 26 d9 3d 28 ca f9 3d
       0.046307337 0.045270976 0.10603043 0.12196761
000040 6e 76 e3 bb 2e 17 af 3c 54 b1 92 3e 71 9a af 3c
       -0.006941608 0.021373358 0.28650916 0.021435948
000050 d3 16 0e 3e 1b db 86 bd bc 0c 87 3d 80 1e 8e 3d
       0.13875894 -0.0658476 0.06594226 0.06939411
000060 51 8c af bd 3b 42 3c 3d 89 86 0a bc 2d 70 0e be
       -0.08571685 0.0459616 -0.008454927 -0.13909979
000070 10 46 66 3d ae bd 63 bd 53 25 df bb bf a2 03 bd
       0.05621916 -0.055600815 -0.0068098693 -0.03213763
000080 61 9c 85 3c 24 64 0a 3c a9 b8 1d be 05 d7 2a 3d
       0.016309919 0.008446727 -0.15402474 0.041708965
000090 4b 3d 1a 3e 1e 94 0b bc e4 5f 26 3d b6 35 7d bd
       0.15062444 -0.008519201 0.040618792 -0.0618188
0000a0 0e c9 a9 bc 64 77 92 bd 4b ec 1a bd ca 8d ab 3c
       -0.020725753 -0.07151678 -0.037823003 0.020941634
0000b0 68 b5 6d bd ff 1e 09 bd 8b f7 90 bc 5d dc cd bd
       -0.05803433 -0.033476826 -0.017696163 -0.100517966
0000c0 c8 b9 b6 3b 93 f5 ee 3c fd a6 bf 3c 7a b4 4f bd
       0.005576346 0.029169833 0.023395056 -0.050709225
0000d0 02 32 b3 3d 78 35 86 3d c0 d2 f0 3b da b4 b2 bb
       0.087497726 0.06553167 0.007349342 -0.005453688
0000e0 1d 9c c1 bd fe de 97 3d dc ce fa bc 41 ed e6 3d
       -0.09453604 0.07415579 -0.030616216 0.11275721
0000f0 1c 00 22 be 67 d3 63 be 46 e6 ee 3d 91 79 20 3e
       -0.15820354 -0.22248612 0.11665015 0.15671374
000100 26 05 00 bd 4a b8 d2 bc 10 c6 b6 bc 4a 64 87 3d
       -0.03125491 -0.025722641 -0.02231124 0.066109255
000110 54 ec 88 3d cf d2 3e bd 82 e7 31 be b8 57 84 3c
       0.06685701 -0.04658776 -0.1737347 0.016155109
000120 de 7a 97 3d 30 d8 d2 bc 2b 04 20 3d 0a 21 46 3d
       0.07396482 -0.025737852 0.039066475 0.048371352
000130 23 ab 61 be 51 90 19 3e c8 16 b9 3c de 5e 9d 3c
       -0.2203794 0.14996459 0.02259387 0.019210275
000140 8d 9e 22 3d b4 1e 40 bc 45 d3 b9 3b e1 e1 1f 3e
       0.039701987 -0.01172607 0.0056709372 0.1561351
000150 04 93 10 bd 52 f3 cf 3c 0f 58 65 bd d5 10 fe 3b
       -0.035296455 0.025384579 -0.055992182 0.0077534714
000160 c3 af c0 3c b2 fe f2 3c a4 62 9b be fb 0b c9 3d
       0.02352131 0.029662464 -0.30348694 0.09816738
000170 59 35 1e bc 3a fc 2f bd 3b 7d a2 bc 21 8d 99 bc
       -0.009656274 -0.04296515 -0.019835105 -0.018744053
000180 50 4e f2 bd 13 3e 76 bd 58 b3 40 be 6f 47 8e 3d
       -0.11831343 -0.060117792 -0.18818414 0.069472186

l3.weight f4 [18, 100]
000000 ed 60 9c 3d 9e de 6b bd 83 7a db bc cf c9 1c 3e
       0.076356746 -0.05758535 -0.026791817 0.15311359
000010 83 21 45 be 3f 0a ab 3c a8 73 0c be 5d b8 38 3d
       -0.19251065 0.02087891 -0.13715994 0.045097698
000020 73 ab 60 3c db 13 ad bd fb 44 37 3d 09 8f f3 3d
       0.013712752 -0.08451053 0.04474352 0.11892516
000030 07 ec 99 3d 0a c9 3a 3d 24 ad 05 be fe e0 8d 3d
       0.07515722 0.045601882 -0.13054329 0.069276795
000040 20 e5 b2 3d 68 0a bd bd 8f 36 cf bd 79 6c ce 3d
       0.087351084 -0.092305005 -0.10117828 0.10079283
000050 3e e7 51 bc 4c 52 38 bd 4f f9 1e 3e 97 8d e3 bc
       -0.01281148 -0.04500036 0.15524791 -0.027777476
000060 14 37 83 be 9d 8e f1 bd 80 3c e9 bc 14 fa 7a be
       -0.2562796 -0.117947794 -0.028471231 -0.2450946
000070 a0 db 0c 3e fa e7 a0 3d 6b fc 0f bd fb fe be ba
       0.13755655 0.07856746 -0.035152834 -0.001457184
000080 80 10 88 3e c7 78 82 be 40 97 c5 bd 25 87 24 be
       0.26575089 -0.2548277 -0.09647989 -0.16067179
000090 bb f2 00 3d d8 55 b0 bb a2 d2 3e 3e c4 bd e5 bc
       0.031481486 -0.005381327 0.18635038 -0.028044589
0000a0 33 20 01 3c 56 6a 2b 3e af 76 99 bb 2b b9 f0 3d
       0.007881212 0.16739783 -0.0046833376 0.11754068
0000b0 a0 02 99 bd 23 47 a7 3b d9 1e 4a 3e 22 cd e7 3c
       -0.07471204 0.0051049157 0.1973833 0.028296057
0000c0 21 93 24 3e c3 41 3f be 68 6d 36 3d 6b f6 5e be
       0.1607175 -0.1867743 0.04453793 -0.21773688
0000d0 7c 03 2b be 98 07 fb bd 40 46 ab bd 22 00 1f be
       -0.16700548 -0.12257308 -0.083630085 -0.15527394
0000e0 58 40 56 3c e1 e0 b2 bd bb d0 10 be 99 42 8b bd
       0.013076864 -0.087342985 -0.14142124 -0.06799812
0000f0 e0 ed 70 3e dc 74 3a 3e f1 ef 1c 3d b8 40 95 bb
       0.23528242 0.18208641 0.038314763 -0.004554834
000100 eb 0c a9 3d 59 48 53 be 1b 34 67 3e 88 03 95 3d
       0.08254417 -0.20633067 0.2257847 0.07276064
000110 0c 24 f1 bd 54 a9 10 3e a5 1b 66 be d8 96 86 3d
       -0.117744535 0.14127094 -0.22471483 0.0657174
000120 ef 7f 80 3d 84 9e d6 3d 57 ef 17 3d 7b 30 09 be
       0.062744014 0.10479453 0.037093487 -0.133974
000130 37 d2 3c 3e 77 41 ea 3b 81 a5 93 be b6 57 02 bd
       0.18439566 0.0071489173 -0.28837207 -0.03182193
000140 50 87 80 3e 7d f7 2c be 24 89 a7 3d 77 1b d3 bb
       0.25103235 -0.16891284 0.081804544 -0.006442483
000150 09 90 a1 bd 5f 25 bd 3d 84 d8 70 be e2 00 0c be
       -0.07888801 0.092356436 -0.23520094 -0.13672212
000160 22 f9 19 be fd e5 60 be ea 98 6d 3e bc f1 97 3d
       -0.15036443 -0.21962734 0.23202863 0.07419154
000170 c2 b0 0f 3e 9e 72 dc 3d f7 ef 89 3d d0 93 a0 bd
       0.14032272 0.10764049 0.06735223 -0.07840693
000180 10 bb 30 3d dd 27 d0 3c c0 df e2 3b ba 63 65 be
       0.043147147 0.025409633 0.0069236457 -0.22401324
000190 c0 10 2d 3d 70 15 24 be 29 49 9b 3d ee 28 ae 3d
       0.042252302 -0.16023803 0.075823136 0.085039005
0001a0 73 eb a1 3d 5b 5d a6 3c 14 da f4 3d 15 f9 7f be
       0.079062365 0.020308187 0.119556576 -0.24997361
0001b0 e4 a1 5b be 27 cb 74 3d 70 03 e9 bb 60 aa 8f 3d
       -0.21448475 0.059764054 -0.0071110055 0.07014918
0001c0 e0 88 c8 3d 09 86 e5 3d c2 44 b9 3e ea a6 31 bc
       0.09791732 0.11207206 0.3618527 -0.010843018
0001d0 dd af 86 bd 7e 36 25 bd 1f 9b 1a 3e de ff dd bd
       -0.06576512 -0.04033517 0.15098237 -0.108398184
0001e0 53 1d f4 3d 32 e7 5d 3d a6 8e 19 3e d6 b7 16 3b
       0.11919656 0.054175563 0.14995822 0.0022997758
0001f0 42 7b 6c be 5a 1e e5 3d 99 54 06 be cb b7 34 3d
       -0.23093894 0.1118743 -0.13118209 0.04412059
000200 f6 eb 15 be 2d cc 16 bd f8 11 64 3e 20 1e 50 bd
       -0.14640793 -0.03681581 0.2227248 -0.05080998
000210 39 c3 ff 3d bb 2c 9f 3d ba 88 12 3d 47 10 be 3d
       0.12488408 0.077722035 0.035774924 0.092804484
000220 d9 b8 bb 3b 88 da 60 3c e1 4e 05 bd f4 9b df 3d
       0.0057288227 0.013723977 -0.032545928 0.109184176
000230 71 43 8d bd 92 17 24 be 24 ad c0 bd 92 88 a6 3e
       -0.06897629 -0.16024616 -0.09408024 0.3252607
000240 f8 fc 3f 3d 9a 7b ef 3c fa 1b cb bc d5 aa fd 3c
       0.04687211 0.029233743 -0.024793614 0.030965248
000250 64 63 66 3d 29 90 26 be 67 27 ce 3d d6 bf d9 bd
       0.05624713 -0.1626593 0.10066109 -0.10632293
000260 bd 8b a9 3e 87 f1 ab 3d 5a db ab 3e 7c 1d 3d 3c
       0.33114424 0.08395677 0.3356579 0.011542674
000270 32 af fe bd 13 c4 ec bc 6d c4 c9 39 f8 9d 3e 3e
       -0.124357596 -0.02890209 0.00038484056 0.18614948
000280 6a 61 bb bd bc d7 13 3c 67 b6 52 3e 51 a5 3b be
       -0.0914944 0.009023603 0.20577393 -0.18324782
000290 de 77 c4 3c 82 b5 78 3d 29 17 2d bd 44 c5 5b be
       0.023982938 0.060719974 -0.042258415 -0.2146197
0002a0 43 39 96 3e c6 81 cf 3c 99 6e 10 be 98 91 d7 3d
       0.29340562 0.025330435 -0.1410469 0.10525817
0002b0 07 22 46 3e ae 31 ad bc cd 51 13 3e 4a bd a8 3d
       0.19348918 -0.021141853 0.14386673 0.08239229
0002c0 a8 77 8a be 73 a4 ee bd 9a be 83 3b e5 7e 10 3e
       -0.27044415 -0.1165246 0.004020524 0.14110906
0002d0 01 59 a8 3c 70 b3 33 3e 3c 08 24 be 8a 97 58 3e
       0.020550253 0.17548919 -0.16018766 0.21151558
0002e0 b2 e9 6b 3d 31 e7 aa 3d 7d 5b 19 be 9c 6b ee 3c
       0.057595916 0.083448775 -0.14976306 0.029104047
0002f0 d0 e6 dc 3d 42 2d 5e bd 36 7a 05 be c8 56 04 3d
       0.107862115 -0.05424238 -0.13034901 0.032309324
000300 8d 48 26 bd 7a a0 7c 3d 6a 49 c6 bd 3d 2f 57 be
       -0.040596534 0.06167648 -0.09681971 -0.21014114
000310 31 2b d1 bc d2 0e 3e be 93 ff 0a be 16 af 3b 3e
       -0.02553329 -0.18560341 -0.13574056 0.18328509
000320 1c 21 15 be cc 86 ad 3d a5 26 10 3e 38 e4 3b bd
       -0.14563411 0.08472976 0.14077242 -0.045871943
000330 72 5d cd bd ba 25 52 3e 1a f8 23 bd be 13 b6 bc
       -0.10027589 0.20522204 -0.04003153 -0.02222621
000340 5c a1 5c 3e d8 15 39 bd d0 b1 80 bd 8b 6b 86 bb
       0.21545929 -0.045186847 -0.06283915 -0.0041021756
000350 d7 5c 1f 3e 00 0d a7 bd 47 b4 1c bd fc ed 8f bd
       0.1556276 -0.081567764 -0.038257863 -0.07027814
000360 b4 1d 40 3e 9e 6b ce 3d 29 71 3c 3e af 0f c8 3c
       0.18761331 0.1007912 0.18402542 0.024421541
000370 19 59 5a bd d3 4b 9a bc fa 7a 34 3e 8d 92 1f bd
       -0.053307626 -0.018834984 0.17625037 -0.03895812
000380 13 20 88 bd b6 d8 80 3d 2e 40 b4 3c 44 d8 54 3d
       -0.06646743 0.06291334 0.02200326 0.05196406
000390 6a f2 3c 3b 21 ba 05 3c 33 3a b6 bd 72 f0 9b bd
       0.0028831013 0.008162052 -0.08897819 -0.07614221
0003a0 78 54 0a be 78 72 53 be 1a 11 d9 3d 48 8c 84 bc
       -0.13508785 -0.20649135 0.10598965 -0.016180173
0003b0 37 70 95 bd f5 63 09 bb 6b 69 07 bc 15 bd 00 be
       -0.07296794 -0.002096412 -0.00826488 -0.12572129
0003c0 45 15 e1 3d 3a 76 2c 3e fb 5d 92 bc 9a 71 2b be
       0.10990385 0.16841975 -0.017867079 -0.16742554
0003d0 3d 70 3d bd 66 0d 96 bd 88 00 2a be 68 ea da bd
       -0.046249617 -0.07326774 -0.16601765 -0.10689241
0003e0 b7 31 90 bd c4 69 2e 3d 8d 4b 0e be 14 fa a3 3d
       -0.07040732 0.042581335 -0.13896008 0.08006683
0003f0 b4 cc 7d bd b2 13 42 be 28 fe 40 be 46 51 84 3d
       -0.0619628 -0.18952826 -0.18846953 0.06460814

l3.bias f4 [18]
000000 9a 05 7e 3e 4b ae f3 be ca 0b 16 bd 1a 27 1d 3f
       0.24806824 -0.47593912 -0.036632337 0.6138779
000010 17 91 f5 bd 27 21 a8 be f3 09 28 3e 22 ec c0 be
       -0.11990564 -0.32837793 0.16410045 -0.37680155
000020 25 d8 59 3e 4d c6 93 3e a0 b7 86 3e 83 01 d1 3c
       0.21273859 0.2886223 0.2631197 0.025513416
000030 44 a3 9b 3e 35 c1 d3 be a2 e8 9e 3e 64 3d 61 3e
       0.30398 -0.41358343 0.3103686 0.21996075
000040 b1 8c 5e bd d9 31 d6 bb
       -0.054333393 -0.006536704
