LARA/data/result/g_380.pt (torch, 87406 bytes, 7 tensors)

G_attr_matrix.weight f4 [36, 5]
00000000: 5d57 873d 99df 51bd 681f a1be 7034 903d
00000010: 0f2a 803c 8cf7 a6bd add0 623d c515 1d3e
00000020: 4f5a 663d ecde b7bc dbbf 6abd b23e 903c
00000030: 6be9 563c 3789 813d 4271 4c39 e5ac 0bbd
00000040: e25a c6bd c0e2 aabd 951c 63bd 5f90 9cbb
00000050: d254 bebb a482 09be 7f47 ff38 2f7f 66bc
00000060: beb3 343d 3aab 8f3d 318a b43c c556 94bc
00000070: 696c 603e 4ae5 cabd 0977 0ebd 54ec 82bc
00000080: bb81 c4bc 3271 533d 2c3d 413e b240 533e
00000090: ea9e ef3d 39a5 503e ed15 373e 812c 943d
000000a0: 2a92 2d3a 7067 7d3c a075 033b 683a 62bd
000000b0: d7ae 04be efe9 dfbb 3a29 90bc b498 31bb
000000c0: d16f 923d 0856 563e b270 893e 944a 9f3c
000000d0: 0ef6 a83c 8e5a bfbd 88e5 3bbc 6fa0 1a3c
000000e0: f090 38be 528f 6dbe 660f 693d ebb8 323e
000000f0: c85d a639 2ad1 dd3d 1343 85bb a612 d0bb
00000100: 99e3 553d 7def 92be a29f aa3c dc00 df3b
00000110: f78d e4bd 74a7 71bd 9455 b3bc 87ed aebc
00000120: bf1c 903d 2c3e 8c3c 8e46 213d c917 68be
00000130: 19e0 2a3e e084 5abe 13f4 1e3e 44b7 17be
00000140: 6a4c 573e 5ff8 c8bc 7400 cabd acda 323e
00000150: 68d6 e4bd 142a 693c 8d9b a13e 4800 ed3e
00000160: 6f16 113e d4e9 a43d 9ddb e7ba 1aaf 8abe
00000170: 5219 e439 9709 ba3d 8e69 d8bd 229a 41bd
00000180: 7abe e23d fa33 82be e3bd 223e fc5f 333d
00000190: 1d9b 64be e1de 4bbc 0936 9e3c d741 67bc
000001a0: 5206 2fbc 5b8e 3fbe 3d06 c33d 5d38 e1bd
000001b0: 54c4 393e fb6f d83d 0b39 f4bb 2a7e 61bc
000001c0: 8275 7dbc 4a8a da3b 0add 4eb9 2d7a 9c3d
000001d0: 0ab1 7c3e dfbc 2e3e a2f5 55be 657e 10bd
000001e0: 29ae f73e a262 503c d2c5 d03a a4b2 72be
000001f0: e4a3 febb 129c 843e 549d 52be 1038 83bd
00000200: 4bdd 46be fed5 173e 31f1 8a3c 19a8 373d
00000210: 36c4 55bc 3c5a c43d f194 eebc c550 6fbe
00000220: 6e50 b7be 7cf5 443e 58b9 6b3e e23d 8c3e
00000230: b2d7 d0bc 8655 97bb be3a 243c 6477 923b
00000240: fb2e 0abd 786e 943d 3dd5 8bbc b4ab 063c
00000250: 4756 08bc bb53 013e bfe9 13bc 0ec1 03bc
00000260: 8a79 703c 681f 48bd 66d8 95bd ea18 0b3d
00000270: 4c69 b8bd e06b 4dbd fd2b 3f3e 6e60 8a3e
00000280: a2aa 87bb fbab 02bc 46d3 823d 07d7 b43a
00000290: 601a 3abc db51 0a3e 087e 293e b66c babe
000002a0: 0fc8 033d 735e 2b3e c2f6 013d 7472 e7bb
000002b0: b563 013e 2050 933e 1064 0f3e 7e7c 673d
000002c0: 9019 963e a2af 0fbe 0b88 35be 90ce 2c3e
0.0660846 -0.05123863 -0.31469274 0.07041252 0.015645055 -0.081526846 0.05537479 0.15340336
0.05623847 -0.022445165 -0.057311874 0.01760802 0.013117175 0.06325 0.00019497148 -0.034100432
-0.09685303 -0.083440304 -0.05544718 -0.0047779526 -0.005808451 -0.13428742 0.00012172665 -0.014068409
0.044116728 0.07015081 0.022038551 -0.018107781 0.21916355 -0.09907015 -0.03478149 -0.01598183
-0.023987642 0.051621623 0.18870991 0.20630148 0.11700232 0.20375527 0.17879458 0.07235051
0.00066212064 0.015466556 0.0020059124 -0.05523148 -0.12957321 -0.006833307 -0.017597783 -0.0027099075
0.071502335 0.20931256 0.26843792 0.019444741 0.02062514 -0.09343444 -0.011468299 0.009437664
-0.1802404 -0.23199204 0.05689945 0.17453353 0.0003173186 0.108309105 -0.0040668338 -0.0063498793
0.052219007 -0.2869834 0.020828072 0.0068055224 -0.1115989 -0.058997586 -0.021891393 -0.021353496
0.07036733 0.01711949 0.039373927 -0.22665323 0.16687049 -0.2133975 0.15522794 -0.14816004
0.21025243 -0.024532495 -0.09863368 0.17466229 -0.11173707 0.014231224 0.31563988 0.46289277
0.14168714 0.08052412 -0.0017689351 -0.27086717 0.00043506414 0.0908386 -0.10567008 -0.047266133
0.11071487 -0.2543028 0.15892749 0.04379271 -0.22324796 -0.012443275 0.019312875 -0.014114819
-0.010682659 -0.18706648 0.09522674 -0.109970786 0.181413 0.105682336 -0.007453089 -0.01376299
-0.015469911 0.0066693174 -0.00019728034 0.07640491 0.2467691 0.17064236 -0.20894483 -0.03527679
0.4837506 0.012718828 0.0015928096 -0.23700958 -0.007771002 0.25900322 -0.20567828 -0.064071774
-0.19420354 0.14827725 0.016960712 0.044838045 -0.013047269 0.09587523 -0.029123755 -0.23370655
-0.3580355 0.1923427 0.23019922 0.27390963 -0.025493477 -0.0046183495 0.010023771 0.004469799
-0.03373621 0.07247633 -0.017069453 0.008219648 -0.008321351 0.12629597 -0.009027897 -0.008041633
0.014677415 -0.048858076 -0.07316665 0.033959307 -0.09004459 -0.050151706 0.18669124 0.27026695
-0.004140214 -0.007975574 0.063879535 0.0013796993 -0.011358827 0.13507788 0.16551983 -0.36411065
0.032173213 0.16735248 0.031729467 -0.0070632044 0.12635691 0.28772068 0.14003015 0.05651521
0.29316378 -0.14031842 -0.17727678 0.16875672

l1.weight f4 [100, 90]
00000000: f6d9 433e ab83 41bc 4ab4 b23d a144 cf3d
00000010: 6720 be3d dab9 673d f439 a13d 8ec3 c23c
00000020: f5cc 85be b983 0abe b7d7 883d 882b 48be
00000030: 6e35 64bd c92e 5e3c 7d27 10bd 54cb da3d
00000040: 1413 353d bb5e 35bd 9867 0fbd ee25 bc3d
00000050: d2b8 223e 934f 6cbd b609 063e c6b6 84bd
00000060: 3d8e cf3c 9c03 673d 8265 493e beef 8c3d
00000070: 122b 283e 22ee e2bb 308e fb3d 2973 14be
00000080: 2abc 5bbe 356b d7bd 4288 c1bd f1fc 463d
00000090: d179 163e 23d4 3abc a653 d8bd 2e71 403e
000000a0: 3cbd b1bc b741 7fbd c714 fd3d 39ed f03c
000000b0: 2f0e 173c 45c9 953d ab10 ecbd 614d 0dbd
000000c0: da76 3c3d 890f 7dbd 4264 fa3d fcbe c6be
000000d0: 2436 3d3e 0e01 36bd fa5a f1bd 1f35 163d
000000e0: 54ea d4bc 0182 473c 21f6 8cbc 0d4b 233e
000000f0: 9775 0abd 4f1f 10be 36e5 95ba a802 263d
00000100: 1dfe c9bd 55f6 c3bd e3eb 0b3d bfcf 3abe
00000110: 6e8e 49bc 8782 36be b5e5 38be 0a65 fc3d
00000120: 631c a23d bf4d 493e b591 3cbe 97f2 1ebd
00000130: f539 55be dc02 01bd 7346 99bd a2ee 543d
00000140: 616d 6e3c be27 8ebd 97d9 1e3d f1da ee3d
00000150: 7f3d 71be 2d09 8a3d a69e b9b8 0b84 a1bd
00000160: 12dd 273d 1118 2a3e 8de6 863e 7555 b7bd
00000170: 6d23 82bd 5485 1cbd bcb9 19be 1c4d 3e3d
00000180: 0ce5 543e f726 55bd 053a 6a3d b9f2 d13d
00000190: 3712 583d 4e8f d5bc fd2b 06be 3583 56bc
000001a0: a1ab ebbd bf01 88bd 778f e53d 833e 22be
000001b0: 13c0 853d 8d8f 513d bf38 7b3c e20d 6d3c
000001c0: ba0c c93b 5dfa ddbc e01f 4d3c 6a4b 2b3d
000001d0: 0ced 373d 1e4a 24bd bf77 b3bc d733 193d
000001e0: ae8c 253d 82bd 14bd df54 8bbb 681a 8c3d
000001f0: ac86 32be 48a0 86bb b014 7fbd 7302 b43d
00000200: 5daf e03c 31ba 903d b420 24bd 6cd1 d43d
00000210: c14b f3bd 3c63 0c3c f5f7 4dbe 72ae 89bd
00000220: 1c8d 913d 306f eabd 5a45 e337 ea33 8fbc
00000230: 41a0 b93d ad1e 18be 09bd 73be d71b 1fbe
00000240: 474d cebd 1eea 063e 7cdd c03d 94be bb3d
00000250: 01bd 88ba 4f66 c4bd 2cd9 fbbc 1609 59bd
00000260: 0fb8 d0bd 93e1 ddbc 1b55 ca3c afde b0bd
00000270: c3e2 96bc 1754 f5bc 4dd8 b23c 6405 123e
00000280: 953b 3dbe 1770 433e 2b9b 20be f8af 48bd
00000290: 1ec2 6e3c b7c1 96bd abcb 043d 7380 edbd
000002a0: 2d8c 293e 3322 a93d 478e e63c cb89 76bd
000002b0: 2bff 57bd 7693 a03d 557c 92bd 34e5 f1bd
000002c0: ec01 8fbe fa65 f23d 3f43 d2bd 036d 03bd
000002d0: 908e ca3b 86d2 0c3e 9c44 cf3c 159c 5abe
000002e0: 2ec2 21bd 2f72 27be ae2f 96bd 98b0 cf3d
000002f0: fcb3 023d 48fa a1bd 8ade a33d ab16 37be
00000300: 4704 c5bd aadd c13d 75b8 11bd 4b51 a5bd
00000310: 540f 35bc 1139 fb3d 4946 273d a3c1 063d
00000320: 8044 ddbd f746 1d3d ff59 36be 51dd a53d
00000330: ce26 913e 7662 77b9 368a cf3c eef9 13bd
00000340: d719 afbd 2222 f43d f51e bb3c 9209 8bba
00000350: 2890 eb3d 080e 503d faf8 713b 8482 193e
00000360: 444b 393d 5a42 97bd dfcc 07bd e049 84bc
00000370: a30d f5bd 796b 0fbe de50 583d 7b72 02bd
00000380: 8127 763e b0b7 abbd 0e8f 163e 01e0 b53d
00000390: d86f 693d 9ba1 693d 9f23 3e3e e1b8 88bd
000003a0: 0bf0 2ebd 8837 7d3d 929a f03c 5fdd b53d
000003b0: 6e1e d7bd 7d6e 153c b8b3 393e 7ef1 63bc
000003c0: cd81 c03c a219 11be 0bc2 d93d e030 943d
000003d0: 7269 fbbd 6804 6dbe 9081 dcbd cb4d c3bd
000003e0: 0c57 00be dded 493d 2e64 d43d d859 803d
000003f0: 46c9 0cbe 601b 58bd 4c17 583d 0e82 463d
0.19126114 -0.011811177 0.08725794 0.10120512 0.09283524 0.056573726 0.07872382 0.023774888
-0.26132932 -0.1352681 0.06681769 -0.19547856 -0.055715017 0.013560959 -0.03519391 0.10683313
0.044207647 -0.044279795 -0.035010904 0.09186922 0.15890816 -0.057693075 0.13089642 -0.06480174
0.02533638 0.056399927 0.19667628 0.06881665 0.1642268 -0.0069253603 0.122829795 -0.14497055
-0.21458498 -0.10518495 -0.09449817 0.048581067 0.14694907 -0.011403116 -0.1056283 0.18793175
-0.02169668 -0.06231853 0.123574786 0.029409992 0.00921969 0.0731378 -0.11526617 -0.034497622
0.046011783 -0.061782394 0.12226154 -0.38817585 0.18477684 -0.0444346 -0.117849305 0.036671754
-0.025990643 0.012176991 -0.017207207 0.15946598 -0.03380355 -0.14074443 -0.0011436108 0.040529877
-0.098629214 -0.095684685 0.034160506 -0.18243311 -0.012302024 -0.1782323 -0.18056376 0.12323959
0.079155706 0.19658564 -0.18414958 -0.03880557 -0.2082289 -0.031496868 -0.0748414 0.05198539
0.014552445 -0.06941174 0.03878173 0.116628535 -0.23558615 0.067400314 -8.851038e-05 -0.07886513
0.040982313 0.16610743 0.2634777 -0.089518465 -0.06354413 -0.03821309 -0.15012258 0.046460256
0.207905 -0.052039113 0.057184238 0.10251374 0.052751746 -0.02606931 -0.13102718 -0.013092806
-0.11507345 -0.06640958 0.11209004 -0.15844159 0.06530776 0.05116229 0.015333354 0.014468642
0.0061355503 -0.027096922 0.012519807 0.041819967 0.0449038 -0.040109746 -0.021907685 0.037402954
0.040417366 -0.03631354 -0.004252061 0.06840974 -0.17434186 -0.0041084625 -0.06227559 0.0878953
0.02742737 0.07066763 -0.04007025 0.103915066 -0.11879683 0.008568581 -0.2011412 -0.06722726
0.071069926 -0.114469886 2.7092803e-05 -0.01748081 0.09063769 -0.14855452 -0.2380258 -0.15537964
-0.10073333 0.13175246 0.09417245 0.09167209 -0.0010432304 -0.09589826 -0.030743204 -0.05298718
-0.101913564 -0.027085101 0.024698785 -0.086362235 -0.018418675 -0.029947324 0.021831656 0.14259869
-0.1847976 0.19085728 -0.15684192 -0.048995942 0.014572648 -0.07361167 0.032420795 -0.11596765
0.16557379 0.08258476 0.028144015 -0.060190003 -0.05273358 0.07840626 -0.07152621 -0.11811295
-0.27931154 0.11835857 -0.102667324 -0.032086384 0.0061815456 0.13752183 0.02530127 -0.21348603
-0.039491825 -0.16352151 -0.07333313 0.101411045 0.031909928 -0.079090655 0.0800143 -0.17879741
-0.096199565 0.09466107 -0.035576303 -0.08072146 -0.011051018 0.12266744 0.040838514 0.03289951
-0.10804081 0.038397755 -0.17807768 0.080988534 0.28349918 -0.00023592435 0.025334459 -0.036127023
-0.085498504 0.11920573 0.02284191 -0.001060771 0.11502105 0.05079463 0.0036922083 0.14991194
0.045237795 -0.073857024 -0.033154365 -0.016148508 -0.119654916 -0.14005841 0.052811496 -0.03184746
0.24038507 -0.08384645 0.14703009 0.08880616 0.056991428 0.057038885 0.18568276 -0.06675888
-0.04270939 0.061820537 0.02937058 0.08880114 -0.10503851 0.009120581 0.18134964 -0.013912557
0.023499394 -0.14169934 0.10632714 0.07235885 -0.122759715 -0.23146212 -0.107668996 -0.09536322
-0.12533206 0.04929911 0.1037067 0.06267136 -0.13748655 -0.05276048 0.052756593 0.048463874

l1.bias f4 [100]
00000000: 80cc 0abd f9f2 873c 10ef 253e f860 913d
00000010: 889b 0d3e 6bb7 3ab9 1c38 4a3e 86fb 10bd
00000020: d0c2 04bd 1489 5ebd 7998 2fbd 67c5 f8bd
00000030: 7d2b ddbc 2547 4c3c 429e 29bd 35f4 ef3d
00000040: 49d7 213d 5c38 223d bb1e aebd 9aa3 09bd
00000050: ebee 403e 3fa3 04bd 84a5 d7bc 9396 073e
00000060: 0452 a53c 3e7c 243e fbe6 3bbd b7fe 01be
00000070: c42e 08ba e53b adbe 88fd 563d 33ab e03d
00000080: b140 2ebe 92bb 87be d7eb 5abe 0ab3 94bc
00000090: 84af b53c 694e 1d3e e2e2 14bc 74e6 63bd
000000a0: 60f9 68be 6095 7e3e 577a 0dbe 1375 bf3b
000000b0: af84 59bd a6c8 c1bc 6112 39bc f49d efbc
000000c0: 37b1 85bd 7407 3cbe 525f d3bb 58df 2c3e
000000d0: 8ffa db3d edce 34be bf0e a8bc 9bc2 40bd
000000e0: 4953 19bd b8b5 723d b22e 0fbd c15c 81bd
000000f0: a337 25be bf31 923d 5bac 8fbc f1c6 eb3d
00000100: ec41 ef3d 3846 09be a88e bbbb c3f6 bf3d
00000110: b7d1 efbc 0ccc 103c 2d73 c93d 1779 a3bd
00000120: b94d 0cbe 3b14 503e f632 ba3d cd21 3e3d
00000130: 43c8 39be 89af 85bd 1057 65be f9fa dbbd
00000140: 02f9 193d 2c4e 07be 533d 1ebd 8c68 6c3d
00000150: b976 203d c057 ab3c 2909 9bbd 02bc c83c
00000160: bbf3 10be 9144 dcbc 3b58 163e 0dac a33d
00000170: 994e acbc e4dc 183d a1c3 073e 6ea7 36bd
00000180: db59 3fba 4b2f e1bd 4d84 16be d9f0 563b
-0.033886433 0.01659535 0.16204476 0.070985734 0.13828862 -0.00017806671 0.19747967 -0.03539612
-0.03241235 -0.054329947 -0.04287002 -0.121470265 -0.026998276 0.012468134 -0.041410692 0.11716501
0.039511953 0.03960453 -0.08501955 -0.03360329 0.1884114 -0.032382246 -0.026324041 0.13241033
0.02018071 0.1606302 -0.045874577 -0.12694822 -0.0005194957 -0.33834758 0.05248788 0.10970154
-0.17016865 -0.26510292 -0.21379028 -0.018151779 0.022178419 0.15361942 -0.009087296 -0.0556397
-0.22751379 0.2486167 -0.138162 0.0058428138 -0.053105053 -0.023655247 -0.011295886 -0.029250123
-0.06527942 -0.18362218 -0.006450572 0.16882074 0.1074115 -0.17657061 -0.020514844 -0.04706059
-0.037432943 0.05925533 -0.03495664 -0.063165195 -0.16134505 0.071383946 -0.01753824 0.115125544
0.116824955 -0.13405693 -0.005723793 0.09373238 -0.029274805 0.008837711 0.09836421 -0.079820804
-0.13701524 0.20320217 0.09091751 0.046418954 -0.181428 -0.06527621 -0.22396493 -0.107412286
0.037590988 -0.13213414 -0.038632702 0.05771689 0.039175723 0.020915866 -0.075701065 0.024503712
-0.14155476 -0.026888164 0.14682095 0.079918005 -0.021033572 0.037320033 0.1325822 -0.044593267
-0.0007299461 -0.109953485 -0.14698906 0.0032797365

l2.weight f4 [100, 100]
00000000: 34a0 b03c 23af 043e 43d0 8ebd bf89 d8bc
00000010: 83ec 94bd 5cac 2b3e cec6 08bd 8461 b43d
00000020: ad4b 9fbd b134 9cbd 1233 063d 48bf 70bd
00000030: caf5 a0bc c9f3 46bd efe9 a23c c2a8 0bbc
00000040: 7f2c 4abe 2e09 10be ff74 c43c 806d 383e
00000050: 7d8b cd3c 4383 f53d 9a51 793d 2a4d b83c
00000060: 5efc 4a3d 2532 973d 90ac 7abe 7ca2 f2bd
00000070: d5a0 54be b225 1fbe 2103 ce3d b944 b9bd
00000080: c63a 473d 574b ba3c 4e1c 123d 0970 de3c
00000090: e8a4 35bd d436 0cbd ff83 82bd cfcd 783d
000000a0: 9017 51bd c9b0 8d3d 2227 1c3c 5574 26bd
000000b0: 1135 a43d c928 63bd 14af ddbd 2bc2 403e
000000c0: b9ef 8abc 4cae 763d 320b ecbc 1a2a 053d
000000d0: 3b62 d83c d537 b3bd b809 263e 5be3 423d
000000e0: 758e 95bd 97f4 213d d461 ebbd 7c4c dcbc
000000f0: 39fc a63c d276 ec3d 6178 0a3c d760 af3c
00000100: 30f4 e73c 2520 dcbd f830 2d3d d8a0 11be
00000110: 822f 003e cbc8 633d 26be b5bd 171c 903d
00000120: 1288 f73d 8b67 b63d ae56 db3d f6c6 103c
00000130: 2c5b 803e 0703 f43c b231 43bd 7d29 41bd
00000140: 9cb3 393e 555c 89bc 7270 afbd 4f0c fb3c
00000150: b17b 883d 3494 36bd c3ba 75bd c1f1 10be
00000160: cd08 d2bd 0860 dfbd 7f71 4dbd df48 133c
00000170: 86f0 e2bb 8885 e9bd f6b7 54bd b878 00bc
00000180: 36cf 87bd f8ee 613e 3079 d53b b1cc 7c3d
00000190: 60db d1bd 82be f73c 4ad3 15be ad40 3f3d
000001a0: d591 523e 9a10 8bbc b18e 513e fe37 a7bd
000001b0: 85c5 c73d 0889 c43a de0e 303d d58a be3d
000001c0: 42e0 373c 9287 26bd 0c4b e9bd 7331 c7bd
000001d0: ec73 f83c a727 d8bd b0eb 653d a657 073e
000001e0: 13ad 5bbd 3481 1cbd 91cf cb3c 2b1f 9b3d
000001f0: e577 243d 37d0 1f3d d2fc 17bd 1cb0 6fbd
00000200: 5ff2 f63d 9768 d7bd 6dea 3abd 9322 5abc
00000210: a109 0b3e 94cf 983c ed0d 233e c9ef d03d
00000220: ce72 d1ba afa4 96bd 27e6 c8bc d129 dbbc
00000230: 174c b33d 37c9 b2bc b322 693c 065a 56bd
00000240: df94 fabc 2f48 063e 2a47 573d 01ad 153e
00000250: 88c6 50bd cadf a93c 2b98 0ebd da90 233b
00000260: 46a5 673c f266 e93d 8a41 e63d b918 243d
00000270: 722b e7bd 8b85 af3d 25ee 2abe ee61 56bd
00000280: e15e c03c ed72 b03d 6678 f0bc 1fbb 313d
00000290: 2e7e 093d 83a1 a2bc d49a fa3d 2a5f a5bb
000002a0: baca 243d f7ff 26be 92d8 5abc 0c62 793c
000002b0: f4c1 cdbd be0a 193c 2197 9b3d 0b23 d33c
000002c0: ea4e a5bd 3783 1a3c a4bf bfbd fc0a 0dbe
000002d0: 7598 fabd aefe 36be 4b3a 983d 4929 c5bd
000002e0: 12cb 4bbd d088 ed3c 7814 1fbe ac13 43bd
000002f0: c883 57bd 2586 83bd 6ecf 1c3e 5283 fb3c
00000300: 2205 dbbd 4197 1d3d f8e5 d13d 58f6 323d
00000310: 7340 bf3d e562 02be 87d4 babd 96b3 20bd
00000320: 91f3 3b3d c9e0 f13c 5212 013e b28e 933d
00000330: b2be 4cbd 938b 263e 5b11 e0bd 414c dcbd
00000340: 566c c6bc fbd1 83bd 5e75 6e3e a125 d23d
00000350: 7227 04be c682 e6bd b06b 643c a6cd 80be
00000360: 0403 12be 1e8b 21be 2bc4 a23c f651 fa3d
00000370: 9228 913d 7490 333c b964 80be 56ea 233e
00000380: 01dd 5b3c 6ac4 c13c 57bb 3abd d415 a93c
00000390: a25f 3cbd d18b 36be b33c cfbd 8bc5 073d
000003a0: 6077 ef3d 396a 2a3e 202c 5fbe 7bcb 9dbd
000003b0: 41b7 2f3e 5b54 d13d 0506 683e e9e6 df3c
000003c0: b364 4b39 ffed 18be 0bec 5fbd 9ae8 abbd
000003d0: 0c83 a0bd 8430 3f3d 4b76 993d 84df 67bd
000003e0: d85b ba3d b85c 2b3e 834f 513e 8c3f e8bd
000003f0: 6abb fd3c d2e3 ef3c b94e a1bd b02f 083d
0.021560766 0.12957434 -0.069733165 -0.02643287 -0.072716735 0.16764969 -0.03339272 0.08807662
-0.07778106 -0.076272376 0.03276355 -0.05877617 -0.019648451 -0.048572335 0.019886939 -0.008524122
-0.19743536 -0.14066002 0.02398157 0.18010521 0.025090927 0.11987927 0.060868837 0.022497732
0.049557082 0.07382611 -0.2447989 -0.11847398 -0.20764478 -0.15541723 0.100591905 -0.09046311
0.048640035 0.022741003 0.035671525 0.027153032 -0.04434672 -0.034231976 -0.063728325 0.06074315
-0.05104786 0.06918485 0.009530814 -0.040638287 0.08017934 -0.055458818 -0.10824409 0.18824069
-0.016960012 0.060224816 -0.028813932 0.032510854 0.026414027 -0.087508835 0.16214645 0.047580104
-0.07302562 0.0395399 -0.114932686 -0.02689194 0.020383941 0.11546101 0.008451552 0.021408482
0.02831468 -0.107483186 0.04228303 -0.14221513 0.12518123 0.055611413 -0.088741586 0.07036608
0.120865 0.08906468 0.10709892 0.0088364985 0.2506956 0.0297866 -0.047654815 -0.047158707
0.18134922 -0.01676766 -0.08566369 0.030645518 0.06664217 -0.04457493 -0.059992563 -0.14154722
-0.10255585 -0.109069884 -0.050157066 0.008989542 -0.0069256453 -0.11402422 -0.05193325 -0.007841282
-0.06631319 0.22063816 0.006514691 0.061718646 -0.102469206 0.030242208 -0.14631382 0.04669254
0.20563443 -0.01697569 0.20464589 -0.081649765 0.09754471 0.0014994452 0.04298293 0.09303824
0.011222901 -0.040656634 -0.11391267 -0.097262286 0.030328713 -0.10554438 0.056132972 0.13217029
-0.053631853 -0.038209155 0.024879249 0.07574304 0.040153403 0.03901693 -0.037106343 -0.05851756
0.12057947 -0.10517996 -0.045633722 -0.013313907 0.13577892 0.018653668 0.15923281 0.102019854
-0.0015979649 -0.0735563 -0.024523808 -0.026753338 0.08754747 -0.021824462 0.014229464 -0.052331947
-0.030588565 0.13113473 0.0525581 0.14616777 -0.050970584 0.020736594 -0.034813087 0.0024958164
0.014138525 0.113965884 0.11242969 0.04006264 -0.112875834 0.08570393 -0.16692407 -0.052339487
0.023482742 0.0861567 -0.029354285 0.043391343 0.0335676 -0.019852405 0.12236562 -0.005046745
0.040232398 -0.1630858 -0.013357298 0.01522113 -0.10046759 0.00934094 0.07597185 0.025773546
-0.08071692 0.009430698 -0.093627244 -0.13773721 -0.1223611 -0.1787059 0.074329935 -0.09627015
-0.04975421 0.028995901 -0.15535152 -0.047626182 -0.05261591 -0.064220704 0.15313503 0.030702267
-0.106943384 0.038474325 0.10248941 0.043691963 0.093384646 -0.12733038 -0.091225676 -0.039233766
0.04588658 0.029526131 0.12604645 0.07204951 -0.04998655 0.16264181 -0.1094081 -0.10756732
-0.02422158 -0.06436535 0.2328696 0.102610834 -0.12905672 -0.11255412 0.01394169 -0.25156897
-0.14258963 -0.15775725 0.01986893 0.12222664 0.07087816 0.010959733 -0.25076845 0.16007361
0.013419391 0.023653228 -0.045588817 0.020640291 -0.04598964 -0.17826773 -0.10118999 0.033147376
0.11692691 0.16642083 -0.21794176 -0.077048264 0.1715975 0.10221168 0.22658546 0.027331786
0.00019397102 -0.14934538 -0.054668467 -0.083939746 -0.07837495 0.046677127 0.07493266 -0.056609645
0.09099549 0.16734588 0.20440488 -0.113402456 0.030973155 0.029283438 -0.07876343 0.033248603

l2.bias f4 [100]
00000000: fdc4 073d de32 2ebe 7e63 043e e5b9 403c
00000010: 6838 8ebd afa5 f83d 9a05 d63c 04ec 22be
00000020: 332d 18be 2cac f0bc 5c3d 183d 3e86 3c3e
00000030: 8457 473d b303 303d d874 d83d cd44 fa3d
00000040: d148 5ebb 5390 673c 56ec 8e3e 7c5a 913c
00000050: 1403 0c3e c04c 88bd 24f4 6f3d f6d9 843d
00000060: 58f7 b3bd f70a 113d f02a 6cbc 6a8c 0dbe
00000070: 3c0c 5d3d f314 45bd d9d0 c6bb 714f 07bd
00000080: b7d5 803c a0d9 da3b a555 1bbe 6219 273d
00000090: 2599 183e b8df 51bc ec57 283d 4d2b 84bd
000000a0: 47f8 86bc 360a 90bd 14ab f3bc 9807 aa3c
000000b0: 06ec 61bd 2c2a 08bd d0a3 94bc 84d4 c2bd
000000c0: 504e ef3a f5f9 023d fb6d 9e3c 4859 3fbd
000000d0: 792b b83d 002c 7c3d a48a 0e3c 0c51 a739
000000e0: 8b34 bfbd eb28 8e3d 6e79 03bd e0ec e53d
000000f0: bdba 1ebe 8635 64be 0422 ec3d 4ae8 1f3e
00000100: 0081 06bd 0f8c d2bc e54f 9cbc 57c6 8a3d
00000110: 04d6 863d 7546 3ebd 0bf8 2dbe e323 883c
00000120: 3f9a 8d3d f2bf c9bc b6d0 1d3d 5f35 273d
00000130: bddd 60be cf0b 163e 6cd8 b13c 56fb 943c
00000140: de10 0e3d 049c 4cbc 4d88 803b 5f13 1f3e
00000150: 9fdb f6bc 9ca3 a53c f62a 5abd 9ad2 863c
00000160: 5376 b83c bac8 e83c 8d1e 9bbe a301 c63d
00000170: 665a 2dbc dd6b 31bd 5c11 d7bc b40a 9bbc
00000180: c334 f2bd ed66 72bd 35d7 3fbe 0963 843d
0.033146847 -0.17011592 0.12928578 0.011763071 -0.069443524 0.12140977 0.026125718 -0.15910345
-0.14860992 -0.029378973 0.03716789 0.18410584 0.048667446 0.042972278 0.10569161 0.12220154
-0.0033917914 0.014133531 0.27914685 0.017743342 0.13673049 -0.06655264 0.05858244 0.06486885
-0.087874115 0.035410848 -0.014414534 -0.13823095 0.053966746 -0.04811568 -0.006067377 -0.033034746
0.015726907 0.006678775 -0.1516939 0.04079569 0.1490217 -0.012809686 0.041099474 -0.064535715
-0.01647581 -0.070331976 -0.029744662 0.020755574 -0.05515673 -0.033243343 -0.018144518 -0.095131904
0.0018257592 0.03197666 0.019339552 -0.046716005 0.08992667 0.0615654 0.008700047 0.00031913107
-0.09336194 0.06941398 -0.032098226 0.11226821 -0.15500923 -0.22286043 0.115299255 0.15615955
-0.032837868 -0.02570155 -0.019081065 0.067761116 0.06583789 -0.04645391 -0.16989152 0.016618675
0.06914186 -0.02462766 0.03852912 0.040822383 -0.21959586 0.14652942 0.021709643 0.018186253
0.034684055 -0.012488369 0.0039224983 0.15534733 -0.03013402 0.020219617 -0.053263627 0.016457845
0.022517359 0.028416026 -0.30296746 0.09668281 -0.010580635 -0.043315757 -0.026253395 -0.018926002
-0.1182647 -0.05918019 -0.18734439 0.06464202

l3.weight f4 [18, 100]
00000000: 5c3c ab3d 827d 63bd dee8 e2bc 11e8 1a3e
00000010: 71e2 3ebe c1c4 643c 1ae6 0fbe 9dd0 4c3d
00000020: 00db 763c 10af a2bd 0fd6 523d 76b2 f03d
00000030: 1906 8f3d 3afd 4c3d cc43 07be 4ef1 953d
00000040: a544 a53d c4f1 c4bd ff1f cfbd 2c89 bf3d
00000050: e78c 5ebc a8c3 32bd 2e90 1e3e 27cf c9bc
00000060: 60e7 82be cb54 f2bd 6f8e f6bc 2a04 7cbe
00000070: 27dd 063e fcbd 913d 1373 dcbc ac8d eebb
00000080: 7a07 8a3e 45b3 84be 2a14 c5bd 3fdb 21be
00000090: a73b ed3c 05bf d3bb 45de 3e3e 326d f2bc
000000a0: f755 893b 8c5b 283e 4bbd 99ba 4bb6 f73d
000000b0: b597 89bd c4d5 17bb 10ae 493e b358 063d
000000c0: 8a9c 1d3e 10fa 43be ef2e 2a3d 742b 5fbe
000000d0: 4181 2bbe 9ff3 01be ec98 a3bd ce95 24be
000000e0: c53a 9c3c 5c28 c5bd acb3 08be af8b 8abd
000000f0: 1b4e 723e a7f3 393e 3082 223d 9cb5 b4bb
00000100: 0382 b43d ad61 58be e21a 6c3e 16ce 853d
00000110: f7fa edbd 5776 093e 84c4 64be 500f 713d
00000120: 7507 7c3d 6e4c ec3d 5a2c 0b3d ac1f 0abe
00000130: 808a 3c3e 3ad5 da3b 3cc0 91be a784 cfbc
00000140: 90ca 803e 87cb 24be 3777 a23d 7d7d cebb
00000150: b988 9ebd 5da5 a63d 2008 77be 2915 06be
00000160: 56eb 19be f5dc 5fbe 058e 6e3e 77d9 963d
00000170: 5c6d 0b3e 6ff4 e83d 01f3 8b3d ab3a a2bd
00000180: b0cc 353d 33d6 bc3c 5b59 113c 363d 62be
00000190: 5cf5 483d beda 22be 69ce 9a3d 0add a83d
000001a0: 8463 af3d 3755 5e3c 8865 f03d 3ae9 7bbe
000001b0: 0427 5bbe d597 853d 2640 9e39 cd5f 8e3d
000001c0: ee4d bf3d 156f ee3d 39ef b83e 9a12 c7bb
000001d0: 9b9c 93bd d365 36bd f170 1b3e 090a ecbd
000001e0: 6c7b f43d 1ae5 653d 96b4 193e 53c9 c33b
000001f0: 03df 6cbe 4c54 e63d e3ee 08be 1dd0 2d3d
00000200: 7d0b 1cbe 8449 34bd e724 6d3e 122e 6abd
00000210: 5495 033e e801 973d a8e9 0f3d d491 c53d
00000220: 28d7 793b 41df 5a3c d13d 06bd 1205 dd3d
00000230: c782 95bd 78c2 27be c936 babd a673 a83e
00000240: 3942 5b3d 913f b73c b430 d5bc 64c7 103d
00000250: dc48 4d3d ca38 2cbe 53a8 ca3d 4adb d9bd
00000260: 1cb5 a93e c683 a33d a14c ae3e 4728 b63b
00000270: 26ad f3bd a5bb 1dbd 112e 0d3c 23a8 3f3e
00000280: 2d20 babd 95e3 ff3b 851f 553e f31d 3cbe
00000290: 2899 f33c ea89 623d 49a4 17bd 8266 63be
000002a0: 0536 973e f8dc 913c 6eea 0fbe 35a6 cc3d
000002b0: 07ae 453e 4d29 2ebc d0d8 0f3e 7020 a93d
000002c0: d804 8bbe f8f6 edbd 0f0e 053c 2aa2 173e
000002d0: a1d7 ad3c 7fc8 3b3e f09a 27be 8889 593e
000002e0: 9b93 6e3d 0235 963d 6397 1fbe 3993 0f3d
000002f0: d6d0 de3d c9fa 56bd f16d 05be 927f 053d
00000300: 5a43 39bd 468c 8d3d 744a c5bd 4878 58be
00000310: 2b57 cebc 5270 40be 63da 09be c00d 3f3e
00000320: 5591 0dbe 3021 b13d d15a 0f3e 9356 43bd
00000330: bc1e c0bd 844a 4a3e 15b6 31bd a86e 8ebc
00000340: 1dd7 5d3e f4e6 21bd d707 64bd 2f14 adbb
00000350: dec0 193e b0f5 9cbd e9bc 21bd 9aea 86bd
00000360: 1ae0 383e 9d2f c53d 08e1 3c3e 43c7 863c
00000370: ab18 5cbd ae51 8dbc 737b 343e 21ba 10bd
00000380: bfbd 87bd 33fe 803d ec04 a43c e005 4f3d
00000390: 54b6 52bb d867 5739 e6e2 a3bd b238 a9bd
000003a0: 6cf3 05be 9535 58be 9bc7 d83d 1310 54bc
000003b0: d6ad 9abd c779 32bb 56cf 0dbc 086c 02be
000003c0: 1854 d83d a1dd 283e 6828 6bbc 9b2a 28be
000003d0: 4953 1dbd 535d a5bd 31db 2abe 39fc d0bd
000003e0: 0efd 9ebd 8e0e 183d cae3 10be 56cf a23d
000003f0: 010c 7fbd d296 46be 09c2 3cbe e372 703d
0.08361122 -0.055539615 -0.02769893 0.15127589 -0.18641068 0.013962925 -0.1405262 0.050003637
0.015066862 -0.07943547 0.051473673 0.11752789 0.06983585 0.050046183 -0.13209456 0.07321416
0.080697335 -0.09616426 -0.10113525 0.09352335 -0.013583398 -0.043643624 0.15484688 -0.02463491
-0.2556715 -0.11832579 -0.030097215 -0.24610963 0.131703 0.07116315 -0.02691034 -0.007280072
0.2695883 -0.25918022 -0.096229866 -0.15806292 0.028959109 -0.0064619803 0.18639477 -0.029593084
0.004191156 0.16441172 -0.0011729387 0.120953165 -0.06718389 -0.0023168186 0.19695306 0.032799434
0.15391746 -0.1913836 0.041548666 -0.2179392 -0.16748525 -0.1269059 -0.07988152 -0.16072771
0.019070992 -0.096268386 -0.1334979 -0.06764924 0.23662607 0.18159352 0.039674938 -0.0055148136
0.0881386 -0.2113101 0.2305713 0.065334484 -0.11620133 0.1342405 -0.2234059 0.058852494
0.06153055 0.11538015 0.033977844 -0.13488644 0.18412209 0.0066782506 -0.28466976 -0.025331808
0.25154543 -0.16093265 0.07932895 -0.0063015805 -0.077409215 0.08137009 -0.24124193 -0.1309401
-0.1503118 -0.21861632 0.23296364 0.07365697 0.13615936 0.11374747 0.06833459 -0.07921346
0.04438466 0.023051357 0.008871402 -0.22093663 0.049062118 -0.15903756 0.07558901 0.08245285
0.08563903 0.0135701215 0.117381155 -0.24600688 -0.21401602 0.065231 0.00030183903 0.06951866
0.09341036 0.11642281 0.36120012 -0.0060752155 -0.072076045 -0.0445307 0.15179802 -0.115253516
0.11937603 0.05612669 0.15010294 0.0059749275 -0.23131947 0.11246547 -0.13372378 0.0424348
-0.15238757 -0.044015422 0.23158608 -0.057172842 0.12849933 0.073734105 0.03513494 0.09646955
0.0038122628 0.013358892 -0.032773796 0.10791983 -0.073003344 -0.16382778 -0.09092481 0.32900733
0.05352995 0.022369178 -0.0260242 0.035346404 0.050118312 -0.16818538 0.098953865 -0.10637529
0.33145988 0.07984118 0.34042838 0.0055590007 -0.1189826 -0.03850903 0.00861694 0.18716483
-0.09088168 0.0078091123 0.20812805 -0.183708 0.029736117 0.055307306 -0.03702191 -0.22207072
0.295334 0.017805561 -0.14054272 0.09992639 0.19304667 -0.010629964 0.14047551 0.0825814
-0.27152133 -0.11619371 0.008121028 0.14807954 0.021220984 0.18338202 -0.16367698 0.2124387
0.058246236 0.07334329 -0.15585093 0.03505251 0.10879676 -0.05248526 -0.1303022 0.032592364
-0.045230247 0.06911521 -0.096333414 -0.21139634 -0.02518805 -0.18792847 -0.13462214 0.18657589
-0.13824971 0.08648908 0.13999487 -0.047689985 -0.09380862 0.19754988 -0.043386538 -0.01738675
0.2166409 -0.039526895 -0.05567154 -0.005281947 0.15014979 -0.07664049 -0.0394868 -0.065877154
0.18054238 0.09628222 0.18445218 0.016452437 -0.053734463 -0.017250862 0.17625217 -0.035333756
-0.06627988 0.06298485 0.020021878 0.050542712 -0.0032152133 0.00020542683 -0.08002262 -0.08262767
-0.1308114 -0.2111419 0.10584947 -0.0129432855 -0.07552688 -0.002723323 -0.00865539 -0.12736523
0.105629146 0.16490795 -0.014352895 -0.16422503 -0.038409505 -0.08074441 -0.16685177 -0.10204358
-0.0776311 0.037123255 -0.14149395 0.079497024 -0.062267307 -0.19393471 -0.18433394 0.058703315

l3.bias f4 [18]
00000000: 6751 7d3e 3597 f3be a585 17bd 15e7 1c3f
00000010: 1fb7 f6bd d33a a8be 4ba9 273e cbe2 c0be
00000020: 9efa 583e 6698 933e 5aa3 863e 5c93 c83c
00000030: f97e 9b3e ad04 d4be ba81 9e3e 5cf9 603e
00000040: 3a91 60bd 3b5a edbb
0.24738084 -0.475763 -0.036992688 0.61290103 -0.12046646 -0.3285738 0.16373174 -0.3767303
0.21189353 0.28827208 0.26296502 0.024484329 0.3037031 -0.41409817 0.3095835 0.21970123
-0.054826 -0.0072434223
