LARA/data/result/g_60.pt (torch, 87406 bytes, 7 tensors)

G_attr_matrix.weight f4 [36, 5]
0	0x3df512da	0.11966486
1	0xbdcc7365	-0.09982947
2	0xbeeae41b	-0.45877156
3	0x3e36fb49	0.17869295
4	0x3d65c717	0.05609807
5	0xbe104032	-0.14086989
6	0x3e18cd25	0.14922006
7	0x3e486df2	0.19573191
8	0x3d087228	0.033311993
9	0xbdd51306	-0.10404019
10	0xbdf92a48	-0.12166268
11	0xbb8205f6	-0.0039679958
12	0xbd297305	-0.041369457
13	0x3dc8fe4f	0.098141305
14	0xbcc6c7e9	-0.024265246
15	0xbda434ec	-0.080179065
16	0xbce306e9	-0.027713256
17	0xbd8429a1	-0.064532526
18	0x3bc83c26	0.006110686
19	0xbb87e7df	-0.0041475142
20	0x3d94655b	0.072458945
21	0xbe7758ff	-0.24155043
22	0xbc82f762	-0.015987102
23	0x3d099f2a	0.033599056
24	0x3e115b2b	0.14194934
25	0x3e0cd626	0.13753566
26	0xbd823af5	-0.063589014
27	0x3c561e53	0.013068753
28	0x3e1f316e	0.155462
29	0xbdb72c56	-0.08944003
30	0xbc382b25	-0.011240755
31	0xbd253df9	-0.040342305
32	0x3db5570c	0.088544935
33	0x3e272864	0.16324002
34	0x3eac04b3	0.33597335
35	0x3e8e2da6	0.27769202
36	0x3e0517ac	0.12997311
37	0x3e7e2ab7	0.24820982
38	0x3e490479	0.19630612
39	0x3d0698e2	0.032860644
40	0x3d9ae4ce	0.07563172
41	0x3bfcb94a	0.007712518
42	0xbb77ce96	-0.0037812344
43	0xbd76a35a	-0.060214378
44	0xbe45cd28	-0.19316542
45	0x3d98898c	0.0744811
46	0xbc96c3e3	-0.018403953
47	0xbb5ab0c3	-0.0033369518
48	0x3db53523	0.08848026
49	0x3e59bdfb	0.21263878
50	0x3ec54f14	0.38536894
51	0x3c9b923a	0.018990625
52	0x3cf6d526	0.030130934
53	0xbe726e59	-0.23674907
54	0xbc7ea2a3	-0.015541705
55	0x3d946ff8	0.07247919
56	0xbe416e28	-0.18889678
57	0xbe62ddf5	-0.22154982
58	0xbcb424bd	-0.021990174
59	0x3e3c70a8	0.1840235
60	0x3c12275c	0.008920517
61	0x3e3bb771	0.18331696
62	0x38a7068f	7.964402e-05
63	0xbb07b568	-0.0020707492
64	0x3e253738	0.16134346
65	0xbe21db7f	-0.15806387
66	0x3dd950ec	0.10611138
67	0xbd96b757	-0.07359188
68	0xbda8342c	-0.08213076
69	0x3e64fa2b	0.22361057
70	0xbce46467	-0.027879907
71	0xbdb5c973	-0.08876314
72	0x3e5d8df9	0.2163619
73	0x3d66bc27	0.05633178
74	0x3d65b5af	0.05608147
75	0xbec65f2a	-0.3874448
76	0x3e8cbfab	0.2748998
77	0xbdd9fe50	-0.106442094
78	0x3e978af3	0.29598197
79	0xbe3b6c6f	-0.18303083
80	0x3e9ab223	0.30214033
81	0x3d00e437	0.031467643
82	0xbe43e856	-0.19131598
83	0x3e9c789b	0.30560765
84	0xbe33b168	-0.17548144
85	0xbd8155ca	-0.06315191
86	0x3ebc3d3f	0.36765477
87	0x3f0dec40	0.55438614
88	0x3e397613	0.18111448
89	0x3dabccaa	0.08388646
90	0xbd7ae0c8	-0.061249524
91	0xbeca1966	-0.39472502
92	0xbba033e2	-0.0048889974
93	0x3e448ac2	0.19193557
94	0xbe4522f8	-0.19251621
95	0xbe1b1393	-0.15144186
96	0x3cea696f	0.028614728
97	0xbdf95544	-0.12174466
98	0x3e928295	0.2861525
99	0xbd3aa706	-0.045569442
100	0xbea4b545	-0.32169548
101	0xbc279081	-0.0102273235
102	0x3b86dfec	0.004116049
103	0x3c77c8c8	0.015123554
104	0xbbf1fd2e	-0.0073849177
105	0xbe7161ed	-0.23572512
106	0x3df82a56	0.1211745
107	0xbe3ecd8d	-0.18633099
108	0x3e2bef15	0.16790421
109	0x3d31173a	0.04323504
110	0x3d5debdf	0.054180022
111	0xbbd93f07	-0.006629828
112	0x3c4f269e	0.012643484
113	0x3c92903e	0.017891046
114	0x3dd922e5	0.10602359
115	0x3d9f6fb9	0.07784981
116	0x3e50c961	0.2038932
117	0x3e03e30b	0.12879579
118	0xbdff3e40	-0.12463045
119	0x3d7eb688	0.062185794
120	0x3f212a51	0.62955195
121	0xbcc01876	-0.023449164
122	0x3da30b6c	0.07961163
123	0xbeb4aced	-0.35288182
124	0xbd911a1a	-0.070850566
125	0x3e839696	0.25700825
126	0xbe1aad36	-0.15105137
127	0xbc0aa05b	-0.008461083
128	0xbea6a551	-0.32548
129	0x3e05a9d4	0.13053066
130	0x3d28d68b	0.04122023
131	0x3dc0cca0	0.09414029
132	0xbd330b36	-0.043711863
133	0x3e755a19	0.23960151
134	0xbd7c6b32	-0.061625667
135	0xbe881af0	-0.26583052
136	0xbedcb780	-0.4310875
137	0x3e5e283a	0.21695033
138	0x3ee487b2	0.44634777
139	0x3ea2e578	0.31815696
140	0xbce2b0f8	-0.027672276
141	0xbd1bc67c	-0.038031086
142	0x3c313b05	0.010817294
143	0x3cffbca5	0.031217882
144	0xbd6882db	-0.05676542
145	0x3dbc52a8	0.09195453
146	0xbcdfbf10	-0.027312785
147	0xbc5e36f0	-0.013562903
148	0x3c777794	0.015104193
149	0x3de1bae0	0.11021972
150	0xbc1a53f2	-0.009419428
151	0xbdef6b88	-0.11690432
152	0x3b2456a1	0.002507605
153	0xbd7c6e7a	-0.061628796
154	0xbe1a5a00	-0.15073395
155	0x3c8f96ef	0.017528025
156	0xbe13d8dc	-0.14438194
157	0xbd4e665e	-0.050390594
158	0x3e707d0a	0.23485199
159	0x3e9d3ba9	0.3070958
160	0xbd238904	-0.03992559
161	0xbadb214a	-0.0016718295
162	0x3e4d6cc9	0.2006103
163	0xbc1327d7	-0.0089816665
164	0xbc0f5bde	-0.00874993
165	0x3e06df3d	0.13171096
166	0x3e45f148	0.19330323
167	0xbe71ac1f	-0.23600815
168	0x3c1763de	0.009240119
169	0x3e2e05b0	0.16994357
170	0x3e20f0cf	0.15716861
171	0xbb85ed7f	-0.0040871496
172	0x3e4cc847	0.19998275
173	0x3eda87dd	0.4268178
174	0x3e7ba41c	0.24574322
175	0x3e08f9ec	0.13376588
176	0x3d336abd	0.043802965
177	0xbe4a16b3	-0.19735222
178	0xbdf48033	-0.119385146
179	0x3e230f8a	0.15923896

l1.weight f4 [100, 90]
0	0x3e333280	0.17499733
1	0x3c131feb	0.008979778
2	0x3dcc1b0f	0.099660985
3	0x3dc65ab7	0.09685271
4	0x3d10bd4f	0.03533679
5	0x3d59cc1f	0.05317318
6	0x3daa2abb	0.083089314
7	0x3d4199fc	0.04726599
8	0xbe821070	-0.25403166
9	0xbe3f3567	-0.18672715
10	0x3d02e173	0.031953286
11	0xbe3ff4ee	-0.18745777
12	0xbe09244c	-0.13392752
13	0x3d1b37c6	0.037894987
14	0xbd14583a	-0.036216952
15	0x3cbaa637	0.022784336
16	0xba386794	-0.00070344773
17	0xbd56e795	-0.052466948
18	0xbd2aacb3	-0.041668605
19	0x3db31180	0.08743572
20	0x3e5978fd	0.2123756
21	0x3c41debb	0.011832888
22	0x3d45ac71	0.048260156
23	0xbd1e87d9	-0.038703773
24	0x3da3c533	0.07996597
25	0x3d4bbfbf	0.04974341
26	0x3e52a7a8	0.20571768
27	0x3cc7a288	0.024369493
28	0x3e300b61	0.1719184
29	0xbd35339f	-0.044238683
30	0x3e3a3bc7	0.18186866
31	0xbe17b7ce	-0.1481621
32	0xbe30b556	-0.17256674
33	0xbd9b21ce	-0.07574807
34	0xbdcab9f0	-0.09898746
35	0x3d5d7399	0.05406532
36	0x3e0e6398	0.1390518
37	0xbcab5394	-0.020913877
38	0xbde659cb	-0.112475954
39	0x3e4159ae	0.18881866
40	0xbcf29ae4	-0.029614873
41	0xbdab2e18	-0.08358401
42	0x3e04051e	0.12892577
43	0x3cbe5312	0.02323297
44	0x3c836dfa	0.016043652
45	0x3da78e95	0.08181492
46	0xbde1e222	-0.110294595
47	0xbb2c1e14	-0.0026263045
48	0x3d1d4b71	0.038402025
49	0xbd713408	-0.05888751
50	0x3e034dfa	0.12822714
51	0xbe8fc555	-0.2808024
52	0x3e1445a0	0.14479685
53	0xbd0de758	-0.034644455
54	0xbde7235e	-0.11286043
55	0x3d3aac8d	0.045574713
56	0xbd872ac0	-0.06599951
57	0xbd527fc3	-0.051391374
58	0x3d0b29dc	0.033975467
59	0x3df177d3	0.11790433
60	0xbd20809a	-0.039185144
61	0xbca14f35	-0.01969109
62	0xbb312df3	-0.0027035445
63	0x3d454383	0.048160087
64	0xbda06c82	-0.07833196
65	0xbdbc319b	-0.09189149
66	0x3d25b08f	0.040451583
67	0xbe261138	-0.16217506
68	0xbca33754	-0.019923843
69	0xbe1d648b	-0.15370385
70	0xbdf5c422	-0.120003
71	0x3da5bbc6	0.080924556
72	0x3dc20484	0.094735175
73	0x3e6a26b3	0.22866325
74	0xbdf3b416	-0.11899583
75	0x3bfb7a43	0.007674487
76	0xbe481df8	-0.19542682
77	0x3ba79dc4	0.0051152427
78	0xbdad402e	-0.08459507
79	0x3c4c4620	0.012467891
80	0xbce62ef8	-0.028098568
81	0xbdd12d9e	-0.10213779
82	0x3d5e9d6f	0.05434936
83	0x3c30881d	0.010774639
84	0xbe6972b8	-0.22797668
85	0x3d6efebd	0.058348406
86	0xbd96f893	-0.073716305
87	0xbd9f0463	-0.077645086
88	0x3d2ab4fc	0.041676506
89	0x3e221f71	0.15832306
90	0x3e9068c6	0.28204936
91	0xbdd40b33	-0.103536986
92	0xbd97b226	-0.07407026
93	0xbcf3221e	-0.029679354
94	0xbe0f744e	-0.1400921
95	0x3d125c56	0.03573259
96	0x3e73a11e	0.2379193
97	0xbd07c02b	-0.03314225
98	0x3d8e761c	0.06956121
99	0x3d56cb52	0.052439995
100	0x3d33df3a	0.043914057
101	0xbd14d7ef	-0.036338743
102	0xbdb141df	-0.08655142
103	0xbd6e68de	-0.058205478
104	0xbdc8d098	-0.09805411
105	0xbe382904	-0.17984396
106	0x3d9f6dc9	0.07784612
107	0xbe402bec	-0.18766755
108	0x3d83e242	0.0643964
109	0x3d746090	0.0596624
110	0x3d71528c	0.058916613
111	0xbd44a625	-0.04801001
112	0xbbbeff10	-0.0058287457
113	0xbc1495f9	-0.009068959
114	0x3d1b497a	0.03791187
115	0x3d4164d8	0.047215313
116	0x3e19f98f	0.15036605
117	0x3c4ba267	0.012428856
118	0xbd02dd61	-0.031949405
119	0xbd524996	-0.05133971
120	0x3cf905d9	0.030398296
121	0xbcf20add	-0.029546196
122	0xbcc866c9	-0.024463074
123	0xbcd96a5f	-0.02653998
124	0xbe294001	-0.16528322
125	0xbc1b08cd	-0.0094625475
126	0xbd681714	-0.056662634
127	0x3d91196f	0.07084929
128	0x3d18b0ff	0.03727817
129	0x3d65eaa9	0.056131992
130	0xbd07b301	-0.033129696
131	0x3d7fbbf1	0.062435094
132	0xbe065392	-0.13117817
133	0x3c664d87	0.01405657
134	0xbe557fff	-0.20849608
135	0xbdaeea88	-0.08540827
136	0x3d843040	0.064545155
137	0xbdd1af18	-0.102384746
138	0x3b97ab9c	0.0046286117
139	0xbcc53d78	-0.024077162
140	0x3daf42e2	0.08557679
141	0xbe20d05f	-0.15704487
142	0xbe8234dd	-0.25430956
143	0xbde6bc7f	-0.112664215
144	0xbd48325f	-0.048876163
145	0x3e176aff	0.1478691
146	0x3dd40907	0.10353284
147	0x3d74b1df	0.059739944
148	0x3d70da1b	0.05880175
149	0xbdc1b925	-0.09459142
150	0xbcca7b4b	-0.024716994
151	0x3cc5f99c	0.024166875
152	0xbd91f084	-0.07125953
153	0xbcfdf386	-0.03099991
154	0xbc5a55e8	-0.013326146
155	0xbde097a1	-0.10966421
156	0xbd3c64f3	-0.04599471
157	0x3af70a34	0.0018847645
158	0x3cd93801	0.026515963
159	0x3e315e6d	0.17321177
160	0xbe329f7c	-0.17443651
161	0x3dcba601	0.09943772
162	0xbe2099a5	-0.1568361
163	0xbd6805a2	-0.056645997
164	0x3d8b2f9d	0.06796191
165	0xbc887932	-0.016659353
166	0x3ce8c172	0.028412554
167	0xbe14e46a	-0.14540258
168	0x3e25e384	0.16200072
169	0x3d5d5250	0.054033577
170	0x3d647265	0.055773158
171	0xbd87810b	-0.0661641
172	0xbd142d9d	-0.036176313
173	0xbab77bdb	-0.0013998704
174	0xbcb675c9	-0.022272961
175	0xbde4e030	-0.11175573
176	0xbe8f1267	-0.27943727
177	0x3df5a306	0.11993985
178	0xbdcc03ca	-0.0996166
179	0xbce64fd0	-0.02811423
180	0xbc3c891a	-0.011507297
181	0x3e0fe539	0.14052285
182	0x3ce20f1c	0.027595095
183	0xbe5d0c51	-0.2158673
184	0xbc7aa39d	-0.0152977975
185	0xbe228afd	-0.15873332
186	0xbdeb68fd	-0.11494634
187	0x3d71f650	0.059072793
188	0x3cd7a9c3	0.026326066
189	0xbd964da7	-0.0733903
190	0x3d9dc4d7	0.0770356
191	0xbe326e8d	-0.17424984
192	0xbe075539	-0.13216104
193	0x3e10838a	0.14112678
194	0xbd1cd540	-0.03828931
195	0xbcb85bf8	-0.022504792
196	0xbb2dd93d	-0.002652719
197	0x3dddfb1d	0.10838912
198	0x3d260060	0.0405277
199	0x3cfd5a79	0.03092693
200	0xbe26c54c	-0.162862
201	0x3e0e042b	0.13868777
202	0xbe3e3089	-0.18573202
203	0x3e103506	0.14082727
204	0x3eaced43	0.33774766
205	0x39724716	0.000231054
206	0x3bb7ad0d	0.005605346
207	0xbcefe1c2	-0.029282454
208	0xbda91257	-0.08255451
209	0x3d1bbeed	0.038023878
210	0x3d9e1e7f	0.077206604
211	0xbb660494	-0.0035097944
212	0x3c94d653	0.018168604
213	0x3d98e2f5	0.074651636
214	0x3b3a793c	0.002845361
215	0x3e205ff1	0.15661599
216	0x3d09a628	0.033605725
217	0xbd85c011	-0.065307744
218	0xbd2e7379	-0.042590592
219	0xbc78260f	-0.015145793
220	0xbdf2305c	-0.1182563
221	0xbe1b7b87	-0.1518384
222	0x3d697ffc	0.05700682
223	0xbd08ecf3	-0.033429097
224	0x3e736d1c	0.2377209
225	0xbda5bcd4	-0.08092657
226	0x3e19aeba	0.15008059
227	0x3d97e55b	0.07416793
228	0x3d682a74	0.05668111
229	0x3d6a8e1b	0.05726443
230	0x3e3cd620	0.18441057
231	0xbdb7553c	-0.08951804
232	0xbc9b9c2c	-0.018995367
233	0x3d064f20	0.032790303
234	0x3cfe4471	0.031038495
235	0x3da5117e	0.08059977
236	0xbdbb45d6	-0.091441795
237	0x3c6f848e	0.014619006
238	0x3e535018	0.20636022
239	0xbcdec16e	-0.027191844
240	0x3cb8f302	0.022576813
241	0xbde32062	-0.11090161
242	0x3dda52d5	0.1066033
243	0x3d965274	0.073399454
244	0xbddc2b09	-0.10750396
245	0xbe69965f	-0.22811268
246	0xbdfe9aa7	-0.12431841
247	0xbd8c25dd	-0.06843159
248	0xbdfe945e	-0.124306425
249	0x3d6b0627	0.057378914
250	0x3e1932b2	0.14960745
251	0x3db3692d	0.08760295
252	0xbe18302b	-0.14862125
253	0xbe197a07	-0.14987956
254	0x3de59bcc	0.112113565
255	0x3d85735e	0.06516145

l1.bias f4 [100]
0	0xbd26f2e8	-0.040758997
1	0x3caf6eaa	0.021415073
2	0x3e25add6	0.16179594
3	0x3d8f5490	0.06998551
4	0x3e2c635d	0.16834779
5	0xbadec96c	-0.0016997284
6	0x3e63bed1	0.2224076
7	0xbd55331e	-0.052050702
8	0xbd1e9303	-0.03871442
9	0xbd9977be	-0.07493542
10	0xbd9662ee	-0.07343088
11	0xbe03f1ec	-0.12885255
12	0xbcf63314	-0.030053653
13	0x3ca7c90e	0.020481613
14	0xbd6672be	-0.05626177
15	0x3e04f66e	0.1298463
16	0x3d0f0e6a	0.034925856
17	0x3d415f27	0.047209885
18	0xbdc548f8	-0.09633058
19	0xbc16b131	-0.009197519
20	0x3e5ac866	0.21365508
21	0xbd39e887	-0.04538777
22	0xbcc77255	-0.02434651
23	0x3e20810d	0.15674229
24	0x3d07f770	0.03319496
25	0x3e2d94a9	0.1695124
26	0xbd47c7f3	-0.04877467
27	0xbe083e3f	-0.13304995
28	0xbc08b157	-0.008343062
29	0xbeb73b73	-0.35787544
30	0x3d96d035	0.07363931
31	0x3df9e62c	0.12202105
32	0xbe3d2aec	-0.18473405
33	0xbe8ecbb4	-0.27889788
34	0xbe68e8ab	-0.22745006
35	0xbca1f622	-0.019770686
36	0x3c03a9e7	0.008036113
37	0x3e2fbb33	0.17161255
38	0xbc8aff25	-0.016967366
39	0xbd952e1b	-0.072841845
40	0xbe82b6ab	-0.2552999
41	0x3e90a446	0.2825033
42	0xbe144c16	-0.1448215
43	0x3c7d2f34	0.015453149
44	0xbd48f551	-0.049062077
45	0xbd097b61	-0.03356493
46	0xbc91dc77	-0.017805321
47	0xbcb46ae4	-0.022023626
48	0xbda436bf	-0.080182545
49	0xbe5c2e61	-0.21502067
50	0xbc81d002	-0.015846256
51	0x3e30967c	0.17244905
52	0x3df8067c	0.12110612
53	0xbe4c3106	-0.19940576
54	0xbca4e8ee	-0.0201306
55	0xbd93395d	-0.071886756
56	0xbd17595b	-0.03695045
57	0x3d620a93	0.055185866
58	0xbd2921e0	-0.04129207
59	0xbd99539b	-0.074866496
60	0xbe348dec	-0.17632264
61	0x3d927cf2	0.07152738
62	0xbcab5fb9	-0.020919668
63	0x3e0d79fa	0.13816062
64	0x3df3a271	0.118962176
65	0xbe19dc1d	-0.15025373
66	0xbc69d83e	-0.014272748
67	0x3dca3bd5	0.09874693
68	0xbd00d157	-0.031449642
69	0x3caf8ce9	0.021429496
70	0x3deb1417	0.11478441
71	0xbdbecb52	-0.09316124
72	0xbe1aaf4f	-0.15105937
73	0x3e6cf47c	0.23140138
74	0x3dd41874	0.103562266
75	0x3d3c15b8	0.04591915
76	0xbe52f14f	-0.20599864
77	0xbd8c5588	-0.06852251
78	0xbe78ab78	-0.2428416
79	0xbdd2031a	-0.10254498
80	0x3d127dd4	0.03576453
81	0xbe0ee21b	-0.1395344
82	0xbd2b52a2	-0.04182685
83	0x3d56c099	0.05242977
84	0x3d275636	0.0408537
85	0x3ba4bd40	0.005027443
86	0xbda78e0b	-0.081813894
87	0x3d395a18	0.045251936
88	0xbe1dca79	-0.15409268
89	0xbd031d28	-0.032010227
90	0x3e299c95	0.16563638
91	0x3db87ba8	0.090079606
92	0xbd0fd380	-0.03511381
93	0x3d276481	0.040867332
94	0x3e151457	0.1455854
95	0xbd947e7d	-0.07250688
96	0x3b8323e2	0.0040020803
97	0xbe02bd5c	-0.12767547
98	0xbe27d159	-0.16388454
99	0x3cb74bfd	0.022375101

l2.weight f4 [100, 100]
0	0x3cc93c07	0.024564756
1	0x3e2a9348	0.16657746
2	0xbcb8c2c9	-0.022553818
3	0xbd25f882	-0.0405202
4	0xbd61e327	-0.05514827
5	0x3dd23fe2	0.10266091
6	0xbcb73a2d	-0.022366608
7	0x3d5112e6	0.051043414
8	0xbdf5936d	-0.1199101
9	0xbdeedddf	-0.11663412
10	0x3d1b65ec	0.037938997
11	0xbd951098	-0.07278556
12	0x3c4354b6	0.011922052
13	0xbc18e183	-0.00933111
14	0x3cb0c2b0	0.02157721
15	0xbbfef19f	-0.0077802683
16	0xbe5e11ca	-0.21686473
17	0xbdb30eca	-0.08743055
18	0x3d327328	0.043566853
19	0x3e42ebf8	0.19035327
20	0x3b364128	0.0027809832
21	0x3df94b98	0.121726215
22	0x3d1a86ff	0.0377264
23	0x3d3976a2	0.045279153
24	0x3dbcc6ea	0.09217627
25	0x3d165b9a	0.03670845
26	0xbe815076	-0.252567
27	0xbe3a9a10	-0.18222833
28	0xbe08aa00	-0.133461
29	0xbe0e2622	-0.13881734
30	0x3df57317	0.11984842
31	0xbdc9b833	-0.09849586
32	0x3dfbba60	0.122914076
33	0x3c028bdb	0.007967914
34	0x3d6079ab	0.05480353
35	0x3ce24148	0.02761902
36	0xbd2d87cb	-0.04236583
37	0x3cabd38c	0.020974897
38	0xbdb12fa9	-0.086516686
39	0x3d87a648	0.066235125
40	0x3d0932ca	0.0334957
41	0x3d9f5ba3	0.0778115
42	0xbd038610	-0.032110274
43	0xbd66c068	-0.056335837
44	0x3dc98c2c	0.09841189
45	0xbdb22f99	-0.08700485
46	0xbd8abbea	-0.06774123
47	0x3e77698d	0.24161358
48	0xbcc483f1	-0.023988696
49	0x3da3255f	0.07966112
50	0xbd6c1a54	-0.057642296
51	0x3d2ad950	0.04171115
52	0x3d787106	0.060654663
53	0xbde175f1	-0.11008824
54	0x3e305403	0.17219548
55	0x3d500edc	0.05079542
56	0xbd6e2735	-0.05814286
57	0x3d8c367a	0.06846328
58	0xbd4df8b5	-0.050286014
59	0xbcad1b7a	-0.021131266
60	0x3d506898	0.050881
61	0x3dc9b979	0.09849829
62	0xbd0bb960	-0.034112334
63	0x3bc3b1df	0.0059721316
64	0x3afd4c5a	0.0019325123
65	0xbdc30478	-0.09522337
66	0x3dc18e62	0.094509855
67	0xbd95f37a	-0.0732183
68	0x3de7b359	0.11313505
69	0x3d67317d	0.05644368
70	0xbdabebee	-0.083946094
71	0x3ca4991e	0.020092543
72	0x3e17c54c	0.14821357
73	0x3d91c712	0.07118048
74	0x3de96777	0.113966875
75	0x3dacabd2	0.084312096
76	0x3e722f25	0.23650797
77	0x3d90f597	0.070780925
78	0xbc956515	-0.018236676
79	0xbd45547e	-0.04817628
80	0x3e40ac9c	0.18815845
81	0xbc08be2f	-0.008346125
82	0xbd840097	-0.06445425
83	0xbcb8fe02	-0.022582058
84	0x3d343442	0.04399515
85	0xbd98f0af	-0.07467782
86	0xbd29b6fa	-0.041434266
87	0xbdf72af4	-0.120687395
88	0xbddc338c	-0.10752019
89	0xbdc5e692	-0.096631184
90	0xbd522c17	-0.05131158
91	0xbabeddc7	-0.0014561944
92	0x3cf62f12	0.030051742
93	0xbdf1a479	-0.11798949
94	0xbd549283	-0.051897537
95	0xbb8d587d	-0.004313527
96	0xbd716bd0	-0.05894071
97	0x3e685919	0.22690238
98	0xbaf8aa56	-0.0018971663
99	0x3d76e55c	0.060277328
100	0xbbc9e0a2	-0.0061608115
101	0x3d2e967f	0.042623993
102	0xbe1c0901	-0.1523781
103	0x3d000354	0.031253174
104	0x3e0e0316	0.13868365
105	0x3d39fbc2	0.04540611
106	0x3e52ba5d	0.20578904
107	0xbdf77704	-0.12083247
108	0x3d9c342e	0.0762714
109	0x3dfb2d45	0.12264494
110	0x3dc60f5a	0.09670897
111	0x3e14a307	0.14515315
112	0x3bff9079	0.007799205
113	0xbce15d48	-0.0275103
114	0xbc69e940	-0.014276803
115	0xbd5e355e	-0.054250114
116	0x3d3c7a93	0.046015333
117	0xbdceff52	-0.10107292
118	0x3d716e69	0.058943186
119	0x3e0a37a5	0.13497789
120	0xbd084691	-0.033270422
121	0xbd66fafa	-0.056391694
122	0x3d0e9d47	0.03481796
123	0x3d202e49	0.03910664
124	0x3cfc1558	0.030771896
125	0x3d9ffe8c	0.07812223
126	0xbc06767c	-0.00820696
127	0xbd63fa27	-0.055658486
128	0x3dc8fc8d	0.09813795
129	0xbd8591b7	-0.065219335
130	0xbd7c7f1f	-0.06164467
131	0xbd960b60	-0.07326388
132	0x3dcfc818	0.10145587
133	0xbdae759e	-0.085185274
134	0x3e3581c4	0.17725283
135	0x3dc4beb1	0.09606684
136	0xbd17e985	-0.037087936
137	0xbe137be8	-0.14402735
138	0xbc1aef22	-0.009456428
139	0xbd475728	-0.048667103
140	0x3d852877	0.06501859
141	0xbb2d5002	-0.0026445393
142	0x3cbcd232	0.023049448
143	0xbd5679c1	-0.052362207
144	0xbcd17071	-0.025566312
145	0x3e2097f6	0.15682968
146	0xbd35da10	-0.044397414
147	0x3d9cecd2	0.076623574
148	0xbd4b4377	-0.049624886
149	0x3d19a2da	0.037508823
150	0xbd5d748b	-0.054066222
151	0xbb8cf1d0	-0.0043012872
152	0x3cef9a11	0.02924827
153	0x3dd1fdde	0.102534994
154	0x3e069860	0.13144064
155	0x3d0993cc	0.033588216
156	0xbe300ca7	-0.17192326
157	0xbc49c366	-0.012314653
158	0xbe4361f5	-0.19080336
159	0xba852c22	-0.0010160247
160	0x39089c92	0.00013028298
161	0x3d37ebf3	0.044902753
162	0xbd60601a	-0.05477915
163	0x3cb1a7d6	0.021686476
164	0xb8a30d0a	-7.7748744e-05
165	0x3c0621e6	0.008186793
166	0x3dec897a	0.11549659
167	0xbcfe4a05	-0.031041155
168	0x3ddd843a	0.10816236
169	0xbe2c2b3b	-0.16813366
170	0xbc5f1b56	-0.013617357
171	0x3de0fe8d	0.10986052
172	0xbda9fef5	-0.08300582
173	0x3aaf0824	0.0013353867
174	0x3da4d587	0.080485396
175	0x3c9544db	0.01822131
176	0xbd7049e8	-0.058664232
177	0xbcc0a341	-0.023515346
178	0xbd9c4211	-0.07629789
179	0xbdec5b79	-0.115408845
180	0xbde2fa98	-0.11082953
181	0xbe1c81e7	-0.15283929
182	0x3defb0c3	0.117036365
183	0xbe151dc6	-0.14562139
184	0xbce99e50	-0.028517872
185	0xbd29934b	-0.041400235
186	0xbdb40eb6	-0.087918684
187	0xbc86f90f	-0.016476182
188	0xbd664e63	-0.0562271
189	0x3c9ce6cb	0.01915302
190	0x3e05c1ad	0.13062163
191	0x3cf66a3a	0.03007995
192	0xbe1ff758	-0.15621698
193	0x3dc8178f	0.097701184
194	0x3e29993e	0.16562364
195	0x3da74d59	0.0816905
196	0x3dbc77d5	0.09202544
197	0xbd6f27fd	-0.058387745
198	0xbcae8af9	-0.021306502
199	0xbd33e1bf	-0.04391646
200	0x3da2a827	0.07942229
201	0x3c933579	0.017969834
202	0x3e2faf13	0.1715663
203	0x3d436f42	0.047713526
204	0xbd0be77b	-0.034156304
205	0x3e10a5b2	0.14125708
206	0xbd651c24	-0.05593504
207	0xbe1d0947	-0.1533557
208	0xbc98559e	-0.018595513
209	0xbe096b92	-0.13419941
210	0x3e79a166	0.24377975
211	0x3e05981a	0.13046303
212	0xbdecdb26	-0.11565237
213	0xbe2a9ff6	-0.16662583
214	0x3d558da0	0.052137017
215	0xbe5b1aaa	-0.2139689
216	0xbdb3a86a	-0.08772357
217	0xbe168420	-0.14698839
218	0x3c94e127	0.018173767
219	0x3e396a1f	0.18106888
220	0x3e100fc1	0.1406851
221	0x3ce9cfbb	0.028541436
222	0xbe39b1cb	-0.18134229
223	0x3e1f76e0	0.15572691
224	0xbce5377d	-0.02798056
225	0x3db58242	0.08862735
226	0xbccb4864	-0.024814792
227	0x3bee46b6	0.007271613
228	0xbd823f80	-0.06359768
229	0xbe270436	-0.163102
230	0xbdc49a60	-0.09599757
231	0x3c4e9788	0.01260937
232	0x3d1fd795	0.039023954
233	0x3e2fa3b5	0.17152293
234	0xbe12b28f	-0.14325927
235	0xbd5cb2b7	-0.053881373
236	0x3e04bad6	0.12961897
237	0x3e174057	0.14770637
238	0x3e48d578	0.19612682
239	0x3bf77b5b	0.007552547
240	0x3c59b1d7	0.013287029
241	0xbdc21891	-0.09477342
242	0x3c16e7b3	0.009210515
243	0xbd35dfd8	-0.044402927
244	0xbd95e7a9	-0.07319576
245	0xbcabe5df	-0.020983635
246	0x3d8e1eee	0.06939493
247	0xbd9243c8	-0.071418345
248	0x3d987684	0.0744448
249	0x3dc428cb	0.09578093
250	0x3e6362dc	0.2220568
251	0xbdb1cbde	-0.08681463
252	0x3df7fefe	0.12109183
253	0xbca63c39	-0.020292388
254	0xbd51b0c4	-0.051193967
255	0xbb6ccfe7	-0.0036134662

l2.bias f4 [100]
0	0x3d2b62c0	0.041842222
1	0xbe17bf55	-0.14819081
2	0x3e37203c	0.1788339
3	0x3d6a35a8	0.057180077
4	0xbe0ffde4	-0.14061695
5	0x3e6f7a5a	0.23386517
6	0x3d6f989e	0.058495156
7	0xbe341d9e	-0.17589423
8	0xbe298970	-0.16556334
9	0xbd21ee82	-0.0395341
10	0x3d07142d	0.032978225
11	0x3e6823fd	0.22669978
12	0x3d5fd88d	0.05464988
13	0x3da6a320	0.081365824
14	0x3dcea478	0.10089964
15	0x3e3b28f8	0.18277347
16	0xba974b73	-0.0011542871
17	0x3d4a249c	0.04935132
18	0x3e9e2f8d	0.30895653
19	0x3cd2d9cd	0.025738621
20	0x3e2953ce	0.16535875
21	0xbdee92bf	-0.11649083
22	0x3dd3a22f	0.103336684
23	0x3dd6772a	0.104719475
24	0xbdaeffa7	-0.085448556
25	0x3cebf41d	0.028802926
26	0xbd0c45a5	-0.034246106
27	0xbe22c9b9	-0.15897264
28	0x3d97fb84	0.0742102
29	0xbe1ba04a	-0.15197864
30	0xbcade7e2	-0.021228734
31	0xbd01d2ec	-0.03169529
32	0x3d053048	0.032516748
33	0xbc013bc9	-0.007887789
34	0xbe086467	-0.1331955
35	0x3d81b3be	0.06333111
36	0x3e3dd970	0.18539977
37	0xbc84f8a2	-0.016231839
38	0x3d7655fd	0.0601406
39	0xbd810ac2	-0.0630088
40	0xbceaa011	-0.028640779
41	0xbdbc9ca1	-0.09209562
42	0xbd4563a6	-0.048190735
43	0x3d7de165	0.06198253
44	0xbda7ee8c	-0.08199796
45	0xbd9bca92	-0.076069966
46	0x3c900e8e	0.017585065
47	0xbe061c9f	-0.13096856
48	0xbb175592	-0.0023091775
49	0x3d53db61	0.051722888
50	0x3c71f56d	0.014767987
51	0xbdb4a068	-0.088196576
52	0x3d9db18b	0.07699879
53	0x3dab35cb	0.083598696
54	0xbc32abee	-0.010905249
55	0x3c2b84b0	0.010468647
56	0xbdef5a1b	-0.11687108
57	0x3dee9e84	0.11651328
58	0xbd8e1038	-0.06936687
59	0x3e2044ed	0.15651293
60	0xbe3808fd	-0.17972179
61	0xbe566bf8	-0.20939624
62	0x3e286273	0.16443805
63	0x3e451848	0.19247544
64	0xbcb5bdb1	-0.022185178
65	0xbd490d7a	-0.049085118
66	0xbd21ba10	-0.039484084
67	0x3dd5a087	0.10431009
68	0x3dc587ec	0.09645066
69	0xbd7cfa37	-0.06176206
70	0xbe3adc7d	-0.18248172
71	0x3ccb068b	0.024783393
72	0x3da803ee	0.082038745
73	0xbd7c3212	-0.06157119
74	0x3d803e7e	0.062619194
75	0x3db4a1d4	0.08819929
76	0xbe5da49a	-0.21644822
77	0x3e35df93	0.17761068
78	0x3d13e0c0	0.03610301
79	0x3d20755c	0.039174423
80	0x3d848089	0.06469829
81	0xbd416b1c	-0.047221288
82	0x3cc50213	0.02404884
83	0x3e28a8e2	0.16470674
84	0xbd1d40b6	-0.03839179
85	0x3c9004ee	0.017580476
86	0xbd799256	-0.060930572
87	0x3ca75531	0.020426365
88	0xbc3cd3a9	-0.011525073
89	0x3d08addc	0.03336893
90	0xbe9cdc63	-0.30636892
91	0x3dc40f97	0.09573286
92	0xbc3cc7b0	-0.011522219
93	0xbdd67a45	-0.1047254
94	0xbd01b1d9	-0.03166375
95	0x3c08eea5	0.008357679
96	0xbe1de2cb	-0.15418546
97	0xbd996f6c	-0.07491955
98	0xbe4b4d1c	-0.19853634
99	0x3dcddf1f	0.100523226

l3.weight f4 [18, 100]
0	0x3c94f147	0.018181456
1	0xbdac72e6	-0.08420353
2	0x3c5e30a1	0.013561399
3	0x3e2baebb	0.16765873
4	0xbe164b4a	-0.14677158
5	0x3dd2c943	0.10292294
6	0xbdb5bc58	-0.08873814
7	0xbce8b7de	-0.028407987
8	0xbcbecaa5	-0.023289988
9	0xb94a676d	-0.0001930275
10	0x3cb8a190	0.022537977
11	0x3db95320	0.09049058
12	0x3d759bb6	0.05996295
13	0x3d2a5277	0.04158255
14	0xbdc63a13	-0.096790455
15	0x3e090fb3	0.13384895
16	0x3ccca9be	0.024983283
17	0xbc836143	-0.016037589
18	0xbda9a7e5	-0.082839765
19	0x3da1e2df	0.079046
20	0x3d8e835e	0.0695865
21	0x3d7cf630	0.06175822
22	0x3e3834cb	0.17988889
23	0xbd568338	-0.052371234
24	0xbe9e07d9	-0.30865362
25	0xbd0c2b03	-0.034220707
26	0xbd8797fb	-0.06620785
27	0xbe5c1540	-0.21492481
28	0x3dc89fb3	0.09796085
29	0x3dfd3ae1	0.12364746
30	0xbd75fa81	-0.060053352
31	0x3daed5d0	0.08536875
32	0x3e5126eb	0.20425002
33	0xbe719fa4	-0.23596054
34	0xbdbd59a7	-0.092456155
35	0xbe23dffa	-0.16003409
36	0x3e093c46	0.13401899
37	0x3dad1e08	0.08452994
38	0x3e556c4a	0.2084209
39	0xbd6204cb	-0.055180352
40	0x3cf2a022	0.029617373
41	0x3e26aa52	0.1627591
42	0xbcd81299	-0.026376056
43	0x3e55a98d	0.2086546
44	0xbd51e3ff	-0.051242825
45	0x3d83b1f3	0.064304255
46	0x3e5271a8	0.20551169
47	0x3d4ce075	0.050018746
48	0x3e202685	0.15639694
49	0xbe65c431	-0.22438122
50	0x3da77a8f	0.08177673
51	0xbe543b55	-0.20725758
52	0xbd338113	-0.043824267
53	0xbdeb4925	-0.114885606
54	0xbd73608d	-0.05941825
55	0xbe0a73ee	-0.13520786
56	0xbdaab1a2	-0.08334662
57	0xbd94d2db	-0.0726678
58	0xbe020c5f	-0.12700032
59	0xbd1f817e	-0.038941853
60	0x3e7af016	0.24505648
61	0x3e2e6322	0.17030004
62	0x3d5082da	0.05090604
63	0xbd48eb89	-0.04905275
64	0x3da84ee3	0.082181714
65	0xbdf0a088	-0.11749369
66	0x3e5a9274	0.2134493
67	0x3dfc3d5e	0.12316392
68	0xbd9621b4	-0.07330647
69	0x3e3e5efe	0.18590924
70	0xbe68c80f	-0.22732566
71	0x3db6d43d	0.089272
72	0x3d567475	0.052357156
73	0x3e335629	0.17513336
74	0x3d2690c6	0.04066541
75	0xbe110503	-0.14162068
76	0x3e1b3012	0.15155056
77	0x3c5ef204	0.013607506
78	0xbeb8bcf3	-0.36081657
79	0xbdc6ca78	-0.097065866
80	0x3e5895a1	0.21150829
81	0xbe0d4c7a	-0.13798705
82	0x3dd24675	0.10267345
83	0x3d4a1598	0.049337
84	0xbe1a8f53	-0.15093736
85	0x3de62550	0.112375855
86	0xbe75acb2	-0.2399166
87	0xbe25b3b7	-0.16181837
88	0xbd8e2f6d	-0.069426395
89	0xbe45e1ac	-0.19324368
90	0x3e44db7e	0.19224355
91	0x3db25871	0.08708275
92	0x3d868b66	0.06569557
93	0x3e017793	0.1264327
94	0x3d26c9db	0.040719848
95	0xbd6c13cc	-0.057636067
96	0x3cf8cd6c	0.03037139
97	0x3bca9b5a	0.00618307
98	0xbb40f3c2	-0.0029442166
99	0xbe436f90	-0.19085526
100	0xbc3b4503	-0.011430028
101	0xbe0fcec5	-0.1404372
102	0x3da6bc9a	0.08141442
103	0x3d44cf1f	0.04804909
104	0x3daf672e	0.08564602
105	0x3be4f829	0.006987591
106	0x3e0d0cb2	0.13774374
107	0xbe9758e3	-0.29560003
108	0xbe5d340b	-0.21601884
109	0x3d3b659d	0.045751203
110	0xbcb1a921	-0.021687092
111	0x3d07a42f	0.033115562
112	0x3e1d603a	0.15368739
113	0x3d716c5d	0.058941234
114	0x3eb9894e	0.36237568
115	0xbce3512b	-0.027748665
116	0xbdd671aa	-0.104708984
117	0xbd705953	-0.058678936
118	0x3e02f066	0.12787017
119	0xbdcbdeb1	-0.099545844
120	0x3dbc0b79	0.09181876
121	0x3d5ba698	0.053625673
122	0x3dea127e	0.11429308
123	0xbd3e0c93	-0.04639871
124	0xbe38ba09	-0.18039717
125	0x3e13f26d	0.14447947
126	0xbd98cc63	-0.07460859
127	0x3dda7b10	0.106680036
128	0xbe13838f	-0.14405654
129	0xbd38789a	-0.04503689
130	0x3dee4c0a	0.11635597
131	0xbd202882	-0.03910113
132	0x3db8ca64	0.09022978
133	0x3dc242d4	0.09485403
134	0x3d660e2b	0.056165855
135	0x3dbcd7ba	0.09220834
136	0xbc8c8eea	-0.01715799
137	0x3d452780	0.048133373
138	0xbd8655d0	-0.06559336
139	0x3e0c556b	0.1370446
140	0xbd41c0f0	-0.04730314
141	0xbe02008e	-0.12695524
142	0xbdde5587	-0.10856157
143	0x3ea0e2ab	0.31422934
144	0x3d8252eb	0.063634716
145	0x3d781105	0.060563106
146	0x3c3aa238	0.011391215
147	0x3d839c67	0.06426316
148	0x3d405e25	0.046964783
149	0xbe0240c0	-0.12720013
150	0x3e0b85b9	0.1362523
151	0xbde8e12c	-0.11371073
152	0x3e8f14b5	0.27945486
153	0x3d84619f	0.06463932
154	0x3eae464b	0.34038004
155	0xbd1c7f4d	-0.03820734
156	0xbe3a2e6e	-0.18181774
157	0x3d061654	0.032736138
158	0x3d324049	0.04351834
159	0x3e29bec4	0.16576678
160	0xbd707e8a	-0.058714427
161	0x3d23cbe4	0.039989367
162	0x3e30a784	0.17251402
163	0xbe55f60f	-0.20894645
164	0x3d7d4aef	0.06183904
165	0x3df49cac	0.11943945
166	0xbda87842	-0.08226062
167	0xbe2ddcd8	-0.16978776
168	0x3e9360dd	0.28784838
169	0x3d84ee75	0.064907946
170	0xbdf7e6cf	-0.1210457
171	0x3dd11133	0.102083586
172	0x3e1e5add	0.15464349
173	0xbc143f24	-0.009048257
174	0x3de1afc1	0.110198505
175	0x3d821966	0.063525006
176	0xbe8e8352	-0.27834564
177	0xbe0cb9a1	-0.13742687
178	0xbd00b84c	-0.03142576
179	0x3d84b375	0.06479541
180	0xbcf84038	-0.03030406
181	0x3e6095e1	0.21932174
182	0xbdd2f541	-0.10300685
183	0x3e3035de	0.17208049
184	0x3d58ab8b	0.05289797
185	0x3ddd8d2c	0.10817942
186	0xbe02289a	-0.12710801
187	0x3cb95812	0.022625003
188	0x3dedc2e2	0.116094366
189	0xbd9a5602	-0.07535936
190	0xbe044691	-0.12917544
191	0x3d4890ef	0.048966344
192	0xbc9df273	-0.019280648
193	0x3d27a349	0.040927205
194	0xbdb418da	-0.087938026
195	0xbe4a9bf5	-0.19786055
196	0x3c155637	0.0091147935
197	0xbe3fa80e	-0.18716452
198	0xbe0c760c	-0.13716906
199	0x3e50dbf8	0.20396411
200	0xbe5a7cc4	-0.21336657
201	0x3db0e027	0.08636504
202	0x3e1e1c32	0.15440443
203	0xbd4b2a24	-0.049600735
204	0xbd2894e2	-0.04115761
205	0x3e7bc2d0	0.24586034
206	0xb993ca37	-0.00028188687
207	0xbcb4eced	-0.022085631
208	0x3e5d7262	0.21625665
209	0x3d1d5a14	0.038415983
210	0xbd6d17c3	-0.05788399
211	0xbd127c45	-0.035763044
212	0x3dd01918	0.10161036
213	0xbde1b686	-0.11021142
214	0xbb25d650	-0.0025304742
215	0xbd277f00	-0.0408926
216	0x3db676fc	0.08909413
217	0x3de6d6ac	0.11271414
218	0x3e3fa775	0.18716224
219	0xbd0816e2	-0.033224948
220	0xbbd4a714	-0.006489644
221	0x3dceb784	0.100935966
222	0x3e448ba5	0.19193895
223	0xbd18fedf	-0.03735244
224	0xbda62004	-0.08111575
225	0x3e09e078	0.13464534
226	0xbd048a5a	-0.032358505
227	0x3da7832a	0.081793144
228	0xbdb1d48c	-0.08683118
229	0x3cb51409	0.02210428
230	0xbdc83470	-0.09775627
231	0x3cc81fcc	0.024429224
232	0xbe2026dc	-0.15639824
233	0xbe325745	-0.17416103
234	0x3de45918	0.11149806
235	0xbd2534c2	-0.040333517
236	0x3c12fc3f	0.008971273
237	0x3dc9d468	0.098549664
238	0xbb8ebf3b	-0.0043562925
239	0xbdedd393	-0.1161262
240	0x3ddf72af	0.10910546
241	0x3e2e6c43	0.17033486
242	0xbd05d996	-0.03267821
243	0xbde287dc	-0.11061069
244	0xbbf53be0	-0.0074839443
245	0xbcde9860	-0.027172267
246	0xbe0d3763	-0.1379066
247	0xbd89b423	-0.067238115
248	0xbd838744	-0.06422284
249	0x3c683902	0.014173748
250	0xbde22aac	-0.11043295
251	0x3d9541b9	0.07287926
252	0x3c7804f5	0.015137901
253	0xbe5d2b21	-0.21598484
254	0xbe1f8e4c	-0.15581626
255	0x3d616fd0	0.055038273

l3.bias f4 [18]
0	0x3e8b274b	0.27178416
1	0xbf006e36	-0.5016817
2	0xbce1cefe	-0.027564522
3	0x3f2b323c	0.66873527
4	0xbe145379	-0.14484967
5	0xbeb84b30	-0.35994864
6	0x3e2a5c84	0.16636854
7	0xbed4d15e	-0.41565984
8	0x3e63f907	0.22262965
9	0x3e9f196e	0.3107409
10	0x3e83c43b	0.2573565
11	0x3d383124	0.04496874
12	0x3ead9154	0.3389994
13	0xbee57e84	-0.44823086
14	0x3eaea061	0.34106734
15	0x3e61baff	0.2204399
16	0xbd6f1e6a	-0.058378614
17	0xbbd02ef9	-0.006353256
